data/models/stgcn_v2_trained.pt (torch, 34645 bytes, 10 tensors)

lstm.weight_ih_l0 f4 [128, 7]
000000 3e f2 80 bd b3 b2 10 3d 85 41 d3 3d 72 f7 4b bd
       -0.06296204 0.03532667 0.10315231 -0.04979653
000010 a7 60 af bd 73 24 5a be 21 ca 1c bb 1c 93 b8 bd
       -0.08563357 -0.21302967 -0.002392419 -0.09012434
000020 8f a9 a2 3d f9 f3 52 3d d3 82 16 3d ff d6 23 3c
       0.07942497 0.0515022 0.036745857 0.0099999895
000030 2e f0 6b bd 2e b4 fd 3c 7b 69 fb bd 68 b6 ec bd
       -0.0576021 0.030969705 -0.12275978 -0.11558229
000040 56 8d f6 3d 8b 72 86 bd a7 5b de 3d 02 bd a0 bd
       0.120386764 -0.06564816 0.10857325 -0.078485504
000050 60 ba 10 3d e1 9d 79 bd 70 c6 fe 3c f2 9f 7c bd
       0.03533399 -0.06094158 0.031100482 -0.061675973
000060 9b 50 f3 bd 8f 47 9e 3d 54 d2 9a bb 96 3a ee 3c
       -0.11880609 0.077284925 -0.00472478 0.02908067
000070 06 ac 9b 3c 58 3f 25 be 49 12 05 be b2 e1 af 38
       0.019002926 -0.16137445 -0.12995256 8.386689e-05
000080 1f 62 e7 bc db 56 87 bd aa 9a 6e bc 22 21 b8 3c
       -0.02824503 -0.06608363 -0.014563242 0.022476736
000090 a6 8e 6b bb f2 33 ab 3d a6 0d 57 3d c1 f0 26 3d
       -0.003594318 0.08359517 0.05250325 0.040756945
0000a0 7b 4b 44 be 52 c9 a1 3c f0 d3 35 bd dd c0 15 3e
       -0.19169419 0.019749317 -0.044391572 0.14624353
0000b0 f9 e3 35 bd 17 1a b7 bc c5 fd f7 bc 18 a4 03 3e
       -0.044406865 -0.022351308 -0.030272374 0.12855566
0000c0 14 0f 89 3b 0a 99 0c 3d 3f 6a 9c bc b7 a2 13 be
       0.0041827057 0.034325637 -0.01909363 -0.1441754
0000d0 ab 28 08 be 57 20 27 be ae e5 2e 3d cf 6b 18 3d
       -0.13296764 -0.1632093 0.04269951 0.03721219
0000e0 71 46 03 be e5 46 20 be fa e1 e5 bc d3 b3 3d 3d
       -0.1281984 -0.15652044 -0.028061856 0.046314072
0000f0 36 ba f1 bd 9e 83 ba 39 d2 23 a9 3c 2b 5d 34 bc
       -0.11803095 0.00035574747 0.020646963 -0.011008541
000100 6a b1 66 3c 96 d4 62 bd 17 04 1d be 2e 31 5d be
       0.014080385 -0.05537852 -0.15333591 -0.21600792
000110 df b3 8d 3d d1 1d 56 bd df fa 46 3d 96 c6 b8 3d
       0.06919073 -0.05227453 0.048579093 0.09022252
000120 32 2a 29 3e cb 9a 8a 3d 85 12 d9 3d f7 9e 01 bd
       0.16520002 0.06767806 0.105992354 -0.03164574
000130 fc 62 d9 ba 73 e1 8c 3c 05 8d b1 bd c9 23 cb bd
       -0.0016585286 0.017197346 -0.086694755 -0.09918935
000140 88 f4 d4 3d 75 74 3b bc a3 5c 0c 3d 09 85 c9 bc
       0.10398203 -0.01144134 0.034268033 -0.024599569
000150 4f 83 32 be 6e dc 1a bd a6 80 25 bc 9c 79 e8 bd
       -0.17432903 -0.037807874 -0.010101473 -0.1135132
000160 1f 34 32 be 53 f1 c5 3d fe 9e 75 3d 3f ab 9a bd
       -0.17402695 0.096651696 0.05996608 -0.07552194
000170 ef e2 43 be 62 38 0d bd 92 e4 1d 3c db fd 0f bd
       -0.19129537 -0.0344776 0.009637015 -0.035154205
000180 f8 81 ef bc d7 f0 b8 3a ea ca e3 3c 85 1c 5a 3d
       -0.029236779 0.0014109862 0.027806718 0.053249855
000190 85 72 38 3d 2d 23 b6 3c d0 b6 16 3e 94 a1 eb bc
       0.04503109 0.02223357 0.14718175 -0.02876357
0001a0 24 c4 e6 b8 49 95 8b bd cb eb dc bd 1c 74 66 bd
       -0.00011003789 -0.06815583 -0.107871614 -0.056263074
0001b0 71 4e db bd 03 c0 b7 bd 30 07 5b be 40 ec d8 3c
       -0.10708321 -0.0897217 -0.2138946 0.02647984
0001c0 36 c1 39 3d 9a 43 f9 bd 15 3d 20 3e 3f ee 76 bd
       0.045350276 -0.12171097 0.15648301 -0.060285803
0001d0 01 b1 2b bd 5f 73 b0 bc c9 00 2b 3c 16 d9 a6 3d
       -0.04191685 -0.021539388 0.010437199 0.081468746
0001e0 13 0d ff bc d8 df 2f be 87 97 00 bc 92 b2 da 3d
       -0.031134164 -0.17175233 -0.007848627 0.10678591
0001f0 ac 31 82 3d f5 12 09 bb 6c fc 3f bd 0b 71 02 bd
       0.063571304 -0.002091584 -0.046871588 -0.031846087
000200 f5 8a 5e bd be 78 ab 3b d3 c1 e4 3c ff 63 47 3c
       -0.05433174 0.0052328994 0.027924454 0.012169837
000210 67 98 38 3b 88 18 d9 3c ee 9b 02 be 06 84 a2 3d
       0.002816701 0.026500955 -0.12754795 0.07935338
000220 80 01 5c bd dc 78 a1 39 dd dc d3 3c fe 2b d0 3a
       -0.053712368 0.0003079836 0.025862152 0.0015882251
000230 5b cc 0a bd eb b1 83 3d 9c d3 26 3d 80 5e 20 bc
       -0.033886295 0.064304195 0.04072915 -0.009788156
000240 62 cd 00 3e ab 85 00 3e 63 9c b6 3c 0d 0e d7 bd
       0.12578347 0.1255099 0.022291368 -0.10500727
000250 3d 79 af 3d ae 92 ae 3d d0 6d fb bd fa 54 73 bd
       0.08568046 0.08524071 -0.122768044 -0.05940721
000260 30 e8 ee bd 0f 81 da bc 42 4c d7 bd 8d 4f 7e 3d
       -0.1166538 -0.026672868 -0.10512592 0.062087584
000270 23 ee 3f 3d 03 92 b2 bd 2f 6e 52 bc cf 6c e8 bd
       0.046857964 -0.08719256 -0.012843653 -0.113488786
000280 4a f3 b2 3a ca 7a 59 bd de 0f a0 bd 3a a9 2a bd
       0.0013652828 -0.053095616 -0.078155264 -0.041665293
000290 66 a4 a0 3d 3e 6e 06 be f2 7d c7 3d 7d db df 3c
       0.078438565 -0.13127992 0.09740819 0.02732634
0002a0 97 ce 96 3c 1c fa 2b be 9f 87 9d bc 65 29 97 3c
       0.018409057 -0.16794628 -0.019229708 0.018452356
0002b0 79 fd 1d be c8 8a 51 3c 44 6d f6 3a 95 cf bd 3c
       -0.15428723 0.012789436 0.0018800874 0.023170272
0002c0 54 2f 14 be ca 9c 0a be a8 07 33 3d 65 67 ea bd
       -0.14471179 -0.13536373 0.043708473 -0.11445502
0002d0 ea 3a 12 3d 40 53 27 3b b8 2d c6 3c 7a 15 e7 3d
       0.035700716 0.0025531799 0.024191722 0.11283393
0002e0 f4 ea 2a 3e 9c f7 15 bd 88 a7 07 3d b8 e1 03 be
       0.1669119 -0.03661309 0.033118755 -0.12879074
0002f0 dd 26 8a bc db 56 99 bc aa a9 da 3c 33 19 a6 bd
       -0.016864235 -0.018718174 0.02669223 -0.08110275
000300 92 ac 8c bd 66 1a a2 bd cc 8a 86 bd 0c cb bb 3c
       -0.06868853 -0.07915191 -0.06569442 0.022923969
000310 f9 35 1e be ba 43 ef bc a5 da 2f be ab 7e ba 3d
       -0.15450276 -0.0292071 -0.1717325 0.09106191
000320 c6 ff 39 3d b5 aa 8d bd 4d 10 02 3d ef 24 bf 3d
       0.04540994 -0.069173254 0.031753827 0.093332164
000330 18 27 b6 3d 1f 0c 2f be 59 99 d6 bd ca c5 8c bc
       0.08894175 -0.17094468 -0.104784675 -0.017184157
000340 37 9c d7 bd b8 74 2d 3d c0 46 b7 bc 31 98 aa bc
       -0.105278425 0.04234764 -0.022372603 -0.020824524
000350 07 45 aa ba 5b 89 57 bc a9 f2 0c be 73 6c 18 ba
       -0.0012990542 -0.013155307 -0.13764443 -0.00058145
000360 9f 72 6a 3b a3 31 36 bd 3f 7a 56 be 36 c5 39 3d
       0.0035773886 -0.04448093 -0.2094507 0.04535409
000370 fd d1 a0 3c 30 62 19 be 07 3e 02 be 1b c1 1b 3b
       0.01963138 -0.14978862 -0.12718974 0.0023766223
000380 4a 97 80 bc e3 d6 75 b9 25 52 e3 bc 28 51 76 bd
       -0.01569714 -0.00023445072 -0.02774913 -0.06013599
000390 7b 17 3c 3d da 0c 08 be 5b 7d c3 3c 09 0e 2d bd
       0.04592083 -0.13286152 0.023863485 -0.042249713
0003a0 b1 50 c2 3d 9a 30 9b bb 43 60 80 3d 3b 55 b7 3d
       0.09488047 -0.0047360184 0.062683605 0.08951803
0003b0 35 c2 0c be dc 55 0c 3d 2a 56 24 be e3 1e 21 be
       -0.13745959 0.03426157 -0.16048494 -0.15734439
0003c0 2f 48 3a be b8 2d b9 bd 0a 56 b2 3b d1 56 22 bd
       -0.18191598 -0.09041923 0.0054423856 -0.039633576
0003d0 d4 7c b1 3a a2 1c 1c be b8 3c 81 bd 12 d5 35 bd
       0.001354123 -0.15245298 -0.06310409 -0.044392653
0003e0 db 04 90 bd 06 ad df 3d 1f 1c 1a be fb e3 93 3d
       -0.07032176 0.109216735 -0.1504979 0.07221218
0003f0 2d aa 49 bb 89 f6 8e bd 65 a0 cb bc 33 af 85 3d
       -0.0030771599 -0.069806166 -0.024856756 0.06527557

lstm.weight_hh_l0 f4 [128, 32]
000000 6b 47 27 3d 5b a5 09 bd 78 10 95 3d e1 ed 1a be
       0.040839594 -0.03360496 0.07278532 -0.15129806
000010 b6 87 c3 bd cb bb b6 3c 87 64 c1 3c 81 b6 8b 3d
       -0.09547369 0.022306344 0.023607505 0.06821919
000020 a0 5e 00 be f6 7b ed bd e6 47 f4 3c d3 23 aa bc
       -0.12536097 -0.11595909 0.02981944 -0.020769035
000030 9e 88 25 bd 7b 66 c1 3c fb 6c de 3c de 3b de bd
       -0.04041349 0.023608437 0.027151575 -0.108512625
000040 8c 85 25 3e a6 1c 5f 3d 24 26 32 bd 7e 2c fc bd
       0.16164225 0.05447068 -0.043493405 -0.12313174
000050 ed 2e f0 3c 01 b5 de 3d 09 f5 32 bd 8f 63 18 bd
       0.029319251 0.108743675 -0.043690715 -0.03720432
000060 3f 2e b6 bc a7 a1 86 3d ca 96 59 3c bd a5 89 bd
       -0.022238849 0.065738015 0.01328058 -0.06721065
000070 6c f2 b8 bc dd fd a6 3d f6 c2 34 3d 8e d0 3e 3e
       -0.022576533 0.08153889 0.04413124 0.18634245
000080 c8 b2 cc bd 8b f2 b6 bd 18 06 b7 3d b7 f3 be bc
       -0.09995037 -0.0893298 0.08936709 -0.023309572
000090 75 b7 ef 3d c2 0d 24 be 81 ca f1 3c b0 ba cd bd
       0.117049135 -0.16020873 0.029515507 -0.100453734
0000a0 93 de 77 bd 19 7a e3 bd fd 5b 9d 3d e6 19 04 3e
       -0.060514998 -0.11107273 0.07683561 0.12900504
0000b0 f3 19 4c 3b ee a6 b8 3c ac 64 2c bd 4c 03 bf 3d
       0.0031143397 0.022540536 -0.042088196 0.09326801
0000c0 51 13 b9 bc fa 38 18 bd 51 d2 8e 3d e7 a4 e1 3c
       -0.022592219 -0.037163712 0.069737084 0.027544452
0000d0 3b a1 d5 3d 0c fa 4d 3e 05 78 d5 bd 54 89 c1 bd
       0.10431143 0.20114917 -0.104232825 -0.094500214
0000e0 d8 7a ba 3d 51 8f 0e 3e ca 23 2f bd 91 98 aa bc
       0.09105462 0.13921858 -0.04275874 -0.020824702
0000f0 37 c1 52 be dd 3e 5b 3d 17 69 97 bd 07 41 89 bd
       -0.20581518 0.053526748 -0.07393091 -0.06701856
000100 e7 9a 42 3e 97 79 ad bd 4c 0a 0d 3c 21 4e bb 3c
       0.19004403 -0.08470457 0.008608412 0.022864403
000110 bf 20 2f be 3c 10 cb 3d 8f a2 00 be bb 34 5d 3e
       -0.17102335 0.09915206 -0.12562011 0.21602146
000120 88 35 20 3d d6 4a 0e bd 4c bf e3 3d ad 00 12 3e
       0.03911355 -0.034739338 0.11120471 0.1425807
000130 b6 26 99 3d 22 1e f3 3d c7 6d 8f bd b5 c5 d0 bd
       0.07478087 0.11870982 -0.0700336 -0.101939596
000140 80 5d bf bc b4 7a aa 3d 02 93 03 be 18 80 78 3d
       -0.023360014 0.08324185 -0.12849048 0.060669035
000150 4b 80 81 bd c1 99 1f 3e 29 42 41 3e 4e 60 2f bc
       -0.06323298 0.15585996 0.18872894 -0.010704113
000160 7c 86 52 3d f6 5c 57 bb 55 78 2b 3c 80 6b 23 bd
       0.051397786 -0.0032861806 0.010465701 -0.039897442
000170 6a aa 53 3d 8b 04 28 3e 9a 7d 45 3e ce 25 46 3e
       0.05167619 0.16407983 0.19286194 0.19350359
000180 11 ca 3c 3b c8 18 bd 3d 21 25 74 3d cc 81 b2 3d
       0.0028806964 0.09233242 0.05960572 0.08716163
000190 74 55 fe 3d 2b b7 00 be 4d 18 83 3d ae c7 5e 3e
       0.12418643 -0.12569873 0.064011194 0.2175586
0001a0 46 a9 09 be e3 08 b1 3d 25 a9 f3 3c b9 e1 96 bd
       -0.13443479 0.08644273 0.02974374 -0.07367272
0001b0 58 4f 90 3d 4b 0b 17 be f9 a8 ff 3d 84 4a af bb
       0.070463836 -0.14750402 0.12483401 -0.005349459
0001c0 62 0d e6 bc c5 a0 d1 bc 0f 93 4e be 01 18 2b 3e
       -0.028082553 -0.025589356 -0.20173286 0.16708376
0001d0 4b 78 ca 3d 35 ba f2 3c 2a 74 5c 3e 7d b9 01 3e
       0.09886225 0.029629806 0.21528688 0.12668414
0001e0 22 0c da bd 2a 03 fb 3b 84 32 51 3d 32 3b 2e 3e
       -0.106468454 0.0076602893 0.051073566 0.17014769
0001f0 c4 c4 21 3d 96 0a 2c 3e 73 d3 99 bb b0 bc db bb
       0.03949429 0.16800913 -0.004694396 -0.006705843
000200 cc 50 14 be 3e 76 d6 bd fe b9 cc 3d 72 4d 21 bc
       -0.14483947 -0.10471772 0.09996413 -0.009845125
000210 06 e4 fc bd fb 0d ac 3d d3 15 1a be 40 3e 05 3e
       -0.123481795 0.08401104 -0.15047388 0.13012028
000220 24 f5 0a be 77 17 82 bd 46 7e 51 bd a2 37 0d 3d
       -0.13570076 -0.06352132 -0.051145814 0.034476884
000230 a9 a4 77 3d 9a 5a 03 bd 0c 86 ce 3d 4b 5b 7c 3d
       0.060459767 -0.032068826 0.10084161 0.0616105
000240 9b 0e 1a be b3 d1 97 3d cf 61 31 3d b3 3d a1 bd
       -0.15044634 0.07413044 0.04330617 -0.07873096
000250 03 b3 43 3d d2 dc 9b 3d 62 be 7f bd ad 66 a9 3c
       0.04777814 0.076104775 -0.062437423 0.020678842
000260 1e 49 a9 3c 39 95 08 3d 5d 2e 34 be 8e f0 1e 3b
       0.020664748 0.033345435 -0.17595811 0.0024252268
000270 10 5a 20 bd b5 93 12 be c3 43 b3 3d 3b 03 b4 bc
       -0.03914839 -0.14314158 0.08753159 -0.021974197
000280 d3 dc 41 3d eb 21 5c 3d 83 5f 7c bd d7 7b 3a be
       0.047329735 0.053743284 -0.061614525 -0.18211304
000290 18 03 a8 3d 86 e1 cc 3d 56 4e 8b 3d 8f a5 b3 3d
       0.08203715 0.10003953 0.06802051 0.08771812
0002a0 4a ca 55 be a4 3b fb 3c ab 6b 23 3d ec 0f 7f 3d
       -0.20877948 0.030668087 0.039897602 0.062271044
0002b0 da ec c1 bc e7 6f 67 3d a2 2d b9 3d 7e 39 4d bd
       -0.02367251 0.056503203 0.09041907 -0.050103657
0002c0 72 e6 35 bd a5 5f 31 be ef 64 b3 bb 46 79 5e 3b
       -0.044409223 -0.17321642 -0.0054746787 0.0033946796
0002d0 fb ba 90 3b ee c4 9d 3d 6e d6 eb 3d 2f 83 6d 3c
       0.004416821 0.07703577 0.115155086 0.014496609
0002e0 80 c8 f1 3c 60 e1 56 bd 31 06 2f 3c 53 47 84 3c
       0.029514551 -0.052461028 0.0106826285 0.016147291
0002f0 39 48 b3 bb 3a 51 07 3e 0e 6c d7 3d d3 d2 a6 3d
       -0.005471256 0.13214579 0.10518657 0.0814568
000300 8b 97 86 3d 3b a9 f2 bd a8 88 06 bb 85 2a 82 bd
       0.06571873 -0.118486844 -0.002052823 -0.06355766
000310 0a f1 ec 3d 48 59 0a 3e 90 6c b6 bd de 7d f0 3d
       0.11569412 0.1351062 -0.089074254 0.11742757
000320 11 73 cc bd 52 23 4a bb d0 74 90 bd 55 17 8f 3d
       -0.09982885 -0.0030843806 -0.0705353 0.06986872
000330 85 85 05 3e 19 ed b0 3d 8c 9b 04 3e 95 10 28 3d
       0.13039215 0.08638973 0.12949961 0.04103144
000340 f2 39 c5 3d e0 98 3c bd 8c 73 d3 bd b6 58 af 3d
       0.09630193 -0.04604423 -0.10324773 0.08561842
000350 87 6b 0c be 05 17 9d 3d 6d 42 25 3e 5e ee 13 3d
       -0.13712893 0.07670406 0.1613862 0.036115997
000360 e4 a2 f5 bd 26 2c 6f 3d fa a2 16 3e 7d 9a d7 bd
       -0.119939595 0.058391713 0.14710608 -0.10527513
000370 33 5a c8 bd 97 bc f8 bd 60 51 f0 3d 2d 07 ab bd
       -0.09782829 -0.12145346 0.11734271 -0.08350978
000380 b4 ac 30 3e c8 1d 53 3d 1e 41 58 bd e2 dd c1 bd
       0.17253381 0.051542073 -0.052796476 -0.09466149
000390 a9 a8 d8 bd 79 02 aa 3c 18 2a 84 3c 4f e3 18 3e
       -0.10579044 0.020753132 0.016133353 0.14930461
0003a0 9a 5a 33 bc fa 44 9a bd ce c5 d7 3d f5 25 09 be
       -0.010946894 -0.075326875 0.10535775 -0.13393386
0003b0 16 b6 94 bd 3b 7f 8b bd 78 64 e8 3b f3 fe 35 3e
       -0.07261293 -0.06811377 0.007092055 0.17773037
0003c0 d9 43 77 bd 11 19 3a be 84 a2 28 be a9 33 96 3d
       -0.06036744 -0.18173625 -0.16468245 0.07334072
0003d0 d1 77 d1 3c f7 54 25 3e 5b de a3 bd 4b 27 cd bc
       0.025569828 0.16145693 -0.08001395 -0.02504315
0003e0 be 24 e4 bd 7c 38 df 3d 08 b3 b8 3c 9a f8 0e 3e
       -0.111398205 0.108994454 0.022546306 0.13962021
0003f0 55 16 55 be 6f 3c a1 3d 9b f7 30 3d 3b 96 14 3e
       -0.208093 0.07872855 0.043204885 0.14510433

lstm.bias_ih_l0 f4 [128]
000000 4e 5a 08 3e 7b 0d bc 3d e0 fb 8a 3d b8 24 ab bd
       0.13315699 0.09182259 0.067863226 -0.08356613
000010 d0 1a f1 3d 9a 0f 48 3e b0 af c6 bd 65 ec 09 be
       0.11772692 0.19537202 -0.097014785 -0.13469084
000020 2a d4 13 3e a4 65 e4 bc 2b ad 00 3e 9c 37 8e 3c
       0.14436403 -0.027880497 0.12566058 0.017360501
000030 cb 73 90 bc 82 1c c3 3d e3 7c 96 3d 3b 69 53 3e
       -0.01763334 0.09526922 0.07348039 0.20645611
000040 57 3c b1 3c 3d 3f ad 3d aa d0 eb bb 67 a1 2f bd
       0.021635218 0.08459327 -0.0071965056 -0.042878535
000050 b7 6d 8f bd a1 2a ef bd 9a bd b2 bd a2 e6 1d 3e
       -0.07003348 -0.11678053 -0.0872757 0.1542001
000060 85 2b 73 bc 8c d2 52 3e 59 ad 3f bd 3c 2f 9d 3b
       -0.014841919 0.2058813 -0.046796177 0.0047968905
000070 92 f1 48 3e 43 2c ba bd ce 2c 50 3d e4 9a 28 3e
       0.19623402 -0.090904735 0.05082398 0.16465336
000080 be 10 17 3e 98 e6 c9 3d 3d 27 5c 3e 8b c4 61 3e
       0.1475248 0.098584354 0.21499343 0.22047631
000090 d1 00 d2 3d e8 e3 dd bd 58 14 28 3e 1d 5d 4a 3e
       0.10254062 -0.10834485 0.1641401 0.19762082
0000a0 d3 30 80 bd ac 37 00 be 02 11 0a 3d 10 44 00 bd
       -0.062593125 -0.12521237 0.033707626 -0.03131491
0000b0 0a ec a9 bd e1 65 ed bc 22 91 2d 3d fc d4 3a 3e
       -0.08296974 -0.028979244 0.042374738 0.1824531
0000c0 e6 92 c7 bd 8f e4 95 bb 1e e6 f5 3c cf b6 91 bd
       -0.097448155 -0.0045743654 0.030016955 -0.07114946
0000d0 5a 03 1e 3e 7b cd cf 3d 19 8f df 3d a9 33 90 3d
       0.15430966 0.10146614 0.109159656 0.070411034
0000e0 6f c8 55 3c 2f 4a 7a 3d 84 e8 4c bb 01 d4 16 3e
       0.013048275 0.061105903 -0.003126652 0.1472931
0000f0 a4 e7 ea 3d fc 58 de bd 73 4f be 3d 1b e2 89 3d
       0.11469963 -0.10856816 0.092924975 0.06732579
000100 3a 6b f2 3c 38 0b e9 bc 30 fa ff 3d 62 a7 b5 bc
       0.029592145 -0.028447732 0.12498891 -0.02217454
000110 89 69 a4 bd 56 af 48 be 80 80 7a 3d e9 d9 09 be
       -0.08027942 -0.19598135 0.061157703 -0.13462032
000120 fe cc 69 bc 2a d5 1f bd 59 ac 4b bd 0b 51 11 be
       -0.014270065 -0.03902165 -0.04972491 -0.14191072
000130 19 f6 01 3e 9a 54 7b 3c 87 66 dd 3d db d0 24 bd
       0.12691535 0.015339995 0.10810571 -0.040238243
000140 39 1d e5 3d cd 61 e2 3d 4e ae df 3c 5d d8 1e be
       0.111872144 0.1105381 0.027304795 -0.15512224
000150 db 3e 1e be 91 af 8c bd 60 de 2a 3e ba b3 3c 3e
       -0.15453665 -0.06869424 0.16686392 0.18427935
000160 88 0d 2e be 01 65 3b 3d 22 8a ae bd 30 36 1e 3e
       -0.1699735 0.04575062 -0.085224405 0.15450358
000170 9d 83 7d bd 68 1c 56 3d 4b 81 11 3e 91 71 9d bd
       -0.061893094 0.052273184 0.14209478 -0.07687677
000180 45 e2 53 3e 67 14 8b 3d 12 a1 b9 bd d7 96 53 3e
       0.20691784 0.06791001 -0.09063925 0.2066301
000190 30 9a 17 3e 80 30 18 be 1d c0 02 3e a2 c7 87 3d
       0.14804912 -0.14862251 0.12768598 0.06629874
0001a0 77 42 a7 3d 98 27 0e 3e ca bb 97 3d e9 64 09 3e
       0.08166974 0.13882291 0.07408865 0.134174
0001b0 75 69 a5 bd ad ca 16 bc d8 1c fe 3c ab 72 c1 3d
       -0.08076755 -0.009203595 0.031019613 0.09445699
0001c0 8a ac 56 3d 77 b7 ef bd f5 f6 dd bd ac f2 6b bc
       0.05241064 -0.11704915 -0.10838119 -0.014401119
0001d0 a9 12 67 3d 4e 0b bc bd 7e 04 0a 3e 85 69 40 3b
       0.05641428 -0.09181844 0.13478276 0.002935977
0001e0 fd e0 b3 3c 10 5e 0a be fb 0b 3d bd d1 bb 59 3c
       0.021957869 -0.13512444 -0.046154004 0.013289408
0001f0 41 ff d6 bd 26 89 a9 bd 6a c6 31 be 4a 46 9c bd
       -0.104979046 -0.08278112 -0.17360845 -0.07630594

lstm.bias_hh_l0 f4 [128]
000000 4f fb 70 3c fa 27 2b 3c 93 fa 04 3d 81 89 49 3d
       0.014708354 0.010446543 0.03246553 0.0492034
000010 d7 99 2e be 87 00 c1 3d 07 a7 54 3d 40 1e 13 3e
       -0.17050873 0.09423929 0.051917102 0.14367008
000020 3f 64 ad bd fa 76 3f 3e c2 36 b6 bd 8c 01 ee bc
       -0.08466386 0.1869773 -0.08897163 -0.029053472
000030 b8 37 b4 3d 4d 44 b5 3c 77 c9 1b 3d db d7 bb 3d
       0.0879969 0.022127295 0.03803393 0.091720305
000040 00 87 60 bd 7e 62 10 bd 16 93 ca bd cd 10 43 3e
       -0.054816246 -0.03525018 -0.09891336 0.19049378
000050 73 7c e3 bd 0d 45 5b 3d 68 a6 32 bd 45 35 d6 3c
       -0.11107721 0.05353265 -0.04361573 0.026148448
000060 b9 f8 17 3c e7 59 1b 3e a9 b3 39 be da 3c ac 3d
       0.009275609 0.15171014 -0.18134941 0.08410044
000070 fb 31 e1 bd 7d 9f 16 bd 45 f9 1f be 0c 4a 1b 3d
       -0.10995861 -0.036773194 -0.15622433 0.037912413
000080 8f d9 30 3e 2c 26 56 3e 7f 67 f4 bd fe dc d6 3d
       0.17270492 0.20912999 -0.11933803 0.1049137
000090 c7 a7 33 bc aa 04 13 3e c1 f5 26 3e 0d 3b 3d 3e
       -0.010965294 0.14357248 0.16304685 0.18479557
0000a0 72 e3 9c 3d c4 37 8b 3d 07 9e 3a be e1 0d c6 3d
       0.07660569 0.06797746 -0.18224345 0.09670616
0000b0 ae 6e 4f 3e 28 de f0 3d ef 63 81 3c 05 91 c8 3b
       0.20257065 0.11761123 0.015794722 0.0061208033
0000c0 7f 9e 5e 3d 25 bc 80 bd 13 de eb bb e3 4a 81 bd
       0.054350372 -0.06285886 -0.007198104 -0.06313112
0000d0 97 83 d7 bc a3 4f ac 3d c2 35 9b bd dc 65 46 bd
       -0.026307864 0.08413627 -0.07578613 -0.048436984
0000e0 5f 64 11 3e b5 8f b7 bc d6 97 23 be 38 82 00 3d
       0.14198445 -0.022407392 -0.1597589 0.031374186
0000f0 06 b3 f7 3d ca 51 34 3e 93 82 ae bd a2 46 65 3d
       0.12094693 0.17609325 -0.08520999 0.055975564
000100 24 53 1f 3e 0a 61 42 be c4 4c c5 3d 61 1f 39 be
       0.1555906 -0.1898233 0.096337825 -0.18078376
000110 0d 36 ac 3c 64 ee 04 be f2 d7 2e be 44 d2 27 bd
       0.021021867 -0.12981564 -0.17074564 -0.04097201
000120 ec ef dd bd e7 ca 3d 3d 57 b7 1b 3e a6 c1 85 3d
       -0.10836777 0.04633608 0.15206657 0.06531076
000130 4e 4a 86 bd 6a 73 aa 3d ec f4 18 be 61 b2 2f 3e
       -0.06557141 0.08322795 -0.1493718 0.1715789
000140 28 85 57 bd 15 14 51 be 51 32 17 be b8 4d b3 bd
       -0.052617222 -0.20417817 -0.14765288 -0.08755058
000150 a9 28 78 3d b8 43 28 3e 20 9d 1f 3e b8 3c 85 3d
       0.06058565 0.16432083 0.15587282 0.06505722
000160 3f 9e b0 3d d8 d1 8b 3d 34 72 24 3b 0c b7 f9 3d
       0.08623933 0.06827134 0.0025092484 0.121931165
000170 60 79 5a be 8a 7b 7d 3d 33 c8 df bd 2a 49 4a bd
       -0.21335363 0.061885394 -0.10926857 -0.04938618
000180 75 1b ce 3c 6e 76 8d 3c 33 bd b7 3d 4b 8b 07 3e
       0.025159577 0.017268386 0.08971634 0.1323673
000190 4e 24 b8 bd 38 00 15 3e 45 70 21 3e 30 e6 ea bd
       -0.089912996 0.14550865 0.15765484 -0.11469686
0001a0 f3 30 31 bc 2e 1d 61 3e 5a 7b 7c bd cc 10 a4 3d
       -0.010814893 0.21983787 -0.061641075 0.08011016
0001b0 38 78 95 3d d1 d3 65 3e ca ee 20 bd 30 b6 84 bd
       0.072983205 0.22444083 -0.039290227 -0.06480062
0001c0 e2 a7 70 3b 72 a0 54 3e 48 ff b5 3d eb a4 2d bd
       0.003672116 0.2076433 0.08886582 -0.042393606
0001d0 a6 01 75 bd 95 fe 8e bd 43 3a df bd 13 a9 13 3e
       -0.059816025 -0.069821514 -0.108997844 0.14419965
0001e0 a7 67 11 3d d0 8c 23 3e d9 0f 07 3d 3f 26 64 3d
       0.03549924 0.15971684 0.032974098 0.055700537
0001f0 15 cc 25 3d a0 85 81 bd f1 80 25 be af 7d c3 bc
       0.04047783 -0.06324315 -0.16162468 -0.023863642

gcn1.bias f4 [32]
000000 2a 96 71 3d 4a bb 82 3d 17 98 8b 21 73 28 8e 3d
       0.0589811 0.06383379 9.459264e-19 0.06941309
000010 a4 f3 4e 3e 70 b8 92 3d 88 d7 3d 3c 8e ce a8 3e
       0.20210129 0.07164085 0.011587031 0.3297009
000020 6e 88 88 3d 41 72 4c bc 21 6a 82 3c 25 8c 53 ba
       0.06666647 -0.012478412 0.015919747 -0.00080698944
000030 e6 40 07 bd c9 cb dc bc 49 f2 79 3d 08 ad 91 bc
       -0.033020876 -0.026952641 0.061022077 -0.017782703
000040 ee 73 75 b8 e5 7c 79 b4 5e ae 43 3d ac 0e 97 3d
       -5.852052e-05 -2.3235368e-07 0.04777371 0.07375845
000050 c1 92 87 3d 8b ff 92 24 8d 58 d2 b7 6d bc 4a 3b
       0.06619788 6.3750314e-17 -2.5075185e-05 0.0030935064
000060 76 97 cd b9 60 75 8a 3d 9f 57 52 3d 7b 76 58 3e
       -0.00039213494 0.06760669 0.051353093 0.21138947
000070 05 fb 8b b9 83 12 6d bc 0d 80 94 bc e0 c3 94 3d
       -0.0002669917 -0.014469746 -0.018127466 0.07263923

gcn1.lin.weight f4 [32, 32]
000000 3f 8f 33 3c 87 1e 33 3d 11 75 fc bd 25 bf 9b be
       0.0109594455 0.043730285 -0.12327016 -0.3041927
000010 e0 09 85 3e 8f 64 55 3e b6 38 97 be 10 e5 f6 3d
       0.25984097 0.20839141 -0.29535455 0.12055409
000020 3c 46 33 be 24 f2 a3 be 1d 1d 97 bd 2d 2e 4d 3e
       -0.17507261 -0.32020676 -0.073786 0.20037146
000030 13 98 13 3e 46 af 9e be b2 f2 35 3e f0 d1 8c 3e
       0.1441348 -0.30993098 0.17768362 0.2750392
000040 d8 f5 43 be f2 5e 46 be 28 c2 e9 3c 62 51 80 3e
       -0.1913675 -0.19372156 0.028534964 0.2506209
000050 94 e8 7a bd f1 b8 15 3e bc f3 c6 bd 9c e5 b0 bd
       -0.06125696 0.14621331 -0.097144574 -0.086375445
000060 3b 15 82 3e c5 8e 20 3e 9f e8 00 3e 7d 2c 74 be
       0.25406823 0.15679462 0.12588738 -0.23845096
000070 83 4a af bd 61 d4 98 bd f1 60 8d 3e d1 a2 9d 3e
       -0.08559134 -0.07462383 0.27613023 0.30788282
000080 3b b9 5c 3c 02 51 97 3d 57 70 95 3e a9 94 25 be
       0.013471897 0.07388498 0.2918727 -0.1616999
000090 a7 70 68 3e 08 c6 7a 3c d0 89 be bd 33 f5 4d 3e
       0.22699223 0.015306003 -0.093036294 0.20113067
0000a0 41 8f a4 be 57 2e f1 3a ee 27 d1 3d ea fe 63 be
       -0.32140544 0.0018400651 0.10212694 -0.22265211
0000b0 eb 0d 4d 3c 30 7c d1 3d 6b a9 62 be aa e7 48 be
       0.012515525 0.10228765 -0.2213494 -0.19619623
0000c0 6b aa b3 3d 33 de 35 3e fd 81 91 be e5 bb c9 3b
       0.08772739 0.17760544 -0.28419486 0.006156432
0000d0 27 e3 8c be e5 65 5d be 30 31 8a 3e 99 5e 5c 3d
       -0.27517053 -0.21620901 0.26990652 0.053801153
0000e0 4f c1 fa 3d 46 5d 43 3e f6 db 75 bd e9 21 ad 3e
       0.12243902 0.1907855 -0.060024224 0.33814934
0000f0 24 d5 96 be 45 34 7f 3e 52 d2 8d 3e eb 67 0e 3e
       -0.29459488 0.24922283 0.27699524 0.13906829
000100 42 d7 9f 9f 33 97 8f 21 ef 4b a5 36 7e c1 73 35
       -6.7695233e-20 9.730079e-19 4.926223e-06 9.080612e-07
000110 a4 29 7a a4 78 a5 6b 20 76 e7 38 2b 0d 22 17 21
       -5.424538e-17 1.9960023e-19 6.569115e-13 5.1205856e-19
000120 9f 94 26 a1 38 f3 66 37 79 31 70 a4 02 06 07 3b
       -5.6439686e-19 1.3765697e-05 -5.208361e-17 0.0020602946
000130 ba 0b a4 38 d3 f0 9b 9f fe 81 a4 2f cc 48 a3 9f
       7.822314e-05 -6.6043464e-20 2.992379e-10 -6.915362e-20
000140 68 44 6d a9 3c 1b 7e 36 e4 1a 8a 2d ec 7b 0a bb
       -5.2683904e-14 3.7864802e-06 1.5700725e-11 -0.0021130992
000150 7e 4e 01 a6 79 45 57 9f 5e 52 63 36 92 bd 0f a5
       -4.486224e-16 -4.5585487e-20 3.387358e-06 -1.2467502e-16
000160 76 e6 cd a0 49 88 65 20 c1 e7 ec 38 b7 7c 0e b4
       -3.4880857e-19 1.9442147e-19 0.000112965245 -1.3270152e-07
000170 95 61 85 3a e9 89 d3 39 e8 88 4a a8 36 59 85 b5
       0.0010176176 0.00040347807 -1.1242939e-14 -9.935236e-07
000180 fb ee 86 3e c1 ba 1d be f7 07 6a 3e be 2a 19 be
       0.26354203 -0.15403272 0.22854601 -0.14957711
000190 01 56 8a 3c b3 23 86 be 61 50 80 be 8f b2 8e 3e
       0.016886713 -0.2619911 -0.25061324 0.27870604
0001a0 01 a0 70 3e 95 a7 31 bd ae aa 8e be d0 08 54 3d
       0.23498537 -0.04337271 -0.27864593 0.051766217
0001b0 23 d8 a1 be 70 6e 03 3c bc a1 48 3e 7e fa af bd
       -0.31610212 0.008021936 0.19592947 -0.085926995
0001c0 ed e9 73 3e 8e ac 67 3b 6a d3 08 3e b3 14 2f be
       0.23819704 0.0035350653 0.13361898 -0.1709774
0001d0 9b 38 95 3c 7a d0 5b 3e c6 1b ed bc 3c 52 3b 3e
       0.018215468 0.21466246 -0.028943907 0.18293089
0001e0 82 a0 79 3e d7 c0 18 3e 52 6e e2 3d 0b c5 83 3e
       0.24377635 0.14917313 0.11056198 0.2573627
0001f0 92 00 49 be 49 98 79 3e b5 9c 73 be ec cf 01 3e
       -0.19629124 0.24374498 -0.23790248 0.12676972
000200 b6 8a a0 3c 1f 77 ea 3d 2e a8 fe 3d fd 2e 48 bb
       0.019597393 0.11448502 0.124344215 -0.0030545585
000210 8f 42 0c 3e 16 02 25 be bd a0 ce 3b a3 14 f8 bc
       0.13697265 -0.16114077 0.0063057826 -0.030283278
000220 ec c3 55 bc c7 0b 9b 3d 54 21 b0 3c 47 19 55 ba
       -0.0130472 0.07570606 0.021500267 -0.0008129072
000230 fc d1 41 3e 11 0b 74 bd 5b b2 5b bc 67 41 93 bd
       0.18927759 -0.059580866 -0.0134092225 -0.07190209
000240 03 96 83 3c 62 98 b6 3d 23 23 21 bc 6a 21 0a be
       0.016062742 0.089157835 -0.009835037 -0.13489309
000250 9b 7f be bc 22 95 51 be 40 05 13 3e 68 27 45 3e
       -0.023254206 -0.20467046 0.14357471 0.19253314
000260 f0 cb 16 be b6 c6 2a 3a 81 cd de 3d fb 89 2b be
       -0.14726233 0.00065145956 0.108790405 -0.16751854
000270 4f b2 27 be c8 ee 31 3d bd 7b 0f bd c3 84 db 3d
       -0.16376613 0.04344061 -0.035030115 0.10718682
000280 f2 9e df 3c d2 9a 04 bd c0 6d 81 be ec af a5 be
       0.02729747 -0.03237421 -0.25279045 -0.3236078
000290 e3 04 95 be 24 cf 9d be 23 6f da bd 9e 84 2a 3d
       -0.2910529 -0.30822098 -0.10665729 0.04163038
0002a0 3c 64 1b 3e 84 1a 89 be ed b5 0a bc 01 59 b8 bd
       0.15174955 -0.26778042 -0.008466226 -0.09001351
0002b0 31 1a d8 bc fc c3 74 3c 77 f2 dd 3d 2d 3d 12 3e
       -0.026379677 0.014939304 0.10837262 0.14281149
0002c0 f0 04 b8 ba e2 18 8c be fc b5 94 be 88 52 7e 3e
       -0.0014039557 -0.27362734 -0.29045093 0.2483617
0002d0 9d 34 e9 bc c0 7f 8d 3e bd 90 d4 bc be 3e 8f 3e
       -0.02846747 0.27636528 -0.025947923 0.27977556
0002e0 9c 8a d5 3d b7 3c a2 3e 72 fc 34 be e5 a5 75 3e
       0.10426828 0.31686947 -0.17674425 0.23989065
0002f0 22 f8 24 3e be 9e 62 3e fc 4d 09 3e b2 47 37 be
       0.1611028 0.22130868 0.13408655 -0.17898443
000300 76 68 61 3e 86 e6 41 be d4 03 5f be c1 c2 11 3e
       0.22012505 -0.18935594 -0.21778804 0.14234449
000310 37 64 8e bd ef f4 ab 3d 88 39 0a bd fa f4 fc bd
       -0.06952708 0.08396327 -0.033746272 -0.12351413
000320 14 8c 6a 3d d0 ef 83 3e a7 d7 07 be a8 24 d4 bd
       0.057262495 0.257689 -0.13265859 -0.10358554
000330 36 a1 5b be 55 cf 19 3e 04 b3 9d 3d fc 61 80 3e
       -0.21448216 0.15020497 0.0770016 0.25074756
000340 92 e2 f1 bd 5c bc 7e be ed 33 d0 3d 9b ef 78 3e
       -0.11810793 -0.24876541 0.10166154 0.24310152
000350 3e 8f 6a 3e d0 d1 ab 3e 05 9f c3 3d 63 78 26 3e
       0.22906205 0.33558512 0.09551815 0.16256861
000360 24 f3 ac bd 43 f3 63 bd ec 96 78 be ad f9 3f be
       -0.08444813 -0.055651914 -0.24276322 -0.18747588
000370 81 52 56 be 3e 6d 97 3e 44 af 74 3e 1e ef ce bd
       -0.2092991 0.29575533 0.23894984 -0.10104202
000380 25 4a 7d bd 67 61 52 3d 90 74 e5 ba 0a 69 b1 3d
       -0.061838288 0.05136242 -0.0017506052 0.08662613
000390 ab 32 7d 3d 90 f3 0b 3c ea eb 73 ba f2 47 29 bc
       0.0618159 0.008541957 -0.0009304868 -0.0103320945
0003a0 d3 8b 0c be 05 d3 0f 3e 02 83 81 3d 42 15 72 ba
       -0.13725214 0.14045341 0.06323816 -0.0009234735
0003b0 02 b0 05 be b9 02 e8 3c ee 73 ab 3c 0e 90 84 bd
       -0.13055423 0.02832161 0.020929303 -0.06472789
0003c0 97 b3 26 bc 29 56 09 3c 9d db 91 3c 3f da 92 bd
       -0.0101746535 0.008382359 0.017804915 -0.071705334
0003d0 74 76 f9 3d a8 04 b6 3c 9b b0 54 bd 6f 2f 68 bd
       0.12180796 0.022219017 -0.051926237 -0.05668586
0003e0 e5 a3 1d 3e ba dc 42 bc 95 f4 b7 bc 86 1a ff bb
       0.15394552 -0.011893446 -0.022455493 -0.0077851443
0003f0 9a 32 c9 bd d0 20 96 bc 73 ac 9a bc b1 70 50 bc
       -0.098241046 -0.018326193 -0.018881058 -0.01272218

gcn2.bias f4 [32]
000000 4e 10 01 bc 00 00 00 00 4b e2 4d 38 ec 1b 5e 3b
       -0.0078774225 0.0 4.908656e-05 0.0033891154
000010 41 94 d6 3d d6 d4 4c ae e2 ab 9d b9 fd 23 c3 3d
       0.10477496 -4.6573266e-11 -0.00030073436 0.095283486
000020 59 8e f3 3d 00 00 00 00 c5 56 d9 3d 00 00 00 00
       0.11892385 0.0 0.10612253 0.0
000030 5b 9a 29 bc 2b 33 05 3f f3 a8 da bc e5 4f e1 bc
       -0.010351743 0.520312 -0.02669189 -0.027503917
000040 00 00 00 00 68 60 f9 bc da 7a b2 bc d2 27 cf bc
       0.0 -0.030441478 -0.021787096 -0.025287542
000050 00 00 00 00 6e 94 8c bc ee fc ee 3d 05 36 92 3d
       0.0 -0.01716062 0.11669336 0.0713921
000060 79 e5 09 3e 00 00 00 00 4e f5 5a bd b9 a0 a8 3d
       0.13466443 0.0 -0.053456597 0.082337804
000070 fa ef 53 bc 20 15 c5 bb 03 4d d9 3d 9a ff b6 3d
       -0.012935633 -0.006014481 0.10610392 0.08935471

gcn2.lin.weight f4 [32, 32]
000000 bb aa 62 bc e9 ac 97 bc 00 2d 25 32 24 07 81 bc
       -0.013834651 -0.018515067 9.614496e-09 -0.015750475
000010 97 2b 30 ba c2 65 08 bc 7f ab 11 bc 28 dd 50 b2
       -0.00067203626 -0.008325042 -0.0088909855 -1.2157479e-08
000020 1a 38 ae bb 0b 0a 4f 37 8b fb 4f bc c6 ca 52 39
       -0.0053167464 1.23405e-05 -0.01269425 0.000201027
000030 0b 59 0a ad a6 a9 2a 2b 37 0f 8b bc b7 03 13 b8
       -7.864163e-12 6.0631567e-13 -0.016975028 -3.505099e-05
000040 da 19 e6 b1 67 d3 cd ba bc 15 9d bc 98 aa 45 bc
       -6.69682e-09 -0.0015703262 -0.019175403 -0.0120645985
000050 32 29 39 bc 2b 89 d4 2b bc e3 07 3a 1c 61 06 ac
       -0.011301326 1.5101578e-12 0.00051837764 -1.9096452e-12
000060 6a 4d 0c 3b 20 46 99 bc ce 83 84 bc d4 cb 8d b4
       0.0021408447 -0.018710196 -0.01617613 -2.64116e-07
000070 51 fe d7 9f b8 dc ea b5 76 90 46 22 5b e9 89 bc
       -9.147677e-20 -1.7498596e-06 2.691048e-18 -0.016834905
000080 8f a8 46 a2 65 0b ca 1f db ff 3d a0 48 16 31 1e
       -2.6923238e-18 8.556918e-20 -1.6093578e-19 9.37491e-21
000090 7a 51 b5 38 24 26 6d 1e db 34 1f ab 1d 86 cf b5
       8.645929e-05 1.2554563e-20 -5.65615e-13 -1.5461734e-06
0000a0 c0 b1 e9 22 ec 38 19 39 73 07 0b af 71 84 9f b9
       6.3342977e-18 0.00014612422 -1.2644623e-10 -0.0003042552
0000b0 56 58 fd 23 6e bf 2b 29 75 d4 ed 26 67 d1 cf b5
       2.7467727e-17 3.8135666e-14 1.6502765e-15 -1.5483646e-06
0000c0 95 d5 a2 a2 95 ee 04 b0 d9 ff 26 20 10 54 58 ba
       -4.4136327e-18 -4.8360366e-10 1.41454e-19 -0.00082522724
0000d0 cf dd 82 b3 7c dd df a3 e8 d5 2e 20 12 33 2f b3
       -6.0939435e-08 -2.427151e-17 1.4809149e-19 -4.079181e-08
0000e0 fd 7c ee 3a a6 6a 34 9e 2d 10 99 a0 01 9a 14 36
       0.0018195208 -9.551175e-21 -2.5929912e-19 2.214336e-06
0000f0 b3 18 5f b4 bd d2 7c 36 aa bf ee b9 57 98 1b 35
       -2.0777479e-07 3.7673592e-06 -0.00045537698 5.7963683e-07
000100 78 47 85 35 18 d0 a0 31 5b b6 08 b8 13 21 a4 b3
       9.930072e-07 4.6802704e-09 -3.259476e-05 -7.642861e-08
000110 1a 61 ad b8 89 53 b3 ba 8d a2 5a a1 70 26 9c 3a
       -8.2673694e-05 -0.0013681512 -7.4076407e-19 0.0011913311
000120 0e f9 09 a2 df d5 0c b3 fa c5 57 39 46 d5 5c 21
       -1.869881e-18 -3.2790805e-08 0.0002057775 7.4821164e-19
000130 41 ea 3b 36 4b 7e 12 3a 31 5e 7b b8 90 9d bd 1d
       2.8001525e-06 0.0005588277 -5.9930786e-05 5.01908e-21
000140 63 5d a9 a2 3b c6 13 a5 84 91 d6 ba 53 2c cb af
       -4.590642e-18 -1.281738e-16 -0.0016370271 -3.695698e-10
000150 68 f5 e1 22 a3 83 de 32 c6 f9 4c b9 e1 2b 22 32
       6.1246206e-18 2.5904063e-08 -0.00019548004 9.439618e-09
000160 ce 0a 5e a0 a7 1e d2 2a 3b 79 ed 21 7c 46 04 b1
       -1.8807706e-19 3.7324763e-13 1.6091834e-18 -1.9248594e-09
000170 b8 44 b6 1f 9d 18 13 3a b6 a6 99 ba 9f 8a 2a 28
       7.7193684e-20 0.00056112726 -0.0011722657 9.466954e-15
000180 0e 1b 1e bc d0 93 0f bc 0d 9b 60 33 95 f7 33 bc
       -0.009650005 -0.008763269 5.2295082e-08 -0.010984321
000190 57 a3 28 b9 84 39 2d bc f0 85 9f bb 1b 5e bb 32
       -0.00016082577 -0.010572795 -0.0048682615 2.181246e-08
0001a0 d4 f0 b2 bb 80 cf fe b9 e6 01 0e bc ad 06 e1 b8
       -0.005460838 -0.00048601255 -0.008667445 -0.000107300795
0001b0 00 cf 90 a0 04 e9 9c 26 bf ed 80 bc 86 47 4d 2c
       -2.453153e-19 1.0887834e-15 -0.015738366 2.9171956e-12
0001c0 f3 96 2a 9f 34 f7 15 a8 72 84 8b bc 53 90 3f bb
       -3.6123763e-20 -8.324765e-15 -0.017030928 -0.002923031
0001d0 cb 5c a2 bb 94 e6 0c 36 c3 8c bf b5 0e 91 29 32
       -0.0049549094 2.099584e-06 -1.4271576e-06 9.870076e-09
0001e0 94 3c 9f b9 c3 de 81 bb 0f 77 87 bc b7 1c c1 32
       -0.00030371977 -0.003963323 -0.016536264 2.2481215e-08
0001f0 1e 9f 39 2b cf 1b 15 ac 47 63 9d 39 58 55 84 bc
       6.594602e-13 -2.118961e-12 0.0003001934 -0.016153976
000200 99 9e bc 3b 2e a1 20 3e 9f 02 16 36 88 9d a0 3e
       0.005756211 0.15686485 2.2353267e-06 0.31370187
000210 0b 88 fc 3d 79 d4 2e 3e 93 14 99 3e cb b6 b6 3e
       0.12330636 0.1707324 0.2989851 0.35686335
000220 ce ed f2 bd 8d 60 ee bd b9 ac d6 3d bc 58 ca 22
       -0.11861764 -0.11639509 0.10482163 5.484616e-18
000230 e2 1b 2a 3e 56 86 72 bd f9 30 23 3d 49 09 10 be
       0.16612199 -0.059210144 0.039841626 -0.14066042
000240 07 b9 d8 ba 3d 6e 0b a0 ff b6 e8 bd bd f2 d4 3d
       -0.0016534635 -1.1810233e-19 -0.11363029 0.10397861
000250 60 3a 42 3e 3a f6 ed a3 70 dd a0 35 6b da 68 3a
       0.18967581 -2.5799872e-17 1.1985376e-06 0.00088826445
000260 4b 56 fa b9 15 63 ec 3d 86 5e dc 3d 08 12 03 3e
       -0.0004774801 0.11542336 0.107602164 0.12799847
000270 9a 68 c3 34 d8 ae b5 bb df 00 74 3c c6 90 ad 3e
       3.6397688e-07 -0.0055445246 0.014892786 0.33899516
000280 79 7a d8 ae 71 0c 02 26 78 8f 35 38 f9 61 1c ba
       -9.844298e-11 4.511967e-16 4.328738e-05 -0.0005965527
000290 a4 f4 c9 20 f3 e9 a6 20 e0 39 db a6 50 4c 48 3a
       3.4212614e-19 2.8276308e-19 -1.5211865e-15 0.0007640766
0002a0 1e ef 93 36 ce 37 15 a2 06 f6 4c 30 f9 53 01 ba
       4.4087783e-06 -2.0222808e-18 7.456439e-10 -0.00049334724
0002b0 a4 a3 f4 9f e2 16 26 3b 9e 9a 82 27 e8 59 cb 9e
       -1.0360874e-19 0.002534323 3.6249885e-15 -2.1530645e-20
0002c0 14 c9 33 1f b0 81 67 a3 70 a5 46 aa fe cd c1 39
       3.8071052e-20 -1.25499975e-17 -1.764333e-13 0.00036965305
0002d0 e9 d6 61 a1 46 17 0b 37 8d 9d c7 3a d7 2a 79 a1
       -7.6517396e-19 8.290464e-06 0.0015229449 -8.442118e-19
0002e0 60 7f 62 1c eb ca aa ba 3a af 67 b7 cc 35 53 3a
       7.4941756e-22 -0.0013030445 -1.3809471e-05 0.00080570276
0002f0 dc 82 f0 20 cd c9 20 b5 55 b8 cd 3a 20 d3 cf b8
       4.0744177e-19 -5.9898304e-07 0.0015695194 -9.909854e-05
000300 03 cb 22 ba 38 21 b1 b9 10 65 0c 36 68 e7 8e ba
       -0.00062100607 -0.0003378482 2.0920452e-06 -0.0010902705
000310 e3 32 29 3a ef 49 76 ba 50 09 d6 b6 e7 be a1 2f
       0.0006454421 -0.0009395172 -6.378781e-06 2.9421374e-10
000320 3c 08 6c b8 17 e5 1d ac 23 b6 91 b9 d2 96 57 22
       -5.6274454e-05 -2.2438212e-12 -0.00027792258 2.9217777e-18
000330 65 cb 08 b7 40 3f 1d 9d 90 88 90 ba f0 fe 41 37
       -8.153588e-06 -2.0811476e-21 -0.0011027027 1.1563054e-05
000340 5a e1 29 2b 08 24 bd 36 74 21 e1 ba f6 e3 d4 b9
       6.03536e-13 5.6368335e-06 -0.0017176108 -0.00040605635
000350 62 eb 4f 3a c3 dc 84 38 16 b8 0c bb 44 24 fb 9f
       0.0007931498 6.3353706e-05 -0.0021472028 -1.0636263e-19
000360 87 f7 df a8 67 83 3e bb c0 1a e3 ba a2 6c 3d 2f
       -2.4865321e-14 -0.002907002 -0.0017326698 1.7228044e-10
000370 b1 e2 f8 3a ac 18 aa a9 6c b5 36 34 bc 03 57 bb
       0.0018988458 -7.5537965e-14 1.7016072e-07 -0.0032808622
000380 8b be 3f 3d f2 31 0f be f7 64 a9 ba 92 37 db 3d
       0.046812575 -0.13983896 -0.0012923767 0.107039586
000390 ca 90 99 3d 73 3f a6 3e 7b 69 6b be c7 06 a8 3e
       0.074983194 0.32470283 -0.22989456 0.3281767
0003a0 eb 1b 5b 3e 6b 64 2c bd 5d a7 9c 3e fb 11 18 bb
       0.21397369 -0.042087954 0.30596438 -0.0023204077
0003b0 4e 00 dc bd 69 e9 30 bc d3 f6 9b bd 7c a7 71 3e
       -0.107422456 -0.010797837 -0.07615437 0.23599046
0003c0 02 6d 13 34 2e 6a 9a 37 8f ba 08 3e 42 6b 8a 3e
       1.3730099e-07 1.8407674e-05 0.13352416 0.27034956
0003d0 80 99 45 3e cb af e6 39 49 67 64 36 ef 37 33 3a
       0.19296837 0.00043999995 3.4034767e-06 0.0006836643
0003e0 fe 99 69 bb 28 8d c2 bc ab bd 4f 3c d6 a7 30 3e
       -0.0035644765 -0.02374895 0.012679498 0.17251524
0003f0 79 f9 7f 33 43 64 6f be 25 73 e2 3c 05 7d 43 be
       5.9598708e-08 -0.2337809 0.027642796 -0.1909066

fc.weight f4 [7, 32]
000000 27 31 de bb 8e fb fd 1e c4 c8 8a a7 7f 4a fe 3a
       -0.0067807618 2.6891458e-20 -3.8520365e-15 0.0019400864
000010 2c e4 53 be 59 76 a2 30 28 9d 26 ad 52 5f f0 bc
       -0.2069251 1.1820688e-09 -9.470903e-12 -0.029342327
000020 9b 6e f8 3d 1c 30 f3 20 f5 c7 04 3e 46 e4 a3 a4
       0.12130471 4.1197637e-19 0.12966903 -7.107669e-17
000030 5e 9c c0 bc 1f a0 86 bc 8d 1e d7 3d 4c 74 b7 3a
       -0.023512062 -0.016433774 0.10503874 0.0013996451
000040 68 b9 cb 1e 0e 47 1f be 1f a7 be b0 5f 26 21 3d
       2.1570143e-20 -0.15554449 -1.3871818e-09 0.039343234
000050 60 b3 94 21 9a a9 38 34 f4 1b 7b bd 9a c6 e6 3d
       1.007635e-18 1.7198036e-07 -0.061305955 0.11268349
000060 e9 e5 96 bc 8e 2a a8 1f 33 aa 26 be 19 33 1b 3d
       -0.018420177 7.122117e-20 -0.16275863 0.037890527
000070 5a aa 10 ba 82 96 1a 3d 33 79 8d 3d 87 4b 7d bd
       -0.00055185484 0.03774119 0.069078825 -0.061839607
000080 1a 29 67 3c 3c 5a 04 22 f0 62 dc 35 44 94 db 3b
       0.0141089205 1.7937106e-18 1.6420072e-06 0.0067010242
000090 e1 82 25 be c8 17 0a 2f 14 d7 91 37 a5 83 17 be
       -0.16163208 1.2559476e-10 1.73855e-05 -0.14796312
0000a0 33 ea a8 bd 0c 50 14 2c fa 38 70 3d 08 c9 96 1e
       -0.08247795 2.10765e-12 0.058648087 1.5965012e-20
0000b0 f3 c2 0f 3e 54 4a d3 be d5 7b 30 be 65 de 66 bc
       0.14039211 -0.41267645 -0.17234738 -0.014091109
0000c0 13 76 d5 9f 4b b6 aa bd 99 8b 5a b8 f0 42 95 3d
       -9.0404346e-20 -0.08335551 -5.210526e-05 0.07288158
0000d0 ec 70 1f 21 07 c6 13 38 b0 f0 04 be ee 5e d4 bd
       5.4020746e-19 3.523196e-05 -0.1298244 -0.10369669
0000e0 25 be 14 be f2 4d 23 2b 8a 6f 9f 3d ec d2 b1 bd
       -0.1452566 5.8017404e-13 0.07784946 -0.08682808
0000f0 23 a2 69 3d 04 b6 0b 3e 9f ec 77 bd 04 95 72 3d
       0.05703939 0.13643652 -0.060528394 0.059224144
000100 6d 3f 11 3c a4 c1 20 9c d7 30 50 a2 d5 20 84 3c
       0.00886522 -5.3189834e-22 -2.8215112e-18 0.016128937
000110 cc c9 d7 bb d2 78 56 31 64 e1 f9 2f 23 79 f3 3d
       -0.0065853354 3.1209777e-09 4.5452986e-10 0.11888339
000120 26 3d a8 ba 1a ec f8 a0 da 07 b7 bd 42 f0 a4 a0
       -0.0012835606 -4.2169073e-19 -0.089370444 -2.794167e-19
000130 ed 71 b6 bd f6 c1 63 bd 48 37 73 3d 0a 72 3e bc
       -0.08908448 -0.055604897 0.059378892 -0.011623869
000140 8c 3e a6 aa f7 e3 1b 3e b2 43 a6 2d 32 59 18 bd
       -2.9530924e-13 0.1522368 1.8902078e-11 -0.03719444
000150 c8 fb 14 a5 f0 66 1d b5 e3 7e b1 bd fc a6 d7 3c
       -1.292226e-16 -5.863685e-07 -0.0866678 0.026324742
000160 1c 7b 1b 3e 58 ff 22 a1 33 a1 df 3c a2 57 12 be
       0.15183681 -5.522568e-19 0.027298545 -0.14291242
000170 01 8a c7 3a a6 5d 07 bb 6d b1 12 bd 19 de 02 3e
       0.0015223623 -0.0020655184 -0.035813738 0.12780036
000180 65 2e a4 3c 17 e1 43 b3 a3 d8 18 35 b5 83 3e 3c
       0.020041654 -4.5606694e-08 5.693966e-07 0.011628081
000190 a2 35 c2 bc f0 3a d9 a6 66 2b d9 30 b0 fb a8 bd
       -0.023707215 -1.5073375e-15 1.5801163e-09 -0.082511306
0001a0 c2 76 80 bd 9d a9 5a a5 15 eb 02 3e 1f 47 9d 30
       -0.06272651 -1.8965953e-16 0.12784989 1.1443467e-09
0001b0 45 b6 9c bd 76 e5 8e bd 69 cd 8e bc 6e f8 d5 3c
       -0.07651953 -0.0697736 -0.017431932 0.026119437
0001c0 76 2f 2a 22 f1 72 fd 3d c8 55 51 ae 16 7a 50 bd
       2.3064422e-18 0.12375439 -4.7597287e-11 -0.05089768
0001d0 9a 5e 7e 2d 58 50 1b b5 ed ba f4 bd 0d d1 89 3d
       1.4459234e-11 -5.7858915e-07 -0.11949716 0.067293264
0001e0 77 8d ed bd 70 73 e2 26 5f 10 e5 3d 81 8d 28 bd
       -0.11599248 1.571319e-15 0.11184763 -0.041150574
0001f0 e4 cd 45 3c a3 cd c0 3d fd eb a9 3d 71 cc 8f 3d
       0.012073014 0.09414222 0.08296964 0.07021416
000200 2f 9c 72 3c 6b e7 50 1d 70 ad b3 b8 33 db 4b 3b
       0.014807745 2.7648211e-21 -8.5676904e-05 0.0031105995
000210 d5 58 e6 bc a8 84 2d 20 12 91 c1 37 07 f5 87 3c
       -0.02811853 1.4697562e-19 2.3074947e-05 0.01659633
000220 05 69 b5 bd 58 68 b5 a4 90 f1 a0 bd 20 15 ac aa
       -0.088579215 -7.8673e-17 -0.078585744 -3.0567996e-13
000230 e1 c9 ab 3d fa a5 ac be 9d fa a3 3d d3 9e 24 bc
       0.08388115 -0.3372038 0.08006785 -0.010047632
000240 d5 b5 10 1f 30 85 a3 3d d6 24 15 39 53 e3 f8 3b
       3.0643594e-20 0.07984388 0.0001422347 0.0075954585
000250 82 2e 57 2a 58 0f 2e 38 13 bc d5 bc 6d 6e 1d bd
       1.9111972e-13 4.1499123e-05 -0.026090657 -0.03843539
000260 76 a9 22 3c 6d 48 15 28 4a af 5c 3d 50 c6 33 be
       0.009928098 8.286866e-15 0.053878106 -0.17556119
000270 77 db 39 bc 85 ad 1e 3e c4 14 68 be 15 bf 5c be
       -0.011343828 0.1549588 -0.22664171 -0.21557267
000280 00 e0 5f 3c 6b 6c 85 a6 c5 39 5a b6 50 80 0c 3c
       0.013664246 -9.258116e-16 -3.2518158e-06 0.008575514
000290 7e 86 c5 bd 2f 56 48 1f 3e 7b 39 31 f5 5a 26 be
       -0.09644793 4.2422937e-20 2.6991098e-09 -0.16245635
0002a0 f7 13 12 3d 8a 93 2a 29 2e ea 35 be d5 3b d0 af
       0.03566357 3.7875553e-14 -0.17765114 -3.7877493e-10
0002b0 6d cc 2e be 72 7d 5c be 4a 3a a5 3d eb a8 21 bb
       -0.1707017 -0.21532229 0.080677584 -0.0024667333
0002c0 72 39 8a 21 41 48 8e 3d d1 8a 72 ba 48 de 9a 3c
       9.366449e-19 0.06947375 -0.00092522526 0.01890482
0002d0 5b 6e 22 a0 7d fd 4a b9 48 72 c3 bd d8 c2 7e 3d
       -1.3758447e-19 -0.00019358653 -0.09543282 0.062197536
0002e0 bf 38 b5 bd b6 3c 4a a1 2f 67 a0 bb ee da 49 be
       -0.08848714 -6.852061e-19 -0.004895113 -0.19712421
0002f0 71 ee 1f bd 73 2c 60 bd 9a f3 e9 3d 08 12 2e be
       -0.039045755 -0.05472989 0.114234164 -0.16999066
000300 13 7d 54 bc d4 e3 71 29 10 6a 80 9f 8b c7 16 bc
       -0.012969273 5.371036e-14 -5.4385574e-20 -0.009202848
000310 23 0d 72 bd 0d 48 12 21 3e da fd 34 ab 25 d3 bd
       -0.05909456 4.956208e-19 4.7283714e-07 -0.10309919
000320 d2 6f 85 bd 70 f7 53 24 76 97 2a 3e bb 44 07 b0
       -0.06515469 4.596292e-17 0.1665934 -4.9210386e-10
000330 c8 5f 3b 36 9f ed a7 bc ee a8 2d 3c c6 8a ab bc
       2.7920923e-06 -0.020499049 0.010599358 -0.020940196
000340 44 4b c5 a7 6f 70 6e 3d 63 40 00 b1 fb 08 74 bd
       -5.4760087e-15 0.058212694 -1.866305e-09 -0.059578877
000350 10 6c ae 20 70 5d e7 32 b2 13 ed bd d8 9d cb bd
       2.9548256e-19 2.693443e-08 -0.11576022 -0.09942216
000360 c0 dd 54 bd bb 55 0d 23 b1 e8 1b 3e 67 09 ce 3d
       -0.05196929 7.6617794e-18 0.15225483 0.10060387
000370 90 51 fa a7 c5 31 92 a0 29 1a ce bc 41 2b bd 3d
       -6.947737e-15 -2.4766297e-19 -0.025158959 0.09236766

fc.bias f4 [7]
000000 50 dd 85 bc 61 ec 6e bc 14 25 e7 bd 1b d4 9c 3d
       -0.016340882 -0.014582724 -0.11286369 0.076576434
000010 9a c4 2b be 9a 12 a7 bd 49 6e dd bd
       -0.16774216 -0.08157845 -0.10812051
