outputs/models/test_raio/model_capital_test_raio.pth (torch, 30469 bytes, 10 tensors)

lstm.weight_ih_l0 f4 [128, 4]
0	0x3cd2186f	0.025646416
1	0x399315ca	0.0002805426
2	0x3dea5894	0.11442676
3	0x3d88e44a	0.06684168
4	0x3d86deb7	0.06585448
5	0x3dcda681	0.10041524
6	0x3d3942a5	0.045229573
7	0xbdcb7947	-0.09935241
8	0x3d751b33	0.059840392
9	0xbdcc65bf	-0.09980344
10	0xbd7e2467	-0.062046435
11	0x3da262e0	0.07929015
12	0xbc73397f	-0.014845251
13	0x392599cb	0.00015792919
14	0x3d66c369	0.0563387
15	0xbda15197	-0.0787689
16	0x3d744823	0.059639107
17	0xbd576b47	-0.052592542
18	0x3c3bdd8e	0.011466397
19	0x3d8dc2a7	0.069218926
20	0xbc73db87	-0.014883882
21	0x3c930a53	0.017949259
22	0x3da406ba	0.080090955
23	0x3d9f087a	0.07765289
24	0x3d807945	0.0627313
25	0x3db88283	0.09009268
26	0xbcf08768	-0.029361442
27	0x3d7fb704	0.062430397
28	0xbde07a43	-0.109608196
29	0x3ded19d4	0.11577192
30	0xbdbaac16	-0.09114854
31	0xbc859d7e	-0.01631045
32	0x3d8366a5	0.06416062
33	0x3d4b9950	0.049706757
34	0x3a33f4db	0.00068647944
35	0xbc35ceb7	-0.011096648
36	0xbcd682f6	-0.026185494
37	0xbb706ec8	-0.0036687125
38	0xbd936f25	-0.071989335
39	0xbac5c5b2	-0.0015088825
40	0xbad02713	-0.0015880786
41	0x38e15ad8	0.00010745757
42	0xbdb91118	-0.090364635
43	0x3d122989	0.035684142
44	0x3dbdb4a1	0.09262968
45	0x3ddb8c08	0.10720068
46	0x3d4017a5	0.04689755
47	0xb87990b8	-5.9501006e-05
48	0xbddf148e	-0.10892592
49	0x3a249148	0.0006277752
50	0x3af0133b	0.0018316278
51	0x3da1fa17	0.07909029
52	0x3dd46ac0	0.103719234
53	0x3d04a6fb	0.032385807
54	0x38da8b90	0.000104210456
55	0x3ab69a86	0.001393155
56	0x3d808cfd	0.062768914
57	0x3901a571	0.0001236403
58	0x3dfa28b5	0.122147955
59	0x3da3ca36	0.07997553
60	0x3d9c34eb	0.07627281
61	0x3ddbc2bd	0.10730503
62	0xbae68a43	-0.0017588813
63	0xbb51e309	-0.0032026193
64	0x3de054e9	0.10953695
65	0x3901988a	0.00012359224
66	0x3d723f37	0.059142318
67	0xbdb1211f	-0.086488955
68	0xbda438c5	-0.080186404
69	0xbd0876e1	-0.033316497
70	0xba26d1c3	-0.00063636544
71	0xbd6f531a	-0.05842886
72	0xbdd82508	-0.10553938
73	0x3de3021b	0.11084386
74	0xb9cc1e3e	-0.00038932444
75	0xbdccf245	-0.10007147
76	0xbb09b18c	-0.0021010367
77	0xbc259796	-0.010106942
78	0x3d7db091	0.061935965
79	0x3dfb6843	0.12275746
80	0xbde44605	-0.11146168
81	0xba96adab	-0.0011495849
82	0xbd11aaee	-0.035563402
83	0xbd0fd6a7	-0.035116818
84	0xbde9792a	-0.11400063
85	0xbdb91b7b	-0.090384446
86	0x3cebbe46	0.028777253
87	0xbdbe2b06	-0.0928555
88	0x3dcbe202	0.09955217
89	0x3d9b8e16	0.0759546
90	0xb9696ba9	-0.00022260718
91	0xbcc6606d	-0.024215901
92	0xbd4e9670	-0.050436437
93	0x3ac4afd7	0.0015006018
94	0xbacf4984	-0.0015814756
95	0x3b98b26c	0.0046599414
96	0xbca2ad66	-0.019858073
97	0x3a47fdb7	0.0007629054
98	0x3de681b8	0.11255211
99	0x3da09bc1	0.07842208
100	0xbd17b4bf	-0.037037607
101	0xbdc54612	-0.096325055
102	0xbca6c1a9	-0.020356016
103	0xbd0c86ba	-0.034308173
104	0xbd73ef18	-0.05955419
105	0x3dba5329	0.09097893
106	0xb93d6979	-0.00018063736
107	0x3d0ae247	0.0339072
108	0xbdddbe60	-0.10827327
109	0x3df1e9ff	0.11812209
110	0xbd2524a6	-0.040318154
111	0x3bdcd375	0.006739075
112	0x3cd07394	0.025445737
113	0xbd509c8c	-0.050930545
114	0xbdcae1ac	-0.09906325
115	0xb96829e6	-0.00022140853
116	0x3db3b6e0	0.08775115
117	0xbdaee460	-0.08539653
118	0x3da8ef78	0.082488
119	0x3dc31ff4	0.09527579
120	0x3d6524d4	0.055943325
121	0x3bd782a2	0.006576852
122	0x3b8c55cb	0.0042826883
123	0xbaaedbe0	-0.0013340674
124	0xbc902318	-0.017594859
125	0xbd801828	-0.062546074
126	0xbdd01bc1	-0.10161544
127	0x3d50db47	0.05099037
128	0x3afb21c6	0.0019159846
129	0xbc2e7a44	-0.010649268
130	0xbdf15332	-0.11783446
131	0xbdaa20ef	-0.08307063
132	0x3b130536	0.0022433526
133	0x3db4e659	0.08832998
134	0x3d4e46f3	0.05036063
135	0x3dc62b68	0.09676248
136	0x3dd651d1	0.10464824
137	0xbc2adc46	-0.010428494
138	0xbdc94fca	-0.09829672
139	0x3de2cfa8	0.110747635
140	0xbbfa2b6e	-0.0076345718
141	0xbbe822e2	-0.0070842365
142	0xbc191995	-0.009344478
143	0x3dd721b4	0.10504475
144	0x3c03283a	0.008005196
145	0xbdb575ca	-0.08860357
146	0x3c9f58f4	0.019451596
147	0x3cf52451	0.029924544
148	0x3c1b588f	0.009481563
149	0xbdd78ead	-0.1052526
150	0xb8e60513	-0.000109682
151	0xbd3910e0	-0.04518211
152	0xbc19d242	-0.009388508
153	0xbd303c10	-0.04302603
154	0xbd75c23a	-0.059999682
155	0xbdffb5da	-0.12485857
156	0x3bd79919	0.00657953
157	0xbdb82ffa	-0.08993526
158	0x3d226c40	0.039654016
159	0x3a1dfb93	0.0006026562
160	0x3c6f4d8e	0.014605893
161	0x3a00028c	0.0004883192
162	0x3af163dd	0.0018416602
163	0x3da213fa	0.079139665
164	0x3df705f4	0.12061682
165	0x3b98dac2	0.00466475
166	0xbceb939d	-0.028756911
167	0x3a9219ae	0.0011146569
168	0xbd14183d	-0.036155928
169	0xbde07e50	-0.10961592
170	0xbc7fe9ea	-0.015619734
171	0xbdf68bf2	-0.12038411
172	0x3b7db886	0.003871472
173	0xbcd5bdb5	-0.026091436
174	0xbe003708	-0.12520993
175	0xbde545cb	-0.111949526
176	0xbdde3618	-0.10850161
177	0x393c0d8e	0.00017934127
178	0xbdcf5ea2	-0.10125472
179	0xbdd7f305	-0.10544399
180	0xbcc58959	-0.024113344
181	0xbd0bcbfe	-0.03413009
182	0xbdba8525	-0.091074266
183	0x3b89590f	0.004191525
184	0xbdd9e1ab	-0.10638746
185	0x3ad8eb64	0.0016549644
186	0xbde9f141	-0.11422969
187	0xbddd9b88	-0.10820681
188	0xbda13803	-0.078720115
189	0xbdd1aeed	-0.102384426
190	0xbd86a184	-0.065737754
191	0xbda65b4c	-0.08122882
192	0x3c937461	0.01799983
193	0x3db1cd2f	0.08681714
194	0xbd280aa9	-0.04102579
195	0xb8bdbb1b	-9.0470734e-05
196	0xbde940e9	-0.11389334
197	0xbd337b08	-0.043818504
198	0xbc8e79d1	-0.017392071
199	0xbd99226c	-0.074772686
200	0x3d737d25	0.05944552
201	0xba5ce2ac	-0.0008426111
202	0x3dd5c9a3	0.1043885
203	0x3deb6b0e	0.114950284
204	0x3d3a7c76	0.04552885
205	0xb8a2d5fb	-7.764619e-05
206	0xb9c96f84	-0.00038420793
207	0x3dbb7665	0.09153441
208	0xbd4ea33a	-0.050448634
209	0x3a523cef	0.0008019944
210	0xbcd0b3db	-0.025476387
211	0x3ce21174	0.027596213
212	0x3dca3e4e	0.09875165
213	0x3db3f416	0.0878679
214	0x3e00df2c	0.12585133
215	0x3d1d307f	0.038376328
216	0x3d9ca40b	0.07648476
217	0xbc94191e	-0.018078383
218	0xb89a3428	-7.353007e-05
219	0x3a20ab03	0.00061289984
220	0xbad28b7d	-0.0016063299
221	0xbbf810f0	-0.0075703785
222	0x3ced5872	0.028972838
223	0x3d7ec6d9	0.062201355
224	0xbbd780b8	-0.006576624
225	0x3d9be6ad	0.07612357
226	0xbde2c6bf	-0.11073064
227	0xbdb09218	-0.08621615
228	0x3b4be68e	0.0031112763
229	0x3ba3e6cd	0.005001879
230	0x3aed6d70	0.001811428
231	0xbd98ceac	-0.074612945
232	0x3deaef54	0.114714295
233	0xbd8ba85f	-0.068192236
234	0x39beaf18	0.0003637008
235	0x3cdfa30e	0.02729943
236	0x3d4e9c32	0.05044193
237	0xbd822941	-0.06355525
238	0xbda08554	-0.0783793
239	0x3d0e8cde	0.03480231
240	0x39707559	0.00022931899
241	0x3a71bcdf	0.00092215644
242	0x3e00d35d	0.12580629
243	0xbd9db3ad	-0.07700286
244	0xb936f27f	-0.0001744721
245	0xbd521af5	-0.05129524
246	0x3d753d6a	0.059873022
247	0xbd2b2177	-0.04177996
248	0x3ddbae8f	0.10726654
249	0xb98134df	-0.0002464419
250	0xb9e454f6	-0.0004355085
251	0x3d9f307a	0.07772918
252	0x3d161afa	0.03664682
253	0x38636504	5.4215096e-05
254	0x3df9f5d6	0.122050926
255	0x3c2fa87b	0.010721321

lstm.weight_hh_l0 f4 [128, 32]
0	0x3d478f48	0.048720628
1	0x3d93cb34	0.07216492
2	0x3dac2dc3	0.08407166
3	0xbcb3018a	-0.02185132
4	0x39fc3ef2	0.00048112083
5	0x3d64721d	0.05577289
6	0xbc555e47	-0.013022966
7	0x3b6e5e38	0.0036372077
8	0x3de320ac	0.11090216
9	0x3c2e1d2f	0.010627075
10	0x3cb947e2	0.022617284
11	0x3db5dda3	0.088801645
12	0xbca6f05c	-0.020378284
13	0x3dd02588	0.101634085
14	0x3c0c8a90	0.008577958
15	0x3d0a8add	0.033823837
16	0x38e17598	0.000107507396
17	0xbdf99df4	-0.1218833
18	0xba8c94b3	-0.0010725468
19	0xbd601cc2	-0.054714926
20	0x3d9ff9bc	0.07811305
21	0xbc9aa489	-0.018877285
22	0x3d5a124c	0.053240106
23	0x3dad88c2	0.0847335
24	0x3babf958	0.00524823
25	0xbcf75f50	-0.030196816
26	0xbdf9083c	-0.12159774
27	0x3d00a253	0.031404804
28	0xbda19c6f	-0.078911655
29	0x39216498	0.0001539163
30	0x3d8fa36d	0.07013593
31	0xbc1470f9	-0.009060138
32	0xbc5629e5	-0.013071512
33	0x3d7015ee	0.058614664
34	0xbc0c59b2	-0.008566307
35	0x3de70068	0.11279374
36	0xbd8a7007	-0.06759649
37	0xbc77703c	-0.015102442
38	0x3d27c480	0.04095888
39	0xbde2cd27	-0.11074286
40	0xbd890b09	-0.06691558
41	0xbc7f2bba	-0.01557439
42	0xbd893b2e	-0.06700741
43	0x3ddc0422	0.10742976
44	0xbd2ffb81	-0.042964462
45	0xbc0ac714	-0.0084703155
46	0x3aa3a82c	0.0012486032
47	0x3988e5be	0.00026111113
48	0xbc0d8f7e	-0.008640168
49	0x3a1afe93	0.00059125683
50	0xbbb5aae8	-0.0055440553
51	0xbd97aedd	-0.074063994
52	0xbd15fe3b	-0.036619406
53	0x391da422	0.00015033831
54	0xbb1e5d21	-0.0024164396
55	0xbdad0086	-0.084473655
56	0x3cb81b46	0.022473942
57	0xbcc836a6	-0.02444012
58	0xbba82434	-0.005131269
59	0xbc64d15f	-0.013965934
60	0xb88d9640	-6.75139e-05
61	0x3bd53ff9	0.0065078703
62	0x3de9674e	0.11396657
63	0xbd96fdab	-0.07372602
64	0xbd8fb542	-0.07016994
65	0x3b68a625	0.003549942
66	0xbd5d30bd	-0.05400156
67	0x3d8902a8	0.0668996
68	0xbdd00f79	-0.10159201
69	0x39ce4c5d	0.00039348277
70	0x3a6e4e50	0.0009090649
71	0x3cb1d343	0.021707183
72	0xbc6de661	-0.014520259
73	0x3be97f91	0.007125803
74	0x3da89d0b	0.082330786
75	0x3dc88962	0.09791829
76	0x3cdcbc1c	0.026945166
77	0x3d856d5a	0.06514998
78	0xbdd9b0b4	-0.106294066
79	0xbd1b4e86	-0.037916683
80	0x3df48467	0.11939316
81	0x3dff45d8	0.124644935
82	0xb78937f0	-1.635772e-05
83	0xbaa9ca4a	-0.0012953964
84	0x3dc96e29	0.098354645
85	0xbdcf37cf	-0.101180665
86	0x3d3db627	0.046316292
87	0x3d834b5a	0.064108565
88	0xbdbdbb66	-0.09264259
89	0x3ce07d13	0.02740339
90	0x3debada2	0.11507727
91	0x3df8ed62	0.12154652
92	0xbcc5189c	-0.024059586
93	0x3d17d694	0.037069872
94	0x3e011bdd	0.12608285
95	0x3d666e88	0.056257755
96	0x3c697b06	0.0142505225
97	0xbde67e07	-0.112545066
98	0xbda228b6	-0.07917921
99	0xbd435117	-0.047684755
100	0x3de185b5	0.11011831
101	0x3a1355b9	0.00056203787
102	0x3df177da	0.11790438
103	0x3bc3fce2	0.0059810737
104	0xbd10bb51	-0.03533489
105	0xb9fe06be	-0.0004845168
106	0xbb148aba	-0.0022665695
107	0xbda31864	-0.079636365
108	0xbd183ce1	-0.037167434
109	0x3d930b44	0.07179883
110	0x3df37b41	0.11888743
111	0xbadc7da8	-0.0016822116
112	0x3df5d5a2	0.12003638
113	0x3d828113	0.06372275
114	0x3daa2a53	0.08308854
115	0x3d21a73d	0.03946613
116	0x3dea6564	0.1144512
117	0x3dfb0f0d	0.1225873
118	0xbdeb0867	-0.11476212
119	0xbc8dccfa	-0.017309655
120	0x3c88365c	0.016627483
121	0x3d7ff8c9	0.06249312
122	0xbdbbf54b	-0.09177645
123	0xba5879dc	-0.00082579046
124	0x39b4e610	0.00034503685
125	0xbde0a9a5	-0.10969857
126	0xbdeb2352	-0.11481346
127	0xbb1262e8	-0.0022336785
128	0x3d386500	0.045018196
129	0x3dacb878	0.08433622
130	0x3b270152	0.0025482965
131	0xbd2bf0e8	-0.041977793
132	0xbb08aeac	-0.0020856066
133	0x3d884853	0.0665442
134	0x3ce752d8	0.028237745
135	0x3aa62d8b	0.0012678368
136	0xbdfe317a	-0.12411781
137	0xbc7ff869	-0.01562319
138	0xbd5c2c0f	-0.053752955
139	0x3d2d1750	0.04225856
140	0x3b7037e1	0.00366544
141	0x3d9945b2	0.074839965
142	0xbab7fbfa	-0.0014036887
143	0x3d70517e	0.058671467
144	0x3ccf0fc9	0.025276082
145	0xbd8445b9	-0.06458611
146	0xbd198891	-0.037483755
147	0x3ca743c4	0.020418055
148	0xbb67fec1	-0.0035399648
149	0x3c4b4c5f	0.012408345
150	0xbd27ae8b	-0.04093794
151	0xbd8d0e70	-0.06887519
152	0xbd1ca1ee	-0.038240366
153	0xbd95d93d	-0.073168255
154	0xbd209af7	-0.039210286
155	0xbc5403a1	-0.012940318
156	0xbdce77e9	-0.10081465
157	0xbdb8e375	-0.09027759
158	0x3dd1d70f	0.10246097
159	0x3d201d41	0.0390904
160	0xbd0bcd33	-0.03413124
161	0x390c23d0	0.00013364782
162	0xbb42433e	-0.002964213
163	0xbd11ff90	-0.035644114
164	0x3ca17d96	0.019713204
165	0xb9770490	-0.00023557455
166	0x3a8415e9	0.001007733
167	0xbd574d37	-0.052563872
168	0xbdb448d3	-0.088029526
169	0xbce5831b	-0.028016618
170	0xba863008	-0.0010237703
171	0xbc1199b3	-0.008886742
172	0x3d05386f	0.032524522
173	0x3a0f20da	0.00054599124
174	0x3d9015f1	0.07035435
175	0x3d92b634	0.07163659
176	0x3dedb111	0.11606038
177	0xbd990f25	-0.07473592
178	0x39a72cbc	0.00031886052
179	0x3a4dc413	0.0007849347
180	0x3df9bea4	0.12194565
181	0x3d31ab41	0.04337621
182	0xbba7c4ee	-0.0051199114
183	0x3db81aab	0.089894615
184	0x3d644078	0.055725545
185	0xbdfc11a1	-0.1230805
186	0xb9e5bb98	-0.00043818052
187	0x3cb6ea61	0.022328557
188	0xb9933114	-0.0002807459
189	0x3d9c9ef1	0.07647503
190	0xbc8a015f	-0.016846357
191	0xbb494db4	-0.003071648
192	0xb9f0f90b	-0.0004596192
193	0x3d8d82ef	0.06909739
194	0x3dbf00a5	0.09326295
195	0xbde1d3ee	-0.110267505
196	0x3a2b8672	0.0006543166
197	0xbd8ab080	-0.06771946
198	0xbd0a010c	-0.033692405
199	0x3d8f1b53	0.069876336
200	0xbdcff6e2	-0.10154511
201	0x3a8934a9	0.0010467964
202	0xb9fbfad4	-0.00048061332
203	0xbdae1ec1	-0.085019596
204	0xbd7de0bd	-0.061981905
205	0x3d2116c4	0.03932835
206	0xbcbb017d	-0.022827858
207	0xbdebf799	-0.11521835
208	0x3d169bd4	0.036769703
209	0x3b50afa6	0.0031842976
210	0x3a86247a	0.001023426
211	0x3d5de9f4	0.054178193
212	0xbcb4f740	-0.022090554
213	0x3d97039b	0.073737346
214	0xbc4582ae	-0.012055082
215	0xbdac55db	-0.08414813
216	0x3d298982	0.041390903
217	0x3bd7e324	0.0065883566
218	0x3dde1aef	0.10844981
219	0xba53a93d	-0.00080742297
220	0xbcac5e96	-0.021041196
221	0xbd5c8a2a	-0.0538427
222	0x3d43cb41	0.04780126
223	0xbb224efd	-0.002476632
224	0xbd743dbc	-0.059629187
225	0x3ca21273	0.019784188
226	0x3bcbca5e	0.0062191924
227	0xbd63c7c3	-0.05561043
228	0xba6613a6	-0.00087767316
229	0xbcefe39e	-0.029283341
230	0xbde1c1d2	-0.110232964
231	0xbcd6649e	-0.026171025
232	0xbd99d6e6	-0.07511692
233	0x3da5d66d	0.08097539
234	0x38d9867d	0.00010372417
235	0xbc4da2ad	-0.012550992
236	0x3b8c987c	0.0042906385
237	0x3dd36f72	0.10323991
238	0xbd9a90e0	-0.07547164
239	0xbdf67caf	-0.120355
240	0x3c930991	0.017948898
241	0x3bcd2bab	0.006261309
242	0x3db1d5d9	0.08683366
243	0x3d3af68f	0.045645293
244	0xbd74ae98	-0.059736818
245	0x3c2ee468	0.0106745735
246	0xbd8c36d5	-0.06846396
247	0xbc049924	-0.008093152
248	0x3caa1f0b	0.020766756
249	0xbdab3304	-0.0835934
250	0xbd0655f4	-0.032796815
251	0xbcb78fe1	-0.022407474
252	0x3d328a0f	0.043588694
253	0xb96d08f5	-0.00022605418
254	0xbd590a1a	-0.05298815
255	0xbd415604	-0.04720117

lstm.bias_ih_l0 f4 [128]
0	0xbd9820b9	-0.07428116
1	0xbcd8774a	-0.026424069
2	0xbd36208d	-0.044464637
3	0xbdced797	-0.10099714
4	0x3c8915ed	0.016734088
5	0xbdc7d4c1	-0.097573765
6	0x3dcec00e	0.10095225
7	0xbe011b53	-0.1260808
8	0xbdca6cc3	-0.09884026
9	0x3da457d2	0.08024563
10	0x3dd3d5d5	0.103435196
11	0xbd9b266d	-0.075756885
12	0x3e0f22b0	0.13978076
13	0xbde27d7e	-0.11059092
14	0x3d2e40af	0.042542156
15	0x3a168754	0.00057422114
16	0xbc527ea6	-0.012847578
17	0xbcef6870	-0.029224604
18	0xbcfab003	-0.030601507
19	0xbc5a1541	-0.013310731
20	0xbe0a5919	-0.1351055
21	0x3e20beab	0.15697734
22	0x3dea4719	0.11439342
23	0xbcfbb1a9	-0.030724363
24	0x3d3fb1ec	0.04680054
25	0x3df5e04f	0.12005674
26	0xbda41c5f	-0.08013224
27	0x3da3ead6	0.08003776
28	0x390b5d56	0.00013290843
29	0x3cce845a	0.025209595
30	0xbd935071	-0.07193077
31	0x3ddd6b45	0.10811476
32	0xbd12aee6	-0.035811327
33	0x3df0331e	0.117285
34	0xbe10e5c7	-0.14150153
35	0x3ddeeaae	0.10884605
36	0x3cbb443b	0.022859683
37	0xbd4e4309	-0.0503569
38	0xbc43f852	-0.01196106
39	0x3dcd4bc9	0.100242205
40	0xbdcab556	-0.09897868
41	0xbcb15a93	-0.021649634
42	0xbdead9ed	-0.11467347
43	0xbdab0e95	-0.08352391
44	0xbe0bf6cc	-0.13668364
45	0x3dfa51cd	0.122226335
46	0xbdc64012	-0.09680189
47	0x3d8becd4	0.06832281
48	0xbcea8909	-0.028629797
49	0x3dab2ee0	0.0835855
50	0xbd882ef4	-0.066495806
51	0xbdb0ee0f	-0.08639156
52	0x3d86e4ff	0.06586646
53	0x3d985577	0.07438176
54	0xbde2f9df	-0.110828154
55	0x3d9ff72f	0.078108184
56	0xbd0466d8	-0.032324642
57	0x3d86e1ee	0.065860614
58	0xbdec74bd	-0.115457036
59	0xbdcef220	-0.101047754
60	0x3b7e519d	0.003880597
61	0xbd8e6ae4	-0.069539815
62	0xbc211534	-0.009831715
63	0x3c83d330	0.016091913
64	0xbe17b2cb	-0.14814298
65	0x3e203c01	0.1564789
66	0xbdfe0256	-0.12402789
67	0xbc65ec87	-0.014033443
68	0xbd359fba	-0.04434178
69	0x3e131ce8	0.14366496
70	0xbd7ea29d	-0.0621668
71	0xbe19bb00	-0.15012741
72	0xbe036c4d	-0.12834282
73	0x3d815b8c	0.06316289
74	0x3baff1af	0.005369387
75	0x3de369a2	0.11104132
76	0x3d4caca6	0.049969338
77	0x3e3af47f	0.1825733
78	0x3dd51ad7	0.1040551
79	0x3c877af1	0.016538115
80	0xbe103065	-0.14080961
81	0x3e22b6bc	0.1589002
82	0xbdb270c0	-0.087129116
83	0xbdca0cd4	-0.09865728
84	0xbe1e8cbf	-0.15483378
85	0xbe280c8c	-0.16411036
86	0x3de29444	0.11063436
87	0xbdbe0741	-0.09278727
88	0x3d9833c0	0.074317455
89	0x3d9c6b6b	0.07637676
90	0x3e070a4d	0.13187523
91	0xbd8963d1	-0.067084916
92	0x3c94f55b	0.0181834
93	0xbd4bcd6a	-0.049756445
94	0xbd9bbbb2	-0.076041594
95	0x3de28c4e	0.11061917
96	0xbdde048d	-0.10840712
97	0xbdcb4700	-0.099256516
98	0x3cc60009	0.024169939
99	0xbdd5a001	-0.10430909
100	0xbd75c0af	-0.05999821
101	0x3da95707	0.08268552
102	0xbd780b48	-0.060557634
103	0x3d8bc229	0.068241425
104	0xbd02a404	-0.0318947
105	0xbb059368	-0.002038205
106	0x3bb65f1a	0.005565536
107	0x3ce954b1	0.028482767
108	0xbdaed7a4	-0.08537224
109	0xbd16b2d8	-0.036791652
110	0x3c73d073	0.014881241
111	0xb9da9bc7	-0.00041696263
112	0xbcddc4c5	-0.027071366
113	0x3dd0d860	0.1019752
114	0xbdcb81ac	-0.09936842
115	0x3dfcdbe0	0.12346625
116	0xbdcd075d	-0.1001117
117	0x3d80b124	0.06283787
118	0x3c2d24a5	0.010567819
119	0xbb287362	-0.002570354
120	0xbcf44414	-0.029817618
121	0x3c6846d7	0.014177046
122	0x3cb5269f	0.022113143
123	0x3ddcdc0d	0.10784159
124	0xbdfb0aeb	-0.12257942
125	0xbd9ccc1e	-0.0765612
126	0x3c5c6e15	0.01345398
127	0x3d9ccc8b	0.07656201

lstm.bias_hh_l0 f4 [128]
0	0x3d9daa46	0.07698493
1	0xbbf9f71f	-0.007628336
2	0x3e051a45	0.12998302
3	0x3cfcf505	0.030878553
4	0x3cadde03	0.021224027
5	0xbde08f84	-0.109648734
6	0x3dfede9b	0.124448024
7	0xbdcaa578	-0.09894842
8	0x3dec0627	0.11524611
9	0x3dce9a73	0.100880526
10	0xbd84379b	-0.064559184
11	0x3b0f7a22	0.0021892865
12	0x3c902339	0.01759492
13	0x3dab9df7	0.08379739
14	0xbd234d15	-0.039868433
15	0x3d2c0cc5	0.042004365
16	0x3dc7835c	0.09741852
17	0xbd96030e	-0.073248014
18	0x3d76f788	0.060294658
19	0xbd37a4ee	-0.044835024
20	0xbcdc7f2d	-0.02691611
21	0xbd82b290	-0.06381714
22	0x3c02ea47	0.007990426
23	0x3e01d325	0.12678201
24	0xbe042149	-0.12903322
25	0xbd810367	-0.06299477
26	0xbc340cda	-0.010989392
27	0x3d840949	0.064470835
28	0xbd1a80c9	-0.037720475
29	0xbdaf5be6	-0.0856245
30	0xbd640e0e	-0.055677466
31	0x3daac7ca	0.08338888
32	0x3d5056a2	0.05086387
33	0xbd482812	-0.04886634
34	0xbdbc20a3	-0.091859125
35	0xbbdfc27d	-0.0068286047
36	0xbc263533	-0.01014452
37	0xbd7a8188	-0.061158687
38	0xbc936419	-0.017992066
39	0x3de0a5de	0.10969137
40	0x3deace00	0.11465073
41	0x3cc314aa	0.023813564
42	0xbda0aee4	-0.07845858
43	0xbdc687db	-0.09693881
44	0xbce0a8d3	-0.027424252
45	0x3d3c7d0a	0.046017684
46	0x3cde73ba	0.027154792
47	0xbd9c2cbc	-0.0762572
48	0xbdb03cc3	-0.086053394
49	0x3b703a2c	0.0036655767
50	0x3bf81074	0.0075703207
51	0xbc362db3	-0.011119294
52	0x3c191ea4	0.009345684
53	0x393d082c	0.00018027489
54	0x3c5978e5	0.013273452
55	0x3d7bf877	0.06151625
56	0xbd91beba	-0.07116456
57	0x3b61385d	0.003436587
58	0xbd01e22d	-0.03170984
59	0xbd8e9e51	-0.0696379
60	0x3c2b89d3	0.010469872
61	0xbd7fd68d	-0.06246047
62	0xbc716ced	-0.014735443
63	0x3e007612	0.1254504
64	0xbd5ed8d7	-0.054406013
65	0x3d1fd62c	0.03902261
66	0xbd5a4612	-0.05328948
67	0xbb78ee57	-0.0037983858
68	0x3c425b17	0.011862538
69	0x3be3aa36	0.006947781
70	0xbd321130	-0.043473423
71	0xbc9e284a	-0.01930632
72	0x3d76a9dc	0.060220584
73	0xbd84ca55	-0.06483904
74	0x3e0e3c5a	0.1389021
75	0x3e14cbe1	0.14530899
76	0x3d811148	0.06302124
77	0xbc2d1bd6	-0.010565719
78	0x3cea1e08	0.028578773
79	0xbd8a05c7	-0.06739383
80	0xbde323b1	-0.11090792
81	0xbe281f84	-0.16418272
82	0x3d2c4b7f	0.042064186
83	0xbd2619de	-0.040552013
84	0xbe34f1f1	-0.17670418
85	0xbe2632cd	-0.16230316
86	0x3c4a0cf5	0.012332191
87	0x3ddbfe9e	0.10741924
88	0x3e03fc22	0.1288915
89	0xbbf95a8a	-0.00760967
90	0xbe117c55	-0.14207585
91	0x3df2bfca	0.11852987
92	0xbcee7c0b	-0.029111883
93	0x3dce6473	0.10077753
94	0xbd046736	-0.032324992
95	0x3c4e5f9f	0.01259604
96	0xbd5961a4	-0.053071633
97	0xbd4c9cb9	-0.04995415
98	0x3d299f27	0.041411545
99	0x3c83e353	0.016099608
100	0x3dfd3700	0.12364006
101	0xbd84d70f	-0.06486332
102	0x3dd8b07e	0.10580538
103	0xbd3b7700	-0.045767784
104	0xbdd721cc	-0.10504493
105	0x3cbb9539	0.022898303
106	0x3dc76aff	0.09737205
107	0xbdf26629	-0.11835892
108	0xbdabeb71	-0.08394516
109	0x3dddd4cc	0.108316034
110	0xbd82a3f0	-0.06378925
111	0x3df600b0	0.1201185
112	0x3df37daa	0.11889203
113	0xbdf27731	-0.1183914
114	0x3c5b03cd	0.013367605
115	0xbc03ca07	-0.008043773
116	0xbd11bdec	-0.035581514
117	0xbc2729ae	-0.010202808
118	0x3cfa707e	0.030571219
119	0x3c1287b4	0.008943487
120	0x3dc6c9db	0.097064696
121	0xbdbfe5ec	-0.09370026
122	0xbd71b091	-0.059006277
123	0xbd8116c4	-0.0630317
124	0xbd2e6c38	-0.042583674
125	0xbdc22d1a	-0.09481259
126	0xbce4b39c	-0.027917676
127	0xbd7ae600	-0.0612545

gcn.bias f4 [32]
0	0xbc950366	-0.018190097
1	0xbba60a95	-0.0050671794
2	0xbc6ba743	-0.01438314
3	0x3bcab3e9	0.0061859977
4	0x3c318766	0.010835504
5	0x3aade696	0.0013267573
6	0xbabfce0a	-0.0014633548
7	0x00000000	0.0
8	0x3c9bee1b	0.019034436
9	0x00000000	0.0
10	0x374be870	1.21538615e-05
11	0x3b600e90	0.0034188367
12	0x3c371398	0.011174105
13	0xba332db8	-0.0006835121
14	0x00000000	0.0
15	0x3c9dcfc7	0.019264115
16	0xbc3f75c7	-0.011685795
17	0x3bd436c9	0.0064762575
18	0x00000000	0.0
19	0xbbe8157d	-0.0070826397
20	0xbc8a87e4	-0.0169105
21	0x00000000	0.0
22	0xbc848b1c	-0.016179614
23	0xbc2be009	-0.010490426
24	0x00000000	0.0
25	0x00000000	0.0
26	0xbc57dfc6	-0.01317591
27	0x3c4e71b4	0.012600351
28	0x3bb9deb1	0.005672299
29	0x00000000	0.0
30	0x00000000	0.0
31	0x3c89f6bd	0.016841287

gcn.lin.weight f4 [32, 32]
0	0xbdf13e25	-0.11779431
1	0x3d401e4b	0.04690389
2	0xbe1b61cd	-0.15174027
3	0x3e05a867	0.13052522
4	0xbe806625	-0.2507793
5	0xbd3778eb	-0.04479305
6	0x3d5bd069	0.053665552
7	0x3e0af7f0	0.13571143
8	0x3e35190b	0.17685334
9	0xbc009096	-0.007846972
10	0xbc2cfec0	-0.010558784
11	0x3e6213ec	0.22077912
12	0xbda19c4d	-0.0789114
13	0x3e15cd4d	0.14629097
14	0xbded24d1	-0.11579288
15	0x3e492af5	0.19645293
16	0x3e4fbfa5	0.2028795
17	0xbd35088b	-0.0441976
18	0xbd9cbe1c	-0.07653448
19	0xbdd2d27a	-0.102940515
20	0x3cdb037a	0.026735056
21	0xbde653df	-0.11246466
22	0xbe6a6a4e	-0.22892115
23	0xbe1f54f1	-0.15559746
24	0x3e496aca	0.19669643
25	0xbdb303cb	-0.08740958
26	0xbe3203b6	-0.17384228
27	0x3e226d51	0.15862013
28	0xbe6b4bf4	-0.22978193
29	0x3d08feb2	0.03344602
30	0xbd67316e	-0.056443624
31	0x3dbffb0d	0.09374056
32	0xbe5179fd	-0.20456691
33	0x3db03706	0.08604245
34	0xbb9bdf43	-0.0047568395
35	0xbdef2ccb	-0.116784655
36	0x3e0af1e4	0.13568836
37	0xbd9f88c7	-0.0778976
38	0xbb0bcf37	-0.0021333226
39	0xbde06a99	-0.10957832
40	0x3c9d593d	0.019207591
41	0xbd722e3c	-0.059126124
42	0xbd201168	-0.0390791
43	0x3dc88e9f	0.09792828
44	0x3e77019f	0.24121712
45	0xbe3224fa	-0.17396918
46	0x3d7a73c9	0.061145578
47	0x3e6f1ab8	0.23350036
48	0x3e4f7d47	0.20262633
49	0x3d6fef30	0.058577716
50	0x3d76a592	0.060216494
51	0xbe66482c	-0.22488469
52	0x3e4e3839	0.20138635
53	0x3b8d0bb8	0.0043043755
54	0xbe54e436	-0.2079018
55	0x3e077380	0.13227654
56	0xbdfc1e4d	-0.12310467
57	0xbe5baf83	-0.21453671
58	0xba24e230	-0.0006289808
59	0x3c19d985	0.00939024
60	0x3e55d5f7	0.20882402
61	0x3d8d5b8c	0.06902227
62	0xbdaed1f8	-0.08536142
63	0xbd253e76	-0.04034277
64	0xbe582b0a	-0.21110168
65	0xbddf0633	-0.10889854
66	0xbd717067	-0.058945086
67	0xbe5b1e4c	-0.21398276
68	0x3dd4eb0e	0.103963956
69	0xbc7556a2	-0.014974268
70	0x3d8c8cfa	0.06862827
71	0x3e8a752b	0.27042517
72	0xbe270a0d	-0.16312428
73	0x3b749799	0.0037321805
74	0xbe58de54	-0.21178561
75	0x3db2e2b2	0.08734645
76	0xbdea8177	-0.11450475
77	0xbcf827fd	-0.030292505
78	0xbe933fb9	-0.28759554
79	0xbe272885	-0.1632405
80	0x399ada28	0.00029535708
81	0x3dbd64f9	0.09247775
82	0xbe04ed0f	-0.12981056
83	0x3e585ec1	0.21129896
84	0x3d8aee73	0.06783762
85	0xbe0cbed2	-0.13744667
86	0x3e37a3df	0.17933606
87	0xbca6786b	-0.020321092
88	0x3de55a97	0.11198919
89	0xbe2356b2	-0.1595104
90	0x3e2037b0	0.15646243
91	0x3e42568b	0.18978326
92	0x3e785902	0.24252704
93	0xbe149520	-0.14510012
94	0xbd228769	-0.03967992
95	0xbd8b5a1c	-0.068042964
96	0x3d4a301c	0.049362287
97	0xbe4e9cb4	-0.20176965
98	0x3e216de0	0.1576457
99	0xbc2d91e0	-0.010593861
100	0x3b4c657e	0.0031188424
101	0xbb28aa2a	-0.0025736191
102	0xbe40b0f0	-0.18817496
103	0x3df33a0c	0.11876306
104	0xba3c5bd9	-0.0007185317
105	0xb9b8c372	-0.00035240833
106	0xbe81f799	-0.25384215
107	0x3e45014c	0.19238776
108	0x3bc17fd3	0.0059051304
109	0xbd8cfbb4	-0.06883946
110	0x3e069fa3	0.13146834
111	0x3d4afff2	0.049560495
112	0xbb898047	-0.0041962
113	0xbdd915ff	-0.105998985
114	0x3e1d3834	0.15353471
115	0x3e344e4e	0.17607996
116	0xbd2fcf0a	-0.042922057
117	0x3a03cd06	0.0005027804
118	0xbe820fc4	-0.25402653
119	0x3dd327a3	0.103102945
120	0xbd68eb48	-0.056865007
121	0xbdfe49f6	-0.12416451
122	0x3da50df8	0.08059305
123	0xbde7fa22	-0.11327006
124	0x3d3e9e2d	0.046537567
125	0xba2d6b36	-0.0006615402
126	0xbe24153a	-0.16023722
127	0xbc36c511	-0.011155383
128	0xbe55fc69	-0.20897068
129	0xbe20402a	-0.15649477
130	0xbe876967	-0.26447603
131	0xbe5bbfb9	-0.21459855
132	0x3e7ad072	0.24493578
133	0xbe1bbe3f	-0.15209292
134	0x3e2b6715	0.16738541
135	0xbe8f36ae	-0.27971405
136	0xbd363f59	-0.044494007
137	0xbbc7f655	-0.006102363
138	0xbe56e3ca	-0.20985332
139	0xbe3a0b44	-0.1816836
140	0x3e52e724	0.20595986
141	0x3df919f0	0.1216315
142	0x3e750225	0.239266
143	0xbe3a9409	-0.18220533
144	0xbe2689f6	-0.16263565
145	0x3d4be0bb	0.049774867
146	0xbc7dc3b2	-0.015488552
147	0xbe91abb7	-0.2845132
148	0xbe99b45d	-0.3002042
149	0xbe8bd74e	-0.27312702
150	0x3e4ecc2f	0.20195077
151	0x3d29479a	0.04132805
152	0x3e3f7672	0.18697527
153	0xbe15e09d	-0.14636464
154	0xbe20cc1f	-0.15702866
155	0xbdbf4ddf	-0.093410246
156	0xbd6d9ea3	-0.058012616
157	0xbe14593a	-0.14487162
158	0x3d568be6	0.05237951
159	0xbe288f14	-0.1646083
160	0x3d0462a4	0.032320634
161	0xbb2a6012	-0.0025997204
162	0xbe2dc134	-0.16968232
163	0xbc15a684	-0.009133939
164	0x3e548952	0.20755509
165	0xbd92b33b	-0.07163092
166	0xbd562cdb	-0.05228887
167	0x3e801b2c	0.2502073
168	0xbcc114ac	-0.023569427
169	0x3b02e73a	0.0019974248
170	0x3cb30d9b	0.021857074
171	0x3b845426	0.0040383516
172	0x39455164	0.00018817704
173	0x3cf64ab4	0.030064918
174	0xbe68ac26	-0.2272192
175	0x3df36628	0.11884719
176	0xbdfaf80f	-0.12254345
177	0xbe16f459	-0.14741649
178	0x3da954e1	0.082681425
179	0xba46506c	-0.00075650844
180	0xbc30ab73	-0.010783064
181	0x3e76e2b6	0.24109921
182	0xbc2cf278	-0.010555856
183	0x3dbdcc02	0.09267427
184	0x3b1baf0c	0.002375546
185	0x3e183237	0.14862905
186	0x3d9b8590	0.075938344
187	0xbd86526e	-0.06558691
188	0xbe04aa2b	-0.12955539
189	0x3cb9eb07	0.022695078
190	0x3e82253a	0.25419027
191	0x3e039563	0.12849955
192	0xbc98c499	-0.018648433
193	0x3e773ef2	0.24145105
194	0xbab372d7	-0.0013690841
195	0x3ce27973	0.027645802
196	0x39819a0d	0.00024719574
197	0xbdd583b9	-0.10425515
198	0x3e0b8106	0.13623437
199	0xbe81dc4b	-0.25363383
200	0x3d916ef5	0.071012415
201	0xbe40fe85	-0.18847091
202	0x3d6b53f5	0.057453115
203	0x3d09555c	0.03352867
204	0xbd60177e	-0.054709904
205	0xbaf3e15c	-0.0018606591
206	0x3a3b6ad8	0.0007149405
207	0x3db80955	0.08986155
208	0x3e51ceef	0.20489095
209	0x3df8d98c	0.12150869
210	0xbe1aeec9	-0.15130152
211	0x3e0f6e8f	0.14007019
212	0x3e559600	0.20858002
213	0x3ce5ba82	0.028043035
214	0xbe2af5c9	-0.16695322
215	0xbd974a50	-0.07387221
216	0x3ad91e0e	0.0016564743
217	0xbe668697	-0.2251228
218	0x3d820e54	0.06350389
219	0x3ac47bc1	0.0014990495
220	0x3df8d8f4	0.121507555
221	0x3e35d15f	0.1775565
222	0xbe0958fa	-0.13412848
223	0x3e40e47d	0.18837161
224	0xbe710e43	-0.23540597
225	0x3ca86355	0.020555178
226	0xba317ce5	-0.0006770625
227	0xba0c5ace	-0.0005354107
228	0x3cbba5e1	0.022906246
229	0xb9dfe376	-0.00042703346
230	0x3e3fb6a1	0.18722011
231	0x3e79a03b	0.2437753
232	0x3de18405	0.11011509
233	0xb88beca4	-6.672114e-05
234	0xbd4f0403	-0.050540935
235	0xbe4ce14f	-0.20007823
236	0xbd94a9f4	-0.072589785
237	0x39befd3c	0.00036428298
238	0xbe7d3439	-0.24726953
239	0xbe648e88	-0.22319996
240	0x3e18f9e2	0.14939073
241	0xbe03d7cc	-0.12875289
242	0x3e40d2c1	0.18830396
243	0x3da7cedc	0.08193752
244	0xbe5c60e0	-0.2152133
245	0xbe174caa	-0.14775339
246	0x3aed8fce	0.0018124522
247	0xbdea6276	-0.11444561
248	0xbe133ae6	-0.14377937
249	0xbe6aece6	-0.22941932
250	0x3e612fd6	0.21990904
251	0xbe4373a3	-0.1908708
252	0x3d704d9a	0.058667757
253	0xbe11aabc	-0.14225286
254	0x3e4dabf0	0.2008512
255	0x3a30861f	0.0006733853

fc1.weight f4 [16, 32]
0	0x3d3b5e22	0.04574407
1	0xbc9cbecf	-0.019133953
2	0x3d96293a	0.07332082
3	0xbd93f839	-0.07225079
4	0xbe27ada6	-0.16374835
5	0xbc9e1068	-0.019294932
6	0xbde21384	-0.110388786
7	0x3d784d70	0.060620725
8	0xbe46277b	-0.19350998
9	0x3c6b4318	0.014359258
10	0x3b927403	0.004469396
11	0xbdf1d99f	-0.11809086
12	0xbe0fc726	-0.14040813
13	0x3d07f251	0.033190075
14	0xbc523b28	-0.012831487
15	0xbe435120	-0.19073915
16	0x3db200db	0.086915694
17	0xbde0e64e	-0.10981427
18	0xbd5c299e	-0.053750627
19	0xbd44ce9f	-0.04804861
20	0x3e06d952	0.13168839
21	0xbdc404e7	-0.095712475
22	0x3e1d742f	0.15376352
23	0xbce73df4	-0.028227784
24	0x3dc47b6b	0.095938526
25	0x3de397a9	0.11112911
26	0x3e06aeaa	0.13152567
27	0xbd5ee9f4	-0.054422334
28	0xbaba4673	-0.0014211669
29	0x3ddd5daf	0.10808884
30	0xbb6129e8	-0.0034357253
31	0xbd1cbfb9	-0.03826878
32	0x3dbf67e6	0.09345989
33	0xb92d0744	-0.00016501272
34	0x3d76a900	0.060219765
35	0x3daa5263	0.08316495
36	0xbdbc9fbd	-0.09210155
37	0xbd1bb8c3	-0.038018
38	0xbde3b4f7	-0.11118501
39	0xbd95c77f	-0.073134415
40	0xbc4393f6	-0.011937132
41	0x3c94db81	0.018171074
42	0x3d4a3562	0.049367316
43	0x3d9527f4	0.07283011
44	0xbdcd3f61	-0.10021854
45	0xbb39f454	-0.002837439
46	0x3b4bb87e	0.0031085308
47	0x3d206c3c	0.03916572
48	0x3d6599fc	0.056055054
49	0xbde52166	-0.11188011
50	0x3d33f66b	0.043936174
51	0x3c000b38	0.007815175
52	0x3db82c5d	0.089928366
53	0xb97916b0	-0.00023754942
54	0xbdc6c520	-0.09705567
55	0xba347c3e	-0.00068849686
56	0xbcf90fd0	-0.030403048
57	0xbd6584d1	-0.056034867
58	0xbce2b480	-0.02767396
59	0xbc962957	-0.01833026
60	0xba63ab31	-0.00086848723
61	0xbaeef11e	-0.0018229818
62	0xbc1683f0	-0.00918673
63	0xbd521e76	-0.05129858
64	0x3cf15177	0.02945779
65	0x3dd30669	0.10303957
66	0x3d018130	0.031617343
67	0xb8c32990	-9.306066e-05
68	0x3c19a974	0.00937878
69	0x3dbb54c1	0.09147025
70	0xbcc2078c	-0.02368524
71	0xbc31c397	-0.010849855
72	0xba8fb929	-0.0010965216
73	0x3d58d611	0.052938525
74	0xbd603fcc	-0.05474834
75	0x3ab0a452	0.0013476706
76	0x3df6692c	0.12031779
77	0x3d81ab8a	0.063315466
78	0xbdc40490	-0.09571183
79	0xbc70f34d	-0.014706445
80	0xbd7b5e0f	-0.061369
81	0xbdb4783d	-0.08811996
82	0x3d97bdc0	0.07409239
83	0xbdc9a4ee	-0.09845911
84	0x3dbae183	0.09125044
85	0xbd7cba20	-0.06170094
86	0xbdc5d04e	-0.096588716
87	0xbdddf123	-0.10837009
88	0xbe00a214	-0.12561828
89	0x3d73765f	0.05943906
90	0x3d2c85d6	0.042119823
91	0x3de457f8	0.11149591
92	0xbdee328d	-0.116307355
93	0x3da64923	0.081194185
94	0x3ba685dc	0.0050818752
95	0xbca2c42d	-0.019868935
96	0x3a9ebad6	0.0012110125
97	0x3dbe5f64	0.09295538
98	0xbd3d6c01	-0.04624558
99	0x3d1432a5	0.03618111
100	0x3dff3d05	0.124628104
101	0xbd6551d2	-0.055986233
102	0x3db91172	0.090365306
103	0xbdfbb502	-0.12290384
104	0x3b023112	0.0019865674
105	0xbcc6cd3c	-0.024267785
106	0xbdbd1893	-0.09233203
107	0xbab75e85	-0.0013989961
108	0xbdf33d2e	-0.118769035
109	0xbc7769af	-0.0151008805
110	0xbc853d52	-0.016264591
111	0xbbc32e5d	-0.0059564547
112	0x3db9df58	0.090758026
113	0xbddf617a	-0.10907264
114	0xbb0e35a7	-0.002169946
115	0xbd9da29c	-0.07697031
116	0x3c88d3e6	0.016702604
117	0xbd6e5e94	-0.058195665
118	0xbd9d5928	-0.07683021
119	0x3dc8f166	0.09811668
120	0x3a1b0aab	0.00059143704
121	0xbda7ce08	-0.08193594
122	0x3d90d0c6	0.070710704
123	0xbd88d14e	-0.06680547
124	0xbd6260db	-0.05526815
125	0xbdc119bc	-0.094287366
126	0xba90ac14	-0.0011037611
127	0x3d26bdc1	0.040708307
128	0xb98f2d11	-0.00027308663
129	0xbdd20a2e	-0.10255848
130	0xbc9321c2	-0.017960433
131	0xbd14b054	-0.036300972
132	0xbb678bb8	-0.0035331082
133	0xbdbd32bc	-0.092381924
134	0x3d4b887d	0.049690712
135	0xbd77e688	-0.060522586
136	0x3d0165d1	0.03159124
137	0x3d46c108	0.048523933
138	0x3d351f1d	0.044219125
139	0xbd9e2be2	-0.07723214
140	0xbdfedfb1	-0.124450095
141	0x3db95f30	0.09051359
142	0x3df6562a	0.12028153
143	0xbc2136cd	-0.009839726
144	0xbaa72e58	-0.00127549
145	0xbca3d034	-0.01999674
146	0xbda9dc3e	-0.08293961
147	0x3d55eaa8	0.05222574
148	0xbddde2b2	-0.10834254
149	0x3d186906	0.037209533
150	0x3cdeeac4	0.027211554
151	0x3d45aed2	0.048262425
152	0x37c18db3	2.3073377e-05
153	0xbdda278b	-0.106520735
154	0xbccd358d	-0.025049949
155	0x3dcb233a	0.09918828
156	0xbe010760	-0.1260047
157	0x3d067864	0.032829657
158	0xbd93f324	-0.0722411
159	0xbb91852e	-0.004440925
160	0x3dfe6112	0.124208584
161	0xbde4c9a4	-0.111712724
162	0xbde71220	-0.11282754
163	0x3c167cfe	0.009185074
164	0xbd9c912c	-0.07644877
165	0x3ccc4849	0.024936812
166	0xbd2b03fc	-0.041751847
167	0x3c51b17b	0.012798662
168	0x3db54f6c	0.08853039
169	0x3dec6ce7	0.11544209
170	0x3b76e510	0.0037673153
171	0x3dfc1c28	0.12310058
172	0x3c5c1c5f	0.013434499
173	0x3c5e3c6f	0.013564213
174	0xbd9769ee	-0.07393251
175	0x3e1aea92	0.15128544
176	0x3b54506d	0.003239657
177	0xbd95ff59	-0.07324094
178	0x3db8fe37	0.09032863
179	0xbdcef278	-0.10104841
180	0x3cc12e63	0.02358169
181	0xbcf83505	-0.03029872
182	0xbd7cec29	-0.061748657
183	0xbdfa03a2	-0.12207724
184	0xb7abc4bc	-2.04764e-05
185	0x3d6ebb9c	0.058284387
186	0x3dd69c4a	0.104790285
187	0x3d45c3ed	0.048282553
188	0x3d89a2fa	0.067205384
189	0x3df15082	0.11782934
190	0x3c51dc94	0.012808938
191	0xbde98d4a	-0.11403902
192	0xbc45ec0a	-0.012080202
193	0xbde689de	-0.11256765
194	0x3e0174e5	0.12642248
195	0xbacb6368	-0.0015517296
196	0xbe30d4cf	-0.1726868
197	0x3db50aaa	0.08839925
198	0xbb7567dd	-0.003744594
199	0xbc11b36a	-0.008892873
200	0xbe271a91	-0.16318728
201	0x3d52bb4a	0.051448144
202	0x3d2b7033	0.04185505
203	0x3db1a35e	0.08673738
204	0x3da32bc3	0.07967331
205	0xbdaa0742	-0.083021656
206	0x3d888c82	0.06667425
207	0xbe3a6add	-0.18204828
208	0xbb874ea9	-0.00412925
209	0x3dc10fe7	0.09426861
210	0x3d8c3fc9	0.068481036
211	0x3d855224	0.06509808
212	0x3dba39a7	0.090930276
213	0x3d953e94	0.072873265
214	0x3da13492	0.07871355
215	0x3dc6a185	0.09698776
216	0xbae2737c	-0.0017276849
217	0xbc6b0953	-0.014345485
218	0xbdfa5dc5	-0.12224916
219	0xbdaffd0c	-0.08593187
220	0xbe046151	-0.12927748
221	0x3aa4012b	0.0012512555
222	0xbde04278	-0.10950178
223	0xbdb8c59a	-0.090220645
224	0x394fe2a6	0.00019825491
225	0x3d1e82af	0.03869885
226	0xbd318309	-0.043337855
227	0xbd823d6c	-0.063593715
228	0xb9c1da27	-0.00036974365
229	0xbd68f0b9	-0.056870196
230	0x3cb7e810	0.022449523
231	0x38827a4c	6.2216626e-05
232	0xba5d86b5	-0.0008450554
233	0xbdbcb487	-0.0921412
234	0xbd8326cf	-0.064038865
235	0x3dfb4fe6	0.12271099
236	0x3d78d19b	0.06074677
237	0x3c1afaad	0.00945918
238	0xbd9a7717	-0.07542246
239	0xbde49079	-0.111603685
240	0xbdebaa15	-0.1150705
241	0x3dc05927	0.093920045
242	0xbb3c9efe	-0.002878129
243	0x3dc90294	0.09814945
244	0xbae9b737	-0.0017831092
245	0x3bed12ae	0.007234893
246	0xbd373e42	-0.044737108
247	0xbd5291bd	-0.051408518
248	0xbaca0ad5	-0.0015414605
249	0xb920ac17	-0.00015322898
250	0x3d9a88e3	0.0754564
251	0x3d4bd527	0.049763825
252	0xbdd7c177	-0.10534947
253	0x3af0bc26	0.001836662
254	0x3a404ff3	0.0007336132
255	0xbddc11ec	-0.10745606

fc1.bias f4 [16]
0	0x3d972b16	0.07381265
1	0xbd36f7f4	-0.04467006
2	0xbd7e7f19	-0.06213293
3	0xbda7a65f	-0.0818603
4	0xbcf19315	-0.02948908
5	0x3e4d5f4f	0.20055889
6	0x3d8faa67	0.070149235
7	0xbd4f43da	-0.050601818
8	0xbc29dc10	-0.010367408
9	0xbdc658af	-0.09684884
10	0x3e331f11	0.1749232
11	0xbdc31343	-0.09525158
12	0xbd7069df	-0.058694717
13	0xbcce3a5c	-0.025174312
14	0x3d01bdcd	0.03167515
15	0xbde74e06	-0.11294179

fc2.weight f4 [4, 16]
0	0xbe66fff6	-0.22558579
1	0xbddc5120	-0.10757661
2	0xbe2cfe67	-0.16893922
3	0x3e275f3d	0.16344924
4	0xbe1f9b8f	-0.15586685
5	0xbdfb7a69	-0.12279207
6	0xbe040e1e	-0.1289601
7	0xbe08beca	-0.1335403
8	0xbe00ac59	-0.12565745
9	0x3b35a057	0.0027713978
10	0xbe479cfb	-0.19493477
11	0x3be43008	0.0069637336
12	0xbdc00b12	-0.093771115
13	0xbd290751	-0.041266743
14	0x3e28e724	0.16494423
15	0xbd932c10	-0.07186139
16	0x3db3f9ac	0.087878555
17	0x3d0fa0ed	0.03506558
18	0x3dadc17e	0.08484171
19	0x3e39040a	0.18067947
20	0x3dc5cf42	0.09658672
21	0xbe3a3773	-0.18185215
22	0xbd770b83	-0.060313713
23	0x3e0f7988	0.14011204
24	0x3e103d60	0.14085913
25	0x3e13faad	0.14451094
26	0xbdd3df79	-0.103453584
27	0xbddc2b91	-0.10750497
28	0xbb3a3575	-0.002841321
29	0xbdd2108d	-0.10257063
30	0xbe001e02	-0.12511447
31	0x3e442304	0.19153982
32	0xbd926cdc	-0.071496695
33	0xbde2fdb1	-0.11083544
34	0x3d508f8d	0.05091815
35	0xbbb5ecca	-0.005551909
36	0x3e05ddab	0.13072841
37	0x3da76c16	0.08174913
38	0xbe0fe2e7	-0.140514
39	0xba7ee6f1	-0.0009723744
40	0x3dc407e0	0.095718145
41	0x3b386e6f	0.0028141995
42	0xbcc25957	-0.023724241
43	0xba3d8930	-0.00072302204
44	0x3e4997e9	0.19686855
45	0xbd182cd6	-0.037152134
46	0xbe63b3c5	-0.22236545
47	0xbad24188	-0.0016041258
48	0x3e56b82a	0.2096869
49	0x3dda11a4	0.10647896
50	0x3d06c954	0.032906845
51	0x3d67308e	0.05644279
52	0xbdae6f70	-0.08517349
53	0xbe1dd5dc	-0.15413612
54	0x3e2a976e	0.16659328
55	0xbbe2691d	-0.006909503
56	0xbda3738b	-0.079810224
57	0x3dbf077f	0.09327602
58	0xbdaa0a56	-0.08302753
59	0x392219bc	0.0001545911
60	0xbc4fee54	-0.012691099
61	0xbd26de1b	-0.04073916
62	0x3d6d0d12	0.057873793
63	0xbcb0b8e8	-0.021572545

fc2.bias f4 [4]
0	0x3d4c1e6a	0.049833693
1	0x3d8c8c65	0.06862716
2	0x3b6bbad2	0.0035969508
3	0x3d224348	0.039614946
