outputs/models/best_stgcn_strategic.pth (torch, 118850 bytes, 12 tensors)

gcn1.bias f4 [32]
000000 0d ed 25 3d 96 2d 01 3e c5 ee 06 3e 10 ec 80 3d
       0.040509272 0.12615046 0.13177021 0.06295025
000010 33 c1 89 bd d0 ec d7 3d ed e2 69 3d b6 ab 44 3c
       -0.06726303 0.10543215 0.05710118 0.01200383
000020 13 42 24 3e 60 19 17 3e 32 12 2b 3b b3 6b 63 bd
       0.1604083 0.14755774 0.0026103375 -0.05552263
000030 3f 94 04 3e df 40 00 3e 1b 74 46 3e 2e 6f 5a 3d
       0.12947176 0.12524746 0.19380228 0.053328685
000040 da a5 c6 3d 71 21 d9 3d 4c 1b bc 3d 6b d4 76 3e
       0.096996024 0.106020816 0.09184894 0.24104469
000050 6d 88 53 3e 8e 4e 8a 3d 19 6a ac 3d bc 01 20 3b
       0.20657511 0.06753264 0.08418674 0.0024415096
000060 f2 58 04 3d 15 42 80 3c ab 0a 6e bc 3f 02 88 3d
       0.032311387 0.01565651 -0.014528911 0.066410534
000070 fa 8e 1b 3e 2f 12 9a bd dc 2f 5d 3d b9 bf 1c bc
       0.1519126 -0.075229995 0.05400072 -0.009567195

gcn1.lin.weight f4 [32, 5]
000000 7c d8 81 3e b4 d3 07 3e 4a 75 aa be fb 44 c5 be
       0.25360477 0.13264352 -0.3329261 -0.3852919
000010 8d 5c 98 ba 80 2f 44 bf 5a 2f be be a4 b4 a4 3d
       -0.0011624262 -0.7663498 -0.371455 0.08042267
000020 30 60 f1 bc 3c 39 28 bb bd b1 5b bf 27 f7 dd be
       -0.029464811 -0.002566888 -0.8581808 -0.43352625
000030 ea 94 2f 3d c2 e0 96 bd 04 bf a1 3d a8 3e aa 3e
       0.042866625 -0.07367088 0.078977615 0.33250928
000040 c5 72 16 3c 63 3f e1 be 5d a3 66 be e0 d7 c4 be
       0.009182637 -0.43993673 -0.22523256 -0.3844595
000050 8f ff 0a bf 14 0b 66 ba 4e 42 83 3e 33 49 17 3e
       -0.542962 -0.00087754545 0.25636524 0.14774017
000060 b6 8e e1 be 4e 66 8f 3e cc 5a 8c be 50 d8 be 3d
       -0.44054192 0.2800774 -0.27413023 0.09318602
000070 1f 8a a3 3e 75 14 44 3d 39 62 3b bf 16 a2 37 bf
       0.31941316 0.04787107 -0.7319675 -0.717317
000080 0d 86 96 3e 88 24 8a 3e d8 26 ef bd ce 54 a0 3e
       0.29399148 0.26980996 -0.11677331 0.313147
000090 4e 3f 9a 3d 2f 69 50 3e 55 4a 9b 3e f9 9c 5c be
       0.07531606 0.20352624 0.30330148 -0.21544255
0000a0 60 fd 88 bc 75 f4 c8 bd cf cc e1 bd 2b 4c 3a 3d
       -0.016722381 -0.098122515 -0.11025392 0.045482796
0000b0 82 1a 96 be 3e 32 ec 3d 0b 04 69 be a3 32 04 bf
       -0.293171 0.115330204 -0.22755449 -0.51639766
0000c0 c9 8f 2f be 87 3e f4 bd a1 d6 c1 be 2f 37 01 bf
       -0.17144693 -0.11925989 -0.3785906 -0.5047483
0000d0 48 5c fa 3d 4f 5b e3 3d 27 5b c3 bd ba 8e c8 3c
       0.122246325 0.111014 -0.0953887 0.02448212
0000e0 ac 54 6b be 4c e5 bf 3d f8 37 2c 3e b9 05 fc 3e
       -0.22981519 0.09369907 0.16818225 0.49223116
0000f0 8a d0 13 be 1d dd 97 3e 5e b8 bc 3c 91 ac 88 be
       -0.1443502 0.29660884 0.023037132 -0.26694158
000100 13 29 fb be cb 86 6b bf 6a 51 47 3e 9a 44 23 3e
       -0.49054775 -0.9200255 0.19464651 0.15944138
000110 e6 1a a5 bd 51 2b f1 bd fd 80 91 bf 25 df 06 bf
       -0.08061771 -0.1177584 -1.1367489 -0.5268424
000120 12 7e 0d 3e 16 43 25 be ab ee cf bd a3 06 ce 3e
       0.13817623 -0.16138873 -0.10152944 0.40239438
000130 0b e9 0f 3e ce 46 9f be 22 e8 19 3e 6a b5 94 be
       0.14053743 -0.31108707 0.15029958 -0.29044658
000140 e5 db 9a 3e 50 48 00 3e a4 8e 86 3d 9e 6c 65 bd
       0.3024589 0.12527585 0.06570175 -0.05601179
000150 06 a7 d6 be 22 bd 7c 3e 46 44 09 be 69 57 34 bd
       -0.41924304 0.24681523 -0.1340495 -0.044028673
000160 ba 66 e9 be dd ee f2 be 05 b5 f7 bd 80 02 21 3e
       -0.45586187 -0.47447863 -0.120950736 0.1572361
000170 d6 29 97 3d 94 0c bf be 3c a7 d6 be 40 7c 95 bf
       0.073810264 -0.37314284 -0.41924465 -1.1678543
000180 b7 75 61 bd f8 c1 8c 3d 81 48 48 be 84 7b d0 be
       -0.055043902 0.06872934 -0.19558908 -0.40719235
000190 3e 0b 56 3e 04 5d 56 be 69 83 95 bd 6a 7c 12 bf
       0.20902726 -0.2093392 -0.07300455 -0.5722109
0001a0 e6 35 3a be 8c 60 a3 bd 49 ec f9 3d d3 3b ec be
       -0.18184623 -0.07977399 0.12203271 -0.46139392
0001b0 ce db 15 bf fd 00 8b 3d 97 dd b9 bd fb 4b 1d 3e
       -0.5853852 0.06787298 -0.09075468 0.15361015
0001c0 bf 58 2f be 56 a2 74 be 69 c5 13 bf 3b 2a b7 3e
       -0.17123698 -0.23890051 -0.577231 0.35774407
0001d0 5c 51 31 3e 21 bb e8 3d 81 5b 61 3e 01 53 d2 3c
       0.17316192 0.11363817 0.22007562 0.025674345
0001e0 6a 44 02 bf 4a 73 0c bf e4 f9 d9 3d 3c 40 6f 3d
       -0.5088564 -0.5486342 0.10643366 0.058410868
0001f0 18 aa 42 bc 19 aa 14 3e 89 01 c1 3e 40 4a 87 3e
       -0.011881374 0.14518012 0.37696484 0.26423836
000200 93 2d b9 3e ab 92 63 3e 57 3a f0 3d 36 a2 c4 3e
       0.36167583 0.22223918 0.117298774 0.38405007
000210 4c 86 5d bd 41 2c ec 3d 7d 30 a5 3d 63 49 72 3e
       -0.054083154 0.11531878 0.08065889 0.23660807
000220 b8 ba 6d 3e a8 46 a8 be bd d5 cf 3d cd 56 a1 3b
       0.23215759 -0.32866406 0.10148189 0.0049236775
000230 92 94 11 3e f6 0b 26 be a5 e4 ae bd de 46 06 bf
       0.14216831 -0.162155 -0.08539704 -0.52451885
000240 59 26 bf be fd eb 2b 3e 9f 5c 88 bd 7d 23 73 3d
       -0.37333944 0.16789241 -0.06658291 0.059360016
000250 1d 9f 14 3e 27 dd 64 be d6 60 86 3e ca a4 0f be
       0.14513822 -0.22349988 0.26245755 -0.14027706
000260 b8 1b 71 3e f7 88 d4 3e 1b 59 31 3e 53 2d 0c bf
       0.2354573 0.41510746 0.17319147 -0.5475666
000270 c8 9d 63 3d c3 5f be 3d f1 be e8 bd bf b7 9d 3e
       0.055570394 0.09295609 -0.11364544 0.3080425

gcn2.bias f4 [32]
000000 fc ed 67 bc 7c 3d d5 bc 86 59 bd 3d e1 ed 03 bc
       -0.014155861 -0.026030295 0.09245591 -0.00805232
000010 ef f1 72 3d bc dc 83 bc 18 7d 00 3c 52 15 3e 3c
       0.059312757 -0.016096465 0.007842325 0.011601763
000020 d0 3b 84 bc 17 c0 db bd 32 ad 20 3d e0 b3 08 bd
       -0.016141802 -0.107299976 0.039227672 -0.033374667
000030 31 ce e9 3d a9 07 c4 3c 22 89 c3 3b 14 c8 7b bb
       0.11416281 0.023929434 0.0059672752 -0.0038418816
000040 da fd 07 bd fd ff de 3b a5 3d bc bb dc 0f 06 bd
       -0.033201076 0.0068054185 -0.0057446533 -0.03272997
000050 d6 33 33 bc 56 01 93 3d 81 67 aa 3c ce c0 bb 3d
       -0.010937652 0.07177989 0.020801308 0.09167634
000060 5a 2a e0 bc 83 ce b7 3c 37 4d 01 3d 8d 96 14 3d
       -0.027363945 0.02243734 0.03156778 0.03627639
000070 e4 ed 6b 3d 4c 17 72 bc 0a d5 0c bd 3a 82 d8 3b
       0.057599917 -0.014776062 -0.034382857 0.006607321

gcn2.lin.weight f4 [32, 32]
000000 ef da 83 3e 02 d0 f6 bd d8 13 58 be f2 21 4b bd
       0.2575297 -0.12051393 -0.2110132 -0.04959292
000010 88 cc 08 3f 5a fb 89 be 46 ac 04 bf 54 27 5c 3c
       0.5343709 -0.2694958 -0.5182537 0.013437111
000020 40 5b 40 bd 65 96 c9 bc 40 ab 0a bf 60 ee 82 3d
       -0.046962023 -0.024607847 -0.54167557 0.06393123
000030 f2 1b f2 3d ba 5a 5d 3e e1 54 dd bd 09 dc 35 3e
       0.118217364 0.2161664 -0.10807205 0.17759718
000040 72 4f 72 3b 6b 19 1d be b9 52 c5 3d c5 27 28 3e
       0.0036973623 -0.15341727 0.09634919 0.16421421
000050 ee 3f af bd 8a 23 7a 3e 7c b3 45 3e 90 98 4f be
       -0.085571155 0.2442762 0.19306749 -0.20273042
000060 09 62 05 bf cd 2b 3a 3e b2 d3 5d 3e c7 c6 fe bd
       -0.52102715 0.18180771 0.21662787 -0.124402575
000070 2d b0 16 3e 8d 60 39 be eb e3 85 be ae b1 2a 3c
       0.14715643 -0.18103237 -0.2615045 0.010418339
000080 9e ba fe bc ef 9b b5 bd bb 70 98 bd be cb 1d be
       -0.031094845 -0.088676326 -0.07443377 -0.15409753
000090 c7 17 25 bf 9e c5 c5 bc 94 19 35 bc bd df 01 be
       -0.64489406 -0.024142083 -0.011053462 -0.12683006
0000a0 3f c5 65 bd 01 bf 9d 3d 36 68 23 3c a1 13 77 be
       -0.05609631 0.07702447 0.009973576 -0.24128582
0000b0 c6 b4 34 bd 58 c6 34 3e 0d bf e0 3d e0 b0 42 3e
       -0.04411771 0.17653787 0.1097394 0.19012785
0000c0 b2 2f 57 3e 0c 20 25 be 5d eb 77 bd 21 c2 35 3d
       0.21014288 -0.16125506 -0.060527194 0.04437459
0000d0 fe 8e 2b 3e be 82 30 be b3 6b 81 3d c4 db 70 bd
       0.16753766 -0.17237374 0.0631937 -0.058803335
0000e0 62 06 24 bc 5f f2 30 3e cb 81 00 be 40 17 27 3d
       -0.010011287 0.17279957 -0.12549512 0.040793657
0000f0 8b b7 6f 3b 8f 64 84 bd c9 70 f0 bb 50 e6 98 bd
       0.0036577906 -0.064644925 -0.007337664 -0.074658036
000100 53 fa bd 3c 66 22 63 bd c4 83 e8 bc ca 21 2f bd
       0.023190653 -0.055452727 -0.028383143 -0.042756833
000110 c5 ec 3b bf 09 36 94 bd e7 ed 8a 3d b8 7d 85 be
       -0.73408157 -0.07236869 0.067836575 -0.26072478
000120 a9 18 20 be 8b ba 40 3e d2 a1 b6 bd b3 a6 19 be
       -0.15634407 0.1882116 -0.089175835 -0.15004997
000130 9e 37 03 bc 1b 1e 90 3c 10 f2 8b 3e ab e9 d5 bd
       -0.008008866 0.01759248 0.27333117 -0.10444959
000140 83 a0 7d 3c 4b 5e 52 be 11 c3 57 be 67 56 18 be
       0.0154801635 -0.20543782 -0.21070506 -0.1487671
000150 0a fe 3f bb 42 33 2b be 28 a8 ac 3c ea 14 a1 3c
       -0.0029295706 -0.16718772 0.021076277 0.019663293
000160 8f 5c 05 3e 8d fa 8b 3e f7 b1 83 3e 3c 53 8f bd
       0.1302359 0.27339593 0.25721714 -0.069982976
000170 36 53 ac 3d a5 38 bb bd 93 8d d1 bd be 48 07 be
       0.08414309 -0.091416635 -0.10232081 -0.13211343
000180 7f 42 2d 3e 7e a5 34 be 8f a9 3f 3d 15 fe 3a 3e
       0.16919897 -0.17641255 0.046792563 0.18260987
000190 7a 5e 47 3e 8f 6a ae 3c 89 de 20 ba 02 25 bf bd
       0.19469634 0.021291045 -0.0006136676 -0.093332306
0001a0 a7 33 c7 3d 1e 90 63 3e 0c ec 19 be cd 8b 65 3e
       0.09726649 0.22222945 -0.15031451 0.22416611
0001b0 33 76 38 3e 00 77 8a bd 42 93 8e 3c 69 2e f3 3d
       0.1801384 -0.06760979 0.017404202 0.118740864
0001c0 34 06 94 bd 30 e7 b7 3d 9f e3 69 3e 32 be 80 be
       -0.07227746 0.089796424 0.22840737 -0.25145108
0001d0 96 51 01 3e e6 53 85 3e 2d 60 7d be 2b 7d 23 3e
       0.12628779 0.26040572 -0.2474372 0.15965717
0001e0 90 97 2e be bc fb f4 3d 14 f2 28 bd fa 9c 36 3e
       -0.17050004 0.11962077 -0.04124649 0.1783332
0001f0 0f ba 9f 3e 4d 67 64 be 3c eb 0f bd ae a0 ae bd
       0.3119664 -0.22305031 -0.035136446 -0.08526741
000200 5c 05 18 3d ac 21 a3 3d 6c 9f 3f 3e 25 4b 35 be
       0.037114486 0.07965407 0.18713158 -0.17704447
000210 f4 71 82 3e 4f 9c 9c 3d e7 d5 4f 3e e0 61 5a 3e
       0.25477564 0.07647001 0.20296441 0.21326399
000220 26 02 5f 3e ae 7d 4f 3c 43 03 81 3d 52 af 97 3c
       0.21778163 0.012664242 0.0629945 0.018516216
000230 f9 ac aa bd 46 54 81 3d f2 9d 31 be 01 d6 2f 3e
       -0.08333773 0.06314902 -0.17345408 0.1717148
000240 b7 95 b7 bd 60 94 06 3e d7 ab 09 be e8 44 32 be
       -0.08964103 0.13142538 -0.13444458 -0.17409098
000250 52 82 0a 3d 59 22 31 be e6 d5 fb bd 03 98 03 3d
       0.03381569 -0.17298259 -0.12296657 0.03212739
000260 d5 66 0e 3e d3 c7 6a 3d 2e 95 d9 bd 96 f2 8f bc
       0.13906415 0.057319473 -0.10624157 -0.017571729
000270 1e a2 55 3d 36 8c 80 3c 94 50 8f 3e 3f df a1 3d
       0.05215656 0.015691858 0.27991164 0.07903909
000280 75 eb 55 3e b8 d7 aa be 6e 59 6a be 8f 76 6d be
       0.20890601 -0.33367705 -0.22885677 -0.23189758
000290 92 9b 34 bd c9 20 65 3e 93 cd a6 be ca e9 03 3e
       -0.044093676 0.22375788 -0.32578716 0.12882152
0002a0 d1 3b f1 3d 55 75 ac bb 06 eb 86 be 02 93 6b 3e
       0.11778987 -0.0052630105 -0.26351184 0.23005298
0002b0 6b ef bc 3d 9f 74 47 be 17 0f a6 be 10 56 6b 3d
       0.09225353 -0.19478081 -0.32433388 0.057455122
0002c0 8f fe 28 3e e9 51 23 3e 5c 15 84 3d a1 dc 12 be
       0.16503356 0.15949215 0.064493865 -0.14341976
0002d0 fd 10 41 bd 8f 22 3c 3d 2d fe be bd 59 fc 1d be
       -0.047135342 0.045931395 -0.09325824 -0.15428294
0002e0 7c 27 82 be 1e 70 95 3e 1c 07 20 be 36 24 72 3e
       -0.2542075 0.291871 -0.15627712 0.23646626
0002f0 97 b1 10 be 44 0a 1e 3e 21 4a 4c 3e 42 0c 70 3e
       -0.14130245 0.15433604 0.19950153 0.23442176
000300 41 2b 7f be 53 27 4e 3d 65 68 78 be 3d 79 98 3e
       -0.24918844 0.05033047 -0.24258573 0.29779997
000310 97 ec dd 3e cf c7 a3 3d f9 e1 7b be 28 d0 c7 3b
       0.43344566 0.07997095 -0.2459792 0.006097812
000320 15 53 a2 3e 36 9c 9c 3d b3 e1 86 be c1 3e 27 3e
       0.31704012 0.07646982 -0.2634407 0.16332532
000330 78 76 97 bd 29 98 6b be ba d8 4b 3a 95 91 9d bd
       -0.07395643 -0.23007263 0.000777613 -0.07693783
000340 18 7f fc 3c cf 0c 32 3e be 34 67 3e 35 0f ee 3c
       0.030822322 0.17387699 0.22578713 0.029059986
000350 2f 04 84 3e ac 67 41 3d db e1 67 3e f2 9b 8b 3e
       0.25784442 0.04721801 0.22644751 0.27267414
000360 0f d5 b2 be cd 98 88 be 5f 4b 64 bb d3 af 55 3e
       -0.34928176 -0.26679078 -0.0034834964 0.20867853
000370 fd fc b0 bd d3 8b f3 bc 6e 2a 24 be 44 81 83 bd
       -0.08642004 -0.02972976 -0.1603181 -0.0642114
000380 4d b0 9c bd 1f 04 b1 3d 08 7b 19 be 26 fa 7c 3e
       -0.07650814 0.08643364 -0.14988339 0.24704799
000390 0e d1 a7 3e 2a 89 63 be a2 e5 42 be a6 af f8 3c
       0.32776684 -0.22220293 -0.1903291 0.030357193
0003a0 e6 04 9f 3e a2 43 63 3e a9 66 9a be 8a f4 43 3c
       0.31058425 0.22193769 -0.30156448 0.011960158
0003b0 8b b7 47 be 77 51 90 bb 67 39 03 3e 20 b7 10 bd
       -0.1950361 -0.0044042426 0.12814866 -0.03533089
0003c0 f4 91 40 3e e2 bf a8 3e 6d 15 1b be b4 b3 05 be
       0.18805677 0.32958895 -0.15144892 -0.13056833
0003d0 85 d9 4b 3e d4 4b 47 3e 2a f9 5b 3e a7 af 00 be
       0.19907196 0.1946252 0.21481767 -0.12567006
0003e0 8d 88 47 3d ac 60 a1 bc 45 f4 a4 bd 80 d2 6f 3e
       0.04871421 -0.019699417 -0.08054403 0.23420143
0003f0 18 72 9d 3d ef 96 61 bc 07 c2 ee bc 8c fc c8 3c
       0.07687777 -0.0137688955 -0.029145254 0.024534486

lstm.weight_ih_l0 f4 [256, 32]
000000 ca db 9a 3d c1 08 0d 3d 40 8a e4 3c 50 6d 1f 3e
       0.07561453 0.034432177 0.027897954 0.15569043
000010 57 d6 2e 3e 9a 64 06 3e 65 86 e3 3d 61 b3 f4 3d
       0.17073952 0.13124314 0.11109618 0.11948276
000020 bb 08 0d 3d fc c3 90 3d 4a df 97 3e 16 5d 17 3e
       0.034432154 0.07068631 0.29662544 0.14781603
000030 7e be 7d 3c 2a 70 9b 3d d9 e6 87 3d 3f b0 27 3e
       0.015487311 0.07589753 0.066358276 0.16375826
000040 91 24 da 3b e2 a4 d2 3d 32 d3 69 3c 26 9e e7 3d
       0.006657191 0.10285355 0.014271544 0.11309461
000050 3d 79 4b 3c 07 53 00 3d a3 7f 00 3d ef c3 f5 3d
       0.012419042 0.03132918 0.031371724 0.12000262
000060 54 a3 da 3d 7b d5 01 bc 03 ae e6 3d 54 b0 16 3d
       0.106756836 -0.007924433 0.11263659 0.036789253
000070 de 03 41 3d 85 36 0c 3e 5c 78 09 3e 1a 35 88 3d
       0.04712283 0.13692673 0.1342482 0.06650753
000080 5a 34 00 3d 64 cb 52 38 af c8 51 bb ea 99 fa 3d
       0.031299926 5.0257324e-05 -0.0032010486 0.12236388
000090 6a 75 b3 3d 67 10 b2 3d c7 c5 e7 3d 18 55 02 3e
       0.08762629 0.08694535 0.1131702 0.12727773
0000a0 92 ce 80 3b d6 3a 28 3d 07 43 42 3e b7 3e ac 3d
       0.003930875 0.041071735 0.18970881 0.084103994
0000b0 4a a5 c5 3b 52 01 1d 3e 9d 74 ff 3c 31 90 98 3d
       0.006031667 0.15332535 0.031183535 0.07449377
0000c0 83 09 f6 3a 33 71 43 bd a6 66 ab ba f1 46 3e 3d
       0.0018771145 -0.047715377 -0.0013076856 0.046454374
0000d0 4d 85 38 3c 78 1f d3 ba 30 9e 2c bd ca 95 c7 3d
       0.01126225 -0.0016107401 -0.042143047 0.09745367
0000e0 f2 4a 83 3d cb e5 19 3c 12 15 85 3d 48 bc 2e 3c
       0.06410779 0.009393166 0.064981595 0.010665007
0000f0 6a 1a d5 3b 42 2c 3f 3d d4 13 f5 3c ee ea 48 3d
       0.006503393 0.046673067 0.029916681 0.04905217
000100 00 cd 86 3c 41 67 0c bb 2d ca a6 39 ab 38 9b 3c
       0.016455173 -0.0021423849 0.0003181262 0.01894792
000110 db 3c 3c 3d 6f ca 15 3d aa fe 07 3c 93 3a 54 3c
       0.045956474 0.03657001 0.008300463 0.012953418
000120 34 d8 88 b9 b1 17 e3 3c 6f bf 5b 3d e5 0d 5d 3d
       -0.00026101025 0.027721258 0.053649362 0.05396833
000130 bc 7b 2c 3b 0d bd a8 3b 3a 10 8e b9 39 a2 11 3c
       0.0026318869 0.0051494897 -0.0002709644 0.008888775
000140 ad cd ae ba c7 db 35 bc 77 ad 3d 39 44 5a cb 3c
       -0.0013336443 -0.011099762 0.00018089065 0.024823315
000150 07 e2 b9 ba 42 a5 32 ba f4 97 8a 3b ff d9 9c 3d
       -0.0014181741 -0.00068147865 0.00422954 0.07658767
000160 0c 54 d9 3c ba ce 3f 3c 67 9f bf bb 20 07 8e 3c
       0.026529334 0.011707002 -0.0058478597 0.017337382
000170 03 75 4f 3c c6 c5 32 3c d0 8a f6 3b 44 2a f5 ba
       0.012662175 0.010911411 0.007523872 -0.0018704613
000180 05 a2 fd 3c d8 9f aa bc 9e 1c 95 3c 35 a3 fe 3c
       0.030961046 -0.020828173 0.018202122 0.031083683
000190 94 e8 0d bd ab dc be 3d b5 0c 3b bd 51 a6 14 3c
       -0.034645632 0.09319433 -0.045666415 0.009072856
0001a0 04 8e 1f bc 9a 2c 0c 3d 89 7d 3b 3c 8c 7f 93 3c
       -0.009738449 0.034222223 0.011443504 0.018005155
0001b0 e0 78 54 3b 9a 5e 1e 3c d5 b0 2d 3d 90 6b a7 3c
       0.003242068 0.009666109 0.04240497 0.020437032
0001c0 3e f2 ff 3b 2b 43 f0 bc a0 c1 0a 3c ae 03 8a 3d
       0.00781086 -0.029328903 0.008469015 0.06738983
0001d0 11 9a fc bc 48 00 f3 3a 90 70 8e bd 15 28 c4 bc
       -0.030835183 0.0018539513 -0.06955063 -0.023944894
0001e0 97 30 7a 3d 7a a4 d4 bc c9 c8 27 3b 4e 05 93 bc
       0.061081495 -0.025957335 0.0025601855 -0.017946865
0001f0 d6 de fc ba 66 5a f6 3d 07 81 b6 3c 7a e4 a0 3d
       -0.0019292485 0.12028961 0.022278322 0.078560784
000200 3c b8 6a bd 26 8e 39 3c 3b 1a ae bc 75 91 a1 3d
       -0.057304606 0.011325395 -0.021252742 0.07889072
000210 c1 a9 d0 3b f8 06 36 3c 26 42 61 3d 38 92 99 3d
       0.0063678925 0.01111006 0.054994725 0.07498592
000220 89 33 a1 bc dd 13 39 3d e8 2e fa 3d 52 0f be 3d
       -0.019677894 0.04518496 0.12215978 0.09280266
000230 da b7 a0 bb da db 69 3d 5b c9 66 bd de 5c a2 39
       -0.0049047293 0.057094432 -0.05634437 0.0003096824
000240 03 2b 48 3c bf 88 ab bc 19 6a f1 3b 75 4a 9d bc
       0.012217286 -0.020939229 0.007367384 -0.019200543
000250 d1 de 79 3c 88 9c 70 bc 31 99 3f bc 15 45 8d 3c
       0.0152508775 -0.014685757 -0.0116942385 0.017244855
000260 d8 d9 f0 bc 2a 1a 66 bc e6 5c 01 3d 49 c8 dc bb
       -0.029400751 -0.014044324 0.031582735 -0.006737743
000270 a8 b6 60 3c c7 97 f8 bc 21 f5 07 3d 06 ea b0 bd
       0.013715424 -0.03034581 0.033192758 -0.086383864
000280 0e 74 e5 3c fc d4 62 3a fe 2d c4 bb 2b 09 bd 3c
       0.02800944 0.0008652953 -0.005986928 0.02307566
000290 d3 69 cb 3c ca 5d 70 3c 20 10 41 3c 8c 9b 29 3c
       0.024830734 0.014670799 0.01178363 0.010352027
0002a0 3d 67 d9 ba a0 fb 59 3c 89 e8 18 3c e8 92 4c 3c
       -0.0016586554 0.013304621 0.009332784 0.012486197
0002b0 08 11 71 ba f6 23 63 3b 1c 67 c4 3b d7 c0 31 3c
       -0.0009195958 0.0034658886 0.005993737 0.010849199
0002c0 5e 8d a5 ba c0 6e fb 3b 2a a9 1a ba ba f4 27 3c
       -0.0012630632 0.0076731145 -0.0005899841 0.010251218
0002d0 69 af 13 3b 38 26 60 bb 68 66 0a 3d b6 d7 39 3d
       0.0022534973 -0.0034202468 0.03378907 0.045371734
0002e0 09 f8 94 3c 81 e6 bf 3b a8 02 a7 b9 1f a7 bd 3b
       0.018184679 0.0058563356 -0.000318547 0.0057877447
0002f0 db a2 bd 3b 32 ae b0 3c cd 83 d5 3a ab 19 01 3c
       0.005787236 0.021567438 0.001628989 0.007879655
000300 fa c3 b1 3c e7 30 11 3b 2c 53 99 ba a4 1b f7 3c
       0.021699894 0.0022154392 -0.0011697761 0.030164547
000310 48 68 0c b9 aa 60 2b bb 28 83 3b bb 00 ae f5 3c
       -0.00013390288 -0.0026150146 -0.002861211 0.029990196
000320 35 8c 6b bb 57 8e 1a 3b 0a 6f c5 b9 f1 72 85 bc
       -0.0035941724 0.0023583376 -0.000376575 -0.01629016
000330 bc 56 97 3a 13 4f d7 bc 27 b8 ab bc 63 ec 16 bc
       0.0011546235 -0.026282823 -0.020961834 -0.009211632
000340 ad d5 a2 bc 21 0e 3e ba 19 ad 84 bb fb e0 b8 3c
       -0.01987728 -0.000725003 -0.004048955 0.022568217
000350 7e 56 a4 bc c1 ba b2 bb 58 3b 30 3d 2e 26 6f 3d
       -0.020060774 -0.0054543917 0.043025345 0.05838602
000360 6f ba bb 3c ec a4 57 3c ab 77 46 bd f9 39 72 3c
       0.022916047 0.013161879 -0.048453968 0.01478433
000370 2b f9 c7 3b 5d 4c 67 3c 09 75 19 3d 49 51 a3 bc
       0.006102701 0.0141173275 0.03746513 -0.01993622
000380 fd a9 88 3c 58 2f 19 bc de 13 98 3c 9b 8c 84 bd
       0.01668262 -0.009349667 0.01856416 -0.06472131
000390 30 94 c7 bb 4a bd e8 3b db 44 0d bd 52 69 b7 3b
       -0.0060906634 0.007102643 -0.034489494 0.005597272
0003a0 7a 50 29 bb 2d 68 8a 3c db e3 1c 3d b2 eb ec 3c
       -0.0025835321 0.016895378 0.038303237 0.028920982
0003b0 c4 c0 67 3c 39 db 9e 3b 27 4a 1d 3c 5d c1 7e 3c
       0.01414508 0.0048479107 0.009600199 0.015549031
0003c0 98 8b ae 3b 70 3e 36 3d da 43 79 3b e5 05 c0 3c
       0.0053266995 0.04449314 0.0038034827 0.02344031
0003d0 38 a6 7f bb 12 46 21 3c d5 3f 11 bd a6 0d 7c bd
       -0.0039008986 0.009843366 -0.035461266 -0.061536454
0003e0 6b bf 1e bc 80 e1 81 bc 34 18 03 3d 8d bf 0d bc
       -0.009689192 -0.015854597 0.032005504 -0.008651626
0003f0 f5 b4 7f 3c 6d 60 25 3d 3c bf 60 3d dd 2d 7c bc
       0.015607108 0.040375162 0.054869875 -0.015391794

lstm.weight_hh_l0 f4 [256, 64]
000000 12 66 5d bd 53 b6 ed 3d 1d c3 42 3c b1 6a ab 3d
       -0.05405242 0.11607041 0.011887339 0.08369959
000010 d2 5f e6 bc 40 47 3b bd 4e 0b cb 3a 6b 09 7f 3d
       -0.028121863 -0.045722246 0.001549104 0.06226484
000020 80 0d cf b9 e4 cf 67 bd c2 04 4e bd 89 39 e7 3c
       -0.00039492175 -0.056594744 -0.050297506 0.028225677
000030 7e 8e 24 3d 65 73 af bc f3 c3 95 bc 6e 15 e7 bd
       0.040174954 -0.02141733 -0.018281912 -0.11283384
000040 ee cd f9 bd 23 0d d0 3d b4 0b 64 bd ae d7 c8 ba
       -0.12197481 0.10158756 -0.055675223 -0.0015323067
000050 f4 aa 80 3d 47 02 bb 3c 7c 28 0c 3e 82 14 83 3d
       0.06282607 0.022828234 0.13687319 0.06400396
000060 07 39 9a 3c 4e 5c 17 bc b7 9a 79 bd 32 9f 91 3d
       0.01882602 -0.009238316 -0.060938563 0.07110442
000070 c6 d9 da bd e6 b3 74 bc e6 41 8e ba 7f 6a 8a bd
       -0.10686068 -0.014935469 -0.001085338 -0.06758594
000080 43 3f a4 3d 2d d7 0a be 20 de b4 bd 36 22 20 3e
       0.08019879 -0.13558646 -0.088314295 0.1563805
000090 41 b9 51 3d f8 80 e4 3d 0c f1 01 be e8 7e c5 bc
       0.051202063 0.11157411 -0.12689608 -0.024108365
0000a0 08 84 97 bd be 1d a8 bd a8 fb 17 be c1 6f c6 bd
       -0.0739823 -0.08208798 -0.14842093 -0.09689284
0000b0 94 0e 9f 3d 4d 2e b5 3d 5c 58 7c bd 60 d2 9a 3d
       0.077664524 0.08846722 -0.061607704 0.07559657
0000c0 e2 b9 cd 3d 95 7e 43 3d 01 f9 9c bc 55 8f ef 3d
       0.1004522 0.04772814 -0.019161703 0.1169726
0000d0 e5 9f 3a bb 6d 05 8f bd 1c 04 49 bd e0 70 c8 3d
       -0.0028476652 -0.06983457 -0.049076185 0.09787154
0000e0 73 66 62 3d 17 f5 c2 bd 83 9b a6 bc 28 9c 48 3d
       0.055273484 -0.095194034 -0.020337826 0.048977047
0000f0 8a 16 21 bd a7 8a c1 bd 40 03 dd 3d 16 d9 b8 3d
       -0.039328136 -0.09450274 0.107916355 0.09025781
000100 cd e4 91 bd 08 ad 54 3d 99 f8 d9 bc 10 48 81 3d
       -0.071237184 0.051922828 -0.026607798 0.06312573
000110 30 ab 19 3c 93 f6 2a bd e6 cf 4a bb 84 2a 01 3c
       0.009379193 -0.041739058 -0.003094667 0.007883672
000120 c7 16 8a 3d cf 0c b4 bc e5 a9 5e bd 74 8e 8f 3d
       0.06742626 -0.021978764 -0.054361243 0.07009593
000130 9a d8 29 3d 70 e8 7f bd f6 50 6f ba 90 64 35 bd
       0.041466333 -0.06247753 -0.00091291906 -0.044285357
000140 87 91 b7 bb 76 db 4f 3c 16 40 2c bc b5 2a 8f 3c
       -0.005602065 0.012686601 -0.010513326 0.017476419
000150 0a 09 ab 3d 73 05 12 bc f9 f5 49 3d 6f 27 a0 bc
       0.083513334 -0.008912432 0.049306843 -0.019550053
000160 06 d3 f2 bc 6f 0c 16 3c e8 c7 9b bd 37 f1 2e 3d
       -0.02964164 0.009158238 -0.076064885 0.04271051
000170 f9 80 5c bd 2b eb be 3c 09 fa ea bc f5 b9 31 bd
       -0.053833935 0.023305496 -0.02868368 -0.043390233
000180 19 95 8c 3d 9f 4b 8c bd 2c 21 19 bd fc 15 c6 3d
       0.068643756 -0.06850361 -0.03738515 0.09672162
000190 ec 28 c3 bb 93 52 b8 3d 5e 93 b8 bd d4 d3 8b bc
       -0.005955806 0.09000125 -0.09012483 -0.017068781
0001a0 ff ca 68 bd d7 9b 62 bd b7 16 e8 bd ea d0 9a bc
       -0.056834217 -0.0553244 -0.113324575 -0.018898446
0001b0 ff 97 2f 3c 3d dc be 3c df 60 9e bd 2a bf b3 3d
       0.010717391 0.023298377 -0.077333204 0.08776696
0001c0 10 84 60 3d 60 e8 97 3d 37 d6 ae bc bf 47 a9 3d
       0.054813445 0.07417369 -0.02134238 0.082656376
0001d0 fc 41 0c ba 74 85 2d bd 1e c4 9b bd 0c 08 05 3e
       -0.00053504086 -0.0423636 -0.07605766 0.12991351
0001e0 e4 ec 0e 3d c7 dc a8 bd 29 f6 05 bd 0d ee ac 3d
       0.034893885 -0.08245235 -0.03270546 0.08443842
0001f0 a6 b7 88 bc e3 15 ab bd ae c5 90 3d 8d 3a 13 3d
       -0.016689133 -0.08353784 0.070689544 0.03594451
000200 46 1d 39 bd 28 64 25 3d 2a cf 0f 3c e2 0c 08 3d
       -0.045193933 0.04037872 0.008777419 0.03321541
000210 00 59 45 3b b1 46 70 3c 41 a4 07 bd 53 12 65 3c
       0.0030112863 0.014665292 -0.03311563 0.01398142
000220 f2 e8 43 3d 4c 72 94 3c 56 df 02 bd f5 30 f4 3c
       0.047829576 0.018120907 -0.03195127 0.0298085
000230 39 d0 47 3c cc c4 64 bc c7 62 f5 3b 4d a9 64 3d
       0.01219564 -0.013962936 0.007488582 0.05582552
000240 89 4b 37 3d 87 9d b0 3a 2c fb f8 ba 29 fd c2 3c
       0.04474977 0.0013474681 -0.0018995753 0.023802357
000250 96 06 d9 3c 94 48 4f bc 72 26 1c 3d a9 da 02 3d
       0.026492398 -0.012651581 0.0381226 0.03194681
000260 14 2e 67 bd d6 30 07 bd a9 ff 14 bd ba 01 82 3c
       -0.056440428 -0.033005558 -0.03637663 0.015869964
000270 eb 0a 08 bd 44 96 a4 bc 4f 01 0d bc cd 14 53 bc
       -0.033213537 -0.020091183 -0.008606269 -0.012883377
000280 09 ca 93 3c 0c 60 f7 bc a6 06 22 3a b1 e4 a2 3b
       0.018040674 -0.030197166 0.00061808 0.00497111
000290 fe e5 45 bc 53 91 d4 3c d1 72 08 bd e6 d3 24 3c
       -0.01207876 0.025948202 -0.033312622 0.010060286
0002a0 61 02 18 bd 74 27 8c bc ae 75 bb bc 1c 37 2a 38
       -0.037111644 -0.017108656 -0.022883262 4.0582483e-05
0002b0 21 9c 9d bb 63 88 3f 3c 09 96 02 bd 45 3f 1a bb
       -0.004809872 0.011690232 -0.031881366 -0.0023536247
0002c0 08 54 0f 3d 48 1b f3 3c ca 7c e3 bb df e1 03 3d
       0.034992248 0.029676095 -0.0069423662 0.03219783
0002d0 f3 f8 ba bc 9b 99 b5 bc ae 6c 1c bd 58 07 37 bb
       -0.022823786 -0.022167971 -0.038189583 -0.0027927961
0002e0 96 fd a2 bb d9 e8 20 bd 1b 61 bf 3a ae a7 09 3d
       -0.0049740775 -0.03928456 0.0014601083 0.033607177
0002f0 10 a7 06 bd b4 77 1a bd f1 4e a2 bb a6 2b 7d 3b
       -0.032874167 -0.037711814 -0.004953258 0.0038630753
000300 16 72 af bd be 6d e5 3c 47 cf 17 bd f1 71 b1 3c
       -0.08566682 0.02800643 -0.03706291 0.021660777
000310 31 07 4e bc 82 9d 40 bd d6 a9 23 3d 8a 0f f0 bb
       -0.012574957 -0.04702521 0.03995689 -0.007326071
000320 7e db ad bb d3 7d c7 bb 34 91 99 bd 8d 6b b6 3c
       -0.0053057065 -0.0060879975 -0.074983984 0.022268081
000330 e9 a4 b2 3b c8 e2 a2 bc da cf 20 bd d5 b4 57 bd
       0.0054517877 -0.019883528 -0.039260723 -0.05266269
000340 4c ad 20 bd eb de f2 3c 50 b2 0a bb 3a 6f 30 3b
       -0.03922777 0.029647311 -0.0021163411 0.0026921765
000350 47 9e 20 3d 2b db 45 3d 37 17 18 3d 83 0d bf bc
       0.039213445 0.048304718 0.037131514 -0.023321873
000360 ca 18 5e 3d 08 a4 1c 3d f2 5b 2e bd 7a c2 70 3b
       0.05422286 0.03824237 -0.042568155 0.003673701
000370 0d 07 e1 bc 79 ef 84 3c 5d 00 fc ba 9d a1 57 bd
       -0.027469182 0.01622747 -0.0019226182 -0.05264436
000380 e3 84 0f 3d ea 81 85 bd b0 8d 23 bd 6a 29 1b 3d
       0.03503884 -0.0651892 -0.039930046 0.037881292
000390 46 07 89 3c b8 62 0e 3c f4 6a 4c 38 65 6a 9e bc
       0.016727101 0.008690529 4.8736998e-05 -0.019337842
0003a0 b8 67 3c bb 17 eb 14 bd 8c 50 29 bc b8 98 da ba
       -0.0028748345 -0.03635701 -0.010334145 -0.0016677594
0003b0 49 b9 01 bc b0 52 ac bb 73 5d b4 3c f5 0f 8f 3d
       -0.007917711 -0.0052588806 0.022017216 0.069854654
0003c0 d4 84 a4 3b cc a9 a5 3c 0a 9b 36 3c ca 94 6f 3c
       0.005020717 0.020222567 0.011145363 0.014622876
0003d0 4a b2 be 3c 74 9c 79 bc 9a 34 14 bd 13 09 9f 3c
       0.023278374 -0.015235055 -0.036182977 0.019413507
0003e0 be d4 89 3d 65 70 93 bd 31 b6 58 bc 3a 83 78 3d
       0.067300305 -0.07199172 -0.013227032 0.060672022
0003f0 cf 53 e5 3c 9c 3c fa 3b f5 92 71 3d 75 45 86 3c
       0.027994065 0.0076366197 0.05897804 0.016390542

lstm.bias_ih_l0 f4 [256]
000000 ae 49 45 3d 5d 54 41 3e 7f 66 81 3c 74 4c c8 3d
       0.04816597 0.18879838 0.015795944 0.09780207
000010 ac cd a8 3d d1 08 8f 3c dc 8a 12 3d 6d d0 ed 3d
       0.08242354 0.017460259 0.035776958 0.1161202
000020 63 69 b3 3d 9d 41 da 3d 59 8b 33 bd 24 7c 18 3d
       0.08760335 0.10657046 -0.043834064 0.037227765
000030 13 c2 ba 3d dc 32 69 3d bb 7e 3b 3d a4 b4 11 3e
       0.09119048 0.05693327 0.045775156 0.14229065
000040 54 e3 cc 3d fd 29 9b 3d 0c 4a 91 3d 3a cb c0 3d
       0.10004297 0.07576368 0.070942014 0.094137624
000050 99 5d e5 3d 75 bf 05 3d 25 13 3f 3e f2 01 a8 3d
       0.11199493 0.03265329 0.18659647 0.08203496
000060 71 f3 39 3d 80 f2 a9 3d d7 c4 21 3d dd cd b9 3d
       0.04539818 0.08298206 0.03949436 0.090724684
000070 9e 47 8c 3d cb ae be bc 32 c4 9a bc af 11 05 bc
       0.068495974 -0.023276707 -0.018892381 -0.008121892
000080 38 d2 bd 3b 59 51 08 3e ff f1 c1 3d 6e d2 8a 3d
       0.0057928823 0.13312282 0.09469985 0.067784175
000090 f3 ec 1e 3b 0e d5 92 bd 6b bf 51 bd 74 b7 16 bc
       0.002425012 -0.07169543 -0.05120794 -0.009199012
0000a0 68 0f a8 3d e6 ce 51 3c df 12 d4 3d 28 57 5f 3d
       0.082060635 0.012805676 0.10355162 0.054526478
0000b0 7b 2c cc 3d 40 35 a3 3d 3d 9b 7c bc 78 04 eb 3d
       0.099694215 0.07969141 -0.015417871 0.11475462
0000c0 51 c6 83 3d 0a 8f 5e bc ae ac cd 3c 19 90 d8 3b
       0.0643431 -0.013583908 0.025106754 0.0066089747
0000d0 1c ee dd bc 95 06 92 bd dd 97 c4 3d bb 0f cf 3d
       -0.027091078 -0.07130162 0.09599278 0.10110422
0000e0 f5 57 52 3d 94 23 bc 3c b3 c6 d3 3c 3b 77 72 3d
       0.051353414 0.022966184 0.025851583 0.05919574
0000f0 ba 56 5d 3c 1d 31 5e 3d 32 43 06 bd 9d 2e 7f 3d
       0.013509447 0.054246057 -0.032778926 0.062300313
000100 64 66 00 3d d8 9e 23 3e 7b 7b db 3d 53 37 26 3e
       0.031347647 0.15978563 0.107169114 0.16232042
000110 06 42 e1 3d 5c 13 ce 3c 32 ac 1f 3d f3 fa 24 bd
       0.10998921 0.025155716 0.038982578 -0.040278386
000120 6e 0c 3c 3e b8 4a bb 3d 31 ad 24 bd 2c 4e e9 3c
       0.18364117 0.09145111 -0.04020423 0.028479658
000130 a3 34 a4 3d 27 d2 12 3e ea 99 13 bd b9 48 81 3e
       0.08017852 0.1433798 -0.036035456 0.25250795
000140 9f ed 51 3e 5e ed 57 bc 57 d8 c8 3a ac b3 27 3d
       0.20500802 -0.013179151 0.0015323263 0.040942833
000150 7c b1 d5 3c 7a 18 92 3d 44 28 16 3e 2c 7b 34 3d
       0.026085608 0.07133575 0.14663798 0.04406278
000160 a9 65 21 3e 55 f9 c7 3d b8 ac b5 3d d7 b3 84 bd
       0.15761437 0.09764353 0.08870834 -0.06479614
000170 6e a9 13 bd f5 61 2f 3c 3e d9 1e 3d cf 0d 50 3d
       -0.036050253 0.010704507 0.038781397 0.05079442
000180 11 f2 be 3d 9f 37 38 3e 4b ad 05 3e f4 21 26 3e
       0.09323514 0.17989968 0.13054387 0.1622389
000190 d8 4c f6 3d 9e a5 d4 3c d7 e1 26 bd fd 6c 49 bd
       0.120263755 0.025957879 -0.04074272 -0.049176205
0001a0 20 f4 68 3d 34 02 ae 3d 61 b0 b8 3c 7f 88 02 3e
       0.05687344 0.08496514 0.022545042 0.12747382
0001b0 fe 2a af 3d 6e b4 f3 3c 19 88 ce 3d 22 02 0e bd
       0.08553122 0.029749122 0.10084552 -0.034670003
0001c0 1f c0 ea 3d 95 a1 5b 3d 9c b4 bf 3d 54 64 76 bc
       0.114624254 0.053620894 0.093606204 -0.0150385685
0001d0 8b 83 38 3c 2e b9 03 bd 79 b2 4b 3e 23 c8 f9 3d
       0.011261831 -0.032159023 0.198923 0.12196376
0001e0 ab dc 77 3b 59 d8 28 3e 9e 53 e4 3c f0 3b f6 3d
       0.0037820737 0.1648878 0.027871903 0.12023151
0001f0 71 d9 32 3d 61 10 95 bd a9 84 4d 3e b5 c2 8f 3d
       0.0436644 -0.07278515 0.20070137 0.07019559
000200 a6 ae e7 3d de 23 00 bd 61 3c 9d bc 09 14 cb 3a
       0.113126084 -0.031284206 -0.01919383 0.0015493642
000210 2c 9d 1e 3c 8a 9e 80 bd 54 e7 b1 3c a4 38 d9 bd
       0.009681027 -0.06280239 0.021716751 -0.106065065
000220 0c e4 c1 3d d7 62 82 3c a3 a3 88 3d e5 97 04 bd
       0.094673246 0.015916271 0.06671836 -0.03237142
000230 20 81 90 bc cb cc 07 3d 12 42 8f bd cc 31 99 3d
       -0.017639697 0.03315429 -0.06995024 0.07480201
000240 ef e4 7b 3c 5c 0b f5 3c 25 1a 0d 3e bb 40 cf 3d
       0.015374406 0.029912643 0.13779505 0.10119768
000250 5a b5 bc 3d 93 33 36 bd 42 7b 36 bd a5 6e ba bd
       0.092142776 -0.04448278 -0.04455114 -0.09103135
000260 dd 22 31 bd 5c 05 cc bd 57 dc 7d 3d 41 7d 63 bb
       -0.04324614 -0.0996196 0.06197771 -0.0034712108
000270 6d aa 06 bd 26 e3 31 3d 0e 94 64 bc 14 df 9f bd
       -0.032877374 0.043429516 -0.013951315 -0.07806221
000280 0e 0a d6 3c cb b1 9f bc 9d 52 9b 3d 5c bb 60 3d
       0.026127841 -0.019493958 0.075841166 0.05486618
000290 a8 e1 58 3d 7b 1b d8 3d c5 79 88 bd 85 0f b3 bd
       0.052949578 0.105521165 -0.06663851 -0.087431945
0002a0 50 ce df 3c 92 60 08 3e 62 58 87 bd 85 2c a3 3d
       0.027320057 0.13318089 -0.066086546 0.07967476
0002b0 a6 bf e5 bc 41 a1 fc bd c6 c6 89 3d b3 19 0a bc
       -0.028045487 -0.12335444 0.06727366 -0.008428979
0002c0 52 d3 cc 3d d2 56 9c bd bc 63 82 3d 0c 2e ac 3d
       0.10001244 -0.07633747 0.06366679 0.0840722
0002d0 1f 9a c4 bd 05 fc 9f bd 7d 70 73 3d 35 12 75 3c
       -0.09599709 -0.07811741 0.05943345 0.014957954
0002e0 1b 40 8c bc 8d ff ca 3c 55 c2 63 3d d0 d2 ab 3d
       -0.017120412 0.02478006 0.05560525 0.08389819
0002f0 28 af aa 3d 1f d1 87 bd 6c 83 0b 3c 69 5a d8 bd
       0.0833419 -0.066316836 0.00851522 -0.10564119
000300 59 3b 61 3e c3 2e 05 3e 35 1d 58 3c 55 0f 69 3c
       0.21995296 0.1300612 0.013190557 0.014224847
000310 bc 09 10 3e ff f6 2d bd 9c 42 a6 3d ec fd 92 3d
       0.14066213 -0.042471882 0.081181735 0.07177338
000320 5b af f9 bb 74 cc 13 3d ba 49 32 3d 16 de 0b 3e
       -0.007619781 0.036083654 0.043527342 0.13658938
000330 2e 83 36 3d 3f fe 9c 3d 6d 71 c1 3b 4d 93 ee 3d
       0.044558696 0.07665681 0.005903414 0.11649189
000340 7f c3 d5 3d 6d 35 ac 3d d5 db c1 3c a0 d8 98 3c
       0.104376785 0.08408628 0.023664394 0.018657982
000350 96 cb c7 bc 60 0d a3 3d f5 f9 46 3e 23 a9 83 3c
       -0.02438907 0.079615355 0.19431289 0.016071862
000360 49 bf 0e 3e 73 b8 5f 3d 35 c7 8f 3c bb c4 2b 3d
       0.13940157 0.054619264 0.017551044 0.041935664
000370 64 7d 7c ba 0e 22 bd 3d 33 4a 25 3d 65 e2 a4 bd
       -0.0009631722 0.09235011 0.040353965 -0.08050994
000380 ea bd e5 3d df 2a 06 3e 51 28 d8 3b eb ed f5 3d
       0.11217864 0.13102292 0.006596603 0.1200827
000390 f4 36 db 3d 91 b9 49 3c f9 91 06 3e 57 72 41 bd
       0.10703841 0.012312309 0.13141622 -0.047228184
0003a0 2f 80 00 3e cd f0 ec 3d 26 3e f2 3d a2 52 f6 3d
       0.12548898 0.115693666 0.1182826 0.1202748
0003b0 9c 6b a6 3d 28 6a f0 3d fa bd e4 3d c1 33 48 3d
       0.081259936 0.11738998 0.11169048 0.04887748
0003c0 26 6f 66 3d 3c c9 28 3c 3f 87 93 3d ba 3f 59 3b
       0.056258343 0.010301884 0.072035305 0.0033149556
0003d0 e7 46 ff 3c 19 4d 98 3d 58 f4 bf 3d 9c 15 d6 3d
       0.031161739 0.0743658 0.09372777 0.104533404
0003e0 9b 33 6c bd 05 25 37 3d 42 f4 bd bb 70 f0 e9 3d
       -0.057666402 0.04471304 -0.00579694 0.11422813
0003f0 cf 41 1f bd ea f9 fb bc 52 d5 07 3e 38 4a 97 bc
       -0.03888112 -0.030758817 0.13264969 -0.018468007

lstm.bias_hh_l0 f4 [256]
000000 01 bc ce 3d 83 86 1b 3e 5f 61 d8 bc 05 65 fc bc
       0.10094453 0.15188031 -0.026413618 -0.030809889
000010 ea dc 87 3d 81 e7 d2 bc e0 95 26 3c 2f 21 15 3e
       0.06633933 -0.025745155 0.010167569 0.1456344
000020 9f a3 14 3e eb 5b b5 3d ce 01 e2 3d ba 51 05 3d
       0.14515541 0.088554226 0.110355005 0.032548644
000030 7b 00 ac 3d da dc 43 bb f5 74 ca bc 37 fe 6f 3e
       0.08398529 -0.0029886276 -0.024713973 0.23436819
000040 e0 db 85 3d 29 91 7e 3d b9 4a e9 3d 69 6a a3 3d
       0.065360785 0.062150154 0.11391205 0.079792805
000050 8b ab 98 3d c5 6a 9f 3d 88 2c d3 3d d8 1e 29 3c
       0.07454594 0.077840365 0.10311228 0.010322295
000060 c4 58 ca 3d 22 05 5c 3d 25 5b 32 3d d7 60 26 bd
       0.09880212 0.053715833 0.043543953 -0.040619697
000070 a5 c1 cb 3c da 27 39 3d b3 a7 4f 3d 40 85 8f bd
       0.02487261 0.04520402 0.05069704 -0.07007837
000080 74 a1 dd 3d a0 0f 8c 3d 8c f0 10 bb 5d c8 a1 3c
       0.1082181 0.06838918 -0.0022116033 0.019748861
000090 19 2c 97 39 68 5e 49 bd a4 60 a5 3c 47 b4 a3 3b
       0.0002883382 -0.0491623 0.020187683 0.004995856
0000a0 8e 3b 14 3e 69 73 01 3e 42 28 1d bd b2 de 11 3d
       0.14475843 0.12641682 -0.03836847 0.03561277
0000b0 85 75 bc 3d ea 76 82 bc a3 74 92 3d ef 59 e2 3d
       0.092021026 -0.015925843 0.07151153 0.1105231
0000c0 59 9c 17 3d f6 5e ae 3d 22 ac 12 bd 55 96 c6 3d
       0.03701434 0.08514206 -0.03580869 0.09696642
0000d0 ca 01 04 bd f8 85 7b 3d f4 eb d0 3d 0d cf 85 3c
       -0.03222827 0.06140706 0.102012545 0.016334081
0000e0 38 5e b0 3d b3 3c ae 3d c8 12 fb 3c 4d ce b3 3d
       0.08611721 0.08507671 0.030648604 0.08779583
0000f0 03 0b 02 3d 57 c7 02 bd 4b a7 5c 3d 6b 0c a9 3d
       0.031748783 -0.031928387 0.05387048 0.08254322
000100 2c ce 29 3e c8 ea f9 3d ed 9c 33 3c 16 49 82 bc
       0.16582555 0.12202984 0.010962707 -0.01590399
000110 ea 02 20 3d b0 f9 a8 3b 0d e7 58 3d 91 e1 42 bd
       0.03906528 0.005156718 0.052954722 -0.0475784
000120 f9 e6 5a 3d a0 34 a5 3d 5b e2 1f bd fc 31 74 3c
       0.05344293 0.08066678 -0.03903423 0.014904495
000130 15 54 11 3d 2b 85 23 3d f2 22 6f bd df 0f 4e 3e
       0.035480577 0.03992192 -0.058382936 0.20123242
000140 f4 5a cd 3d c8 57 0f 3d 97 5f 05 3d 0e 8e b2 3d
       0.100271136 0.034995824 0.032561865 0.08718501
000150 a6 03 c2 3d 47 57 f7 bc 76 b3 83 3c c6 e2 8a 3c
       0.09473352 -0.030192984 0.016076785 0.016953837
000160 a7 b9 33 3e 02 4c b5 3d 69 6c 80 3d ec b6 ab 3d
       0.1755129 0.08852388 0.062706776 0.08384499
000170 f6 64 02 3e ab 4c d1 3c 74 d1 56 bc 2f 4a 34 3d
       0.12733826 0.025549253 -0.013111461 0.04401606
000180 cc 4c 63 bd ed 4a ec 3c b4 54 cf 3d d3 02 3e 3b
       -0.05549316 0.028844321 0.10123578 0.0028993383
000190 21 c0 a1 3c 24 18 b4 3b 7e 12 9a 3d 47 b2 58 bd
       0.019744935 0.005496042 0.07523058 -0.052904394
0001a0 1f 9b 2d 3d 82 ab 41 3c 1a 4a 1c bd 8c 21 13 3e
       0.042384263 0.011820676 -0.038156606 0.14368266
0001b0 03 07 aa 3d 00 f7 f0 3d ca cb 2f bd 89 e9 2d 3d
       0.08302119 0.117658615 -0.042918958 0.042459045
0001c0 c4 f8 af 3c 04 e9 96 3b 30 fd 93 3d f5 e5 d1 3d
       0.021480925 0.0046054143 0.07226026 0.10248939
0001d0 74 89 75 3d 3f 35 9c bd 90 7e 51 3e 03 42 31 3e
       0.05994554 -0.076273434 0.20458436 0.17310338
0001e0 f0 45 1a bd 5a 59 cc 3d 8d 6c ec bb fc 4d ce 3c
       -0.037664354 0.0997798 -0.0072150887 0.02518367
0001f0 3c 17 82 3d 81 ca 4d bd 0e c1 11 3e fa 41 22 3c
       0.06352088 -0.05024195 0.14233801 0.009903425
000200 87 9b 09 bd a6 76 24 3b da be 7c bd 6b 6a 4e bd
       -0.033595588 0.0025095134 -0.061705448 -0.050394457
000210 a1 94 b7 3d 45 97 51 bc ba b6 89 bd 78 dc bc bd
       0.089638956 -0.012792413 -0.067243055 -0.092217386
000220 d4 cb b7 bd 2c a8 f5 3c af a4 84 bd 5c 42 b6 bd
       -0.08974424 0.029987417 -0.064767234 -0.08899376
000230 cd 2d 69 3c 5e 1a 6b bc d8 66 83 bd a6 ef b8 bd
       0.014232111 -0.014349548 -0.064161 -0.09030084
000240 cb 53 14 bb f3 87 a4 3d 2d 3f 8b 3d e4 a2 8e 3d
       -0.0022632952 0.08033743 0.06799159 0.06964663
000250 ed e5 a7 3d 18 38 d6 3d 3b 98 fd bd be f2 dd bc
       0.08198152 0.10459918 -0.12382551 -0.027093288
000260 c6 ba 83 3d 22 d0 1d 3d bc c4 40 bc 85 49 b6 3d
       0.064321086 0.03852857 -0.011765655 0.089007415
000270 0c 8c a5 3d 37 de 78 3d 14 25 b5 3d bb 94 75 bd
       0.080833524 0.060758796 0.08844963 -0.059956294
000280 ce 41 ba 3c 39 92 94 3d 1b 99 6e 3d 66 be ac 3b
       0.022736456 0.07254452 0.05825148 0.0052717207
000290 2b 3c 81 3d 2b fc 86 bc 7b 93 2f 3d 20 c4 48 3b
       0.06310304 -0.016477665 0.042865258 0.0030634478
0002a0 68 ea 01 ba 0b 60 0a bd 05 df b2 bd 10 ff c1 3d
       -0.0004955889 -0.033783 -0.08733944 0.094724774
0002b0 1f 20 8f 3d ca 9a 1c 3d 83 bc 64 bd c7 4c a1 3d
       0.069885485 0.038233556 -0.05584384 0.07875972
0002c0 7f 48 f1 bd 3c 5a d6 3d 0c 27 e7 3d ed b1 0d be
       -0.11781406 0.104664296 0.112867445 -0.13837405
0002d0 a5 8f bc 3c 4b 81 b8 bc bc 78 9f 3d 49 59 3b bb
       0.023017714 -0.02252259 0.077867 -0.0028587154
0002e0 2b 4b 09 3d 47 ec 52 3d 1b d5 82 3d 0f 94 86 bd
       0.03351895 0.051494863 0.06388303 -0.06571209
0002f0 48 b3 c9 3d f2 dc d2 bc 8a 91 ae bd 6d 6e 80 3d
       0.09848648 -0.02574012 -0.08523853 0.06271062
000300 6f 22 33 3e 2e c2 14 3e b1 30 21 3d 09 23 cd 3d
       0.17493604 0.14527199 0.039353076 0.10016448
000310 52 08 f8 3d 6d be 55 3d 16 e4 cb 3c 03 8a 0a 3b
       0.12110962 0.052183557 0.024889033 0.002113939
000320 51 a2 05 3c 1f 17 85 3d 7c 5e 4f 3d 94 41 22 3e
       0.008156375 0.064985506 0.050627217 0.15845329
000330 46 98 b2 3d 93 8d db 3d 1d 0c d0 3c 70 b6 3e 3e
       0.0872045 0.107203625 0.025396401 0.18624282
000340 75 03 53 3e ca ed 91 3d 09 85 ba 3d 3b 74 dd bb
       0.20606788 0.07125433 0.09107406 -0.0067582405
000350 92 12 ec 3d cb be 60 bc 8b da 25 3d 52 af cd 3d
       0.115269795 -0.013717364 0.040491622 0.10043205
000360 8b 9d 63 3c e5 95 4c 3d ea c4 6a 3d 04 bd cf bc
       0.013892542 0.049947638 0.057316698 -0.025358684
000370 59 0f cb 3d 29 87 1c 3d 73 33 8c 3d 65 ee 86 bd
       0.09915037 0.038214836 0.06845751 -0.06588439
000380 ff 8c 2e bd 49 ce 12 3e e5 c4 eb bb 4f c0 c4 3c
       -0.042614933 0.14336504 -0.0071951025 0.024017481
000390 1f 07 7e 3d 84 8a 98 3d d1 3a 12 3e 54 53 86 3d
       0.06201851 0.07448295 0.14280249 0.06558862
0003a0 60 8c e9 3c fc 2c 44 bb ec 1d 01 bc 07 78 0a 3e
       0.028509319 -0.002993404 -0.007880669 0.1352235
0003b0 e0 62 a7 3d 3c e6 37 bd 28 de d6 3d 3a 2c 57 bd
       0.08173156 -0.044897303 0.10491592 -0.052532412
0003c0 e5 ce a1 ba b9 ac 3b 3d 4d 1c f7 3d b2 57 d3 3d
       -0.0012344985 0.045819018 0.12065945 0.10319461
0003d0 4a a4 0a 3d ad c9 6e bd 43 ee a8 3d ab ce 6c 3d
       0.033848085 -0.0582978 0.0824857 0.05781428
0003e0 7f b9 16 bd 7d 88 04 3c 0c 77 93 bc 7c f8 ba 3d
       -0.036797997 0.008089182 -0.018001102 0.09129426
0003f0 8c 79 b9 bb 02 82 5f 3d 10 26 53 3c 68 07 ae bc
       -0.0056602415 0.054567344 0.012887493 -0.021243766

head.0.weight f4 [32, 64]
000000 07 dc 82 bd 42 bb 0a bc 42 f7 a3 bd a2 72 9f 3d
       -0.06389623 -0.008467497 -0.08006145 0.07785536
000010 55 c3 46 bd b0 07 de 3c 04 19 ad 3d 40 1a 91 3c
       -0.048526127 0.027103275 0.08452037 0.017712712
000020 cd 98 fd bd b1 23 91 bd 5d a0 f3 bd dc ec d4 3d
       -0.1238266 -0.07086886 -0.11895821 0.1039674
000030 f6 52 ba bd c5 03 82 bd a7 e6 54 bd f8 f1 d8 bd
       -0.09097855 -0.06348375 -0.05197778 -0.10593027
000040 8e b0 35 be 09 a2 13 3d a2 2c 46 bd de 66 76 bd
       -0.17743132 0.0360432 -0.04838241 -0.060156696
000050 1a c2 8d bd c4 ef 08 3e 79 2c 87 3d 0b ee 6c bd
       -0.069217876 0.13372713 0.06600279 -0.057844203
000060 37 fa 25 3e 30 58 10 3e b6 b8 b2 bd 57 f7 78 3c
       0.1620873 0.14096141 -0.08726637 0.015195689
000070 4b 54 04 bb 1f 0d d2 bb fd 55 bb 3d 99 19 86 3b
       -0.0020191844 -0.0064102556 0.0914726 0.004092407
000080 1d 59 52 3d cb 57 9f bc 9b df 2a be 8a 2e aa 3d
       0.051354516 -0.019451043 -0.16686861 0.08309658
000090 d4 27 71 3c 24 03 cf bc f3 d8 86 bd 03 46 b2 bd
       0.014718968 -0.025270052 -0.065843485 -0.0870476
0000a0 74 77 fd bd ce 89 b6 bd 4d a6 db bd f2 9e 56 bd
       -0.123762995 -0.08913003 -0.10725079 -0.052397676
0000b0 57 3d 3a bd 51 53 79 3d 1b 59 52 bc 6e 76 f2 3d
       -0.045468654 0.060870472 -0.012838627 0.11838995
0000c0 61 2f 2c 3d fd dd af bc 8d 8c 59 3d 28 2e d0 3d
       0.04203737 -0.021468157 0.053112555 0.101650536
0000d0 af 5d a0 3d 2e 2e df 3c 88 3e 32 bd fd 56 15 3e
       0.07830369 0.0272437 -0.043516666 0.14583965
0000e0 8e a2 f0 3b c6 11 77 bd 13 e1 d4 39 dc 58 44 3d
       0.007343597 -0.060319684 0.00040603484 0.047936305
0000f0 ed 62 07 3e d9 f4 58 bb 84 08 05 3e 4b b7 a6 3c
       0.13221331 -0.0033104925 0.1299153 0.020351073
000100 6f 90 05 80 53 fa 16 80 76 53 1d 00 e4 2b 4a 80
       -5.1099e-40 -2.11018e-39 2.69317e-39 -6.811572e-39
000110 fc ad 21 00 6e b0 12 80 25 86 37 00 d5 a8 28 80
       3.092985e-39 -1.71633e-39 5.099074e-39 -3.733985e-39
000120 a3 29 10 80 65 c2 13 80 a2 fa f4 0f 30 c5 0c 00
       -1.484304e-39 -1.81461e-39 2.4156798e-29 1.172764e-39
000130 35 80 1b 00 df d9 23 00 9d 28 38 80 02 b1 34 80
       2.52555e-39 3.2924e-39 -5.157357e-39 -4.838944e-39
000140 9e f1 0c 80 58 97 1c 00 f1 bf 43 80 c4 57 23 00
       -1.188702e-39 2.625686e-39 -6.221834e-39 3.245727e-39
000150 79 c9 0c 80 fa 5c 04 80 2e dd 2d 80 0b 4c 02 80
       -1.174301e-39 -4.00696e-40 -4.211942e-39 -2.1095e-40
000160 52 fd 20 00 39 1a 18 00 ee 1b 33 00 6a 61 3c 00
       3.02961e-39 2.213459e-39 4.69363e-39 5.545075e-39
000170 26 a8 02 00 c3 5e 31 80 8b 46 11 80 88 86 46 80
       2.43991e-40 -4.533933e-39 -1.58651e-39 -6.476745e-39
000180 33 8a 14 80 89 08 45 80 dd 2c 38 80 7b 62 07 07
       -1.886286e-39 -6.339711e-39 -5.158882e-39 1.0185212e-34
000190 a4 0a 41 80 80 d6 37 01 cf de 15 00 cd 9a 28 80
       -5.973124e-39 3.3765688e-38 2.008474e-39 -3.728952e-39
0001a0 1b 24 21 80 8b ef 0d 80 33 7f 08 04 53 71 0d 80
       -3.043524e-39 -1.279793e-39 1.604513e-36 -1.234515e-39
0001b0 6c 84 04 80 eb 19 05 00 9f 28 d3 86 2a ef 0e 00
       -4.14846e-40 4.68475e-40 -7.9429066e-35 1.371493e-39
0001c0 20 b0 41 80 46 a0 c0 80 04 17 15 80 47 dc 38 00
       -6.032489e-39 -1.768991e-38 -1.936802e-39 5.221808e-39
0001d0 c5 09 47 00 2e d4 24 80 85 1f 14 80 2b 77 1f 00
       6.523825e-39 -3.382194e-39 -1.848017e-39 2.88965e-39
0001e0 5e b4 36 00 9b 0b 25 80 88 59 31 80 d8 7a 25 80
       5.02382e-39 -3.402077e-39 -4.532057e-39 -3.441981e-39
0001f0 c3 f8 03 00 a7 17 3e 00 ac 9f 49 80 bf c5 17 00
       3.64745e-40 5.702286e-39 -6.76127e-39 2.183154e-39
000200 92 1c bb bd f3 0f 59 3d d3 fa d2 3c 73 38 b4 3b
       -0.09136309 0.052993726 0.025754368 0.0054998933
000210 cf df d9 3c b2 ad 25 bb 07 33 3d 3d a3 1f d1 bc
       0.026595978 -0.0025280532 0.04619124 -0.02552778
000220 ae 65 f4 bd 21 b5 ef bc 2b 5f 1a bb 05 6b b9 bc
       -0.11933456 -0.029261174 -0.002355526 -0.022634039
000230 7a 37 51 3d 2f bb 6e bd 6f 49 80 bd 0e 0e 9f bb
       0.051078297 -0.05828398 -0.06264006 -0.0048539704
000240 f1 80 87 bd 91 66 04 bc 0e 5b 95 bd 3c 22 78 bd
       -0.066163905 -0.008081094 -0.07292758 -0.060579523
000250 39 d0 99 3c e9 50 81 3d f2 e0 ec bc ef 83 c7 bd
       0.018776046 0.063142605 -0.028915856 -0.09741961
000260 fb 66 15 3e ee d1 16 3e d9 3c 14 3a 46 e1 08 3c
       0.14590065 0.1472852 0.0005654819 0.008354491
000270 ee 3c 91 3c c0 be c1 3b 5e 5a 0e 3d 61 07 62 3d
       0.017729249 0.0059126318 0.03475415 0.05518282
000280 4c 9b 9d bc 35 0b b6 3c eb 88 b4 3c be 90 b8 bd
       -0.01923909 0.02222214 0.022037944 -0.090119824
000290 ca f4 3c 3d 5f 68 8a bd ac 7d f2 3c b0 67 b4 bd
       0.046131887 -0.067581885 0.02960094 -0.08808839
0002a0 48 2e d8 bc 07 23 7a 3d ee c5 b2 3d df 63 20 3d
       -0.026389256 0.06106856 0.08729158 0.039157744
0002b0 07 b8 20 bc 9b 97 59 3d 94 ca 76 bc 14 76 34 bd
       -0.009809501 0.053123098 -0.015062947 -0.04405792
0002c0 d0 dd 37 be dd 68 a6 3c 97 e8 b0 3d a6 b4 ad bd
       -0.17955709 0.020313675 0.08638113 -0.084817216
0002d0 c3 5b 7f 3d dd 75 12 bc 96 8c b2 3c 75 03 4e bc
       0.06234337 -0.008939234 0.021795552 -0.012574066
0002e0 30 bd 94 bc ed 71 cb 3d f4 d7 b7 bc 63 35 fe bc
       -0.018156618 0.09933839 -0.022441842 -0.031031316
0002f0 93 83 a8 3d 9b 64 28 bd d6 bc 9c bd 52 86 08 bd
       0.08228221 -0.04111157 -0.07653205 -0.033331223
000300 f6 ea 7a be 59 3c 17 3e ea 44 5f bc 34 24 14 3d
       -0.24503693 0.14769115 -0.01362727 0.03616734
000310 52 ec c8 3d 8f b2 19 bc 3f 7c 38 bd e4 db 05 3e
       0.098106995 -0.009380951 -0.045040365 0.13072163
000320 fe e5 4f 3e 4e d5 1e be de c6 af 3c 85 fd 2a 3e
       0.20302579 -0.15511057 0.021457132 0.16698273
000330 a6 b8 c3 3d 80 5e 5e bd b0 e1 be bc fa 1f 49 be
       0.09556703 -0.05428934 -0.023300976 -0.19641104
000340 03 25 ba bd 83 bc 0b 3d 51 1f 8e bc fd 21 ae bd
       -0.09089091 0.034115326 -0.017348917 -0.085025765
000350 66 16 b8 3d 6b 93 9c bd 35 18 82 3d c1 35 97 bd
       0.08988647 -0.07645305 0.063522734 -0.073832996
000360 22 17 0f be f7 a1 0f bd 24 53 8b bd 5e f2 64 3c
       -0.13973668 -0.03506657 -0.06802967 0.0139738
000370 68 75 30 bd de dc 8e 3d 19 4f 6c bd 1b ea 79 bd
       -0.043080717 0.06975721 -0.05769262 -0.061014276
000380 15 c1 1b 3c 3d b1 af bd a1 00 d2 bc 7a cb 69 bd
       0.009506484 -0.085787274 -0.025635066 -0.057078816
000390 ce 45 ac bd 81 38 df 3d f4 8d da bd 35 c3 23 3d
       -0.08411752 0.10899449 -0.10671607 0.039981086
0003a0 04 ca 1b be 2d 52 d7 bd 42 35 dc bd 70 f3 0f bd
       -0.15213782 -0.10513721 -0.107523456 -0.03514427
0003b0 bb 58 d8 3d 5e 3f e3 3b 6c 8b 6e bd 70 87 cc 3d
       0.10563799 0.006935044 -0.05823843 0.0998677
0003c0 b3 1d aa 3b dd 3e f2 3d f8 fe cc bd 80 24 a9 3b
       0.0051915287 0.118283965 -0.10009569 0.005161822
0003d0 1f 07 82 3d f1 4f 52 bd 34 3a 28 be aa b3 ca 3d
       0.063490145 -0.05134577 -0.16428453 0.098975495
0003e0 75 2e 87 3d bb a8 cd bd aa ee 5b bd d0 24 c5 3d
       0.06600658 -0.100419484 -0.053694405 0.09626162
0003f0 49 87 3f be 85 5f cf bd d6 88 87 3d d4 9a 07 bd
       -0.18703951 -0.10125641 0.06617896 -0.03310664

head.0.bias f4 [32]
000000 32 2e 65 3d 74 1c 9a ad be 23 1c bc 96 49 f6 bd
       0.05595226 -1.7520409e-11 -0.009530006 -0.12025754
000010 5e b2 2e 3e cc 92 7d bd 7b 8e 95 bd 46 61 2c bd
       0.17060229 -0.061907575 -0.073025666 -0.042084955
000020 97 b6 be bc 4c a2 19 3e 14 4c 6c 3d ac ef df bc
       -0.023280425 0.15003318 0.05768974 -0.027335964
000030 9a f2 3e bd 82 6b df a3 07 ee 26 39 4e 87 f2 3d
       -0.04661808 -2.422324e-17 0.00015919666 0.118422136
000040 75 c6 97 bd 45 07 0f bd 06 fd 2f bc 73 d1 e6 3d
       -0.074108995 -0.034919042 -0.010741478 0.11270418
000050 71 1e 5f 3d 79 4c 83 bd 40 97 81 3d f0 89 96 3d
       0.05447239 -0.064110704 0.06327677 0.07350528
000060 49 5a 9e bd 4b 87 8a bc ac e9 9c 3d 59 bf 20 3c
       -0.07732064 -0.016910216 0.07661757 0.009811246
000070 bb 0e c8 bd d4 07 b0 af fd d0 a4 bc 07 f9 da 39
       -0.097684346 -3.2019776e-10 -0.020119185 0.0004176574
