outputs/models/best_stgcn.pth (torch, 454178 bytes, 12 tensors)

gcn1.bias f4 [64]
000000 8e c7 61 3d ce bd 41 3c 77 af 95 3d bb b3 b2 3d
       0.05512195 0.011825038 0.07308858 0.08725687
000010 0e ec 5a 3d 4e 05 19 3e 0f 32 1d 3d 5a 81 86 bd
       0.053447776 0.1494343 0.038377818 -0.065676406
000020 7f 9a 61 3d c7 8e ec 3c ee 2b d2 3d 31 d2 79 bd
       0.05507898 0.028876675 0.10262285 -0.06099147
000030 3b 03 b1 3c ec c1 7c 3d 2b 83 28 3d b3 93 94 3d
       0.021607986 0.061708376 0.041140717 0.07254734
000040 64 3b cd 3d f3 fa 89 3d eb 89 54 bc 06 b3 4f 3d
       0.100210935 0.06737318 -0.012972335 0.05070784
000050 d3 a0 89 bd d9 f2 0e 3d 8e 9c b1 3d 1b 4c 92 bc
       -0.06720128 0.034899566 0.086724386 -0.017858556
000060 76 75 97 3d c7 81 07 be f7 83 98 3c a9 41 a8 3d
       0.07395451 -0.132331 0.018617613 0.08215649
000070 67 6e 99 3d f5 bc ce 3d 8e 28 02 3e e1 5c 6a 3d
       0.07491761 0.100946344 0.12710783 0.057217482
000080 e2 3c c4 3d b8 71 86 3d 9a 9f ca 3d 04 1f 7e 3d
       0.09581925 0.06564659 0.09893723 0.062041298
000090 59 33 02 bc 76 1e 85 bd f8 f6 2d 3e e5 1b a7 3b
       -0.007946813 -0.064999506 0.16988742 0.005099761
0000a0 bc ea 59 3d da 15 3d 3d d1 2f c6 3d a5 61 49 3d
       0.053202376 0.046163417 0.09677089 0.049165387
0000b0 06 88 a9 bd 11 33 a9 bd 3f 32 17 3d b3 d4 f1 3b
       -0.082778975 -0.08261693 0.036913153 0.007380092
0000c0 b7 b0 ba 3d b9 07 3d bd e6 68 cc 3d f3 93 b3 3c
       0.09115737 -0.046149943 0.09980945 0.021921134
0000d0 6c d2 b0 bd ee d5 2f bc 1f c0 9a 3d 6e 98 f3 bc
       -0.08633885 -0.010732157 0.075561754 -0.02973577
0000e0 cc 49 8c 3c 47 9c ff 3d 60 d5 9e 3d 3c 23 00 3d
       0.017125033 0.124809794 0.07755542 0.031283602
0000f0 34 05 86 3d 13 86 37 bd f2 28 21 3d 7f e9 cf 3c
       0.06543961 -0.044805598 0.03934569 0.025379894

gcn1.lin.weight f4 [64, 5]
000000 4d 6a fe 3d 6a 78 f1 be 46 9e 92 be 28 a3 8b 3d
       0.12422619 -0.4716218 -0.28636378 0.06818229
000010 f6 bc ac bd 5f 3a 36 3e db 58 f5 3d 6c c7 ae 3e
       -0.08434479 0.17795704 0.119798385 0.34136522
000020 b8 6c 9c 3e ae cf 06 bb f2 be 2b bf 8b 2d 81 be
       0.30551696 -0.0020570564 -0.67088234 -0.2523006
000030 52 be 03 3e de 28 29 3d 7d dc 00 be 02 72 45 bf
       0.1286557 0.04129874 -0.1258411 -0.7712709
000040 ef ae 75 3d 70 0f ed 3c 23 cd 49 3e ad 47 cf be
       0.059981283 0.028938025 0.1970716 -0.40484372
000050 f3 23 7c 3e 50 c4 d3 bd 0d 42 58 3e 57 ac 9d be
       0.24623089 -0.10340178 0.21118946 -0.30795547
000060 2b 54 61 be 43 04 a7 bd d5 c9 1b bf 62 4f af 3e
       -0.22004764 -0.0815511 -0.60854846 0.34240252
000070 d6 a7 90 3d db 4b a1 bd 4b 4c 07 bf 18 08 9c bc
       0.07063262 -0.078757964 -0.5285079 -0.019046828
000080 cb 04 d9 be c1 0f e5 be 3f cb 23 3d 51 44 2a 3d
       -0.4238647 -0.44738582 0.039988752 0.041569058
000090 3a ba 80 3e 0b fd 68 3e e5 bc 30 3d 29 2a af 3d
       0.2514208 0.22752778 0.043148894 0.08552963
0000a0 16 41 28 bf f9 8b ac be cb c9 e3 3d c9 81 35 be
       -0.65724313 -0.3370054 0.11122473 -0.1772529
0000b0 34 11 96 bd 7f 2f 17 3e 96 93 e8 3c 37 0e 92 be
       -0.073275 0.14764212 0.028390687 -0.2852647
0000c0 44 4d c2 be 75 58 9c be 57 88 c7 be 92 85 2c 3e
       -0.37949574 -0.30536237 -0.38971207 0.16847828
0000d0 6b 14 1e be f3 34 56 3d 8f 65 a5 3e 5e c6 df 3b
       -0.15437476 0.05229659 0.32304046 0.006829067
0000e0 4a 73 2c 3e 0d 40 62 bd 41 b2 b7 3d 80 f5 21 bd
       0.16840854 -0.055236865 0.08969546 -0.039540768
0000f0 bb 25 50 3e 18 56 ea 3d 88 7f ae be c4 93 17 3d
       0.20326893 0.11442202 -0.34081674 0.037006155
000100 24 46 97 be f0 03 78 bc 81 0e 45 3e 11 b0 cd 3c
       -0.295457 -0.0151376575 0.19243814 0.025108369
000110 21 10 cf be 77 16 e9 be ac 94 e6 be f3 4a 9f bc
       -0.40441993 -0.45524952 -0.45035303 -0.019444918
000120 e5 67 6a be ec 47 9c be ee f0 48 3d 96 0b 5d 3e
       -0.22891195 -0.30523622 0.049057893 0.21586451
000130 9b 34 6e bd 94 9d ea bc e2 0d ec bd 5c 7b 5a 3e
       -0.058155637 -0.028639592 -0.115260854 0.2133612
000140 a0 79 14 3e 46 dd 8f be b4 65 4b 3d f6 f2 b2 3c
       0.14499521 -0.28098506 0.04965754 0.021844368
000150 2f 81 6d 3e 12 6f c8 3d 02 65 5c 3e c8 47 8c 3d
       0.23193811 0.0978681 0.21522906 0.06849629
000160 60 b5 b9 b8 dd 8a b9 be 29 9e 94 3d ed ce 81 3e
       -8.855271e-05 -0.36238757 0.07256729 0.25353184
000170 3e 1f a8 3e b6 f0 cb 3b 1e dc b4 3d 95 43 65 3e
       0.32836336 0.0062237633 0.088310465 0.22389062
000180 e7 82 4e 3e 76 7e c6 be e6 52 7a be 11 94 d0 be
       0.20167123 -0.38768357 -0.24445686 -0.40737966
000190 c4 42 20 3d d3 28 04 3e 68 58 b0 3d 40 47 28 3d
       0.039126173 0.12906198 0.08610612 0.041083574
0001a0 f1 d4 8c 3e 2f 1a 3a be a1 ad b8 3d 75 e8 f3 bd
       0.2750621 -0.18174051 0.09017492 -0.11909572
0001b0 ed 97 89 3e a2 d7 90 3e f7 18 8d 3d 7f b2 80 3e
       0.26873723 0.28289515 0.06889527 0.25136182
0001c0 bd 1c 91 be e9 b9 93 bc b7 f7 6b bc f7 8f b2 bc
       -0.28342238 -0.018032985 -0.014402322 -0.021797163
0001d0 b9 ba 2e bd c9 21 99 be 5d 27 88 3e d8 66 a8 be
       -0.04265854 -0.2990859 0.26592532 -0.32890964
0001e0 02 1e 94 ba 3d 74 a1 3d b5 0c 02 bd 3c da 25 3d
       -0.0011300447 0.07883499 -0.0317504 0.040491328
0001f0 68 d9 3e be d3 ed 8b 3d ca 6b 43 3e af 37 62 3e
       -0.18637621 0.06832471 0.19084087 0.22091554
000200 51 53 0e 3d 17 33 d8 bb 7f 93 33 bd 03 a2 a3 ba
       0.034747425 -0.0065978873 -0.043841835 -0.0012484196
000210 c5 33 7e bc b4 48 da 3d 4c 3f ed 3e 59 0e 80 3e
       -0.0155152725 0.10658398 0.46337354 0.25010946
000220 c8 46 e8 bd 35 01 bb be 53 1c bf be af 2f 61 be
       -0.113416255 -0.36524358 -0.37326297 -0.21990846
000230 62 7a 26 bf 82 74 a4 be ac 02 09 3d b6 95 17 3d
       -0.6503049 -0.32120138 0.033449814 0.03700801
000240 68 65 f8 ba 59 0b e1 bb 90 04 00 bf 7e 83 bf 3e
       -0.001895112 -0.006867808 -0.5000696 0.37405008
000250 c3 9a 6f 3e 6a 3f e7 3c e0 c8 1d bf 07 f1 3a bd
       0.2339888 0.02822848 -0.61634636 -0.045640018
000260 5b dd 4b bd d6 59 c8 3d 4a 20 b1 3d 63 c0 a1 bc
       -0.049771648 0.0978276 0.08648737 -0.019745057
000270 d5 93 7a bc 86 9b e2 3b 1c 4f 88 be f2 e8 87 be
       -0.015294035 0.0069155125 -0.26622856 -0.2654491
000280 94 4c fa 3d f3 4b 2f be c2 20 ca be 18 3a 0f bf
       0.12221637 -0.17118816 -0.39478117 -0.5594802
000290 44 9e 60 be fd bd 5f bd 0c c5 dc 3d dd 34 7c be
       -0.21935374 -0.054624546 0.10779771 -0.2462954
0002a0 59 5b cc be 3d 12 d5 be db 94 24 bf 6b 53 53 3d
       -0.39913443 -0.41615477 -0.64289635 0.051593225
0002b0 54 cc 13 be 70 15 68 3d c8 44 6f be 4d b4 03 3e
       -0.14433414 0.05666107 -0.23366082 0.12861748
0002c0 56 30 52 3e 34 24 92 3c 64 1e 5c 3d 76 47 dd be
       0.20526251 0.017839529 0.05373992 -0.43218583
0002d0 df f3 16 bc ea a1 92 3e 58 11 bc 3e bb 45 1f 3e
       -0.009213417 0.28639156 0.36731982 0.15553944
0002e0 23 73 db 3d a4 f4 88 bc 3c c9 16 3e 88 8c 37 3e
       0.1071532 -0.016718216 0.14725202 0.17924702
0002f0 ab 3f 9f 3e e4 20 29 be 63 e0 44 bf e8 4e 0f 3c
       0.31103262 -0.16516453 -0.76904887 0.00874684
000300 1a 1b 30 3e 11 d1 1f be 33 21 9b be e8 c9 e0 be
       0.17197838 -0.15607096 -0.30298766 -0.43904042
000310 e5 d1 01 bd ac 9c e7 3d 7d 82 e1 be 94 32 db be
       -0.03169431 0.1130918 -0.44044867 -0.42812026
000320 0e eb 2f bf 30 9c b2 be f2 65 8a bd 2d 49 e7 bc
       -0.6871804 -0.34884787 -0.06757726 -0.028233135
000330 2c 70 4b bd 4c 69 68 3e b1 3e db 3d ac 04 4b 3c
       -0.049667522 0.22696418 0.10705317 0.012391251
000340 a1 4d c6 be 4d 47 9c be 77 e6 2e bf 3d f3 97 be
       -0.387311 -0.30523148 -0.6832041 -0.29677764
000350 f0 cd 3b 3e dc 87 69 3d bc 3d 9f 3d 5b 14 e8 3d
       0.18340278 0.05701433 0.07775447 0.113320075
000360 f1 d0 12 bd 8d 27 ae be dd cd 90 be 88 11 0c bd
       -0.035843793 -0.3401455 -0.2828206 -0.034196407
000370 d3 99 4c 3d e8 d2 f2 3d 4e 67 2a bc b0 cb b1 3e
       0.049951386 0.118566334 -0.010400606 0.34725714
000380 79 82 de bd 3f 25 43 3d cc 68 76 3e c1 64 b0 3e
       -0.108647294 0.047642943 0.24063414 0.3445187
000390 d0 0d 83 3e 08 9b 7d 3e 3a 4e 36 bf 3f c7 1e 3e
       0.25596476 0.24766171 -0.71213114 0.15505694
0003a0 f5 fa b0 3d 66 cf 9d bd 02 5f a6 be c5 e0 02 3e
       0.08641616 -0.07705574 -0.3249436 0.12781055
0003b0 0c 15 df bd de c7 c6 3d 3b 7e 78 3e 70 1f 82 3e
       -0.10892686 0.097060904 0.24266903 0.2541461
0003c0 74 08 a7 bd 5f ff 3e 3e 92 98 d6 be f6 56 f2 be
       -0.08155909 0.18652104 -0.41913277 -0.4733197
0003d0 32 3b e4 be 97 86 e4 be 56 c5 dd 3c 37 55 17 3e
       -0.44576412 -0.44633934 0.027071636 0.147786
0003e0 61 24 a2 be 7f 86 ab be 5c 15 2e bf 77 0a 42 bc
       -0.3166838 -0.3350105 -0.6800134 -0.011843315
0003f0 0d 80 85 be 24 e4 88 be b4 12 a6 be 70 da cf 3d
       -0.26074257 -0.26736557 -0.32436144 0.101490855

gcn2.bias f4 [64]
000000 ac c8 4c bd 21 6c 01 bd df fa 58 bd d9 91 37 3d
       -0.049996063 -0.03159726 -0.052973624 0.044816826
000010 6e fd 3f bd 99 8c 10 bd d6 60 fe bc 77 cd ee bc
       -0.04687255 -0.035290334 -0.031052034 -0.029150708
000020 cd 67 9b 3d 4d 4b bd bc ff 26 e8 bc f5 46 1f 3e
       0.07588158 -0.023107195 -0.028338907 0.15554412
000030 a9 9b 41 bd f0 24 28 3d 90 bb a4 3c fb 2f 4c bd
       -0.04726759 0.04105085 0.020108968 -0.049850445
000040 ef c0 30 bd 5f 23 96 bd bb eb 28 bb 74 60 1f bd
       -0.043152746 -0.07330965 -0.0025775272 -0.038910344
000050 d0 58 8f bd 31 a3 b7 bc 08 f4 a2 3c 3e e9 74 3c
       -0.069993615 -0.022416683 0.019891754 0.014948187
000060 d3 47 4d bd 6a fb 0b 3e 1c 36 88 bd 72 9e 9b bc
       -0.050117325 0.13670126 -0.066509455 -0.018996451
000070 6a 63 ba 3d 03 b0 40 bd 65 88 2b 3c 5e 87 b3 3b
       0.09100993 -0.047042858 0.010469531 0.0054787835
000080 fd 90 08 bd 2c 21 8d 3d 64 98 1d bd a4 66 07 bd
       -0.033341397 0.06891093 -0.03847541 -0.03305687
000090 33 9f 91 bc 49 dd e3 bc f5 06 a3 bc f9 27 43 bd
       -0.017776107 -0.027815478 -0.019900778 -0.047645543
0000a0 fe d8 c4 3d 8a c2 2f bd 08 c4 1e 3c 2e 48 82 3c
       0.096117005 -0.042910136 0.009690292 0.015903559
0000b0 db 6e 5c bd 95 6f 64 bd 1a 76 0a bb 8f da 84 bd
       -0.053816658 -0.055770475 -0.0021127523 -0.06486999
0000c0 3d 9a 63 bd a8 ab 4e bc 4d ce fd bc fa be 59 bd
       -0.055567015 -0.012614168 -0.030982161 -0.053160645
0000d0 ad 69 87 3d f7 a2 0a 3d de bb 3f bd 8b 50 1b bd
       0.06611953 0.03384682 -0.046810023 -0.03791861
0000e0 7f 18 48 3d eb d5 92 3b 68 da 70 bd 42 c4 76 bd
       0.048851486 0.0044810674 -0.05880204 -0.06024576
0000f0 69 5c 56 bc d0 d3 11 3b 2e 06 4f bd 94 c4 c0 bc
       -0.013083556 0.0022251494 -0.050543003 -0.023531236

gcn2.lin.weight f4 [64, 64]
000000 fa 99 53 be 7e 2c 67 bd a2 1f f2 be ae 89 2a 3e
       -0.20664206 -0.056438915 -0.4728976 0.16654083
000010 f1 0c 18 be bc e5 6d be a1 8d 1b 3e a5 f4 16 3e
       -0.14848687 -0.23232168 0.15190746 0.14741762
000020 b0 c9 ff be 1d ed 24 3d dc e1 00 be 0b df 48 3d
       -0.49958563 0.04026519 -0.12586159 0.049040835
000030 10 c4 bf 3d f0 d6 b7 bd 1d cf 3e be 10 fc 64 3c
       0.09363568 -0.08976543 -0.18633695 0.013976112
000040 49 f3 a3 3d e2 f3 f8 bb 3b 94 b4 3d 42 2a 72 3d
       0.08005387 -0.0075974325 0.08817335 0.05912233
000050 9c 22 ff 3c 32 4e 64 3e 20 73 20 3e 05 75 a4 3e
       0.031144433 0.22295454 0.15668917 0.3212053
000060 c3 37 4c bd de dd 1b 3d 0b 06 b6 3d a6 88 44 be
       -0.049857866 0.038053386 0.08887871 -0.19192752
000070 2f 57 11 bf 96 f5 9e 3a f7 58 54 be b7 fc 2d be
       -0.56773657 0.0012127634 -0.20737062 -0.16990934
000080 85 9e ce bd fd 39 7b bd 4e be 15 be 81 4a 62 3d
       -0.10088829 -0.0613346 -0.14623377 0.055246834
000090 5b e8 3a 3e d5 c7 7b 3e 58 e2 9f bd 0f b3 82 be
       0.18252699 0.24587949 -0.078068435 -0.25527236
0000a0 95 7f 3a bf 44 f1 90 3c 6e ca 8d be cf 9b e8 3c
       -0.72850925 0.01769317 -0.27693504 0.028394608
0000b0 be 0c 38 be 78 d6 cf bd 93 73 f1 3d b5 a8 20 3e
       -0.17973611 -0.101483285 0.11789622 0.15689357
0000c0 b6 24 36 3e f1 ec 02 3d 83 70 10 be 86 27 cb 3d
       0.17787442 0.031964246 -0.1410542 0.09919648
0000d0 21 66 05 be c9 2a 1e bf 0f 7d 4f 3e 87 79 2c 3e
       -0.1302724 -0.61784035 0.2026255 0.16843234
0000e0 09 14 3c 3e 37 0f 42 be 50 9f 12 bf 98 8b e9 3d
       0.18367018 -0.18951117 -0.5727434 0.114035785
0000f0 52 74 79 bd df fd be 3d 13 c3 7d 3e 80 41 cd 3d
       -0.060901947 0.09325766 0.24781446 0.10022259
000100 df cc 8c 3d 59 0e ab 3d 5c 7f c0 bc da 9b f7 3d
       0.068750136 0.08352346 -0.02349823 0.12090273
000110 86 d5 bf 3d e2 a9 bf be b7 5d 39 3e 6b 5b 45 be
       0.09366898 -0.37434298 0.18102156 -0.19273154
000120 99 49 4b be 8a c0 88 3d f9 c6 25 be 06 82 00 be
       -0.19852294 0.06677349 -0.16189183 -0.125496
000130 94 84 06 3e 6b 60 e7 bd 93 d3 1a be 65 9b 18 3e
       0.13136512 -0.11297687 -0.15119772 0.14903028
000140 8f 61 7d be e4 1a 1f 3d a3 58 26 bd 7a b1 ab ba
       -0.24744247 0.038844004 -0.040611874 -0.0013099157
000150 9d 73 97 bc 22 e8 61 be 28 ab 07 3e d6 14 3d be
       -0.018487746 -0.22061208 0.13248885 -0.1846498
000160 fc 61 03 3e 94 06 d2 3d e7 97 b4 3e 66 d7 62 3e
       0.12830347 0.10255161 0.35272142 0.2215248
000170 ef bd be bd d0 05 4b bf c2 18 3d bd fe a2 0e 3e
       -0.09313571 -0.79305744 -0.04616619 0.13929364
000180 28 c8 a0 bd 7e 4e 43 3e c9 87 57 3e a9 25 14 3e
       -0.07850677 0.19072911 0.21047892 0.14467491
000190 71 48 8d bc 29 89 04 3e b1 2c ba 3c e7 30 56 3c
       -0.017246457 0.12942947 0.022726389 0.013073183
0001a0 cf de 80 be 2f 13 2b 3e 7b ae ad be 65 73 65 3e
       -0.2516999 0.16706537 -0.3392218 0.22407301
0001b0 85 58 ec bc 82 11 83 be 0d 4a 15 3e 6e 19 e4 3c
       -0.028850803 -0.25599295 0.1457903 0.027844157
0001c0 6c c1 23 3e 41 e6 2f bd d2 81 61 3e 83 36 cb bd
       0.15991753 -0.042944197 0.22022179 -0.09922507
0001d0 d8 85 19 be 23 b9 07 bf 93 95 26 bc 23 3f 17 be
       -0.14992464 -0.5301687 -0.010167497 -0.14770178
0001e0 d3 0f 96 bd 8a f7 46 be 1f ab b8 bd 84 f3 78 3c
       -0.07327237 -0.19430366 -0.09017014 0.015194777
0001f0 94 f1 46 bd bc 69 47 be 4d 6e 7a be 1c 9f 3f be
       -0.04857023 -0.19473928 -0.24456139 -0.18713039
000200 e7 af 5f bd 85 14 f2 bd c7 9d 7a bd 6e 6a 54 3e
       -0.054611113 -0.1182032 -0.061185624 0.20743725
000210 f8 93 f6 3d 01 eb 95 be c9 f0 3a 3e 9a a1 2b be
       0.120399415 -0.29280856 0.18255915 -0.16760865
000220 67 ad 50 3e 7c 24 58 3e 1b 14 77 bd 3e e8 93 3d
       0.20378648 0.21107668 -0.06032191 0.07222031
000230 25 b9 a7 3c d6 12 94 3d 29 b0 0d 3e 89 cb 2b 3e
       0.020474026 0.07230155 0.13836731 0.16776861
000240 07 94 26 be 39 a7 56 3c e1 71 91 bd 12 0e e4 3d
       -0.16267405 0.013101392 -0.07101799 0.11135496
000250 84 78 35 be 28 5a f8 3d a4 6f 07 bd f6 d7 63 3e
       -0.17721754 0.12126571 -0.033065453 0.22250351
000260 8e b4 3e 39 e7 f8 b9 bb 02 13 a6 3e 60 85 22 3e
       0.00018187074 -0.0056754234 0.32436377 0.15871191
000270 84 a3 35 bd bb 50 08 be f0 84 8c 3d d2 85 1a be
       -0.044345394 -0.13312046 0.06861293 -0.15090111
000280 65 ab aa bd 3b 81 e2 3d ac f3 7e 3e 2e 9d 2e 3e
       -0.08333472 0.11059805 0.24897641 0.17052147
000290 44 9e 5d bd 6b 34 a1 be 33 05 40 3e 19 6a 96 3d
       -0.054106012 -0.31485304 0.18751983 0.07344455
0002a0 1d 52 c6 bd 05 ff 32 3e 87 22 1e bd 38 fe 36 3d
       -0.096836306 0.17480095 -0.038607147 0.044676036
0002b0 82 43 91 be 1b b9 7f be 1c 0a 70 bb d3 50 64 be
       -0.28371817 -0.24972956 -0.003662712 -0.22296457
0002c0 c8 ed 1a be 9a da b8 bc bf 48 f0 3d 1e 4b da bd
       -0.15129769 -0.022565175 0.11732625 -0.10658859
0002d0 f0 c8 ed bc 53 7f 73 bd b7 48 2a be 9c fb 71 3e
       -0.029026479 -0.059447598 -0.16629301 0.23631138
0002e0 fd cf 34 bd e1 9c 4b bd 53 7c 1b 3e 06 95 4e be
       -0.044143666 -0.04971016 0.15184145 -0.20174035
0002f0 1b f9 e2 3a a0 57 d6 bc 75 a5 51 be 64 06 00 bb
       0.0017316671 -0.02616483 -0.20473273 -0.001953506
000300 20 95 1e 3e e5 44 f0 bd cc 89 10 be 6f 04 88 be
       0.15486574 -0.117318906 -0.14115065 -0.26565883
000310 9d 2a 39 3c 4f f4 8b 3c 75 74 00 3e 72 da 0e bd
       0.011301664 0.017084269 0.12544425 -0.034876294
000320 a0 e8 e9 3d ae 81 a6 3d cc e5 56 be 4f 88 b1 3d
       0.11421323 0.08130203 -0.20986098 0.08668577
000330 74 dc a2 bd b6 51 1d be 63 96 65 bc 4a f1 0c 3c
       -0.07952204 -0.15363201 -0.014012906 0.00860245
000340 ce 4d 5c 3d 5d 96 3d be 72 1d 7b be 11 20 3f 3e
       0.053785138 -0.1851439 -0.24522951 0.18664576
000350 c0 8b 1c be 2b e5 90 bd 4b 47 4f 3d 7c 2c 3d 3e
       -0.15287685 -0.0707496 0.0506051 0.18474
000360 1b b5 aa bd 35 2e a2 bd 9a 5d 3a be 90 e0 a2 3d
       -0.083353244 -0.079189695 -0.18199769 0.07952988
000370 27 e8 b9 3d 08 46 b0 3e 95 16 e5 3d 70 3c 80 3e
       0.09077483 0.3442843 0.11185948 0.2504611
000380 dc ff 8b 3e 82 fb 16 be 5f 81 9d be 3a 09 c0 bd
       0.27343643 -0.1474438 -0.30762765 -0.0937676
000390 62 03 44 be 68 c3 3a bd a8 04 9d bd 30 5e 14 be
       -0.19141915 -0.04559651 -0.07666904 -0.14489055
0003a0 78 8d 81 3e 64 0b 85 b9 58 54 c3 3d fe 44 43 3e
       0.25303245 -0.00025376223 0.09537572 0.19069287
0003b0 96 15 3f bd 22 5b 20 3c 41 10 93 be da 74 d3 bc
       -0.046651445 0.009787353 -0.28723338 -0.025812555
0003c0 76 cc 3d be 85 30 4b 3e 89 9d 9a 3d 3b 31 87 bd
       -0.18535027 0.19842727 0.07549579 -0.06601187
0003d0 4c c4 26 bd d5 6f bb 3d 5d 69 a2 bd fa 4f 16 3e
       -0.040714547 0.0915219 -0.07930253 0.14678946
0003e0 e4 5a 36 3e b5 c4 19 be 57 d1 0e 3d bc b2 8a be
       0.1780811 -0.15016444 0.03486761 -0.27089489
0003f0 61 2a 1b 3e dd 99 78 be 92 53 f1 3d da 76 1f be
       0.15152885 -0.24277444 0.11783518 -0.15572682

lstm.weight_ih_l0 f4 [512, 64]
000000 56 72 cb 3c 4a 33 f8 3d 9c 00 29 bc c1 e4 7a bd
       0.024834793 0.121191576 -0.010315087 -0.061253313
000010 eb ad 58 3d b0 12 09 bd 9e 9a 8a 3c f1 7f c9 bd
       0.052900236 -0.033465087 0.01691943 -0.09838856
000020 4c fd 48 bc dd 8c 81 bb 83 7d 6b bd 96 c0 80 be
       -0.012267422 -0.00395356 -0.057492744 -0.2514693
000030 a2 71 39 bd a8 9f bf 3b bf 89 d6 bc 2f aa 13 3d
       -0.045274384 0.00584789 -0.02618873 0.03605097
000040 7e 2e 11 3b 99 59 8e bd 21 5e a4 bc 99 d8 9f 3d
       0.0022152956 -0.06950683 -0.020064415 0.078049846
000050 6e 9a 2c 3e fb 66 82 3d 7d c5 ca bc 2d fd 4f 3d
       0.16855785 0.06367298 -0.024752373 0.050778557
000060 e6 b9 9e bc 48 29 08 bd 97 0c e7 3d c5 b1 a7 bd
       -0.019375753 -0.033242494 0.11281698 -0.08188204
000070 e8 61 22 3d 2b dc 38 bd b7 36 8b bd ea 24 6e 3c
       0.039644152 -0.045131844 -0.067975454 0.014535168
000080 8a d0 b3 3b 30 7b 8e bd 4d 1d 0d bd b3 51 01 be
       0.0054875063 -0.0695709 -0.03445177 -0.12628822
000090 2c 92 7f bd a0 c7 16 be 84 40 db 3d 11 bd 66 3d
       -0.06239526 -0.14724588 0.10705665 0.05633265
0000a0 da 2b ad bc 7c e6 94 3d 08 d5 1d be 17 e6 ed 39
       -0.021139074 0.07270524 -0.15413296 0.00045375593
0000b0 4a 13 73 3d 36 a4 55 bc e4 07 66 3d de d4 9d 3a
       0.059344567 -0.013039639 0.05615987 0.0012041589
0000c0 e3 e0 b5 bd 49 0c 8d 3c cd f6 96 bb ca ed e8 bb
       -0.08880784 0.017217772 -0.0046070577 -0.007108425
0000d0 f9 59 b6 3c 49 ee b1 3d cd fb f8 3b a3 78 a0 bd
       0.0222597 0.086880274 0.0075983764 -0.0783551
0000e0 a3 37 d1 bb f8 54 4c bc b8 34 17 bd 66 5b e7 3d
       -0.0063848062 -0.01247143 -0.03691551 0.1129673
0000f0 d5 2f 2c bd 54 fe ba 3d 5a 1e 9e bd 04 0a 41 3d
       -0.042037804 0.091305405 -0.07720633 0.047128692
000100 7a 5c ba bd ae a4 c7 bc 4a 7a 91 3c a8 2b 31 3b
       -0.0909967 -0.024370518 0.017758507 0.0027034078
000110 e8 d3 cc 3d 78 88 d9 bd 31 8e d3 bd ad e2 eb 3c
       0.100013554 -0.106217325 -0.10329855 0.02879461
000120 f6 e4 e0 3d 1b eb 26 3e 24 cc e0 bd 40 67 86 be
       0.10981171 0.16300623 -0.10976437 -0.26250648
000130 22 a4 5d 3d d9 2a 31 3e e5 3a c7 bc d4 1e cf bd
       0.054111607 0.17301501 -0.024320075 -0.10113302
000140 8b a9 f1 bd 83 f8 31 3c df b3 89 3d 68 ed 85 bc
       -0.11799916 0.0108624725 0.06723761 -0.016348556
000150 51 fd 5f bd 13 6a a1 3d dd 7e 45 bd db 9d f4 3d
       -0.05468494 0.0788156 -0.04821669 0.11944171
000160 f0 b4 45 bd f8 e3 13 3d ac db 9e 3d ed c2 7f 3c
       -0.04826826 0.03610608 0.07756743 0.015610439
000170 3e 06 c9 3d 15 35 fb 3d 7b f9 f4 3d 30 bc 50 be
       0.09815644 0.12265984 0.11961647 -0.20384288
000180 ef 88 c4 bd 04 4b 82 be 33 60 3e be 16 28 82 bd
       -0.095964305 -0.25447857 -0.18591385 -0.06355302
000190 a4 3c 0b be a5 13 04 be d0 56 b1 bd 83 93 18 3c
       -0.13597351 -0.12898119 -0.08659136 0.009312513
0001a0 0b 96 e3 3b 69 7d 3e 3d 65 d1 8f be fd 12 bd 3b
       0.0069453768 0.04650632 -0.28089443 0.005770086
0001b0 fd b0 3b bd a9 19 ca 3d 62 9e a8 3d c6 a4 e3 bc
       -0.045823086 0.098681755 0.08233334 -0.027788531
0001c0 77 4a 15 bc 5b 3c ec 3b 3e eb b0 bc 1c 0d 86 3d
       -0.009111992 0.0072093434 -0.021596547 0.06545469
0001d0 d3 fc 31 be b1 ef 42 3e 5d 3c a3 3d 3b f8 74 bd
       -0.17381601 0.19036748 0.07970498 -0.059807044
0001e0 49 04 1b be 68 f2 f3 3c a2 40 a3 3d a7 0b a5 3d
       -0.15138353 0.029778674 0.07971312 0.08058863
0001f0 1c c9 81 3d b4 19 e3 3d bb c6 32 be 1f 7e b6 3c
       0.06337187 0.11088887 -0.17458622 0.022276936
000200 b6 ca cb 3d d9 81 ce 3d 5b 1e 60 bd ec cc 51 39
       0.099507734 0.1008336 -0.05471645 0.00020008133
000210 ed c3 21 3d fe ce c9 3d 45 20 a1 3d 88 9d 98 3d
       0.03949349 0.09853934 0.07867483 0.07451922
000220 60 12 01 3c da c1 93 3d b9 9b 07 bd af 77 86 3d
       0.007877916 0.072147086 -0.033107493 0.065657966
000230 78 c7 f4 bc 17 a6 75 bd 47 72 96 3d 4a a7 c7 3c
       -0.02988027 -0.05997285 0.073460154 0.024371762
000240 b7 bf f3 3c 0f 7b 36 3d 69 ce 86 3d b1 b8 6f bd
       0.029754503 0.04455095 0.06582338 -0.058525745
000250 6e 90 f5 3c a8 82 29 3d a7 b4 4c bb 9e 3a 20 3e
       0.029976096 0.04138437 -0.0031235607 0.1564736
000260 e5 8d 7a 3d dc cf c1 3d fd 16 7d 3c 0a 4b 82 bc
       0.061170477 0.09463474 0.015447375 -0.015904922
000270 c5 a4 54 be 3c 1e 9c 3d b8 6d 53 bc 45 e6 0a be
       -0.2076598 0.07622954 -0.012904577 -0.13564403
000280 75 64 41 bd 63 98 a2 3d 08 16 4f bc c2 90 b8 bd
       -0.047214944 0.07939222 -0.01263953 -0.09011985
000290 98 e9 13 bc 4e e0 00 3a 35 d0 97 3d 59 8e 88 3d
       -0.009027861 0.00049162365 0.07412759 0.06667776
0002a0 6f 8d 87 3d 22 07 d4 3d 40 f5 81 bd a3 e5 64 3d
       0.06618773 0.10352923 -0.06345606 0.05588306
0002b0 c6 6e 27 bc 5c f5 fd 3d c8 7f 50 3d 8d ed 3f 3d
       -0.010219282 0.12400314 0.05090311 0.046857405
0002c0 aa 01 71 3c f5 a0 18 bc 16 cf 14 3e bc 04 aa 3d
       0.014709869 -0.009315719 0.14532122 0.08301684
0002d0 46 b8 28 bd 1f a4 8f 3d 9f a7 db bc 55 60 2d 3d
       -0.04119136 0.070137255 -0.026813326 0.042328198
0002e0 ba 00 80 3d 40 e6 af 3d b4 f1 87 3d d8 0d a0 3d
       0.062501386 0.085888386 0.06637898 0.078151405
0002f0 5f fc 26 bd 48 67 8a bc 57 3f 28 bc 94 30 d5 3d
       -0.040768024 -0.016894951 -0.010269008 0.10409656
000300 12 63 d5 39 71 49 49 3c 34 9e f2 bb b1 d1 3c bd
       0.0004070034 0.012285576 -0.007404113 -0.046098415
000310 27 eb 61 bd 9a ad 1b bc 03 4c a9 bd 6c 0f 0d bd
       -0.0551559 -0.009501839 -0.08266451 -0.034438536
000320 3e b3 98 bd 7a 73 22 bd 66 e7 ec bc af d5 1d be
       -0.07456063 -0.03966091 -0.028918933 -0.15413545
000330 04 1a 16 3d da c3 4b be 55 27 af 3d 4c 4f 9d 3c
       0.036645904 -0.1989893 0.08552424 0.01920285
000340 06 f0 c7 3d de d1 76 bd 0d 57 dd bc 8e 79 cc ba
       0.09762578 -0.06025874 -0.027019048 -0.0015600191
000350 46 74 d6 3c 45 fb 98 38 84 58 f5 3d a6 49 3a 3e
       0.02617849 7.2947274e-05 0.11979774 0.18192157
000360 8c ed 86 bd 82 e8 a3 be f7 5e d2 bd f5 67 e2 3d
       -0.06588277 -0.32013327 -0.10272019 0.110549845
000370 60 59 8a be 70 46 33 3c 53 8c 30 3e 79 5e 4e 3d
       -0.27021313 0.010942087 0.1724103 0.050383065
000380 c1 c4 8b 3d 0b 0d 79 bd f8 9c 5d 3d e8 6c 85 bd
       0.06824637 -0.060803454 0.054104775 -0.06514913
000390 56 35 d2 3d b7 3f 49 bd c1 4c 90 3d 0f 91 13 3c
       0.10264079 -0.04913303 0.0704589 0.009006753
0003a0 9e 3d 1f bd d3 c7 df 3c 93 ef 81 bd ee c7 ab 3d
       -0.038877122 0.027316963 -0.06344523 0.08387743
0003b0 1f c8 c4 bc 89 1d e0 bd ea f8 6a 3c 72 fd 59 bd
       -0.024021206 -0.109431334 0.014341572 -0.05322022
0003c0 da a6 c7 3d c2 c1 e8 3d a3 45 a5 3d 07 e9 de bd
       0.09748621 0.11365081 0.08069923 -0.1088429
0003d0 67 46 bc 3d 3f 85 c6 bd 1a 77 1e 3d e6 88 c6 3c
       0.09193116 -0.096933834 0.038687803 0.0242352
0003e0 00 d7 4a 3d 0e 1e b1 3d ac b2 44 3c bf 21 ad 3c
       0.049521446 0.086483106 0.012005489 0.021134255
0003f0 cb 26 e8 bc ac b6 ce bd 7b 46 dc 3c 56 18 c0 3d
       -0.02833881 -0.10093436 0.026889076 0.09379642

lstm.weight_hh_l0 f4 [512, 128]
000000 19 03 70 3d 03 6b 0a 3d 57 ea 91 3c 14 cc 11 3e
       0.058596704 0.03379346 0.017811937 0.14238006
000010 14 54 41 3e 08 27 66 bc 19 73 7c 3c 98 09 90 bd
       0.1887973 -0.014047392 0.015408301 -0.0703308
000020 bb 97 09 3d ab bc 68 3d 3a 47 86 bd 97 50 2f 3d
       0.033591967 0.056820553 -0.06556554 0.042801466
000030 ca 44 25 3d 3e a4 41 3d c2 b8 cc bd a9 9b e8 bc
       0.040348805 0.047275774 -0.09996177 -0.028394537
000040 07 18 1d bd 7e 13 13 3e 4e cd 99 3c 40 c1 19 bd
       -0.038352992 0.14362904 0.018774655 -0.037537813
000050 ae b4 94 bd c8 44 75 39 60 76 0d be c4 41 b4 bd
       -0.072610244 0.00023390644 -0.13814688 -0.08801606
000060 a4 ef b4 3a 1e 9a 0e bd 39 ad f1 3c 0a dd 92 bd
       0.0013804329 -0.034814946 0.029501544 -0.07171066
000070 6f e8 52 bd 68 35 61 bb 39 ce 05 3e ee 39 0a 3d
       -0.051491197 -0.0034364108 0.13066949 0.033746652
000080 0d 04 a0 3c 77 f8 a8 3c 1d 46 7a 3d 97 70 7c 3d
       0.019533182 0.02062629 0.06110202 0.06163081
000090 5c fd 99 3d c8 7f 35 bd c5 ed 54 bd fe 18 bb bd
       0.075190276 -0.044311315 -0.051984567 -0.09135626
0000a0 ce 47 3d 3d 3f c3 0f 3e b7 05 5f bd e4 22 2e 3d
       0.046211056 0.14039324 -0.05444881 0.042513743
0000b0 ce 72 80 bd f9 5d 8e bd 69 25 2a 3d a7 af 7a 3c
       -0.06271897 -0.069515176 0.041539583 0.015300668
0000c0 b0 dd 52 3d c5 5c 35 bd 19 6a 14 3e 06 33 34 bc
       0.05148095 -0.044277925 0.14493598 -0.010998493
0000d0 02 cd 67 3c 73 9c fa 3c cb 13 29 bd ed 70 d0 bb
       0.014147999 0.030592179 -0.04127864 -0.006361118
0000e0 9b 67 9f 3c 7c c2 f3 3d f9 6d 04 3d 8c 62 9e 3b
       0.019458583 0.11902329 0.03233144 0.004833525
0000f0 6e b5 5c 3c 40 47 66 3d 83 1e 0c bd 0f bb b6 bd
       0.013470991 0.056220293 -0.034208786 -0.08922397
000100 0a ea 8a bd ef a9 ed 3d 49 9f 12 3d 5f e6 04 3e
       -0.06782921 0.11604678 0.035796437 0.12978505
000110 06 f5 10 3d 20 70 0f 3b 49 76 d4 bc de cd 2d bd
       0.035389923 0.00218869 -0.025935309 -0.04243266
000120 e4 d6 38 3c 30 b3 07 3c 20 7c 71 bd f2 ab 13 3d
       0.011281703 0.008282468 -0.058956265 0.03605265
000130 62 61 25 3d 4b b6 f4 3d e4 7d 0c 3b 4d fa d4 bd
       0.040376075 0.11948832 0.0021437341 -0.103993036
000140 b8 d0 2e 3c 35 c3 9a bd 03 1e 0c bb 85 88 c0 3c
       0.01066988 -0.07556764 -0.0021380193 0.023502598
000150 7d 84 0b 3d 68 f6 2b 3d 6f 8d ca 3d 8b 84 47 3c
       0.034061898 0.04198304 0.098902576 0.012177597
000160 71 35 ec 3d ed 7e 97 3c 8e 41 ea 3a 76 84 43 3c
       0.11533631 0.01849314 0.001787232 0.011933437
000170 b2 d6 8a bc 66 2a 24 3c da dd ea bd 50 ba 46 3c
       -0.016948078 0.010019874 -0.11468096 0.012129381
000180 96 fb 82 3d 72 9f 84 bd 8b f3 a6 bd 4b bb 78 bd
       0.063956425 -0.06475724 -0.08151921 -0.06072549
000190 c5 b2 b4 3c 0f 78 57 3d 99 fa ca 3c cf 19 2d 3d
       0.0220579 0.05260473 0.024777697 0.04226094
0001a0 9c a4 27 bd 92 ca 51 3c e5 23 86 3c 21 fa 69 3d
       -0.040928468 0.012804644 0.016374538 0.057123307
0001b0 43 66 c1 3c 61 d5 26 3e d9 76 cd bd 24 9d 38 3d
       0.023608332 0.16292335 -0.10032434 0.045071736
0001c0 0b f2 05 be e2 7f 80 bd 66 06 b8 3d 19 2f 73 3d
       -0.13080613 -0.06274392 0.089855954 0.059371088
0001d0 dd fb bc 3c aa da 52 3c dd 40 9c 3c 7c f8 5f 3d
       0.023069317 0.012869516 0.019073898 0.054680333
0001e0 8e f2 c7 3b 13 21 84 3d c4 84 30 3d a7 95 b3 bc
       0.006101913 0.06451621 0.043095365 -0.021921946
0001f0 8f cb 00 be 5f 46 29 3c 10 39 cd bd e5 ff 21 3d
       -0.12577651 0.010331719 -0.100206494 0.03955068
000200 51 e2 24 3d 14 90 48 3e d3 69 fc 3d e0 6f 9c 3e
       0.040254895 0.19586211 0.12324872 0.30554104
000210 ea 6a 05 3e e8 e0 c3 bd c3 05 ac bc 76 78 fd bb
       0.13029066 -0.09564382 -0.020998841 -0.0077353073
000220 46 c1 bd 3c 99 3e e4 bd 96 25 53 be 02 61 11 3e
       0.023163449 -0.11144752 -0.20619807 0.14197162
000230 b3 28 6e bd 31 f1 0f be 5c cf 7a bc cc 10 c8 bc
       -0.058144283 -0.14056851 -0.015308227 -0.024422072
000240 28 dc c4 3c b7 19 5c ba 06 5a a0 bc 96 e7 85 3d
       0.02403076 -0.0008396166 -0.019574177 0.06538312
000250 89 bb 49 bd 42 e6 19 bd e2 6c 20 bc f7 87 5c 3d
       -0.049251113 -0.037573107 -0.009791585 0.053840604
000260 48 9d d1 3c 1d 48 66 3d 05 d6 2b be 80 e7 0d bd
       0.025587693 0.056221116 -0.1678086 -0.034644604
000270 a4 a2 02 3e 60 c2 25 3e b3 a3 64 bc 70 bc 0e 3e
       0.12757355 0.1618743 -0.013955045 0.1393907
000280 38 bf 9b 3d 00 4a 29 3a e7 9e 8d 3d 3f 08 80 bd
       0.076048315 0.0006457865 0.06915074 -0.06251573
000290 bc 6a 87 3c f1 d3 ea 3d ef a9 f9 3d d8 c5 db 3c
       0.016530387 0.11466206 0.121906154 0.026827738
0002a0 c0 11 4d 3c 35 f0 07 3e b2 6f d2 bd 37 5f 9f bd
       0.012516439 0.13275225 -0.102752104 -0.07781833
0002b0 1c 50 8b 3d ec ec cd bc d9 34 52 bd 84 64 5b bd
       0.06802389 -0.025137387 -0.05131993 -0.053562656
0002c0 57 82 b8 bd a3 fb 61 bd f4 16 1b 3e 12 cd 0c bd
       -0.09009235 -0.05517162 0.15145475 -0.034375258
0002d0 40 5b 92 bc 4f d5 c9 bd b4 3f 9e bc ec b6 a4 bc
       -0.017865777 -0.098551385 -0.019317485 -0.020106755
0002e0 36 fa bd bd 40 83 18 3d 63 77 28 3e 85 00 bd bd
       -0.092762396 0.037234545 0.16451792 -0.09228615
0002f0 e4 bb 54 be 83 38 2b be 57 b4 5b bd 78 20 53 bd
       -0.207748 -0.16720776 -0.053638782 -0.051544636
000300 50 50 dd bd 12 d5 cc 3d 7b 97 ce bd ea 94 4d 3d
       -0.10806334 0.100015774 -0.10087486 0.050190844
000310 e2 6d 8e 3d 2d a3 aa be 16 98 fa bd c1 34 64 bc
       0.06954552 -0.33327618 -0.12236039 -0.013928593
000320 88 7b 86 3d fe b3 e6 bd d8 a5 3a 3d ae c7 b4 bd
       0.065665305 -0.112647995 0.045568317 -0.088271484
000330 8e 1c 2a 3d 65 d6 f9 bc 5a fd b6 bc 3c 05 e1 3c
       0.041531138 -0.03049774 -0.022337604 0.027468316
000340 9a be 10 bd 01 39 bd 3c 25 1f 05 3d 6b e8 f9 bd
       -0.03533802 0.02309847 0.032500405 -0.12202533
000350 e7 a2 34 bd a0 69 e6 3b 02 29 33 39 51 47 b3 3c
       -0.04410067 0.0070316344 0.00017086047 0.021884592
000360 39 3b 94 3d 0c cc e7 3b f9 be d4 bd c9 9d e2 3c
       0.07237858 0.007073885 -0.10387988 0.027663128
000370 b5 1d 55 bd c5 f1 0c 3b 94 8f 9c bd 46 24 1f 3e
       -0.052030284 0.002150641 -0.07644573 0.15541181
000380 37 06 1f be 5c a1 b4 3c c7 6c 65 bd ac 9d 9b bc
       -0.15529715 0.022049598 -0.05601194 -0.018996082
000390 b7 2a f7 3c e7 8c bf 3d 38 d3 cd bd c7 73 7b bb
       0.030171735 0.09353047 -0.100500524 -0.003836857
0003a0 67 35 22 3b 57 4d cc 3b 40 2e 72 3d 23 9a b6 bd
       0.0024751069 0.0062348056 0.05912614 -0.08916118
0003b0 5a fe a6 3d 21 2f 3e 3d 50 dd 7b be c9 2d db 3d
       0.081539825 0.046431664 -0.24596143 0.10702092
0003c0 b9 42 4d bd ed 27 aa bd 52 d3 ed bc 7b f1 12 3e
       -0.05011246 -0.083083965 -0.02903143 0.1434993
0003d0 ca f1 37 3d 10 ab 9c 3c 14 d3 71 bd e9 d2 77 bd
       0.044908322 0.019124538 -0.05903919 -0.060503874
0003e0 f7 7a 0d bd ac bc 2a 3d 23 67 2b 3e 84 0d 2c 39
       -0.034541097 0.041683838 0.16738562 0.00016408233
0003f0 f1 d6 e7 bc b4 31 bc 3b f0 87 b8 bd 49 96 87 bd
       -0.028300734 0.0057432298 -0.09010303 -0.066204615

lstm.bias_ih_l0 f4 [512]
000000 74 90 30 3d a4 bb 7a bd f3 03 b3 3c 70 2c d7 bd
       0.04310651 -0.061214104 0.02185247 -0.10506523
000010 0a 52 4f bc 03 36 88 3d d1 c4 39 3d 08 16 8c 3c
       -0.012653837 0.06650927 0.045353714 0.017100349
000020 47 94 2c bd 55 c7 6a bd 82 f4 d2 3c dd 65 a4 bd
       -0.042133596 -0.057319004 0.025751356 -0.080272414
000030 95 41 32 3c 07 7a af 3c 79 4b 3c 3d 8b 84 7b bd
       0.010879894 0.021420492 0.045970414 -0.0614057
000040 42 eb c8 bc 15 05 2d bd 82 fb 19 bc 83 b9 07 bd
       -0.024526242 -0.042241175 -0.009398343 -0.033135902
000050 67 fe 7f 3d fa 3c 8b bc 68 5d 63 3b df ec 5c bd
       0.062498476 -0.01699685 0.0034693126 -0.053936835
000060 01 e2 46 3d cd f4 38 bd cb 50 a9 3c 80 2f 8f bd
       0.048555378 -0.045155335 0.020668408 -0.06991482
000070 7a dd 15 bd 6b a2 95 bc 48 72 8e bd 46 f9 41 3d
       -0.03658817 -0.018265923 -0.06955391 0.047356866
000080 96 25 03 be 5e 49 f5 3c 86 c9 9d bd f0 83 8c bc
       -0.12807307 0.02994221 -0.07704453 -0.017152756
000090 47 4d 94 bd f5 a9 41 3d f8 9a ae bd 90 58 29 3d
       -0.07241302 0.047281224 -0.08525652 0.041344225
0000a0 7f 6f c0 bd 43 8b b5 bd 5d ff 34 3d f5 c5 21 3a
       -0.09396266 -0.08864453 0.044188846 0.00061711605
0000b0 bb 33 bd bd 6e 42 73 bb b5 27 01 bc 7d 96 1d bd
       -0.092383824 -0.0037118453 -0.007883002 -0.038473595
0000c0 55 57 99 bc 61 a1 05 3d 3c 30 e8 3d 43 52 70 bd
       -0.018718401 0.032624606 0.11337325 -0.0586722
0000d0 ae 05 2d bd 58 8d 5d bc 96 09 a4 bd 08 d1 bd 3a
       -0.042241745 -0.0135224685 -0.08009641 0.0014481852
0000e0 c5 df b7 bd c7 a4 9c 3c c8 e7 0e 3d b1 5d ed bc
       -0.089782275 0.01912154 0.034889013 -0.02897534
0000f0 76 0a 00 bd 29 54 fd bd 7b b0 39 3c bf 42 60 3d
       -0.031259976 -0.12369568 0.01133358 0.054751154
000100 23 9d 60 3c a2 29 42 bd 29 ae 7a 3b 6b 59 99 3d
       0.013709339 -0.047402985 0.003825078 0.07487758
000110 3e c3 82 bd f0 1e 7f 3d 2a 55 8e 3d a2 6f 45 3d
       -0.06384896 0.062285364 0.069498375 0.048202164
000120 8f 9b 5d bc 15 75 85 3c e9 79 b8 3b 84 7b 41 3d
       -0.013525858 0.01629118 0.005629767 0.047236934
000130 03 e7 8d 3d 04 e1 c3 3b 91 04 b8 3d 55 18 05 bd
       0.069288276 0.0059777517 0.08985246 -0.032493908
000140 1e c4 1e bc 29 f9 08 bc db 40 35 bd 14 01 8a bd
       -0.009690313 -0.008360186 -0.044251304 -0.06738487
000150 ef 1c a8 bd af ce cd bc 0e 24 7d 3d c5 8c 76 3d
       -0.08208644 -0.025122968 0.061801963 0.060192842
000160 98 d9 90 bc d5 4c a9 bc 65 d0 99 bd 08 b8 d5 3c
       -0.017681882 -0.02066652 -0.07510451 0.02608873
000170 12 1e 6d 3d dc 6c f9 bc 86 61 12 bd cf 34 1b bc
       0.057890005 -0.030447416 -0.035737537 -0.00947304
000180 38 8b 80 3c 37 d7 40 bd e2 46 b0 bd 02 40 21 3b
       0.015691385 -0.047080245 -0.0860727 0.0024604802
000190 53 0b b6 3d ca 5e f6 3c 0a 42 ad 3c 6a 29 0f 3b
       0.08888879 0.030074496 0.021149654 0.0021844753
0001a0 88 99 bc bd c8 c0 98 bd 85 7b 42 3d a3 6a c6 bd
       -0.09208971 -0.07458645 0.04748108 -0.09688308
0001b0 c5 4a 19 3d f0 b9 8d 3d 03 d0 0a be 6c a8 69 bd
       0.03742482 0.069202304 -0.13555913 -0.057045385
0001c0 8f 78 87 3d 3f 97 91 bb e1 17 5f bd dc c6 f2 3c
       0.066147916 -0.004443079 -0.054466132 0.02963584
0001d0 af a8 18 3a 1a 17 5c 3c 23 34 06 3d 9b 2d 90 bd
       0.00058234757 0.013433242 0.032764565 -0.070399486
0001e0 a0 2e 4a 3d 9e be cd bd 5e d6 d5 3d 2e 36 7e bc
       0.04936087 -0.10046123 0.10441278 -0.015515847
0001f0 e6 c6 de bc 44 e4 79 3d 5e 36 01 bd 3f fc b3 bc
       -0.027194452 0.061008707 -0.03154599 -0.021970866
000200 dd a1 11 3e f3 23 43 3e c5 4d 90 3c f9 a5 52 3c
       0.14221902 0.19056682 0.017615208 0.012856954
000210 26 c0 9e bd 60 ec 59 3d e4 60 2f 3d 58 13 4f 3e
       -0.07751493 0.05320394 0.04281701 0.20222223
000220 b7 00 a4 3d 61 f3 05 3c 8b 3b b8 bd 3a ba bf bd
       0.08007949 0.008175702 -0.08995732 -0.09361692
000230 09 35 a5 3d 9a 05 dd 3c 44 fe 9c 39 33 fa 40 3c
       0.08066756 0.02698021 0.0002994408 0.011778402
000240 86 7d 32 bc 3a 38 3a 3d 58 c9 d2 3c b9 29 31 bc
       -0.010894185 0.045463778 0.025730774 -0.01081317
000250 00 62 25 bc b2 8e 07 3d de c6 5b bd eb ab 49 3c
       -0.010094166 0.03309507 -0.05365645 0.012309055
000260 95 fa dc 3d bf cf 06 3d a2 6e 09 bd 63 72 34 bd
       0.10789982 0.032912966 -0.033552773 -0.0440544
000270 70 83 de 3d e4 8d 7a bd bd d0 e4 3c 73 1d 09 3d
       0.108649135 -0.061170474 0.027931565 0.03347535
000280 db 3f c3 3d 39 55 9a 3a a5 21 05 bd 2c 33 2f be
       0.09533664 0.0011774666 -0.03250279 -0.17109364
000290 e9 5c 36 bd 35 4d b6 bd 87 fd 4d bb 05 c9 e1 bc
       -0.0445222 -0.08901445 -0.0031431632 -0.027561674
0002a0 e5 81 60 3d 80 a9 0d be 43 28 3b 3c 2d f5 ee 3d
       0.054811377 -0.1383419 0.011423173 0.11667857
0002b0 39 83 81 3d d7 6c 85 bd a0 7b 2c 3b 89 96 9a 3d
       0.06323857 -0.065149 0.0026318803 0.075482436
0002c0 9f 27 73 bd c5 e9 4b bd 37 d3 fe 3d 4d a9 11 3d
       -0.059363957 -0.049783487 0.1244263 0.03556185
0002d0 79 2b 8e 3d 93 f0 16 3d 11 21 09 3e 89 b7 48 bc
       0.069418855 0.036850523 0.1339152 -0.012250789
0002e0 d4 0e 68 3c 02 8b d7 bd a7 d3 2f bd 8b f4 a6 3d
       0.014163692 -0.105245605 -0.042926457 0.081521116
0002f0 85 35 db bd 47 d8 48 bd 9e ab 8e bd 6d 9f 9a 3d
       -0.107035674 -0.049034383 -0.06966327 0.07549939
000300 15 2d d1 3a c1 58 02 3e 42 7c a0 bd 0f 4f af 3d
       0.001595887 0.1272917 -0.078362 0.08560001
000310 46 2e d2 3d 35 c9 75 3d 4f a3 4d bc 78 79 c1 3d
       0.10262732 0.06000634 -0.012551143 0.094469965
000320 2b 8b 09 3d 3e d5 83 bd 9d 65 9f bd 09 9c 33 3d
       0.033579987 -0.06437157 -0.07783053 0.04384998
000330 70 6b 6f 3d 53 4e 99 3d b2 01 c5 3c d3 72 24 bc
       0.05845207 0.07485642 0.02404866 -0.010037142
000340 30 e8 53 bd 8d 8f 3d bd 82 71 36 3d 2e 7d 81 bd
       -0.051735103 -0.04627948 0.044541843 -0.06322704
000350 b3 ac 84 3d 83 44 09 bd ff 8d 3d 3d 71 7d 7e bc
       0.06478252 -0.033512603 0.046277996 -0.015532837
000360 e0 0f 75 bd bd 0a 55 3d 85 17 6a bc ca a5 9b 3d
       -0.059829593 0.052012194 -0.014287834 0.07599981
000370 45 e8 2a bc 00 71 a6 bc 4a ba 22 3c 58 e7 59 3c
       -0.010431354 -0.020317554 0.00993211 0.013299786
000380 39 53 95 bd c3 b8 22 3d 65 9f 7f bd e2 83 13 bd
       -0.07291264 0.039726984 -0.06240787 -0.036014445
000390 af 14 83 3d 93 4b 02 3c c3 e4 03 bd dd 63 f2 bd
       0.064004295 0.007952589 -0.032200586 -0.11835454
0003a0 09 5e 5f 3d e9 77 8e bd e6 e3 82 bd 43 b3 65 3b
       0.05453304 -0.06956465 -0.063911244 0.0035049475
0003b0 38 48 98 bc f4 e2 ba 3d 62 2c 2b be 4d 8b 89 bd
       -0.018589124 0.09125319 -0.1671615 -0.06716023
0003c0 f7 fd d2 3d 28 4f e5 3d 41 b7 88 3d 35 dc c6 3c
       0.10302346 0.111967385 0.06675578 0.024274925
0003d0 24 89 03 3d 75 a7 c0 3d 2d ca c5 bd e9 20 fc 3c
       0.03211321 0.0940694 -0.096577026 0.030777412
0003e0 0b 77 6c 3b df 6b 8a bd af c8 1c 3e fe e4 ab 3d
       0.0036081697 -0.06758856 0.1531093 0.08393286
0003f0 40 e8 15 bd e0 d4 7b 3b c0 61 37 bd 5e 41 ef 3d
       -0.036598444 0.0038426444 -0.044770956 0.1168239

lstm.bias_hh_l0 f4 [512]
000000 40 67 88 3d 65 c1 97 3b 87 a4 c5 3c 12 f7 80 bc
       0.066603184 0.0046312087 0.024126304 -0.015742812
000010 36 4e 01 be d7 a7 bc bd 95 cc 6d 3d ce 1e 7d bb
       -0.12627491 -0.092117004 0.058056433 -0.0038623097
000020 a1 7e 62 bb dd 2b c3 bd be 93 b0 3c 12 bb d0 bc
       -0.003456034 -0.09529851 0.021554824 -0.025479827
000030 c9 71 89 bd 4a 4d ed 3d b3 bc bf 3d 58 70 b4 3d
       -0.06711156 0.11587007 0.093621634 0.0881049
000040 1a 6a bf bd 76 41 85 bd 63 b0 f2 3d 57 66 a5 bd
       -0.09346409 -0.06506626 0.11850049 -0.080761604
000050 ef 5a b3 3c 36 a6 59 3d a2 2d 38 bd d8 5c e2 3c
       0.021893946 0.053137027 -0.044965394 0.027632162
000060 76 3d 09 3b 08 51 af 3d 0d 63 de bd a4 5e d9 bd
       0.0020941175 0.08560377 -0.10858736 -0.106137544
000070 b9 1f 3c 3d dc 42 08 bd 75 fb 4e 3d cf 46 81 bd
       0.04592869 -0.033266887 0.050532777 -0.06312334
000080 cd 63 20 bd c1 02 6e 3d 52 2d ff bd a9 f9 e8 bd
       -0.039157677 0.058108095 -0.12459816 -0.11375744
000090 5d 8b a6 3d 9f 07 2d 3b b6 17 87 bd f2 ef dc 3c
       0.0813205 0.0026402248 -0.065963194 0.026969884
0000a0 07 fc 8b 3d 77 47 bd bc 5a c9 c8 bd 6c 69 89 3d
       0.0683518 -0.023105366 -0.0980403 0.06709561
0000b0 73 46 9e bd d4 47 88 3d 1e 0e a8 bb 1a 06 18 3c
       -0.07728281 0.06654325 -0.005128636 0.0092787985
0000c0 7d 81 32 bb eb b7 53 bc 57 59 17 bc 94 66 a6 3c
       -0.0027237826 -0.012922267 -0.009237609 0.020312585
0000d0 a9 6f 02 3c 19 6b 4f 3b d7 67 9e 3c e1 9f 15 3d
       0.007961192 0.0031649529 0.019336624 0.036529426
0000e0 b8 4c 0e be fa 6b bd bd fb f6 e2 bd b2 77 07 3d
       -0.13896453 -0.092491105 -0.11082264 0.033073135
0000f0 32 c1 c7 bd f5 f7 08 be dd ae 4f 3d 63 29 b6 3d
       -0.09753646 -0.13375838 0.050703872 0.08894613
000100 c0 13 be 3c 98 9e 01 bb a2 06 52 bd 50 63 f9 3c
       0.023202777 -0.0019778367 -0.051275857 0.030442864
000110 b0 ae 8e 3d ee 64 a2 3d 7b 71 ca 3c e2 3d 1e 3d
       0.06966913 0.07929407 0.024712315 0.038633235
000120 45 16 82 bd 0d 46 33 3d d3 ed cb bc 4e 5d 61 bd
       -0.06351904 0.043767978 -0.024893677 -0.055020623
000130 11 a7 88 3d 0f e9 9d 3d 05 7c 8e bd ac ee 02 3d
       0.066724904 0.07710468 -0.069572486 0.031965896
000140 7b d0 d0 bd cc 8d 65 3d bc f2 bd 3c 0a ef 2f bd
       -0.101960145 0.05604343 0.023187034 -0.042952575
000150 53 8e b3 3c cc 81 93 bd 94 84 26 bd d9 85 80 3d
       0.021918451 -0.07202491 -0.04065378 0.062755294
000160 62 a8 ea b9 01 0e a5 bd bd e4 80 3c 7d 57 02 be
       -0.00044757413 -0.08059312 0.01573407 -0.12728687
000170 f0 29 6d bd 8f 69 4c 3d 73 5b 86 3c 37 ed 81 3d
       -0.057901323 0.049905356 0.016401028 0.06344073
000180 ee 5f 32 3d 0d ef 41 bd f0 30 9f bd c8 da df bd
       0.043548517 -0.047347117 -0.07773006 -0.10930401
000190 b8 bd 72 bc 8a f4 87 3d 5d 60 91 3b f9 58 87 bd
       -0.01481574 0.06638439 0.004436536 -0.06608767
0001a0 61 b0 09 be 1b 42 68 3d cb 7d 57 3c 70 3c 39 3d
       -0.1344619 0.056703668 0.01315255 0.045223653
0001b0 31 77 db bd 4c b0 94 bd 33 b0 27 be 78 2a da bc
       -0.10716093 -0.072601885 -0.16375808 -0.026631579
0001c0 af 7d e2 3d 74 99 eb 3c eb bd c0 bd 72 9b 3f 3c
       0.110591285 0.028759696 -0.09411224 0.011694776
0001d0 fe 07 94 bd 70 0e 49 3d 91 2c db bd a1 b4 e1 bd
       -0.07228087 0.049086034 -0.1070186 -0.1102078
0001e0 26 0a 46 3d ee 7b ed bd 92 95 b1 3d 01 8f af bd
       0.048349522 -0.11595903 0.086711064 -0.08572198
0001f0 4a 1e 1c 3c 76 29 ad 3d be 51 98 3c 53 16 10 3d
       0.009528706 0.08455174 0.018593665 0.03517754
000200 96 b8 cd bc 48 a4 23 3e aa 8e 8f 3d 3d 36 1d bd
       -0.025112431 0.15980637 0.07009633 -0.038381804
000210 e1 56 10 3d 6b 5d c9 bd ac df 79 bd 78 df 44 3e
       0.035239104 -0.09832271 -0.061004326 0.19225872
000220 8c 97 60 bd 74 c1 8c 3d a9 88 bd bd b4 d1 40 bc
       -0.054832026 0.06872836 -0.092545815 -0.011768747
000230 e5 0d b9 bd d8 f8 fb 3d fd c4 33 3c a5 88 ec 3c
       -0.09035853 0.123033226 0.010972259 0.028873751
000240 f9 07 a1 bd 85 c5 59 3b c3 9d 12 3e 62 af 72 bd
       -0.07862849 0.0033229303 0.14317994 -0.05924929
000250 ed 6e 84 bd 1e fb 07 3d d0 ea bb 3d 1e 99 94 3d
       -0.0646647 0.03319847 0.09175646 0.07255767
000260 ae 2d 4f 3d 5d 13 14 3d 62 bf 1d 3d 1c ef 8f 3c
       0.050580673 0.03615128 0.038512595 0.01757007
000270 77 21 7e 3e 0c 65 ea bd 3b e7 42 bd 51 9e 8c 3d
       0.24817453 -0.114450544 -0.0475838 0.06866134
000280 39 6f d3 bc 8e 42 0e 3d b9 cd eb bd d3 1a fe bd
       -0.025809871 0.03473144 -0.11513848 -0.1240746
000290 0d 4d 45 3d 21 94 62 3d 4d 93 8f 3d cb 84 dc bd
       0.048169184 0.055317048 0.07010517 -0.10767516
0002a0 9f 79 39 bd a3 67 5b bc a6 c2 d9 bd c6 fe 3f bc
       -0.045282003 -0.013391408 -0.10632829 -0.011718458
0002b0 10 d4 af bd e2 43 a6 3d 07 d9 1a 3d 81 10 19 3e
       -0.085853696 0.08118416 0.03780463 0.14947702
0002c0 3a c1 a6 bd c5 ad f9 bc a8 26 88 bc cd bb c0 bc
       -0.08142324 -0.030478368 -0.016619995 -0.02352705
0002d0 55 84 95 bd 75 7e a8 bd 38 31 9a 3d d8 76 9b bd
       -0.07300631 -0.08227245 0.07528919 -0.07591027
0002e0 07 e3 a5 bd 69 11 41 3c 0f ab a7 bd bf 11 e2 3d
       -0.08099943 0.011783936 -0.08186924 0.11038541
0002f0 f3 9d a2 bd 2c f2 b1 bd 97 bf 8c bd df ff 57 3d
       -0.07940283 -0.08688769 -0.0687248 0.052734252
000300 9f eb 2c bc 35 d1 d7 bb 86 52 af bd fe 64 ad bc
       -0.010554223 -0.0065862187 -0.08560662 -0.02116632
000310 40 58 af bc 3b 24 32 3e 64 ae b3 bd e3 cf c2 bc
       -0.021404386 0.17396633 -0.08773497 -0.023780769
000320 34 99 82 bc 9b 41 c8 bc 3a e7 a4 bc 07 90 13 3d
       -0.015942194 -0.024445346 -0.020129789 0.036026027
000330 38 22 14 3d f1 41 ab 3d 64 6b 92 3d de 0e b3 bd
       0.036165446 0.08362187 0.071493894 -0.0874307
000340 28 8e 7c bd 3f c0 ae 3d f2 e7 39 3d ce 66 40 3d
       -0.06165901 0.08532762 0.045387216 0.046973042
000350 62 0e 53 3c 69 a1 f8 3b 17 35 4b 3d 68 bc 6d bd
       0.012881847 0.007587601 0.049611177 -0.058041006
000360 c7 73 b5 bc 0b 37 ba 3d 4c 1a 97 3d 93 3a 48 bd
       -0.022149934 0.0909253 0.073780626 -0.048883986
000370 89 7c 37 bc 9e 08 34 3c 72 80 1f bd 41 77 53 3d
       -0.011199125 0.010988383 -0.038940854 0.0516274
000380 ae 7a 60 3c d8 ff d5 3c 33 aa 55 bc 2a 19 43 3d
       0.013701124 0.026122972 -0.013041067 0.04763142
000390 15 b4 3a bd ed 16 18 3d 01 0c 3b bd bb 29 5b bd
       -0.045581896 0.03713124 -0.045665745 -0.053506594
0003a0 42 43 01 bd 1c 22 42 3d c3 8c 52 3d dc 81 7b 3c
       -0.031558283 0.04739581 0.051403772 0.015350785
0003b0 00 bb 04 bd fd 5e 78 bd 11 5d 25 be 8c 1f af bd
       -0.0324049 -0.060637463 -0.16148783 -0.08550939
0003c0 7f cc 85 bc 30 df 8e 3d 7e af 0c bd 54 ff 2a bd
       -0.016332863 0.069761634 -0.03434705 -0.041747406
0003d0 d4 e0 70 bc 6a a4 a5 3b 04 14 71 3c 9e 19 c1 3d
       -0.014702041 0.005055 0.014714245 0.09428714
0003e0 28 76 c2 bd d0 26 1e 3c e9 b6 45 3d ac cc 9a 3c
       -0.09495193 0.009652808 0.04827014 0.018896423
0003f0 d4 b0 d8 3c 68 b4 22 bc 1a b7 59 3d 86 1c e4 3d
       0.026451506 -0.0099307075 0.053153135 0.11138253
