outputs/models/model_janela180d.pth (torch, 115233 bytes, 11 tensors)

lstm.weight_ih_l0 f4 [256, 1]
0.017215095 -0.03318517 0.4509105 0.09705324 -0.53739476 -0.08054507 0.16751589 0.078662224
0.12208256 -0.11119385 0.0071347556 -0.11866878 0.08644959 -0.1870465 -0.04689658 0.039149504
-0.017436849 -0.15983683 -0.18399173 0.19096878 0.036043484 -0.2669137 0.09094853 0.101893075
0.07979229 0.02628671 0.045450017 -0.03940441 0.052361596 -0.12393547 0.08616586 0.033852093
-0.01906567 0.14009146 0.21737467 0.10813512 -0.29800162 0.0064673806 0.075514466 0.048031062
-0.2685527 0.014402002 -0.05628416 -0.058787864 -0.15867183 0.6841473 -0.11847705 -0.14125146
0.20980811 0.64413685 0.029667892 0.0935079 0.07288906 0.42804328 0.1995702 0.15178299
0.3097637 -0.08006744 0.101024725 0.13996984 0.118771486 0.22822617 0.05324306 0.11992297
0.08623569 -0.081945315 0.093746796 -0.11164221 0.09942633 -0.08848871 -0.07961027 0.118251085
-0.045449257 -0.09695427 -0.015528634 0.09298879 0.058268145 0.002943486 0.041164562 0.020432979
-0.045202762 -0.016459301 -0.11465599 0.06863715 -0.08410306 -0.115636155 -0.10564619 -0.0291837
0.0019334853 0.06251542 0.04712917 -0.08727804 0.013473481 -0.05183834 -0.08093615 -0.083913356
0.09984857 0.018110543 0.08665174 -0.10353394 0.042661697 -0.020248711 -0.051786974 0.0004967749
-0.07336599 -0.036782503 0.11231446 0.06452578 0.050566435 0.025429904 -0.05088058 -0.0062923133
-0.09664208 -0.10844116 0.04321462 -0.11980967 0.059736967 0.03059338 0.05964364 -0.115844816
0.11830209 -0.040979683 -0.10654439 -0.08970259 0.073789716 -0.00092588365 -0.022166729 0.04034303
-0.055779204 -0.066700295 0.20348455 0.13093148 -0.25679788 0.07336032 0.15843147 0.03579107
-0.16122746 -0.07634432 0.087612584 -0.043613143 -0.13239074 -0.15655884 0.0009080163 0.053964343
-0.08114601 0.1336439 0.030598283 -0.09862962 0.12457573 -0.17177127 -0.05816499 0.0019326019
0.077552244 0.13790964 0.07883175 0.15147802 -0.16527915 -0.1257397 -0.009327921 -0.1127937
0.07955147 -0.07985941 -0.15870023 0.12038531 -0.15396693 -0.047912624 -0.01097919 0.013631106
0.07883168 0.057976432 0.160594 0.14029866 -0.057003282 0.1827394 -0.13849418 -0.061140265
0.16680199 0.30295116 0.07024986 0.10817518 0.12211627 0.16727272 0.12113464 -0.031889435
0.17285272 -0.09790728 -0.036014874 -0.09826747 -0.05748809 -0.122911185 -0.15511315 0.15159005
-0.010827929 -0.07602165 0.42903534 0.23082814 -0.5379014 -0.025951378 0.05708581 -0.0636278
0.2665819 -0.03283258 -0.07068286 -0.1885651 0.04030874 -0.14744583 -0.016353976 0.11019667
-0.1504752 -0.004350078 -0.12077639 0.24993202 -0.005203857 -0.33981794 -0.014526274 -0.067525186
-0.020179255 0.0020825956 -0.043641817 -0.083386876 0.020792605 0.013768563 -0.04857936 0.11128551
-0.10977928 0.15603566 0.26794958 0.13184568 -0.29992467 0.15107717 -0.03992353 0.007397288
-0.14937705 -0.012173842 -0.00866143 -0.11052445 -0.022393499 0.71399564 -0.08672854 0.00056579354
0.22066422 0.6786237 0.06434124 0.11348391 -0.032427274 0.3810379 0.24666925 0.104708865
0.41128847 -0.055766724 0.06695944 0.08914559 0.06528021 0.18186627 0.0516151 0.18673882
00000000: ac06 8d3c 2ced 07bd bedd e63e d9c3 c63d
00000010: b492 09bf d0f4 a4bd 4989 2b3e a919 a13d
00000020: 6c06 fa3d 9ab9 e3bd abca e93b 9e08 f3bd
00000030: 7c0c b13d 1e89 3fbe a116 40bd 3b5b 203d
00000040: b9d7 8ebc 44ac 23be 5468 3cbe 528d 433e
00000050: 55a2 133d eaa8 88be 3943 ba3d 51ad d03d
00000060: 246a a33d 3a57 d73c cc29 3a3d 8566 21bd
00000070: 1d79 563d e1d1 fdbd ba77 b03d 7ea8 0a3d
00000080: 9c2f 9cbc 2374 0f3e 7797 5e3e f275 dd3d
00000090: ab93 98be 52ec d33b 54a7 9a3d 38bc 443d
000000a0: bd7f 89be 60f6 6b3c 388a 66bd 8bcb 70bd
000000b0: de7a 22be 4724 2f3f 18a4 f2bd 39a4 10be
000000c0: f0d7 563e 27e6 243f 140a f33c 1281 bf3d
000000d0: dc46 953d 7d28 db3e 215c 4c3e 006d 1b3e
000000e0: 5999 9e3e 66fa a3bd 0de6 ce3d 4154 0f3e
000000f0: 773e f33d 1fb4 693e 6515 5a3d 2d9a f53d
00000100: 569c b03d f2d2 a7bd 52fe bf3d aca4 e4bd
00000110: 08a0 cb3d 9239 b5bd b60a a3bd a02d f23d
00000120: 0029 3abd f68f c6bd d06b 7ebc e870 be3d
00000130: 94aa 6e3d 80e7 403b 2c9c 283d 1063 a73c
00000140: 8826 39bd a8d5 86bc c2d0 eabd a291 8c3d
00000150: 3a3e acbd a6d2 ecbd 085d d8bd a812 efbc
00000160: 006d fd3a 1608 803d 840a 413d d4be b2bd
00000170: e0bf 5c3c 7054 54bd dac1 a5bd c4da abbd
00000180: 687d cc3d 905c 943c 7876 b13d 9a09 d4bd
00000190: 08be 2e3d a0e0 a5bc 941e 54bd 003a 023a
000001a0: e840 96bd 40a9 16bd 2005 e63d 1826 843d
000001b0: c01e 4f3d 6052 d03c 2868 50bd c02f cebb
000001c0: 48ec c5bd 6616 debd d001 313d c65e f5bd
000001d0: c0ae 743d f89e fa3c e44c 743d 0c40 edbd
000001e0: 5e48 f23d 50da 27bd f233 dabd feb5 b7bd
000001f0: 101f 973d 00b7 72ba 0097 b5bc bc3e 253d
00000200: bc78 64bd 2a9a 88bd 415e 503e e712 063e
00000210: 037b 83be ef3d 963d dc3b 223e a899 123d
00000220: d018 25be 695a 9cbd 3a6e b33d b2a3 32bd
00000230: 7091 07be f650 20be f107 6e3a b709 5d3d
00000240: e12f a6bd f2d9 083e 40a9 fa3c 54fe c9bd
00000250: 8f21 ff3d cfe4 2fbe 6a3e 6ebd 5c4f fd3a
00000260: b6d3 9e3d 2f38 0d3e 8a72 a13d 0e1d 1b3e
00000270: f03e 29be e8c1 00be 23d4 18bc 6200 e7bd
00000280: e2eb a23d 558d a3bd 5082 22be 938c f63d
00000290: 82a9 1dbe 0740 44bd 0fe2 33bc 0155 5f3c
000002a0: 8172 a13d b278 6d3d c172 243e 74aa 0f3e
000002b0: 467c 69bd 0a20 3b3e 6bd1 0dbe 376e 7abd
000002c0: 24ce 2a3e 6a1c 9b3e 29df 8f3d f38a dd3d
000002d0: 1818 fa3d 8a49 2b3e 7015 f83d 7f9e 02bd
000002e0: 4e00 313e 9d83 c8bd 5584 13bd 7540 c9bd
000002f0: a278 6bbd dcb8 fbbd fbd5 1ebe 6c3a 1b3e
00000300: a067 31bc 3db1 9bbd 85aa db3e 365e 6c3e
00000310: e8b3 09bf fc97 d4bc cfd2 693d 4b4f 82bd
00000320: 6c7d 883e 757b 06bd 2dc2 90bd 3617 41be
00000330: c71a 253d 0afc 16be c6f8 85bc cbae e13d
00000340: 2c16 1abe 198b 8ebb 9d59 f7bd 2eee 7f3e
00000350: 1e85 aabb 9efc adbe 9cff 6dbc a54a 8abd
00000360: f74e a5bc 287c 083b c3c1 32bd bdc6 aabd
00000370: 4155 aa3c 8a95 613c 27fb 46bd a8e9 e33d
00000380: f6d3 e0bd d0c7 1f3e b030 893e 8e02 073e
00000390: ba8f 99be f9b3 1a3e db86 23bd f364 f23b
000003a0: 4cf6 18be cb74 47bc ace8 0dbc a55a e2bd
000003b0: 9272 b7bc 6bc8 363f bc9e b1bd c351 143a
000003c0: cdf5 613e 48ba 2d3f 57c5 833d 416a e83d
000003d0: 76d2 04bd 6617 c33e dd96 7c3e 9a71 d63d
000003e0: 6794 d23e a66b 64bd 0822 893d f791 b63d
000003f0: a1b1 853d 273b 3a3e 5b6a 533d 7638 3f3e

lstm.weight_hh_l0 f4 [256, 64]
0.07357393 0.0030690432 0.0054552406 0.03279914 0.042035 0.08231552 -0.06607637 -0.078890726
0.05280313 -0.11837572 0.08716242 -0.00049871206 -0.05268562 0.071024716 0.06846362 -0.008029297
0.033626154 -0.092441216 -0.049271643 0.093961924 -0.039613694 0.019651085 0.062142268 0.02876921
0.021747068 -0.0028213263 -0.0938766 -0.053107247 0.0061205924 0.029853731 0.118063465 -0.10175261
-0.036729053 -0.033569247 -0.06498732 -0.084991485 -0.0013381094 0.038913235 0.094783425 0.044666514
0.028956503 -0.03085664 -0.07906067 -0.014675498 0.05695948 0.040156305 0.023802623 -0.03660451
-0.057869762 0.03700015 -0.0029218644 -0.016673952 -0.021210328 0.035541043 -0.077242196 -0.10617231
-0.11164518 -0.07574843 0.11352241 0.12137708 -0.06801976 -0.100342944 -0.098390654 0.085047275
0.06567092 -0.07119368 -0.027579173 -0.03026022 -0.10620238 0.0519422 -0.012241378 0.07992652
0.003409937 -0.08808772 0.084452465 0.06658384 -0.07626107 0.028721154 -0.120508865 0.0684952
0.11460462 0.10549541 -0.053585246 0.103960425 0.12455097 -0.057951495 -0.012611285 0.0037918985
0.019996226 0.034666926 -0.07725628 0.10750672 -0.09269565 0.117852286 0.09846385 -0.11127791
0.07552962 -0.10734077 -0.08692162 0.10074897 -0.06981802 0.015891433 -0.10192393 -0.11336936
0.11368774 0.094164774 -0.0645123 0.008415163 -0.11067431 0.012773424 0.017474756 -0.08436258
-0.04988511 0.013245672 -0.0075778067 -0.05119224 -0.024973065 -0.1167122 -0.08363043 -0.12373105
-0.043888897 0.076732785 0.059295043 -0.061705545 0.12099698 -0.10328366 0.0058799237 0.057932213
-0.04825902 0.032933712 0.11651848 0.121235386 0.012321249 -0.10921468 0.09598145 -0.033821285
-0.03978704 -0.019259736 0.044726893 0.015239373 0.09112556 0.10569708 -0.052083388 -0.118556604
0.10300298 0.095825866 -0.034876853 0.03374192 -0.08268608 -0.048113674 0.09322189 -0.077604026
0.122945726 -0.008333832 -0.007321134 0.06107141 -0.11332673 0.08305575 -0.09074432 -0.08633898
0.019584283 -0.049997166 -0.01892005 -0.08826533 0.03362775 -0.011777237 -0.09963712 -0.086718515
0.075526014 -0.12277898 0.057166174 0.019088686 0.013525367 -0.022362068 -0.10927962 -0.0014239699
-0.072408006 -0.08324896 -0.066968024 -0.07107255 0.014344215 -0.09371024 0.023759842 0.100296065
-0.119293496 0.12319769 0.03397821 0.10694434 -0.02415222 -0.10413873 0.0499129 0.088586226
-0.11974485 0.12472598 0.0783699 0.005320266 0.06854722 -0.02757296 0.10907985 0.09257203
-0.045492604 -0.07702358 -0.07910432 0.06793639 0.08390804 -0.0771023 -0.081848875 0.06959979
-0.0302978 -0.09076719 0.0034489483 -0.051012054 0.021285027 0.11033824 -0.09824298 0.09956679
-0.007944405 0.0018215626 -0.080868304 0.1211189 0.07348576 0.019619867 0.1229569 -0.11822122
0.10258967 -0.097988605 0.018002555 0.025170743 0.039802566 -0.01654461 -0.018667072 0.0067445934
-0.11456677 0.113725886 -0.06665628 0.11852287 0.059211522 -0.0483108 -0.10306336 0.011120692
0.060487777 -0.055673033 -0.12056556 0.04411249 -0.027827397 -0.004206255 -0.08507995 -0.05889371
0.030209795 -0.06518021 -0.06847821 -0.08155474 -0.05138895 -0.08995861 -0.017745987 0.07485448
00000000: eead 963d 0022 493b e0c1 b23b 6458 063d
00000010: e42c 2c3d 0a95 a83d 0c53 87bd 7691 a1bd
00000020: 1848 583d f86e f2bd 3682 b23d 00bc 02ba
00000030: e0cc 57bd 6875 913d a836 8c3d 508d 03bc
00000040: 94bb 093d d251 bdbd 10d1 49bd 1c6f c03d
00000050: f841 22bd 50fb a03c e488 7e3d 68ad eb3c
00000060: e826 b23c 00e6 38bb 6042 c0bd fc86 59bd
00000070: 408f c83b d08f f43c 42cb f13d ac63 d0bd
00000080: 3471 16bd e87f 09bd 1218 85bd 0410 aebd
00000090: 8063 afba 7c63 1f3d d01d c23d 3cf4 363d
000000a0: 3036 ed3c 10c7 fcbc 90ea a1bd 8071 70bc
000000b0: 584e 693d f07a 243d b8fd c23c 9cee 15bd
000000c0: d808 6dbd 788d 173d c07c 3fbb d097 88bc
000000d0: 48c1 adbc 7c93 113d 2831 9ebd de70 d9bd
000000e0: 3aa6 e4bd fe21 9bbd 707e e83d 8c94 f83d
000000f0: f24d 8bbd 9a80 cdbd 0a81 c9bd 442d ae3d
00000100: 7a7e 863d fecd 91bd b8ed e1bc 48e4 f7bc
00000110: a280 d9bd 58c1 543d 1090 48bc 84b0 a33d
00000120: 4079 5f3b 5667 b4bd 6af5 ac3d 1c5d 883d
00000130: c42e 9cbd a048 eb3c 5acd f6bd 3647 8c3d
00000140: d4b5 ea3d fa0d d83d 347c 5bbd 34e9 d43d
00000150: 9414 ff3d 8c5e 6dbd 909f 4ebc 8081 783b
00000160: 20cf a33c e8fe 0d3d 8a38 9ebd 7c2c dc3d
00000170: 38d7 bdbd 8a5c f13d 6aa7 c93d ace5 e3bd
00000180: 46af 9a3d 7ad5 dbbd f603 b2bd 7a55 ce3d
00000190: c0fc 8ebd c02e 823c 7ebd d0bd 322e e8bd
000001a0: 1ed5 e83d 76d9 c03d 061f 84bd c0df 093c
000001b0: 36a9 e2bd a047 513c 3827 8f3c 4ac6 acbd
000001c0: 5454 4cbd 6004 593c 404f f8bb f4ae 51bd
000001d0: 5094 ccbc ce06 efbd 6e46 abbd b466 fdbd
000001e0: d8c4 33bd 1426 9d3d 5cdf 723d f4be 7cbd
000001f0: 44cd f73d 6286 d3bd 60ac c03b 544a 6d3d
00000200: 40ab 45bd 80e5 063d 3ea1 ee3d 424a f83d
00000210: 10df 493c f2ab dfbd ec91 c43d 3088 0abd
00000220: bcf7 22bd 98c6 9dbc 8c33 373d 90ae 793c
00000230: 0aa0 ba3d b677 d83d 6455 55bd cecd f2bd
00000240: 3af3 d23d 5a40 c43d 08db 0ebd f834 0a3d
00000250: 5257 a9bd d812 45bd 1eeb be3d dcee 9ebd
00000260: f8ca fb3d a08a 08bc 20e6 efbb 0426 7a3d
00000270: d817 e8bd 2219 aa3d 28d8 b9bd 7ed2 b0bd
00000280: 386f a03c d4c9 4cbd 38fe 9abc 74c4 b4bd
00000290: 40bd 093d 50f5 40bc 8c0e ccbd 7a99 b1bd
000002a0: 62ad 9a3d 8c73 fbbd 1427 6a3d e05f 9c3c
000002b0: 8099 5d3c a830 b7bc fecd dfbd 80a4 baba
000002c0: a64a 94bd 6e7e aabd 8826 89bd 7c8e 91bd
000002d0: 0004 6b3c 28eb bfbd 00a4 c23c 0668 cd3d
000002e0: 2650 f4bd 124f fc3d bc2c 0b3d a205 db3d
000002f0: e0da c5bc b046 d5bd 7871 4c3d b26c b53d
00000300: ca3c f5bd 5670 ff3d 6680 a03d a055 ae3b
00000310: 7c62 8c3d b0e0 e1bc 4265 df3d 6896 bd3d
00000320: 7456 3abd 8abe 9dbd 7201 a2bd 3c22 8b3d
00000330: fad7 ab3d d0e7 9dbd 62a0 a7bd 568a 8e3d
00000340: 1833 f8bc 26e4 b9bd c007 623b 04f2 50bd
00000350: f05d ae3c 04f9 e13d 9e33 c9bd ace9 cb3d
00000360: 4029 02bc 80c1 ee3a 489e a5bd 300d f83d
00000370: b47f 963d d8b9 a03c d4d0 fb3d f81d f2bd
00000380: 881a d23d 40ae c8bd 187a 933c e032 ce3c
00000390: 0408 233d 9088 87bc b0eb 98bc c001 dd3b
000003a0: fca1 eabd 1ee9 e83d 1683 88bd 1ebc f23d
000003b0: c887 723d 8ce1 45bd e212 d3bd 9033 363c
000003c0: 08c2 773d 6809 64bd 14eb f6bd 4caf 343d
000003d0: 48f6 e3bc a0d4 89bb 663e aebd 883a 71bd
000003e0: 887a f73c 347d 85bd 4e3e 8cbd 2c06 a7bd
000003f0: 387d 52bd 383c b8bd 0860 91bc 4e4d 993d

lstm.bias_ih_l0 f4 [256]
0.008098954 -0.0848348 -0.0046018143 0.12886886 0.21393995 0.17591156 -0.024743475 0.055737108
-0.02705037 -0.011131778 0.15896966 0.07506857 -0.06192443 0.14771879 -0.037217174 0.123222426
0.031000096 0.07686079 0.019939564 0.106364615 0.027237093 0.0017671882 -0.062437918 -0.016101602
-0.014956146 0.117021896 0.012783197 0.1723336 -0.044117995 0.16882741 -0.11436229 0.12622632
-0.046491243 0.13104163 -0.00013212417 0.03494364 0.13541776 0.11866675 0.11261419 -0.16761532
0.056484636 0.12159652 0.17818515 0.120024025 -0.114317685 0.014265799 0.022440635 0.051377054
0.06005196 0.22866005 0.10977447 0.12183841 -0.011884811 0.13350418 0.0020604678 0.040943976
-0.074250855 0.14272006 0.120538555 0.059202775 0.07701684 -0.0017306764 0.15186664 0.07315409
-0.0039723217 0.041894466 -0.014260948 0.100763634 0.024579838 -0.109086454 -0.1177751 0.03208196
0.11907539 -0.034858763 -0.025021896 -0.04178533 -0.062717006 -0.06398235 0.027536318 -0.03634937
-0.07161866 0.016163826 0.09214094 -0.10868493 -0.008847609 -0.122947365 0.08479653 -0.07691486
0.06998384 -0.11809562 0.09114918 -0.11080678 -0.053452715 0.04071556 -0.05866173 0.1029156
0.06807099 0.10013561 0.011752471 -0.01579006 -0.056948483 -0.110340714 -0.041939422 0.11633754
-0.088728234 -0.05265087 -0.0008684397 0.07611641 -0.012775689 0.10753031 0.11652067 0.11799055
-0.10813704 0.01243034 -0.07034998 0.10583548 -0.057921678 0.051055953 0.016325891 0.08007124
-0.09636921 0.10279934 -0.10452181 0.11222409 0.10685569 0.022869363 -0.035885334 0.07265785
-0.11784832 -0.053369675 0.010602024 0.13769898 -0.16265407 -0.050570995 -0.01747529 -0.1760084
-0.07232519 0.035901316 0.087177634 0.0745584 -0.10462393 0.14501068 0.038566586 0.11887606
-0.17839313 -0.115141004 -0.118013635 -0.10208514 -0.04100064 0.04713452 -0.096543185 0.011307266
0.014298822 -0.07521127 0.020139107 0.04025612 -0.08355473 -0.039063096 -0.035232328 -0.028584236
-0.004121837 -0.08653704 -0.093177535 0.015985236 -0.105666436 0.08419654 -0.13792506 -0.047730472
0.14231254 0.04548398 0.045138154 -0.1333303 0.016931856 0.03891391 -0.039388806 -0.016678989
0.114208125 -0.10451711 0.15049386 -0.1501432 0.002404495 -0.14333275 -0.0768572 -0.048817415
-0.08529417 -0.033891127 0.09879386 0.11382757 -0.0651572 -0.12252821 0.17099687 -0.14391108
-0.017725637 0.018983725 0.010144014 -0.04339536 0.14035217 0.15050729 0.14560163 0.013665019
0.14761505 0.0133123165 0.083557986 0.05444607 0.04805352 -0.05938725 -0.11244294 0.124896586
0.21795626 0.14636979 0.010753451 -0.0121204965 -0.014593737 0.17370613 -0.027778385 -0.007866526
-0.00028784783 -0.034417167 -0.05240014 0.1019652 0.11880861 -0.047836285 -0.071512215 0.08723537
0.09743102 0.0011899432 -0.056646865 -0.02491307 0.21269152 0.089827366 0.0054934956 0.030835161
-0.061466407 0.12877022 0.050416723 -0.052473415 -0.078844786 -0.010177897 0.012152665 0.06036132
0.045844346 0.11832638 0.11888643 -0.0707211 0.06388183 0.056265786 0.029351687 0.040559616
-0.054074 0.09906221 0.022085568 0.03320809 0.16053922 -0.07848689 -0.009159305 -0.046718333
00000000: 7ab1 043c debd adbd d1ca 96bb 33f6 033e
00000010: 1313 5b3e 2922 343e d4b2 cabc 984c 643d
00000020: bd98 ddbc 1062 36bc f1c8 223e 8dbd 993d
00000030: 79a4 7dbd 9843 173e 0971 18bd 0a5c fc3d
00000040: eaf3 fd3c 3169 9d3d 4c58 a33c b1d5 d93d
00000050: 5320 df3c ffa0 e73a e7be 7fbd 82e7 83bc
00000060: 9f0a 75bc 2da9 ef3d 9d70 513c 3878 303e
00000070: 12b5 34bd 18e1 2c3e c736 eabd 7941 013e
00000080: 9a6d 3ebd c72f 063e d08a 0ab9 1021 0f3d
00000090: f4aa 0a3e 8e07 f33d 45a2 e63d 5aa3 2bbe
000000a0: 6f5c 673d 9907 f93d 2b76 363e 28cf f53d
000000b0: 641f eabd 19bb 693c 6cd5 b73c bf70 523d
000000c0: 0bf9 753d dc25 6a3e 70d1 e03d 6b86 f93d
000000d0: 83b8 42bc 52b5 083e ea08 073b dfb4 273d
000000e0: d510 98bd 3525 123e ebdc f63d 9c7e 723d
000000f0: 01bb 9d3d ddd7 e2ba ee82 1b3e d0d1 953d
00000100: 402a 82bb 8899 2b3d c0a6 69bc 2a5d ce3d
00000110: a85b c93c b868 dfbd 1234 f1bd 6068 033d
00000120: ccdd f33d 10c8 0ebd b8fa ccbc 1827 2bbd
00000130: c671 80bd 2e09 83bd d893 e13c 14e3 14bd
00000140: ceac 92bd 006a 843c 64b4 bc3d 3496 debd
00000150: 90f5 10bc d4cb fbbd cea9 ad3d 8a85 9dbd
00000160: b053 8f3d 1edc f1bd 6cac ba3d aaee e2bd
00000170: 3cf1 5abd 5cc5 263d 4847 70bd 6ac5 d23d
00000180: ce68 8b3d e613 cd3d 708d 403c 285a 81bc
00000190: d042 69bd 50fa e1bd acc8 2bbd 6042 ee3d
000001a0: 26b7 b5bd 70a8 57bd 00a8 63ba ece2 9b3d
000001b0: 2051 51bc da38 dc3d 64a2 ee3d 08a5 f13d
000001c0: f476 ddbd a0a8 4b3c a613 90bd 46c0 d83d
000001d0: 483f 6dbd 0c20 513d e0bd 853c 64fc a33d
000001e0: 385d c5bd 7688 d23d 880f d6bd bed5 e53d
000001f0: 28d7 da3d 8858 bb3c 80fc 12bd a4cd 943d
00000200: 765a f1bd 299a 5abd 1db4 2d3c f600 0d3e
00000210: ca8e 26be 8823 4fbd 5728 8fbc 8c3b 34be
00000220: 3b1f 94bd 420d 133d 308a b23d 13b2 983d
00000230: 1245 d6bd ae7d 143e fff7 1d3d 4b75 f33d
00000240: b0ac 36be 0ccf ebbd 22b1 f1bd 0412 d1bd
00000250: 49f0 27bd 2010 413d 6fb8 c5bd 1c42 393c
00000260: 9b45 6a3c 5e08 9abd c5fa a43c 9ae3 243d
00000270: be1e abbd a000 20bd c64f 10bd 7d29 eabc
00000280: 7a10 87bb 553a b1bd ddd3 bebd 78f3 823c
00000290: a567 d8bd 3c6f ac3d 3a3c 0dbe 0781 43bd
000002a0: 61ba 113e 694d 3a3d c9e2 383d bd87 08be
000002b0: adb4 8a3c 3164 1f3d 2856 21bd 60a2 88bc
000002c0: f3e5 e93d 110d d6bd 101b 1a3e 24bf 19be
000002d0: bb94 1d3b d2c5 12be 4f67 9dbd c5f4 47bd
000002e0: b6ae aebd 6cd1 0abd 6f54 ca3d 6e1e e93d
000002f0: 2371 85bd 12f0 fabd ce19 2f3e 6d5d 13be
00000300: 5b35 91bc c283 9b3c 1433 263c 55bf 31bd
00000310: 7bb8 0f3e 951e 1a3e 9818 153e 3ee3 5f3c
00000320: 6628 173e e71b 5a3c 7320 ab3d d802 5f3d
00000330: c5d3 443d 0c40 73bd 7c48 e6bd c8c9 ff3d
00000340: ed2f 5f3e f6e1 153e 3e2f 303c 0c95 46bc
00000350: 921a 6fbc 05e0 313e 7f8f e3bc 9ae2 00bc
00000360: 48ea 96b9 04f9 0cbd 87a1 56bd 21d3 d03d
00000370: ee51 f33d fbef 43bd ff74 92bd 75a8 b23d
00000380: ea89 c73d def7 9b3a 8b06 68bd 7f16 ccbc
00000390: cecb 593e 69f7 b73d c802 b43b 059a fc3c
000003a0: 33c4 7bbd 57dc 033e c481 4e3d 5dee 56bd
000003b0: 6079 a1bd 32c1 26bc f91b 473c 6e3d 773d
000003c0: 48c7 3b3d 1a55 f23d bb7a f33d 39d6 90bd
000003d0: 7ad4 823d f476 663d f372 f03c d721 263d
000003e0: b37c 5dbd 21e1 ca3d cbec b43c 3505 083d
000003f0: 6564 243e bcbd a0bd e910 16bc b95b 3fbd

lstm.bias_hh_l0 f4 [256]
-0.11286773 0.014000636 0.13219975 0.12019028 0.2086582 0.17559476 -0.029465921 0.020757247
0.096966185 -0.051885556 -0.07151307 0.06649055 -0.0264272 0.083162084 0.07091824 0.014167234
0.077689104 0.057189845 -0.037670664 0.05989964 -0.054726854 0.17261457 -0.049215626 0.119888194
0.028092751 -0.016044859 -0.034573477 -0.036112122 0.16285221 -0.024783146 0.054101095 0.1859591
0.07948417 0.022853741 0.009932682 0.077876605 0.1307531 -0.08920085 0.010303899 -0.17082724
0.036080208 0.14448406 -0.03755609 0.013579507 0.09166237 0.091848575 0.13875371 0.068105735
0.06420165 0.22621399 0.09506738 -0.0006430424 0.07601286 0.07565407 0.17147002 -0.026992824
-0.061355304 0.036082197 0.06866583 0.06823081 -0.010635843 -0.091484785 0.13916692 0.07473522
-0.01452291 -0.0014678985 -0.09615122 -0.098328054 0.070563465 0.07372655 -0.124791294 -0.035779282
0.0146749765 -0.029027477 -0.0940786 -0.012124643 -0.040023163 -0.086477876 -0.021502659 -0.030835554
0.07923779 0.11229569 0.09699081 0.0549134 -0.08000328 -0.11217813 -0.10273248 0.08197792
-0.07919626 -0.09112729 -0.060333937 -0.036849216 0.07239345 -0.092366055 -0.008792058 -0.024853095
0.038430527 -0.11176345 -0.02770169 -0.002307564 -0.09081945 -0.12073927 0.022951692 0.115982294
0.12091209 -0.09840047 -0.04819934 0.092555165 0.002563849 -0.12070726 -0.038872644 -0.089284316
0.08076692 -0.0725275 -0.06558181 0.0037911087 -0.025493622 0.0586731 -0.07299027 -0.07474494
-0.0005469322 0.019599244 -0.06671788 -0.11265774 -0.03981936 -0.1123053 0.07080038 -0.025081173
-0.02868134 -0.017211711 -0.0012481067 0.0007969777 -0.03146275 -0.035230234 0.05760364 -0.05208364
-0.06709624 -0.015998412 -0.003973997 0.10036919 0.022496963 -0.040579394 0.08103484 0.05863066
-0.06637327 -0.10486962 -0.033730805 -0.03605794 -0.07115949 -0.09282089 -0.09687597 -0.14160812
0.13885473 0.053457614 0.12278879 0.033642575 -0.062026363 0.070429206 -0.10298675 -0.09570307
-0.09976428 -0.14337163 0.0031996623 -0.056287784 -0.062102206 -0.13248335 0.018077334 -0.047029804
0.082651846 -0.16203801 -0.12684561 -0.099587515 -0.012267672 -0.09480092 0.035413407 0.09273998
-0.03447853 -0.16574702 -0.0658471 -0.030412607 -0.07746706 -0.10437495 0.13725229 -0.105462335
0.0961509 0.04054381 0.08461178 0.026887594 -0.09968234 0.005536936 0.050729237 0.07701698
0.035304118 -0.0119027905 0.002922162 0.00879214 0.07864208 -0.0016239865 0.16474217 -0.019925222
-0.056960035 0.10558662 0.061804947 -0.044971682 0.00231722 0.031052647 -0.005198695 0.035913687
0.19123127 0.151761 0.0030836768 0.14063852 0.0057587037 0.15682228 0.10590969 0.06023401
0.12233417 0.11087417 -0.06645906 0.1630159 0.08411483 0.16835347 0.0614369 0.0408207
0.14702 0.108573355 0.025047053 0.102535956 0.20771618 -0.062622115 0.0035888306 -0.059720337
-0.067292616 -0.018451113 -0.047424294 -0.0555468 0.00096457 0.0037988494 0.15631 0.10634934
0.16041799 0.112774864 0.034693923 -0.04405953 0.03134092 0.09934808 0.10113155 -0.0071487543
0.14243087 0.14938292 0.12119709 0.052639835 0.016579248 -0.021772265 -0.012993899 0.14651428
00000000: 3227 e7bd ec62 653c 5f5f 073e 5226 f63d
00000010: 7faa 553e 1dcf 333e 8462 f1bc 1a0b aa3c
00000020: 3596 c63d f385 54bd 7275 92bd 332c 883d
00000030: db7d d8bc e250 aa3d 953d 913d b01d 683c
00000040: 771b 9f3d e63f 6a3d 8e4c 1abd 5359 753d
00000050: 4429 60bd e0c1 303e 5396 49bd f187 f53d
00000060: c522 e63c 8270 83bc eb9c 0dbd 4eea 13bd
00000070: bbc2 263e 0606 cbbc 1c99 5d3d 106c 3e3e
00000080: 99c8 a23d c537 bb3c b0bc 223c c57d 9f3d
00000090: 24e4 053e efae b6bd afd1 283c 56ed 2ebe
000000a0: d7c8 133d a1f3 133e 6ad4 19bd 957c 5e3c
000000b0: 7bb9 bb3d 1b1b bc3d 7415 0e3e 057b 8b3d
000000c0: 287c 833d a4a4 673e b0b2 c23d d891 28ba
000000d0: a1ac 9b3d 85f0 9a3d d695 2f3e 0e20 ddbc
000000e0: b34f 7bbd edca 133d aca0 8c3d 98bc 8b3d
000000f0: f541 2ebc 605c bbbd c681 0e3e c70e 993d
00000100: 80f1 6dbc 8066 c0ba eeea c4bd 3860 c9bd
00000110: 9483 903d f2fd 963d 9492 ffbd 4c8d 12bd
00000120: 506f 703c 08cb edbc 48ac c0bd 70a6 46bc
00000130: 54ef 23bd 501b b1bd 5826 b0bc d89a fcbc
00000140: 6c47 a23d 48fb e53d 1ea3 c63d e0ec 603d
00000150: c2d8 a3bd a6bd e5bd 6865 d2bd 0ae4 a73d
00000160: a631 a2bd f2a0 babd b820 77bd 34ef 16bd
00000170: 0443 943d 6a2a bdbd 900c 10bc b898 cbbc
00000180: 5469 1d3d 3ce4 e4bd a8ee e2bc 803a 17bb
00000190: 8cff b9bd 2646 f7bd 3005 bc3c 2088 ed3d
000001a0: c2a0 f73d 3086 c9bd ac6c 45bd 908d bd3d
000001b0: 4006 283b 5e35 f7bd ec38 1fbd b2da b6bd
000001c0: 2069 a53d 4c89 94bd c24f 86bd 4074 783b
000001d0: 00d8 d0bc 3453 703d ec7b 95bd e013 99bd
000001e0: 0060 0fba 988e a03c 62a3 88bd 1ab9 e6bd
000001f0: a019 23bd 5200 e6bd caff 903d 0877 cdbc
00000200: 21f5 eabc 93ff 8cbc 8397 a3ba 45ec 503a
00000210: 16df 00bd 944d 10bd cbf1 6b3d a855 55bd
00000220: c169 89bd 1a0f 83bc 4e38 82bb 5d8e cd3d
00000230: 8d4b b83c 9436 26bd 98f5 a53d b426 703d
00000240: b5ee 87bd e2c5 d6bd 5029 0abd 7eb1 13bd
00000250: 11bc 91bd e118 bebd e966 c6bd b801 11be
00000260: ef2f 0e3e 5ff6 5a3d b078 fb3d cccc 093d
00000270: 5b0f 7ebd 303d 903d b8ea d2bd f9ff c3bd
00000280: 3751 ccbd 03d0 12be 6db1 513b 058e 66bd
00000290: e25e 7ebd b7a9 07be eb16 943c 53a2 40bd
000002a0: 5f45 a93d 4bed 25be d1e3 01be 8af4 cbbd
000002b0: 59fe 48bc fc26 c2bd a60d 113d 75ee bd3d
000002c0: 5c39 0dbd 96b9 29be d8da 86bd dc23 f9bc
000002d0: 0da7 9ebd 89c2 d5bd dd8b 0c3e a3fc d7bd
000002e0: c3ea c43d 4411 263d f148 ad3d 5f43 dc3c
000002f0: 4126 ccbd 306f b53b 76c9 4f3d 14bb 9d3d
00000300: 0d9b 103d ec03 43bc be81 3f3b e80c 103c
00000310: 190f a13d f2db d4ba 2cb2 283e 383a a3bc
00000320: ed4e 69bd cc3d d83d 2f27 7d3d 3a34 38bd
00000330: 80dc 173b 1f62 fe3c d159 aabb 3b1a 133d
00000340: 21d2 433e 3c67 1b3e 8317 4a3b 8b03 103e
00000350: 82b3 bc3b 0596 203e 2ee7 d83d f0b7 763d
00000360: 568a fa3d ff11 e33d b01b 88bd a4ed 263e
00000370: 6544 ac3d da64 2c3e 42a5 7b3d 9b33 273d
00000380: 698c 163e b55b de3d 7a2f cd3c 5ffe d13d
00000390: 8db3 543e 0640 80bd 9632 6b3b 509d 74bd
000003a0: b6d0 89bd ca26 97bc fa3f 42bd 0b85 63bd
000003b0: 32db 7c3a 1ef6 783b bb0f 203e afcd d93d
000003c0: 9d44 243e 82f6 e63d 371b 0e3d c477 34bd
000003d0: 565f 003d 0277 cb3d 0f1e cf3d 1940 eabb
000003e0: 66d9 113e d6f7 183e 2e36 f83d de9c 573d
000003f0: 34d1 873c c05b b2bc 5de4 54bc d707 163e

gcn1.bias f4 [64]
-0.09006516 -0.024857936 -0.014971417 -0.11559583 -0.023191057 0.042573668 0.02769798 0.0035531756
-0.029670943 0.038017605 0.014268088 0.016066382 0.0 0.019929657 0.002515677 0.0346381
0.011326908 0.0021949115 0.018692913 0.043608245 0.007967063 0.04065972 0.00035754728 -0.017278923
0.0202266 0.033773236 -0.037278093 0.034156222 0.0 0.046202358 0.036140658 0.0
0.024015691 0.0 0.0 0.055640142 0.05466174 0.016121786 -0.013723073 0.039783202
-0.015885564 0.028794266 0.026652027 0.031562038 0.067976356 -0.054057162 -0.015493842 0.0
0.02570556 -0.014747573 0.046970896 0.027516212 0.021262253 0.04022172 0.024974555 0.015651623
0.06691199 0.014131665 0.025544375 -0.07914466 0.038273655 -0.024284026 0.03329941 0.0
00000000: 1574 b8bd dfa2 cbbc ad4a 75bc 82bd ecbd
00000010: 2cfb bdbc ba61 2e3d e0e6 e23c 65dc 683b
00000020: 7a10 f3bc 59b8 1b3d b3c4 693c a59d 833c
00000030: 0000 0000 8543 a33c 0ede 243b aee0 0d3d
00000040: 7f94 393c 81d8 0f3b e121 993c 8f9e 323d
00000050: 4988 023c ce8a 263d 2f75 bb39 878c 8dbc
00000060: 41b2 a53c ce55 0a3d eab0 18bd 65e7 0b3d
00000070: 0000 0000 af3e 3d3d 3a08 143d 0000 0000
00000080: 8ebc c43c 0000 0000 0000 0000 ebe6 633d
00000090: fde4 5f3d d611 843c bdd6 60bc b6f3 223d
000000a0: 7122 82bc f4e1 eb3c 5a55 da3c 3247 013d
000000b0: 3037 8b3d 0b6b 5dbd e2d9 7dbc 0000 0000
000000c0: 7794 d23c ce9f 71bc 8e64 403d ae69 e13c
000000d0: 2d2e ae3c 88bf 243d 7097 cc3c d537 803c
000000e0: 2709 893d 8088 673c 7042 d13c 9816 a2bd
000000f0: d6c4 1c3d 4bef c6bc f664 083d 0000 0000

gcn1.lin.weight f4 [64, 64]
0.18591996 0.18584956 0.011986048 -0.2007703 0.27739996 0.11294087 -0.100688264 0.26254377
-0.030216113 -0.23453373 0.022481686 -0.16775124 -0.103037365 -0.24236242 0.028336834 0.09141231
0.23850076 0.23551577 -0.05452866 -0.06213844 0.05977322 -0.22698127 -0.02373354 0.14579159
0.0036652256 0.32248014 -0.11510934 0.12751064 -0.16609736 -0.29857916 0.101561904 -0.11774452
0.05241984 -0.09235899 0.10192064 -0.023934564 0.11853012 -0.17952608 0.18028237 0.06017876
-0.17463283 0.46584097 0.16008025 0.19593959 -0.120836824 0.2984023 -0.060218554 0.04932352
0.22688344 0.4963143 -0.07550222 0.20449163 0.101361826 0.22214106 0.12255774 -0.0383213
0.20727603 -0.07650834 -0.18851647 -0.28350326 0.14487961 0.021431034 -0.39628994 0.20613682
-0.10876858 -0.10473309 -0.17145543 0.17041926 -0.21260668 -0.061845213 0.13359192 -0.05786523
-0.01984838 -0.10794975 -0.23214972 -0.09702567 0.13967521 -0.09351824 0.015289041 0.10410628
-0.14965947 0.041113935 -0.14013726 0.05482545 -0.11299583 -0.16948149 -0.14675455 -0.13870732
-0.20834804 0.11758462 -0.17985117 0.20201981 0.16907896 0.090140454 0.12440983 0.11317396
-0.14089423 -0.049855437 0.11363917 0.07920608 0.1749617 0.18428983 0.17703049 0.21802093
-0.16715693 -0.0036002405 -0.061191216 -0.15053204 0.20325403 0.086732745 -0.13789426 0.0045971945
-0.07111132 0.18573897 0.22117445 -0.17529602 -0.17803223 -0.10026995 0.1861532 -0.03573666
-0.11057268 -0.09858986 -0.10773585 -0.09386898 0.18902333 -0.053225297 -0.0017124988 0.23931116
0.17129992 0.05059906 -0.017774295 0.1696048 -0.033003405 0.2756103 0.1909256 -0.09598849
0.13956144 -0.02888502 0.077365704 -0.22581251 0.1636102 -0.055367593 -0.08941045 0.110883795
0.18153723 0.12996168 -0.108987585 0.06781603 -0.0864781 -0.13812897 -0.12584613 0.049060944
-0.03547809 0.17615992 -0.1904665 0.2131778 0.15376121 -0.17773336 0.08984678 0.123756215
0.37278357 0.18634352 -0.012152004 0.25470403 -0.18348476 0.0844701 0.040639203 0.12788434
-0.092511676 0.32257074 0.052551128 0.3977337 -0.0074897446 0.18749493 -0.10227262 -0.32530266
0.11558842 0.21970482 0.22484402 0.1479172 -0.042954836 0.32341352 -0.088919595 -0.14189631
-0.17309947 -0.11046179 -0.19244379 -0.48489556 0.13022695 -0.2388456 -0.31384087 0.26508412
0.05892381 -0.11923064 0.16609907 -0.103000686 0.24084586 0.28052354 0.11653027 0.18130797
-0.02999664 -0.4211395 0.05715632 0.04502086 0.07092141 -0.3258713 -0.20461375 -0.13940942
0.080049165 0.17168912 0.36263892 -0.20747331 0.35695913 -0.178452 -0.114513546 0.13652587
0.04020116 -0.013357803 0.10876953 0.23422675 0.05429825 -0.26732224 0.055554584 0.124453366
0.45632783 0.06442061 0.063705035 0.24673675 0.13316472 0.013531497 0.069310226 0.13380861
0.05907511 0.31702715 0.40313327 0.26901895 -0.40410793 0.33742115 -0.20677792 -0.41020533
0.15596032 0.40870494 -0.1479128 0.30559883 0.17715898 0.1538781 0.25819564 0.18559022
-0.063186914 -0.32066113 -0.2669488 0.0015991275 -0.14824297 0.047068957 -0.37766016 0.12115697
00000000: cd61 3e3e 594f 3e3e 2161 443c bb96 4dbe
00000010: 5e07 8e3e 8b4d e73d a635 cebd 236c 863e
00000020: c887 f7bc 9c29 70be 832b b83c fbc6 2bbe
00000030: 4105 d3bd db2d 78be a622 e83c 6136 bb3d
00000040: 8b39 743e 0c2b 713e 7259 5fbd e084 7ebd
00000050: c4d4 743d c76d 68be d76c c2bc 644a 153e
00000060: 4834 703b 1e1c a53e 72be ebbd 2692 023e
00000070: 6d15 2abe 5edf 98be b0ff cf3d 0a24 f1bd
00000080: 30b6 563d b626 bdbd c5bb d03d 6b12 c4bc
00000090: ebbf f23d afd5 37be f19b 383e 017e 763d
000000a0: f3d2 32be b582 ee3e 14ec 233e 63a4 483e
000000b0: 4c79 f7bd 30c8 983e bba7 76bd 7607 4a3d
000000c0: 2254 683e e81c fe3e e8a0 9abd 4166 513e
000000d0: ca96 cf3d f278 633e 8dff fa3d ccf6 1cbd
000000e0: 2b40 543e 68b0 9cbd 760a 41be 5727 91be
000000f0: 525b 143e 2390 af3c 84e6 cabe 8815 533e
00000100: 10c2 debd 4d7e d6bd 0392 2fbe 6382 2e3e
00000110: 91b5 59be 6851 7dbd 52cc 083e 1704 6dbd
00000120: 1299 a2bc c214 ddbd a8b8 6dbe 65b5 c6bd
00000130: 0507 0f3e 7e86 bfbd e37e 7a3c ac35 d53d
00000140: 5540 19be 1667 283d 2480 0fbe a790 603d
00000150: 5c6a e7bd 8e8c 2dbe d346 16be 4b09 0ebe
00000160: 3059 55be 35d0 f03d e82a 38be 48de 4e3e
00000170: 0923 2d3e 8f9b b83d 95ca fe3d c0c7 e73d
00000180: 9446 10be 3735 4cbd a7bb e83d cc36 a23d
00000190: 2929 333e 79b6 3c3e 7b47 353e e140 5f3e
000001a0: 302b 2bbe 03f2 6bbb a4a3 7abd 1225 1abe
000001b0: d321 503e f0a0 b13d 2734 0dbe 10a4 963b
000001c0: d0a2 91bd 5b32 3e3e 8e7b 623e cd80 33be
000001d0: 154e 36be 555a cdbd f29e 3e3e 9b60 12bd
000001e0: ee73 e2bd 7be9 c9bd 9da4 dcbd 613e c0bd
000001f0: 558f 413e c502 5abd ed75 e0ba fc0d 753e
00000200: 3f69 2f3e f640 4f3d 669b 91bc e1ac 2d3e
00000210: 942e 07bd cb1c 8d3e 0082 433e 9d95 c4bd
00000220: 32e9 0e3e 47a0 ecbc e971 9e3d 653b 67be
00000230: 6f89 273e 21c9 62bd d31c b7bd 0b17 e33d
00000240: e5e4 393e ad14 053e e234 dfbd 21e3 8a3d
00000250: 6e1b b1bd ae71 0dbe cfdd 00be 21f4 483d
00000260: 7951 11bd 4463 343e a609 43be 484b 5a3e
00000270: 9473 1d3e bcff 35be 9701 b83d e673 fd3d
00000280: 7ddd be3e d6d0 3e3e 3319 47bc 9168 823e
00000290: 6ee3 3bbe a9fe ac3d 4b75 263d 1df4 023e
000002a0: c376 bdbd fe27 a53e da3f 573d c0a3 cb3e
000002b0: 886c f5bb acfe 3f3e 4f74 d1bd 128e a6be
000002c0: 9fb9 ec3d 4dfa 603e 833d 663e 9b77 173e
000002d0: 69f1 2fbd 7596 a53e 7a1b b6bd 444d 11be
000002e0: fd40 31be ca39 e2bd fc0f 45be 3b44 f8be
000002f0: 375a 053e f193 74be c0af a0be 1bb9 873e
00000300: 185a 713d 322f f4bd e015 2a3e 06f2 d2bd
00000310: 4ca0 763e c8a0 8f3e 6ca7 ee3d cca8 393e
00000320: 83bb f5bc 999f d7be bf1c 6a3d cb67 383d
00000330: 3f3f 913d 9ad8 a6be 4486 51be 58c1 0ebe
00000340: d1f0 a33d 46cf 2f3e cfab b93e e273 54be
00000350: 59c3 b63e 1fbc 36be 1486 eabd 70cd 0b3e
00000360: f9a9 243d b0da 5abc 8fc2 de3d 23d9 6f3e
00000370: d767 5e3d 76de 88be 348d 633d 68e1 fe3d
00000380: cda3 e93e f4ee 833d c977 823d 8fa8 7c3e
00000390: 555c 083e 36b3 5d3c 85f2 8d3d 2005 093e
000003a0: bef8 713d 6251 a23e 7c67 ce3e dabc 893e
000003b0: 3ce7 cebe 77c2 ac3e 97bd 53be 6f06 d2be
000003c0: 10b4 1f3e c641 d13e 7476 17be 7377 9c3e
000003d0: 2a69 353e 3892 1d3e 3832 843e 5d0b 3e3e
000003e0: 2468 81bd b22d a4be 83ad 88be d199 d13a
000003f0: 01cd 17be 61cb 403d ac5c c1be 2521 f83d

gcn2.bias f4 [64]
0.035727523 0.043519102 0.016805364 0.07216298 0.017575199 0.14368336 0.0974199 0.033406608
0.0475984 0.011834947 0.052908074 0.047096334 0.03862814 0.02016456 0.0027380374 0.047847107
0.013042074 0.03435123 0.17947316 0.06415898 0.024402937 0.037244134 0.00987891 0.037026044
0.008534911 -0.006050847 0.045359917 0.031590894 0.024064261 0.03475966 0.026425533 0.0027481597
0.039476145 0.044993803 0.015346988 0.029559769 0.03230993 0.025797179 0.03067473 0.039884172
0.012503141 0.04097898 0.028062463 0.023816025 0.038580198 0.047956366 0.05942203 0.044456728
-0.0004386274 0.02540008 0.024554297 0.080768965 0.044885267 0.031713285 0.02643565 0.03812763
0.043224435 0.14411448 0.03484296 0.041973785 0.04325487 0.067421265 0.033017736 0.027007394
00000000: 0657 123d 1641 323d 67ab 893c 2fca 933d
00000010: ddf9 8f3c bb21 133e 1684 c73d 5ed5 083d
00000020: 8af6 423d 5ee7 413c 23b6 583d 16e8 403d
00000030: 8a38 1e3d 2630 a53c a570 333b 54fb 433d
00000040: 6cae 553c e0b3 0c3d d0c7 373e c965 833d
00000050: abe8 c73c 4e8d 183d 27db 213c 9fa8 173d
00000060: 03d6 0b3c 2f46 c6bb 52cb 393d 7465 013d
00000070: 6a22 c53c 2560 0e3d 5c7a d83c 781a 343b
00000080: bdb1 213d 6c4b 383d ef71 7b3c 5427 f23c
00000090: 6b57 043d 9b54 d33c 9249 fb3c 965d 233d
000000a0: f9d9 4c3c 93d9 273d 40e3 e53c d319 c33c
000000b0: 4506 1e3d e56d 443d 8464 733d 4218 363d
000000c0: 93f7 e5b9 d413 d03c 1826 c93c 336a a53d
000000d0: 9dd9 373d cae5 013d 948f d83c b82b 1c3d
000000e0: 1b0c 313d bf92 133e 7eb7 0e3d b4ec 2b3d
000000f0: 052c 313d 2914 8a3d 9b3d 073d 9c3e dd3c

gcn2.lin.weight f4 [64, 64]
-0.23608041 -0.110116646 -0.22010262 -0.14744349 -0.068208545 -0.031686828 -0.0413492 0.16271876
-0.24167402 -0.096326604 -0.06728855 -0.0955589 -0.057366714 -0.2746167 -0.038166087 -0.18073238
0.114699125 0.21090664 0.13819867 -0.016608251 0.03156761 -0.15991749 0.1362523 -0.109235935
-0.072173856 -0.007875741 -0.0962698 0.1171548 -0.19200331 0.18843612 -0.15870999 0.008615673
-0.044123676 -0.057886243 -0.024165988 0.100483134 0.06569789 0.24549387 0.20213889 0.26302412
-0.10130991 -0.009292323 -0.00038091483 -0.06727418 0.011724094 0.118704386 0.22403929 -0.1129342
-0.032811385 0.057607792 -0.040366895 0.29234436 -0.0051145293 0.0264766 -0.04319625 -0.18792817
0.6316642 -0.055471342 -0.052453004 0.26428884 0.042648625 -0.062440753 -0.20683841 -0.05843681
0.06182909 0.06694678 0.338749 0.33340213 0.17747921 -0.32674745 -0.046759468 -0.12749048
0.01209026 -0.13849932 0.073218964 -0.1031427 -0.017181307 -0.13327989 -0.027338345 -0.26420763
0.09867623 -0.15550946 -0.4603807 -0.059865236 0.015037369 -0.17188916 -0.12907588 0.081290595
-0.030429237 0.14536579 0.3770385 -0.3710065 -0.18194723 -0.16748276 0.016543046 -0.13062018
0.1722978 -0.13033003 0.1409884 -0.321357 -0.1219098 0.13228755 -0.07684487 -0.16121832
0.1684234 0.053515732 0.06602445 -0.28854626 -0.27560166 0.37067613 -0.1356726 0.17641462
-0.10997496 0.20669578 -0.025197137 0.10480518 -0.41011155 -0.3640838 0.005653257 0.19061476
-0.20038655 0.1176144 -0.018782083 -0.21354231 0.015105036 -0.020632442 -0.119765684 -0.07897046
0.011897305 -0.23333135 0.477845 0.32592562 0.07519744 -0.1648616 -0.21278846 0.122397475
0.09503147 -0.003894912 0.026641505 0.15714097 0.13294376 0.12849991 -0.033278596 -0.057725497
-0.20430152 -0.069446035 -0.35552293 0.017861791 0.0054482715 -0.2114249 -0.097212695 0.115325674
-0.16240607 0.106640734 0.73050463 -0.15335505 0.12396555 -0.36068213 -0.09300554 0.15747453
0.04907247 -0.19127548 0.055263117 -0.365879 0.0076389434 -0.15381335 -0.12335334 -0.02336133
-0.19843447 -0.085337356 0.032851446 -0.24240026 -0.34478736 0.81300205 0.031658452 0.18519361
0.14737645 -0.051002532 -0.0884572 -0.16731293 -0.32032514 -0.17949013 0.10767581 -0.12058812
-0.3353597 0.1593976 0.041098464 0.15275204 -0.032491792 -0.07097212 -0.2985969 0.026768759
0.2288431 -0.07745881 0.1398414 -0.10737048 -0.13311163 -0.33108944 -0.041801766 -0.077904865
0.19824027 0.004496021 0.00029714662 0.021325218 0.12731363 -0.017951667 -0.0036115597 -0.15190542
-0.25268832 0.06439032 -0.3345719 0.01753423 -0.02325166 0.07368996 -0.234211 -0.023958798
0.00030148315 -0.021435518 -0.0026599367 -0.39462927 0.15403308 -0.46329102 -0.04782338 0.11014111
-0.00064202433 0.049337283 -0.1943442 -0.29548 -0.08619045 0.12625577 -0.13195899 -0.05891453
0.054726258 0.0016791491 -0.043279666 -0.4855932 -0.3152076 0.19402736 -0.09602733 -0.15850149
-0.0037522933 0.055299688 -0.013589519 -0.24380589 -0.41633373 -0.35166606 -0.01146439 -0.0137603665
-0.08662413 0.043823145 -0.005744895 -0.18539622 -0.1975535 0.0074409717 -0.27952626 0.15259393
00000000: 10bf 71be d684 e1bd 9562 61be 6dfb 16be
00000010: ecb0 8bbd 0cca 01bd c75d 29bd bf9f 263e
00000020: 6579 77be e246 c5bd 94ce 89bd 62b4 c3bd
00000030: 5cf9 6abd 8f9a 8cbe 0b54 1cbd e911 39be
00000040: 60e7 ea3d e9f7 573e f483 0d3e 070e 88bc
00000050: 0a4d 013d 69c1 23be b985 0b3e 17b7 dfbd
00000060: e3cf 93bd 4109 01bc 1a29 c5bd dbee ef3d
00000070: 849c 44be 66f5 403e df84 22be c028 0d3c
00000080: 07bb 34bd 201a 6dbd c0f7 c5bc 1aca cd3d
00000090: 9e8c 863d bf62 7b3e 7ffd 4e3e 19ab 863e
000000a0: 927b cfbd d43e 18bc 86b5 c7b9 0cc7 89bd
000000b0: 6a16 403c 491b f33d 8e6a 653e 0c4a e7bd
000000c0: 3b65 06bd 26f6 6b3d c257 25bd 29ae 953e
000000d0: c897 a7bb 74e5 d83c 8dee 30bd 3e70 40be
000000e0: bfb4 213f eb35 63bd f6d8 56bd de50 873e
000000f0: 53b0 2e3d e0c1 7fbd 73cd 53be 705b 6fbd
00000100: 8040 7d3d 651b 893d 8270 ad3e afb3 aa3e
00000110: 1cbd 353e 714b a7be db86 3fbd dd8c 02be
00000120: 3a16 463c c4d2 0dbe d3f3 953d 7b3c d3bd
00000130: d0bf 8cbc 867a 08be aaf4 dfbc 3946 87be
00000140: c316 ca3d df3d 1fbe 05b7 ebbe 4035 75bd
00000150: 4c5f 763c b603 30be 782c 04be af7b a63d
00000160: bc46 f9bc c5da 143e 310b c13e 90f4 bdbe
00000170: 6050 3abe 9a80 2bbe 4885 873c 4cc1 05be
00000180: d66e 303e 3c75 05be 435f 103e e888 a4be
00000190: d8ab f9bd 6376 073e d860 9dbd 6a16 25be
000001a0: 2f77 2c3e 5033 5b3d d437 873d 56bc 93be
000001b0: a91b 8dbe 43c9 bd3e c2ed 0abe 09a6 343e
000001c0: 8d3a e1bd 0fa8 533e 3a6a cebc 19a4 d63d
000001d0: 24fa d1be 3169 babe f53e b93b 8430 433e
000001e0: 2232 4dbe d2df f03d e2dc 99bc d6aa 5abe
000001f0: 1d7b 773c 5e05 a9bc b647 f5bd 44bb a1bd
00000200: eaec 423c 6aee 6ebe 1aa8 f43e b9df a63e
00000210: 1e01 9a3d 7bd1 28be 38e5 59be 87ab fa3d
00000220: dc9f c23d c841 7fbb 493f da3c 90e9 203e
00000230: 6922 083e 7b95 033e 234f 08bd 9271 6cbd
00000240: 6b34 51be b939 8ebd 1a07 b6be e452 923c
00000250: 6a87 b23b c57f 58be 7317 c7bd de2f ec3d
00000260: c74d 26be 7566 da3d 5a02 3b3f 1b09 1dbe
00000270: a6e1 fd3d 54ab b8be b079 bebd 0141 213e
00000280: 3700 493d b8dd 43be 945b 623d 7e54 bbbe
00000290: 1a50 fa3b 3f81 1dbe ada0 fcbd 4360 bfbc
000002a0: 6832 4bbe 5ac5 aebd 3d8f 063d c637 78be
000002b0: f887 b0be e720 503f 4bac 013d 65a3 3d3e
000002c0: dae9 163e 08e8 50bd 0c29 b5bd 1554 2bbe
000002d0: a801 a4be 43cc 37be 2385 dc3d e7f6 f6bd
000002e0: 44b4 abbe 2039 233e dd56 283d 086b 1c3e
000002f0: 1d16 05bd d559 91bd b1e1 98be 284a db3c
00000300: d855 6a3e b9a2 9ebd 9532 0f3e 0ee5 dbbd
00000310: 6a4e 08be 8e84 a9be 5438 2bbd 968c 9fbd
00000320: 7fff 4a3e 5c53 933b 58ca 9b39 39b2 ae3c
00000330: 815e 023e 600f 93bc ebaf 6cbb 188d 1bbe
00000340: 5d60 81be 12df 833d 024d abbe f2a3 8f3c
00000350: 447a bebc c3ea 963d 02d5 6fbe 3e45 c4bc
00000360: 6210 9e39 8a99 afbc 5552 2ebb d90c cabe
00000370: d9ba 1d3e 7b34 edbe 73e2 43bd aa91 e13d
00000380: 864d 28ba e415 4a3d 2a02 47be 2849 97be
00000390: 9e84 b0bd 3149 013e 4220 07be 5d50 71bd
000003a0: a428 603d e516 dc3a 0546 31bd ac9f f8be
000003b0: e462 a1be 1caf 463e faa9 c4bd 374e 22be
000003c0: 09e9 75bb ed81 623d 93a6 5ebc 40a8 79be
000003d0: b229 d5be 930d b4be 23d5 3bbc 2973 61bc
000003e0: fe67 b1bd e67f 333d ac3f bcbb 82d8 3dbe
000003f0: 774b 4abe 65d3 f33b 111e 8fbe 9541 1c3e

fc1.weight f4 [32, 64]
0.07599627 -0.05770421 -0.0992426 -0.049651075 -0.053102475 0.120323054 -0.01696993 -0.016732572
-0.079553306 -0.06720935 -0.12584515 -0.039611783 0.019052044 0.08115081 -0.025145043 0.101659834
-0.04617448 -0.005114863 0.23877424 -0.22099704 0.04992705 -0.05488622 0.03364587 0.11765726
0.026407996 0.019431246 0.028769238 -0.106384315 0.11892271 0.027350489 0.12213175 -0.021712232
0.08034938 0.10705109 0.08988107 0.06418933 -0.08186679 -0.090716794 0.055241965 -0.04970581
-0.036775503 0.059117742 -0.020100929 -0.033084247 0.041174874 -0.008478644 -0.02412289 -0.04121703
-0.11702116 -0.07101941 -0.043184225 -0.12514333 0.059040774 0.055898797 0.124876164 -0.027991079
0.014737807 0.3544627 0.15075451 0.049727935 0.059027698 -0.13855271 -0.019718518 -0.022867542
0.21283466 -0.10785356 -0.027412394 -0.1789718 -0.008268385 0.22565512 -0.036360715 -0.30357376
-0.090025015 0.10134467 -0.23672834 -0.14544788 0.120298445 -0.037450306 -0.33348405 0.08967415
-0.17787157 -0.03716075 0.050818283 0.037490483 0.17966202 -0.26766166 -0.17987168 0.15646242
0.18052554 -0.24892318 -0.391391 0.0036801067 0.015176813 0.073426425 -0.0048943995 0.054698866
-0.018599493 -0.110975556 0.024574196 -0.06859802 -0.3793362 -0.15969995 -0.013306683 0.008142423
-0.24176438 0.09206839 -0.07989126 -0.0037218991 -0.11237433 -0.09253106 0.111390494 -0.095133014
-0.12550615 -0.058698434 -0.06402323 -0.037631094 0.057101842 -0.0049734944 -0.23840904 0.08929033
-0.13512015 -0.017118441 0.01899699 -0.11627948 0.027646434 -0.15701954 -0.2655778 -0.17193778
0.06255095 0.0073768385 -0.19623141 -0.24323624 0.11468201 0.04418665 0.116670795 -0.11465451
-0.04581769 0.06871399 0.010875515 -0.09219185 -0.049672127 -0.04062103 -0.044385757 0.1050294
-0.008013531 0.07433129 0.31723985 -0.15215327 0.06359391 -0.059661 0.14346825 0.051992297
0.021388287 0.028209727 -0.13123006 -0.16344614 0.14486222 0.08316149 0.037306104 -0.01444801
0.090364486 0.077187665 0.024777377 0.15698713 -0.054164108 -0.23225345 0.1379034 -0.11656591
-0.09064709 0.13453798 -0.0013379657 0.11284515 -0.014995979 -0.034941923 0.050098974 0.084233865
-0.049520183 0.12786059 0.053900257 -0.02287161 0.087292366 0.13453047 0.08765734 -0.112509646
-0.08933776 0.4120616 0.106868036 0.13426828 0.107680574 -0.039467163 -0.0046276855 -0.06695482
-0.012924313 0.042325687 -0.02297406 -0.0053864038 -0.11072061 -0.1762343 -0.036887106 -0.02062747
-0.14877318 -0.10386062 -0.15185888 -0.13570333 -0.16054782 0.058953714 0.034018792 -0.04489946
-0.031190967 0.004999985 -0.32510492 -0.0911885 -0.04118732 0.056328602 -0.15693535 -0.059198692
-0.0671312 -0.034601536 -0.03422443 -0.12495519 -0.064947754 -0.055415407 -0.13512202 -0.0045744474
0.010932476 0.04174524 -0.018195894 -0.07183968 -0.10766188 -0.13155237 0.0408476 -0.1437523
-0.12778826 -0.07760998 0.02875369 0.0039967895 0.030599676 0.0075949347 -0.13095069 0.037397794
-0.07423259 0.042523813 -0.05336379 -0.12050276 0.068276785 0.033781983 0.02079756 -0.04830144
-0.036006607 -0.24485223 0.01914597 -0.102756225 0.0012328209 -0.12094774 -0.1294825 -0.08073427
00000000: efa3 9b3d 405b 6cbd b43f cbbd ed5e 4bbd
00000010: fb81 59bd ef6b f63d 8604 8bbc bf12 89bc
00000020: d8ec a2bd 0ea5 89bd 8ddd 00be f73f 22bd
00000030: 0813 9c3c 6532 a63d fafc cdbc 0833 d03d
00000040: 7421 3dbd 959a a7bb 3c81 743e 0c4d 62be
00000050: 4e80 4c3d 5fd0 60bd 40d0 093d 4af6 f03d
00000060: 9555 d83c 472e 9f3c 77ad eb3c 05e0 d9bd
00000070: c08d f33d 220e e03c 3620 fa3d dadd b1bc
00000080: 378e a43d 9a3d db3d 9113 b83d b275 833d
00000090: c7a9 a7bd bac9 b9bd 6645 623d 5298 4bbd
000000a0: e9a1 16bd 7225 723d b4aa a4bc 5983 07bd
000000b0: fca6 283d 03ea 0abc 5e9d c5bc 30d3 28bd
000000c0: caa8 efbd a072 91bd f1e1 30bd 9325 00be
000000d0: bdd4 713d 23f6 643d 13bf ff3d 8c4d e5bc
000000e0: d876 713c 237c b53e 645f 1a3e 85af 4b3d
000000f0: 07c7 713d c3e0 0dbe bb88 a1bc b654 bbbc
00000100: 54f1 593e 54e2 dcbd f58f e0bc 6244 37be
00000110: 1f78 07bc 2312 673e f9ee 14bd 056e 9bbe
00000120: 095f b8bd cb8d cf3d ea68 72be 4af0 14be
00000130: 085f f63d 7e65 19bd 6cbe aabe 15a7 b73d
00000140: f723 36be df35 18bd d526 503d 9f8f 193d
00000150: 52f9 373e f30a 89be 4830 38be af37 203e
00000160: b0db 383e b8e5 7ebe 6764 c8be f22d 713b
00000170: 2ba8 783c 9860 963d 3361 a0bb eb0b 603d
00000180: f75d 98bc 2747 e3bd d34f c93c 1e7d 8cbd
00000190: 5b38 c2be 6288 23be 4604 5abc cc67 053c
000001a0: 1591 77be 5a8e bc3d 079e a3bd 1beb 73bb
000001b0: 8324 e6bd ed80 bdbd b320 e43d 19d5 c2bd
000001c0: af84 00be c56d 70bd 9c1e 83bd 1023 1abd
000001d0: 9fe3 693d b2f8 a2bb 8021 74be d9dd b63d
000001e0: f05c 0abe f93b 8cbc 939f 9b3c f023 eebd
000001f0: c67a e23c bbc9 20be d0f9 87be 7510 30be
00000200: b61a 803d 68b9 f13b e3f0 48be ec12 79be
00000210: 67de ea3d 10fd 343d 19f1 ee3d fccf eabd
00000220: 55ab 3bbd ecb9 8c3d 372f 323c 15cf bcbd
00000230: 0075 4bbd 3d62 26bd d7cd 35bd a719 d73d
00000240: 2f4b 03bc 013b 983d 436d a23e 11ce 1bbe
00000250: 863d 823d 185f 74bd 57e9 123e e0f5 543d
00000260: 7d36 af3c 1618 e73c 2c61 06be 6d5e 27be
00000270: c356 143e 9250 aa3d 49ce 183d 59b7 6cbc
00000280: 0411 b93d 9114 9e3d edf9 ca3c 3cc1 203e
00000290: 2fdb 5dbd d9d3 6dbe 8d36 0d3e 1cba eebd
000002a0: 2ea5 b9bd 53c4 093e ae5e afba 5c1b e73d
000002b0: b2b1 75bc 431f 0fbd 9534 4d3d ce82 ac3d
000002c0: add5 4abd e3ed 023e 84c6 5c3d 3e5d bbbc
000002d0: 57c6 b23d 5bc2 093e b185 b33d 756b e6bd
000002e0: b7f6 b6bd bdf9 d23e a1dd da3d a07d 093e
000002f0: a287 dc3d 52a8 21bd d7a3 97bb 9c1f 89bd
00000300: 7fc0 53bc b35d 2d3d 1934 bcbc 6e80 b0bb
00000310: 7dc1 e2bd c476 34be ef16 17bd f1fa a8bc
00000320: ff57 18be e0b4 d4bd e580 1bbe d0f5 0abe
00000330: a666 24be 7379 713d 4a57 0b3d 7fe8 37bd
00000340: 3384 ffbc ead6 a33b 2774 a6be 09c1 babd
00000350: 09b4 28bd d2b8 663d a9b3 20be 547a 72bd
00000360: 157c 89bd 57ba 0dbd ea2e 0cbd 82e8 ffbd
00000370: 5403 85bd 44fb 62bd 6d5d 0abe 3fe5 95bb
00000380: 211e 333c 0ffd 2a3d 8e0f 95bc af20 93bd
00000390: d57d dcbd aab5 06be d04f 273d ce33 13be
000003a0: edda 02be fbf1 9ebd dc8c eb3c 80f7 823b
000003b0: 2cac fa3c eede f83b f017 06be 6e2e 193d
000003c0: 4207 98bd 732d 2e3d fd93 5abd 27ca f6bd
000003d0: b3d4 8b3d fa5e 0a3d a55f aa3c bbd7 45bd
000003e0: aa7b 13bd 8bba 7abe 02d8 9c3c db71 d2bd
000003f0: 9b96 a13a 73b3 f7bd 0f97 04be 0258 a5bd

fc1.bias f4 [32]
0.13485 0.06948798 0.12718731 -0.115345724 -0.022633534 0.580465 0.5648834 0.052746467
0.059016768 0.038205344 0.1755847 0.02509617 0.29961652 0.187848 0.44399908 0.14569888
0.13075933 0.2810436 0.2251579 0.09887177 0.18239507 0.10387015 0.3066979 0.012130236
0.17196065 0.31222752 0.2040486 0.31150982 0.050842583 0.09779269 0.0462899 0.37189502
00000000: 1e16 0a3e b74f 8e3d 643d 023e 613a ecbd
00000010: f669 b9bc 5b99 143f 339c 103f ae0c 583d
00000020: 91bb 713d 357d 1c3d 7acc 333e 7c96 cd3c
00000030: 5667 993e 3a5b 403e d953 e33e 1632 153e
00000040: c6e5 053e f2e4 8f3e cb8f 663e 487d ca3d
00000050: c6c5 3a3e e0b9 d43d 8207 9d3e e6bd 463c
00000060: 7416 303e 49dc 9f3e 1ef2 503e 377e 9f3e
00000070: 5040 503d 8947 c83d 7a9a 3d3d 0669 be3e

fc2.weight f4 [1, 32]
-0.1290498 -0.22043045 -0.16972418 0.10949996 0.0175761 0.5905887 -0.82078385 0.09333018
0.2027746 0.32773653 0.18189491 -0.118727505 -0.24784367 0.09095952 -0.12632197 -0.21348521
-0.081530616 -0.23450612 0.06675593 0.21465921 -0.17149694 0.1541629 -0.2214076 -0.154323
0.21580502 0.64476246 -0.13535646 -0.1792733 0.03263101 0.20410955 0.1435921 0.4721134
00000000: a125 04be 85b8 61be 2dcc 2dbe 8441 e03d
00000010: c1fb 8f3c d230 173f e41e 52bf e523 bf3d
00000020: 25a4 4f3e 15cd a73e a942 3a3e 6827 f3bd
00000030: bbca 7dbe fc48 ba3d 8c5a 01be de9b 5abe
00000040: 86f9 a6bd 5f22 70be 55b7 883d a0cf 5b3e
00000050: e59c 2fbe e1dc 1d3e adb8 62be d906 1ebe
00000060: fefb 5c3e 270f 253f e29a 0abe 6c93 37be
00000070: 18a8 053d 1802 513e cf09 133e d9b8 f13e
