outputs/models/model_cvli_novo_criterio.pth (torch, 121201 bytes, 12 tensors)

lstm.weight_ih_l0 f4 [256, 6]
0	0xbe11aaeb	-0.14225356
1	0xbd3af924	-0.045647755
2	0xbd36f89c	-0.044670686
3	0xbcb0e118	-0.021591708
4	0x3b5fe100	0.003416121
5	0xbe17c713	-0.14822035
6	0x3e2ad696	0.1668342
7	0x3dd6640a	0.104683
8	0xbdb4eb54	-0.08833948
9	0x3db9c86e	0.09071432
10	0xbb96c3a0	-0.004600957
11	0xbc9779dd	-0.018490726
12	0x3c61bcc3	0.013777914
13	0x3b3ad0c0	0.0028505772
14	0xbd18837c	-0.03723477
15	0xbdaf8b02	-0.085714355
16	0x3d2f8dc8	0.042859823
17	0xba04e45a	-0.00050694274
18	0x3df50ba9	0.119651146
19	0x3dad8046	0.08471732
20	0xbcf691c0	-0.030098796
21	0x3d3abd88	0.045590907
22	0x3dea1fe6	0.114318654
23	0x3d9f8be3	0.07790353
24	0x3e06e1f1	0.13172127
25	0x3d4bb120	0.049729466
26	0xbceb17b8	-0.028697833
27	0x3dc90d8a	0.098170355
28	0xbd8871ca	-0.066623285
29	0x3e146b17	0.14493977
30	0x3e18e838	0.14932334
31	0x3ac37680	0.0014912635
32	0x3d5aea90	0.053446352
33	0x3dc4e2b8	0.09613556
34	0x3d1e8574	0.03870149
35	0x3e0e9bd8	0.13926637
36	0x3d7b5ecf	0.061369713
37	0xbda351fa	-0.0797462
38	0xbdcf6854	-0.10127321
39	0x3dd8a0e0	0.105775595
40	0xbd92e05e	-0.07171701
41	0x3e5bff13	0.21484022
42	0xbd25c187	-0.040467765
43	0xbda3f2a8	-0.080052674
44	0x3d963d8c	0.07335958
45	0x3c7dd5c0	0.0154928565
46	0x3dbbc240	0.091679096
47	0x3c816216	0.015793841
48	0x3e6a1203	0.22858433
49	0xbc18af50	-0.0093191415
50	0xbd952170	-0.07281768
51	0xbc54ef70	-0.0129965395
52	0xbdb4ed66	-0.08834343
53	0x3dac200d	0.08404551
54	0xbe3bda7c	-0.18345064
55	0x3df598a4	0.119920045
56	0x3d1afdd4	0.037839726
57	0x3cd9e868	0.026600078
58	0xbdcc506e	-0.09976278
59	0xbce0fc16	-0.027463954
60	0x3e052d43	0.13005547
61	0x3da7973a	0.08183141
62	0x3d9a1534	0.075235754
63	0xbde41814	-0.11137405
64	0xbdf050d4	-0.11734167
65	0x3dc5c40a	0.09656532
66	0xbde0ed72	-0.10982789
67	0x3d299068	0.041397482
68	0x3d802d5c	0.062586516
69	0x3dd3e2de	0.10346006
70	0xbdbe5f1e	-0.09295486
71	0xbda0f316	-0.07858865
72	0xbc58c5f5	-0.01323079
73	0x3d662dbc	0.05619596
74	0x3d35fe04	0.0444317
75	0xbdf832a8	-0.12119037
76	0x3dbacb5a	0.091208175
77	0x3c1adfaf	0.009452744
78	0x3d783be3	0.060603987
79	0x3d96bf88	0.073607504
80	0x3de8b6d2	0.11362995
81	0x3d093020	0.03349316
82	0x3cadb1f8	0.021203026
83	0xba9d5bbc	-0.0012005488
84	0x3e25d899	0.16195907
85	0x3dbeacfa	0.093103364
86	0xbd74c8a8	-0.059761673
87	0xbdd9bdb8	-0.10631889
88	0xbd467dc8	-0.048459798
89	0x3e95e485	0.2927591
90	0x3e597639	0.21236505
91	0x3dfd058a	0.12354572
92	0xbddb8c90	-0.107201695
93	0x3ca5d8a8	0.020244911
94	0x3ce3fde8	0.027831033
95	0x3dffdb0b	0.12492951
96	0x3ea5642d	0.3230299
97	0xbb125c40	-0.0022332817
98	0xbd5f9094	-0.05458124
99	0x3d1592dc	0.03651701
100	0xbde967ce	-0.11396752
101	0x3ecf9138	0.4054048
102	0xba10923c	-0.00055149547
103	0x3dc098ee	0.09404169
104	0xbdbfeee2	-0.09371735
105	0xbd6cc930	-0.057809055
106	0x3cf513a0	0.029916584
107	0xbdedcd84	-0.116114646
108	0x3d59822a	0.05310265
109	0xbd0cf4d8	-0.03441319
110	0xbb820e60	-0.003968999
111	0x3d974b20	0.07387376
112	0xbceb6b50	-0.028737694
113	0xbdbd62fd	-0.09247396
114	0xbd0d8223	-0.034547936
115	0xbdf3bb94	-0.11901012
116	0xbdc4d85e	-0.09611581
117	0x3d564ed0	0.052321255
118	0xbd7f54f8	-0.062336892
119	0x3e4b3cf8	0.19847476
120	0xbe758112	-0.23975018
121	0xbbb11240	-0.005403787
122	0xbd9d9eb4	-0.07696286
123	0xbda08744	-0.078383
124	0xbda2e3fa	-0.07953639
125	0xbe5975d6	-0.21236357
126	0x3d7d7c6c	0.061886236
127	0xbc994d50	-0.018713623
128	0x3de9a71a	0.11408825
129	0xbdd46e70	-0.10372627
130	0xbd132f40	-0.035933733
131	0x3d090156	0.03344854
132	0x3ede0189	0.43360546
133	0xbde9fac0	-0.1142478
134	0xbde70572	-0.112803355
135	0xbded664a	-0.11591776
136	0xbb750b00	-0.003739059
137	0x3e887441	0.26651195
138	0x3e801059	0.25012472
139	0x3de32cc0	0.1109252
140	0xbd3650a8	-0.044510514
141	0x3b75ebc0	0.003752455
142	0xbd0e0414	-0.034671858
143	0x3d96f0d5	0.07370154
144	0xbc4a855e	-0.012360899
145	0x3d729360	0.05922258
146	0x3d8d4d1e	0.068994746
147	0x3d884d5a	0.06655379
148	0xbd5583a0	-0.05212748
149	0x3d7e4394	0.062076166
150	0x3df0db5a	0.11760588
151	0x3d2047d8	0.039131016
152	0xbdc39688	-0.09550196
153	0xbd2bd3a4	-0.041949883
154	0x3d4a2e9c	0.049360856
155	0x3cc45e25	0.023970673
156	0x3e04c54d	0.1296589
157	0x3dbe7e3a	0.093014196
158	0xbbb92520	-0.0056501776
159	0xbd941212	-0.07230009
160	0xbd0c4f48	-0.034255296
161	0xbbb86411	-0.005627163
162	0xbd4f2668	-0.050573736
163	0xbda7c41a	-0.081917
164	0xbd5bcc88	-0.053661853
165	0xbd8ed12a	-0.06973489
166	0x3dc1cce8	0.09462911
167	0xbd82166d	-0.06351934
168	0xbdcd2077	-0.10015958
169	0x3bb49fe0	0.0055122226
170	0xbd29fcf0	-0.041500986
171	0x3d81f732	0.06345977
172	0x3d2a7a18	0.041620344
173	0xbe60f69d	-0.21969076
174	0xbccf59f6	-0.025311451
175	0xbd72bca8	-0.059261948
176	0x3db3f9e6	0.08787899
177	0x3ce7d5d8	0.02830021
178	0xbdbeb4fc	-0.09311864
179	0xbce0635c	-0.027391128
180	0xbdd40601	-0.10352708
181	0x3d057738	0.0325844
182	0x3da7a4aa	0.08185704
183	0xbad80f00	-0.0016483963
184	0xbda7a628	-0.08185989
185	0xbd0b9e12	-0.034086294
186	0x3e181e4d	0.14855309
187	0x3d27aeb4	0.040938094
188	0xbda922ca	-0.082585886
189	0xbccd91a0	-0.025093853
190	0xbddb7376	-0.10715382
191	0x3d80bdd9	0.062862106
192	0x3d560f40	0.052260637
193	0xbd023d80	-0.031796932
194	0xbdc9e024	-0.098572046
195	0xbda5e736	-0.081007406
196	0xbd807664	-0.06272581
197	0xbd1d0d50	-0.038342774
198	0xbd4c6f3c	-0.04991077
199	0x3cf0f480	0.029413462
200	0x3cb321a0	0.02186662
201	0xbd4e6f70	-0.050399244
202	0xbd02eb2c	-0.03196256
203	0x38f079ae	0.000114667564
204	0x3d92f5ba	0.07175775
205	0xbda6cd6a	-0.081446484
206	0xbdc522b2	-0.09625758
207	0x3de8b5a0	0.11362767
208	0xbbeee840	-0.00729087
209	0x3daf629d	0.08563731
210	0xbe1a1bc7	-0.15049659
211	0x3da4ed2a	0.08053048
212	0xbdd23500	-0.10264015
213	0x3df3a9b0	0.118976
214	0xbdd6ca5c	-0.10487816
215	0xbe0b314e	-0.13593027
216	0x3d029bb2	0.031886764
217	0xbd299178	-0.041398495
218	0x3d9b91d2	0.075961724
219	0xbda25840	-0.079269886
220	0xbd6a5a44	-0.05721499
221	0x3e3a46ca	0.18191066
222	0x3e87b368	0.26504064
223	0x3d8aa7fe	0.06770323
224	0x3dcc3f2c	0.099729866
225	0x3d90c25e	0.070683226
226	0xbcdbb358	-0.026818916
227	0x3e8678cf	0.26264045
228	0xbc95639b	-0.018235972
229	0x3dfbd116	0.12295739
230	0xbaa37100	-0.001246959
231	0xbbfe0100	-0.007751584
232	0x3ddeb7e2	0.108749166
233	0x3c096732	0.00838642
234	0x3e0c2728	0.13686812
235	0xbcb30e00	-0.021857262
236	0x3dcaaf44	0.098967105
237	0xbdb9f03a	-0.09079023
238	0xbdebd1e6	-0.11514644
239	0x3e0efb72	0.13963106
240	0x3ca508ea	0.020145852
241	0x3d755f44	0.059905306
242	0xbdc24058	-0.09484929
243	0x3de350d6	0.110994026
244	0x3d0dfd78	0.034665555
245	0xbd5adf42	-0.05343557
246	0xbde84de9	-0.11342985
247	0x3a947000	0.0011324883
248	0xbd647a00	-0.05578041
249	0xbb281400	-0.0025646687
250	0x3d0a7f80	0.033813
251	0xbdb2ae4a	-0.08724649
252	0x3d3c5a8e	0.045984797
253	0x3df37860	0.11888194
254	0x3af1fe00	0.0018462539
255	0x3d9c84d0	0.076425195

lstm.weight_hh_l0 f4 [256, 64]
0	0xbdb18294	-0.08667484
1	0xbdb9de16	-0.09075563
2	0x3d953bdc	0.07286808
3	0x3de5f1b2	0.1122774
4	0x3ded31ae	0.11581741
5	0x3dbc7580	0.09202099
6	0xbdd4d6be	-0.10392521
7	0xbd159f30	-0.036528766
8	0xbdd90e8c	-0.10598478
9	0xbd07d50c	-0.03316216
10	0x3d13c3f8	0.036075562
11	0xbd6d3e24	-0.05792059
12	0xbd7aa9f0	-0.06119722
13	0xbd9ddee2	-0.07708527
14	0x3dbb952c	0.09159312
15	0xbd544944	-0.051827684
16	0x3dac7a66	0.08421783
17	0x3dfed64e	0.12443219
18	0x3da89cd6	0.08233039
19	0x3c81c180	0.015839338
20	0x3cdbd0f8	0.026833043
21	0xbdc2fb58	-0.09520596
22	0x3c4f7550	0.012662247
23	0xbdb0ac82	-0.08626653
24	0x3dacc12c	0.08435282
25	0x3d5d82f4	0.054079965
26	0xbd95a6b8	-0.0730719
27	0xbdce1aa2	-0.100636736
28	0xbd94b018	-0.0726015
29	0x3c9a0bf0	0.01880452
30	0x3d9c5e72	0.076352015
31	0xbda3eef0	-0.08004558
32	0x3d817ffe	0.06323241
33	0x3dc1eb5e	0.09468721
34	0x3d779060	0.06044042
35	0xbb428840	-0.0029683262
36	0xbcd74780	-0.026279211
37	0xbdd54fb0	-0.1041559
38	0xbd93c32c	-0.072149605
39	0x3dcdcbc8	0.10048634
40	0x3c4f80e0	0.012665004
41	0xbd8202c4	-0.06348184
42	0x3d751f68	0.059844404
43	0xbcd6eb78	-0.026235327
44	0xbd51b7d0	-0.051200688
45	0xbdb63c00	-0.08898163
46	0xbd876f58	-0.06613034
47	0x3d46f9ec	0.048578188
48	0x3d8fc2ae	0.07019554
49	0x3de3e780	0.111281395
50	0xbcf5ff50	-0.030028969
51	0x3d9424a0	0.07233548
52	0x3c0dc320	0.008652478
53	0x3d8f3cc6	0.069940135
54	0x3d1d9834	0.03847523
55	0x39378000	0.00017499924
56	0x3d8a834c	0.06763324
57	0x3dc08a42	0.094013706
58	0x3bbcdd20	0.005763665
59	0xbdfa74de	-0.12229322
60	0x3ce84da8	0.028357342
61	0xbdcc5ef2	-0.09979047
62	0xbb3b30c0	-0.0028562993
63	0xbd5d5654	-0.054037407
64	0xbc4afb50	-0.012389019
65	0xbda08b9e	-0.0783913
66	0xbdf7503c	-0.1207585
67	0xbd6a8b9c	-0.057262048
68	0x3d98175c	0.074263304
69	0x3bc22320	0.0059245974
70	0x3df26132	0.11834945
71	0x3dfe382e	0.12413059
72	0xbde9e328	-0.1142028
73	0xbdd5b5be	-0.10435055
74	0x3dfe8a64	0.1242874
75	0xbdedef2c	-0.11617884
76	0x3ab56980	0.0013840646
77	0x3dde64c8	0.10859066
78	0xbdbdaf9a	-0.09262009
79	0x3ba7f380	0.005125463
80	0x3dba6b50	0.091024995
81	0x3d0118e0	0.031517863
82	0x3d4b5090	0.049637377
83	0xbd0153ac	-0.031573936
84	0xbdd4cce0	-0.10390639
85	0xbc87afb0	-0.016563267
86	0xbce45c90	-0.027876168
87	0x3d4fa854	0.05069764
88	0x3cc887d8	0.024478838
89	0x3dc3a60c	0.09553155
90	0xbdd12c86	-0.1021357
91	0xbdf8dd82	-0.12151624
92	0xbdb09aec	-0.08623299
93	0x3db0afb2	0.08627261
94	0xbd6cb9cc	-0.057794377
95	0xbdb0b2f6	-0.08627884
96	0x3d0b5c70	0.034023702
97	0x3d5d97dc	0.054099903
98	0xbd6eaa14	-0.058267668
99	0x3da21d1c	0.079157084
100	0xbc89d4f8	-0.016825184
101	0x3dfda250	0.12384474
102	0xbd358a2c	-0.044321224
103	0xbc603340	-0.013684094
104	0xbd7eab38	-0.062175006
105	0x3baa3ac0	0.005194992
106	0x3d9e5518	0.07731074
107	0x3df725ec	0.1206778
108	0x3de9a62e	0.114086494
109	0x3dc1f232	0.09470023
110	0xbd6f054c	-0.05835466
111	0x3b316a80	0.0027071536
112	0x3d59601c	0.053070173
113	0xbd45b7c0	-0.04827094
114	0x3db16ece	0.086637124
115	0x3dcbff14	0.09960762
116	0x3dc28016	0.09497087
117	0xbd36d47c	-0.044636235
118	0xbdee27b0	-0.116286635
119	0xbd5a0ce4	-0.05323495
120	0x3d4fa444	0.050693765
121	0x3c13d460	0.009022802
122	0xbdad2328	-0.08453971
123	0xbdf49c06	-0.119438216
124	0x3dcdf180	0.10055828
125	0x3cbf70d8	0.023369238
126	0xbdad466a	-0.08460696
127	0xbdef95ba	-0.1169848
128	0xbd179860	-0.03701055
129	0xbd9fc368	-0.07800943
130	0xbc04e480	-0.008111119
131	0xbcace868	-0.021106914
132	0xbd2481bc	-0.040162787
133	0x3dde89c4	0.108661205
134	0xbdf565c8	-0.11982304
135	0x3d734770	0.0593943
136	0xbd4e2158	-0.050324768
137	0xbdf5aa08	-0.119953215
138	0xbd960c50	-0.07326567
139	0x3dfa1fa6	0.12213068
140	0x3c3708c0	0.01117152
141	0x3d1a2d30	0.03764075
142	0xbd326abc	-0.04355882
143	0xbd3f0140	-0.04663205
144	0xbdad9020	-0.08474755
145	0xbcc1b888	-0.023647562
146	0xbd09929c	-0.033587083
147	0xbd826046	-0.06366019
148	0xbd9a1f84	-0.075255424
149	0xbda62398	-0.08112258
150	0x3ca55348	0.020181313
151	0x3aad9980	0.0013244599
152	0xbbde8120	-0.0067902952
153	0x3d1ab044	0.037765756
154	0xbd9ab52c	-0.07554087
155	0xbdb7a4a0	-0.089669466
156	0xbdee9a84	-0.11650565
157	0xbcdc26f0	-0.026874036
158	0x3da2be38	0.079464376
159	0xbba05200	-0.0048925877
160	0xbd99d8fa	-0.07512088
161	0x3dbfdcba	0.09368272
162	0x3de4364a	0.11143167
163	0x3dc5a660	0.09650874
164	0xbd19ca60	-0.037546515
165	0x3cc57be8	0.024106935
166	0x3d235088	0.039871722
167	0x3d103d1c	0.03521453
168	0x3db2e428	0.087349236
169	0x3c71df70	0.014762744
170	0x3c1fcdb0	0.00975363
171	0x3de65798	0.11247176
172	0x3dbab252	0.09116043
173	0xbd10132c	-0.035174534
174	0xbde3d52a	-0.11124642
175	0x3d6192c4	0.055071607
176	0x3d82b910	0.06382954
177	0xbd78a5f0	-0.060705125
178	0xbc0d2730	-0.0086153
179	0xbd8521a4	-0.06500557
180	0xbddbceca	-0.10732801
181	0x3df94c52	0.1217276
182	0x3bbf14a0	0.005831316
183	0x3ca21b20	0.019788325
184	0x3d0443e0	0.032291293
185	0xbdd3404a	-0.103149965
186	0x3dd32daa	0.10311444
187	0x3dd68f40	0.104765415
188	0xbdb65c64	-0.08904341
189	0xbdf0b408	-0.11753088
190	0xbccb40b8	-0.024811134
191	0xbdb5ff52	-0.08886589
192	0xbb95f980	-0.004576862
193	0x3d6223ec	0.05521004
194	0x3d5f8330	0.05456847
195	0xbdcc34d2	-0.09971012
196	0x3cda6d08	0.026663318
197	0xbd50cc0c	-0.050975844
198	0x3bddcaa0	0.0067685395
199	0xbcd75e10	-0.02628997
200	0xbdbdc2ac	-0.09265646
201	0x3d7f0c60	0.06226766
202	0x3c8a2ab0	0.016866058
203	0x3d87c794	0.066298634
204	0x3cabb958	0.020962402
205	0x3d0dd1dc	0.034623966
206	0x3d844b0e	0.06459628
207	0x3dd9e024	0.106384546
208	0xbdd9e400	-0.10639191
209	0xbdcc8948	-0.09987122
210	0xbd01dc00	-0.03170395
211	0x3b3d1000	0.0028848648
212	0xbdbbe856	-0.09175174
213	0x3d91617e	0.07098673
214	0xbdb8c69a	-0.09022255
215	0x3da2cc8e	0.07949172
216	0x3d80dad2	0.06291737
217	0x3cb94f58	0.022620842
218	0x3d045cd8	0.032315105
219	0x3d03518c	0.03206019
220	0x3df7dc72	0.121025935
221	0x3dafe272	0.08588113
222	0x3d74bc74	0.059750035
223	0xbc9ec540	-0.019381166
224	0x3be68f80	0.0070361495
225	0xbdad83de	-0.08472417
226	0x3d86a1fc	0.06573865
227	0xbd279ac0	-0.040919065
228	0xbdcd9b0e	-0.1003934
229	0xbd44e190	-0.048066676
230	0x3dabb2d4	0.08383718
231	0xbd1c24e0	-0.038121104
232	0x3df32670	0.11872566
233	0xbc79b780	-0.015241504
234	0x3dd81062	0.1055
235	0xbdf05738	-0.11735386
236	0xbdb74284	-0.08948234
237	0xbdb3fab6	-0.08788054
238	0xbde90caa	-0.113793686
239	0x3d1f8b84	0.03895141
240	0x3d8e0654	0.06934801
241	0xbdeb0e44	-0.1147733
242	0x3dec18d0	0.1152817
243	0xbcd266e0	-0.02568382
244	0x3cdf9528	0.027292803
245	0x3dfa2a8a	0.12215145
246	0x3d1d0804	0.038337722
247	0x3de71f70	0.11285293
248	0x3d9c7f56	0.07641475
249	0x3c9e3f98	0.019317433
250	0x3d2681cc	0.040651128
251	0x3b9124a0	0.004429415
252	0x3d935718	0.07194346
253	0x3dfd7568	0.12375909
254	0xbdfa7e20	-0.12231088
255	0x3d84d7b0	0.064864516

lstm.bias_ih_l0 f4 [256]
0	0x3e7ed818	0.2488712
1	0x3d2aa2a8	0.041659027
2	0xbd921a2b	-0.071338974
3	0x3cc389a0	0.023869336
4	0xbc5870e9	-0.013210514
5	0x3d786c80	0.06065035
6	0x3e07dacc	0.13267058
7	0xbdf0cf70	-0.117583156
8	0x3d1bf7df	0.038078185
9	0x3ce41fc9	0.027847188
10	0xbdbdf8e9	-0.092759915
11	0xbd4d7f9f	-0.050170537
12	0xbd8bbe1a	-0.06823368
13	0x3da1289d	0.078690745
14	0x3d710bc7	0.058849122
15	0x3e23e0a0	0.16003656
16	0x3ea39895	0.31952348
17	0xbdc6a175	-0.09698764
18	0xbe1b5a5e	-0.15171191
19	0x3cdf09ff	0.027226446
20	0x3a061faa	0.00051164126
21	0xbe55583a	-0.20834437
22	0x3c673007	0.014110572
23	0x390cea7e	0.00013438796
24	0xbe1dd9c3	-0.15415101
25	0x3d52c127	0.051453736
26	0xbe10b7da	-0.14132634
27	0x3d046475	0.032322366
28	0x3d4bdc1e	0.049770467
29	0x3e2208c2	0.15823653
30	0xbd50b8c6	-0.050957464
31	0xbe2e922a	-0.17047945
32	0x3d9dc356	0.07703273
33	0x3caf787a	0.021419752
34	0xbd98ed25	-0.07467107
35	0xbd148198	-0.036256403
36	0x3d8ad3b8	0.067786634
37	0x3e960d11	0.29306844
38	0x3dd73c6f	0.10509574
39	0x3cdaf399	0.026727485
40	0xbd8febb1	-0.070273764
41	0xbd385b8b	-0.045009177
42	0xbd1d0d4a	-0.03834275
43	0x3d351f4e	0.044219308
44	0xbe1cb422	-0.1530309
45	0xbdf6a693	-0.1204349
46	0xbd1ace10	-0.037794173
47	0x3d600f25	0.054701943
48	0xbe0acfcc	-0.1355583
49	0xbd5e831a	-0.054324247
50	0x3eaf01ae	0.3418097
51	0x3e492cc5	0.19645984
52	0xbe4a3cb8	-0.19749725
53	0x3f355b96	0.70842874
54	0x3ef692b6	0.48158807
55	0xbd4d6085	-0.050140876
56	0xbddbc637	-0.10731166
57	0xbd8d7f3f	-0.06909036
58	0x3c693d31	0.014235781
59	0x3f0d88cc	0.5528686
60	0x3db5ccad	0.088769294
61	0xbe4dfe02	-0.20116428
62	0xbc935464	-0.017984577
63	0xbd936323	-0.07196643
64	0x3d408d8c	0.04700999
65	0xbc703a60	-0.014662355
66	0xbde8010e	-0.11328326
67	0xbdb39a04	-0.087696105
68	0x3d9087e2	0.070571676
69	0x3d3c1eb8	0.045927733
70	0xbd2be7a0	-0.04196894
71	0xbd5d49b4	-0.054025367
72	0xbdbada50	-0.09123671
73	0xbd00e2b8	-0.031466216
74	0x3d4f1acc	0.050562665
75	0xbd8e0918	-0.06935328
76	0x3df920d2	0.12164463
77	0x3b8c5380	0.004282415
78	0xbb9befc0	-0.004758805
79	0xbd05ef8c	-0.032699153
80	0xbd8e092c	-0.06935343
81	0xbdaa4084	-0.08313087
82	0x3dadfd38	0.08495563
83	0x3de64610	0.11243832
84	0x3cb52a60	0.022114933
85	0x3d621a0c	0.05520062
86	0x3bc09e20	0.005878225
87	0x3c864280	0.016389132
88	0x3c1e9cb0	0.009680912
89	0xbd89c074	-0.06726161
90	0x3d87635c	0.06610748
91	0x3cf728f0	0.030170888
92	0x3df9fd7a	0.1220655
93	0x3de4938e	0.11160956
94	0x3dbce6f6	0.0922374
95	0xbda19f80	-0.0789175
96	0xbdf6c03c	-0.120483845
97	0xbd670b8c	-0.056407496
98	0x3d7c15d4	0.061544254
99	0xbdfa6f7a	-0.12228294
100	0x3d80ef20	0.062956095
101	0x3d8bb73a	0.06822057
102	0xbd11a4f8	-0.035557717
103	0x3db675b2	0.08909167
104	0x3ddb16bc	0.106976956
105	0xbd7fc32c	-0.06244199
106	0xbdcfa454	-0.10138765
107	0xbdd45706	-0.10368161
108	0xbda62a86	-0.081135795
109	0x3deab4fe	0.11460303
110	0x3dc7fdac	0.09765181
111	0x3dd5363a	0.104107335
112	0xbd8d94b0	-0.069131255
113	0x3cb7b130	0.022423357
114	0xbdb52c02	-0.088462844
115	0x3d039870	0.032127798
116	0x3dd50f46	0.10403304
117	0x3be66640	0.007031232
118	0x3d85b610	0.06528866
119	0x3d52c718	0.0514594
120	0x3dc0a2e2	0.094060674
121	0xbc3aa4b0	-0.011391804
122	0x3ddb4004	0.107055694
123	0x3d1b3ed0	0.0379017
124	0xbdea144e	-0.11429654
125	0xbbf89dc0	-0.0075871646
126	0xbda3cb7e	-0.079977974
127	0xbc872788	-0.016498342
128	0xbd71751f	-0.058949586
129	0xbd94553d	-0.072428204
130	0x3e20e74e	0.15713236
131	0xbdc80fc9	-0.09768636
132	0x3bfd35b5	0.0077273496
133	0xbd86e44a	-0.065865114
134	0xbde2e8ea	-0.11079581
135	0xbdf02fa0	-0.11727834
136	0xbd958764	-0.07301214
137	0xbdd37643	-0.10325291
138	0xbd6640d5	-0.056214172
139	0xbe1faa2c	-0.15592259
140	0xbc59c125	-0.013290678
141	0x3dd7f844	0.105454
142	0x3e0dfc2f	0.13865732
143	0xbe40736b	-0.18794028
144	0x3e45027d	0.1923923
145	0xbce732bc	-0.028222434
146	0x3d97a4cf	0.074044816
147	0x3d995080	0.07486057
148	0x3d7b26d2	0.06131632
149	0x3cdca9cc	0.026936434
150	0x3e052cb3	0.13005333
151	0x3d13e102	0.036103256
152	0xbd8d636a	-0.06903727
153	0xbc13c6a4	-0.009019528
154	0xbc94fe2f	-0.01818761
155	0xbdf9f1c1	-0.12204314
156	0xbc09618b	-0.008385072
157	0xbe1a94dc	-0.15095848
158	0xbd95f07b	-0.07321259
159	0xbc310560	-0.010804504
160	0xbc955365	-0.018228242
161	0x3d73422a	0.05938927
162	0x3cd6f236	0.026238542
163	0x3c8cd17a	0.01718973
164	0xbd85b9cc	-0.065295786
165	0xbe320f73	-0.17388706
166	0xbe01133e	-0.12604997
167	0x3e4b85f9	0.19875325
168	0x3db49256	0.08816974
169	0x3e28a5bc	0.16469473
170	0xbcb0c06e	-0.021576133
171	0x3e0dbdc6	0.13841924
172	0xbd331f4a	-0.04373101
173	0xbcd2ca75	-0.025731305
174	0x3c5fbf1b	0.013656403
175	0xbd95777a	-0.07298179
176	0xbd3cf34d	-0.046130467
177	0x3d8383b4	0.06421605
178	0xbd92f1da	-0.07175036
179	0x3d55b15f	0.052171107
180	0x3d5207e3	0.051277053
181	0x3def4882	0.11683752
182	0x3d1be6dd	0.038061965
183	0xbab2192d	-0.0013587825
184	0xbd81bdb3	-0.063350104
185	0x3d71c622	0.059026845
186	0xbddbae23	-0.10726573
187	0xb9d10d9c	-0.00039873726
188	0x3e289b2b	0.16465442
189	0xbd1e12ba	-0.038592078
190	0xbe53821c	-0.20655102
191	0x3c8ddb74	0.017316557
192	0x3dd9548e	0.10611831
193	0xbe07358a	-0.13204017
194	0x3d9d5efb	0.07684132
195	0xbdb9bfd6	-0.09069793
196	0xbe328ff5	-0.17437728
197	0xbdf86929	-0.12129433
198	0x3dcfb510	0.10141957
199	0x3d4f2ad2	0.050577946
200	0x3d87a8ad	0.06623969
201	0xbde90aac	-0.113789886
202	0x3d6acdcc	0.05732517
203	0x3dcac189	0.09900195
204	0x3c95a196	0.018265527
205	0xbc01869f	-0.007905631
206	0x3e2315e4	0.1592632
207	0x3e2ca3c8	0.16859353
208	0x3e3e90d4	0.18609935
209	0x3dd6472f	0.10462796
210	0x3da33b09	0.079702444
211	0xbd9edecb	-0.07757338
212	0xbe05d564	-0.13069683
213	0x3c0b1e18	0.008491062
214	0x3d561290	0.052263796
215	0xbe3fb8c9	-0.18722834
216	0x3c6425ba	0.01392501
217	0xbc367fdb	-0.011138882
218	0x3d4df63e	0.050283663
219	0x3c078deb	0.008273582
220	0x3d45cea1	0.04829276
221	0xbd6684c4	-0.05627896
222	0xbe4674f7	-0.19380556
223	0xbe32b12a	-0.17450395
224	0x3e49b651	0.19698454
225	0xbd8f94f2	-0.07010831
226	0xbd80d2bf	-0.062901966
227	0xbe292fb8	-0.1652211
228	0x3cce21c6	0.025162589
229	0xbd8058c8	-0.06266934
230	0x3e11a6d6	0.14223799
231	0xbe01cb58	-0.12675226
232	0x3cd88c70	0.026434153
233	0xbdc018ff	-0.093797676
234	0xbdfa9b9d	-0.12236712
235	0x3c329014	0.010898609
236	0xbd99eefa	-0.07516284
237	0xbe90e197	-0.2829711
238	0x3c83e623	0.016100949
239	0x3c78bf5e	0.015182344
240	0xbd987c61	-0.074455984
241	0x3c7a36ba	0.015271837
242	0x3ed9dc6a	0.42550975
243	0x3e57de87	0.21080981
244	0xbe805b2c	-0.2506956
245	0x3f12ef34	0.57396245
246	0x3ec97b64	0.39351952
247	0xbdcac03e	-0.098999485
248	0xbdcfa294	-0.10138431
249	0xbdb3e894	-0.08784595
250	0x3dd34401	0.10315705
251	0x3f334356	0.7002462
252	0xbda33c5b	-0.07970496
253	0xbe0d9a40	-0.13828373
254	0x3eae0f6d	0.33996144
255	0xbd11bb08	-0.035578758

lstm.bias_hh_l0 f4 [256]
0	0x3e85cb9a	0.26131898
1	0xbdecfdd8	-0.11571854
2	0xbca19000	-0.019721985
3	0x3d017885	0.031609077
4	0xbd392996	-0.045205675
5	0xbd76a337	-0.060214248
6	0x3e3797ce	0.17929003
7	0xbdfc6c36	-0.12325327
8	0xbd01eaab	-0.031717937
9	0xbe1176d9	-0.14205493
10	0xbe1b104e	-0.15142938
11	0xbc27618e	-0.01021613
12	0xbdc111f8	-0.094272554
13	0xbe2060d9	-0.15661944
14	0xbcebca66	-0.028783035
15	0x3d94c376	0.07263844
16	0x3e5370b4	0.20648462
17	0xb9d7f508	-0.00041190558
18	0x3c00630c	0.007836115
19	0xbe0686ab	-0.13137309
20	0xbc8476c6	-0.016169917
21	0xbe1ccda8	-0.15312827
22	0x3de84b6a	0.11342509
23	0xbde99867	-0.114060216
24	0xbc9a3f9d	-0.018829161
25	0x3d547ff7	0.05187985
26	0xbd44d7e8	-0.048057467
27	0x3d390330	0.045169055
28	0x3d06ce66	0.03291168
29	0xbd06f78c	-0.032950923
30	0xbdacf571	-0.08445252
31	0xbc4812b9	-0.012211495
32	0x3e3e3ba7	0.18577443
33	0xbd90f25b	-0.07077476
34	0x3d11a621	0.035558823
35	0xbe0990c1	-0.13434125
36	0xbe2d721d	-0.16938062
37	0x3e83a2f3	0.25710258
38	0xbd2fc9be	-0.042917006
39	0xbcdcaa60	-0.02693671
40	0xbd45696e	-0.04819625
41	0x3d74aa47	0.0597327
42	0xbe442498	-0.19154584
43	0xbdd10f8c	-0.102080435
44	0x3d070f7f	0.032973763
45	0xbe139fa8	-0.14416373
46	0x3d34c0ca	0.04412917
47	0xbc3aec83	-0.011408928
48	0xbe1f4d3a	-0.15556803
49	0xbb83bfd8	-0.0040206723
50	0x3eba134f	0.36342856
51	0x3eb0a71c	0.34502494
52	0xbe798096	-0.24365458
53	0x3f3a130a	0.726853
54	0x3e951942	0.29120833
55	0xbe5629a2	-0.20914319
56	0xbd9b9431	-0.07596625
57	0x3c035262	0.008015247
58	0x3dbf1e68	0.093319714
59	0x3f0bec14	0.546571
60	0x3e1db833	0.15402298
61	0xbe4673b0	-0.19380069
62	0xbd6da4b0	-0.058018386
63	0x3cdd116b	0.026985845
64	0xbcd8e168	-0.02647467
65	0x3d5cf018	0.05393991
66	0xbd371d54	-0.044705704
67	0x3dca6328	0.09882194
68	0x3d95bf90	0.07311928
69	0xbd48701c	-0.04893504
70	0xbd22e3a0	-0.03976786
71	0xbd7cccc8	-0.061718732
72	0x3d8b8bd4	0.068137795
73	0x3d0e1dc4	0.034696355
74	0x3d191c14	0.037380293
75	0x3db1ef0c	0.08688173
76	0x3c822098	0.015884683
77	0x3d8a6ba6	0.067588136
78	0x3d942600	0.072338104
79	0x3d34f038	0.044174403
80	0x3d26b800	0.04070282
81	0xbc6ece20	-0.014575511
82	0xbd9c22ec	-0.07623848
83	0xbdf011f6	-0.11722176
84	0xbd31967c	-0.043356404
85	0xbdca6f76	-0.09884541
86	0xbdd1c920	-0.1024344
87	0x3dd00cec	0.10158715
88	0x3d48de20	0.04903996
89	0x3d085510	0.033284247
90	0xbd868a86	-0.0656939
91	0x3ca21a98	0.019788072
92	0xbd682374	-0.056674436
93	0xbd55564c	-0.052084252
94	0x3d73c7cc	0.059516713
95	0x3d8240e8	0.06360036
96	0x3d6f6464	0.05844535
97	0xbdeef96e	-0.11668669
98	0x3d8df2c8	0.069310725
99	0xbdbde41a	-0.092720225
100	0x3d7279e4	0.059198275
101	0x3ccf3760	0.02529496
102	0x3d6f3b30	0.058406055
103	0xbd8477f0	-0.06468189
104	0x3d482d00	0.04887104
105	0x3ca3ff30	0.020019144
106	0xbd689384	-0.056781307
107	0x3dd5c476	0.104378626
108	0x3dded3c8	0.10880238
109	0x3dae0edc	0.08498928
110	0xbd88ab1a	-0.0667326
111	0xbcc749b0	-0.02432713
112	0xbd640204	-0.055665985
113	0xbab16f80	-0.0013537258
114	0x3ddf17ca	0.10893209
115	0x3d97f7ea	0.07420333
116	0xbd81b682	-0.06333639
117	0x3d655c1c	0.055996045
118	0xbce4b140	-0.02791655
119	0xbd4be544	-0.04977919
120	0xbd97811a	-0.07397671
121	0xbd5d072c	-0.053961918
122	0xbde2724e	-0.11056958
123	0x3dc7c2c4	0.097539455
124	0x3ceaa0a8	0.02864106
125	0xbd114ca8	-0.035473496
126	0xbda180fa	-0.078859285
127	0x3d014b64	0.03156604
128	0x3d7d23c1	0.061801676
129	0xbc8a006a	-0.0168459
130	0x3e1d241e	0.15345809
131	0x3c201ec5	0.009772961
132	0x3d608078	0.054810017
133	0x3d9aefa0	0.07565236
134	0xbe3c307e	-0.18377873
135	0x3d91b722	0.07115008
136	0x3d9a2b8e	0.07527839
137	0x3cfc94b4	0.030832626
138	0xbe032119	-0.12805595
139	0xbe01f59a	-0.12691346
140	0x3d995398	0.07486647
141	0x3da8c682	0.08240987
142	0x3bf3943b	0.007433442
143	0xbd566c8a	-0.052349605
144	0x3e18323f	0.14862917
145	0xbd572b4d	-0.05253153
146	0xbd77c75f	-0.06049287
147	0xbd2a917b	-0.041642647
148	0x3e0b9a9c	0.13633198
149	0x3d3b6678	0.04575202
150	0xbd9bc083	-0.07605078
151	0x3da94596	0.082652256
152	0x3dd6300a	0.104583815
153	0xbd53ee5d	-0.051740993
154	0xbd947c66	-0.072502896
155	0xbdf792a2	-0.12088515
156	0xbe08afce	-0.13348314
157	0xbd889316	-0.066686794
158	0xbd21bd2a	-0.03948704
159	0xbd899920	-0.067186594
160	0xbdbd1c37	-0.09233897
161	0xbd34d85c	-0.04415165
162	0x3db36e01	0.08761216
163	0xbd89bc93	-0.06725421
164	0xbda8d696	-0.08244054
165	0xbd10a09d	-0.035309423
166	0x3d8acb87	0.06777101
167	0x3e427de7	0.1899334
168	0x3dcd284e	0.10017453
169	0xbcf2717e	-0.029595133
170	0xbe015200	-0.12628937
171	0x3d457a4e	0.048212342
172	0xbdf16e5c	-0.117886275
173	0x3d364918	0.0445033
174	0x3dac4f51	0.08413566
175	0xbd8182a3	-0.06323745
176	0xbc8e0db9	-0.017340528
177	0x3e034374	0.128187
178	0xbde6a63e	-0.11262177
179	0xbd22507d	-0.03962754
180	0x3db9683b	0.090530835
181	0x3d4bef47	0.04978874
182	0xbd9f2ccb	-0.077722155
183	0x3cd6ae57	0.026206179
184	0xbdf9aee3	-0.1219156
185	0xbdd54c84	-0.10414985
186	0xbaab97e7	-0.0013091535
187	0xbdc50f37	-0.096220426
188	0x3d656436	0.05600377
189	0x3c456061	0.012046904
190	0xbd2c8a9e	-0.042124383
191	0xbd2f2db5	-0.0427682
192	0x3e82ae3d	0.25523558
193	0xbd6ebfaa	-0.058288254
194	0x3d30922a	0.043108143
195	0xbdc3a6ca	-0.09553297
196	0x3b5421ce	0.0032368782
197	0x3cdaf812	0.026729617
198	0x3e625396	0.22102198
199	0xbd397254	-0.045275047
200	0xbd8afa0b	-0.06785973
201	0xbc301719	-0.010747694
202	0xbe1764b0	-0.14784503
203	0x3da5747d	0.08078859
204	0x3c811f39	0.015761958
205	0xbb80cb47	-0.0039304825
206	0x3d8cc611	0.06873716
207	0x3dc632d6	0.09677665
208	0x3d526979	0.051370118
209	0xbd60a800	-0.054847717
210	0x3b393ea0	0.0028266087
211	0x3d910aef	0.070821635
212	0x3d9995c9	0.074992724
213	0xbde9f140	-0.11422968
214	0x3e3241f1	0.17407967
215	0xbcee3761	-0.029079141
216	0xbd4a670e	-0.049414687
217	0xbd275515	-0.040852625
218	0xbe119edf	-0.14220761
219	0x3d8bac28	0.068199456
220	0xbd7b2f7d	-0.061324585
221	0xbe2c2b91	-0.16813494
222	0xbe0ba6db	-0.13637869
223	0xbd1415bd	-0.036153544
224	0x3b827bec	0.003982058
225	0x3b176943	0.0023103512
226	0x3ca0c2d9	0.01962416
227	0xbd5d9f48	-0.05410698
228	0xbde89c72	-0.113579646
229	0xbdd6b263	-0.10483243
230	0xbd365d3a	-0.0445225
231	0xbd56a4ff	-0.052403446
232	0xbd01dec4	-0.031706586
233	0x3cc2b52c	0.02376803
234	0xbcfe8040	-0.031067014
235	0x3cafda65	0.021466443
236	0xbdcda89a	-0.10041924
237	0xbe9f49af	-0.31110904
238	0x3b65c711	0.003506128
239	0xbd7cd2ed	-0.061724592
240	0xbd77ef6d	-0.06053107
241	0x3dcdbae9	0.10045416
242	0x3ed4890c	0.41510808
243	0x3e75334f	0.23945354
244	0xbe97f809	-0.29681423
245	0x3f01e860	0.507452
246	0x3edaca7a	0.42732602
247	0x3a9419c5	0.0011299184
248	0x3cbba99b	0.022908023
249	0xbcfbf617	-0.030756993
250	0x3e0eaa75	0.13932212
251	0x3f2a4c82	0.6652299
252	0x3dd9c8b5	0.10633985
253	0xbe07e2bd	-0.13270088
254	0x3ea9d285	0.33168426
255	0xbe1da900	-0.153965

gcn1.bias f4 [64]
0	0xbd15e161	-0.03659189
1	0x3cd60348	0.026124611
2	0xbdd63380	-0.104590416
3	0xbc91e3bd	-0.01780879
4	0xbd7959e2	-0.060876735
5	0xbc9c1eb9	-0.019057618
6	0xbc803e34	-0.01565466
7	0xbccf055c	-0.02527111
8	0xbdad60db	-0.08465739
9	0xbcb75c57	-0.022382898
10	0x3d3bab76	0.045817815
11	0x3d3e2011	0.0464173
12	0xbcc95b8a	-0.024579782
13	0xbc866efc	-0.016410343
14	0x3d29cc65	0.04145469
15	0xbc34e913	-0.011041897
16	0xbca75133	-0.020424461
17	0xbc9ebef0	-0.019378155
18	0x3a5543bd	0.0008135399
19	0x3d2d03b2	0.042239852
20	0xbd97e892	-0.07417406
21	0xbd27e01f	-0.040985223
22	0x3c9a2722	0.018817488
23	0xbe4a2912	-0.1974223
24	0xbca456f9	-0.020061003
25	0xbdbc08ea	-0.09181388
26	0xbdd4f1b5	-0.103976645
27	0xbe3ae208	-0.18250287
28	0x3cc9e504	0.024645336
29	0xbda2f7dc	-0.07957432
30	0xbc2e83d7	-0.01065155
31	0x3dbefef8	0.09325975
32	0xbc71bae1	-0.014754028
33	0xbc9ed661	-0.019389333
34	0xbcbdc6a0	-0.023166
35	0x00000000	0.0
36	0x3d86220e	0.06549464
37	0x3b70ac73	0.0036723881
38	0xbd08cf04	-0.03340055
39	0xbd4a2335	-0.049349982
40	0x3c92b540	0.017908692
41	0x3c945935	0.018108943
42	0xbc91ab57	-0.017781897
43	0xbde5a110	-0.11212361
44	0xbb8e1586	-0.004336062
45	0xbd0502c1	-0.03247333
46	0xbc0e4e3b	-0.008685644
47	0xbcc2f3a9	-0.023797827
48	0x3cba3e38	0.022734746
49	0xbd0d58c0	-0.034508467
50	0xbe00ef02	-0.12591174
51	0xbdb1102d	-0.086456634
52	0xbce00860	-0.027347744
53	0x3c3ddbd2	0.011588054
54	0xbd1c1856	-0.038109146
55	0x3ae97776	0.0017812091
56	0xbc78966e	-0.015172584
57	0xbc5d9e2e	-0.0135264825
58	0xbc8c505c	-0.017128162
59	0x3c04fb9a	0.008116627
60	0x3bdd142e	0.0067467904
61	0x3c6369c2	0.013880195
62	0xbce4f289	-0.027947681
63	0x3d0bc333	0.034121703

gcn1.lin.weight f4 [64, 64]
0	0xbe1a3b12	-0.15061596
1	0x3d4854e8	0.048909098
2	0x3af56230	0.0018721279
3	0xba2dbb48	-0.00066273334
4	0x3eaa37cb	0.33245692
5	0xbe104d6b	-0.14092033
6	0xbde02ee4	-0.10946444
7	0xbd4c33af	-0.049853977
8	0xbe3e38db	-0.18576376
9	0xbe09b69f	-0.1344857
10	0xbe262446	-0.16224775
11	0x3dbaa20d	0.0911294
12	0xbe14b432	-0.14521864
13	0xbe29935e	-0.16560122
14	0x3e57cd2b	0.21074359
15	0x3df3ebb2	0.1191019
16	0x3f1cc78c	0.61241984
17	0xbd1546d1	-0.03644449
18	0xbdacf5e7	-0.0844534
19	0xbd6b65ea	-0.05747024
20	0xbe91809d	-0.28418437
21	0x3d976643	0.07392552
22	0x3f13a171	0.57668215
23	0x3e0ac629	0.13552155
24	0xbe3dbc41	-0.18528844
25	0xbce5a7f2	-0.028034184
26	0x3da6a03d	0.08136032
27	0x3cbab4c2	0.02279127
28	0xbe6a19fb	-0.22861473
29	0x3cc65564	0.02421064
30	0xbd0c7236	-0.034288608
31	0xbd8fb445	-0.070168056
32	0xbe16ccc0	-0.14726543
33	0x3cf68657	0.030093355
34	0x3d5ff12c	0.05467336
35	0x3e0e836c	0.13917321
36	0x3d70de51	0.058805767
37	0xbf4d5a2a	-0.80215704
38	0x3e953718	0.29143596
39	0x3e1a1fdc	0.15051216
40	0x3acaa851	0.0015461539
41	0x3e7886bd	0.24270149
42	0xbe7cec84	-0.24699599
43	0x3e4c4bae	0.19950745
44	0x3bf0f2d3	0.0073531657
45	0xbd0f0315	-0.03491505
46	0xbddd47d2	-0.10804714
47	0xba39f779	-0.0007094066
48	0x3e5db44b	0.21650808
49	0xbe1aad96	-0.1510528
50	0x3ebd6aa9	0.36995438
51	0x3eb6e02b	0.35717902
52	0xbe1ffd20	-0.15623903
53	0x3ded4a04	0.11586383
54	0xbd81e25e	-0.06342004
55	0x3d70a62a	0.058752216
56	0x3c8bf2e7	0.017083598
57	0x3e8af66f	0.2714114
58	0x3e7fdc36	0.24986348
59	0xbee5236a	-0.4475358
60	0x3e785306	0.24250421
61	0x3e491847	0.19638167
62	0xbeb66e5b	-0.3563107
63	0xbeab0892	-0.33404976
64	0xbe82bcda	-0.25534707
65	0xbdadcbfc	-0.084861726
66	0xbd637679	-0.055532906
67	0x3e10022f	0.14063333
68	0x3bd91710	0.0066250637
69	0xbe1c4c61	-0.15263511
70	0xbcd5fddc	-0.026122026
71	0xbe24e9f2	-0.16104868
72	0xbc8de3ee	-0.0173206
73	0xbc278829	-0.010225334
74	0x3cad8f2d	0.021186436
75	0xbe5515a4	-0.20809036
76	0x3d0fbbbc	0.035091147
77	0x3d8e44af	0.06946694
78	0xbd8e2bee	-0.06941973
79	0xbcc539eb	-0.024075469
80	0x3e7ed7ce	0.2488701
81	0x3dc9b9ca	0.098498896
82	0xbdd03318	-0.10165995
83	0x3e0c26d6	0.1368669
84	0x3dc8b7fa	0.09800716
85	0xbbb65939	-0.0055648354
86	0x3da0e5d4	0.07856336
87	0xbe1f0bac	-0.15531796
88	0xbd40e5cf	-0.047094163
89	0xbd117f09	-0.03552154
90	0x3e4a73ef	0.19770788
91	0xbe431aaf	-0.19053148
92	0xbe34f148	-0.17670166
93	0xbd432dbc	-0.047651038
94	0xbc3e11f4	-0.01160096
95	0x3e1c88e0	0.15286589
96	0xbd808d90	-0.06277001
97	0xbc7f536c	-0.015583854
98	0x3be7a0b0	0.007068716
99	0xbde94aea	-0.11391242
100	0x3d64abe7	0.055828
101	0x3d9999b1	0.075000174
102	0x3ca6f3c9	0.020379918
103	0x3d1fba46	0.038996004
104	0x3deb4fd0	0.114898324
105	0x3c632d57	0.01386579
106	0x3e84be81	0.25926593
107	0xbde7531d	-0.112951495
108	0x3da6c4ca	0.08143003
109	0xbe2f1f87	-0.1710187
110	0xbe916069	-0.28393868
111	0x3da2c561	0.07947803
112	0x3d8d01c7	0.068851046
113	0xbd729aac	-0.059229538
114	0x3e65f89f	0.22458123
115	0x3d350c6a	0.044201292
116	0xbe3323d6	-0.17494139
117	0x3e66a4a8	0.22523749
118	0xbe933190	-0.2874875
119	0xbe5d6778	-0.21621501
120	0xbc2951eb	-0.010334472
121	0x3e0d129a	0.13776627
122	0x3db6f592	0.089335576
123	0xbe310091	-0.17285372
124	0xbe06405c	-0.13110489
125	0xbcb176fc	-0.021663181
126	0x3dcfbfb3	0.101439856
127	0xbd91c975	-0.07118503
128	0x3d0516d7	0.032492485
129	0x3e15c10e	0.14624426
130	0xbe5fb9d6	-0.21848235
131	0xbe3a1c40	-0.18174839
132	0x3e1adecf	0.15124057
133	0xbe10043e	-0.14064118
134	0x3e0e163b	0.13875668
135	0xbde2281c	-0.110428065
136	0x3ca95511	0.020670446
137	0xbd1022c5	-0.03518941
138	0x3dba3d19	0.09093685
139	0x3e56e2db	0.20984976
140	0xbce47352	-0.02788702
141	0xbe838839	-0.25689867
142	0xbd5f04c5	-0.054447908
143	0x3e997a42	0.29976088
144	0xbeb831bb	-0.3597544
145	0x3d3d4e08	0.046216995
146	0x3d7636a9	0.06011072
147	0xbbd302dc	-0.00643955
148	0xbe57edd0	-0.21086812
149	0xbe48ff78	-0.19628704
150	0x3cc76c6c	0.024343692
151	0xbb682285	-0.0035420966
152	0x3e3cc587	0.18434726
153	0x3d236630	0.039892375
154	0x3e37c685	0.17946823
155	0xbde718ce	-0.11284028
156	0x3d5fa30b	0.05459885
157	0x3e77f2c5	0.24213703
158	0x3c34915f	0.011020987
159	0x3b1947d6	0.0023388765
160	0x3e2df80d	0.16989155
161	0x3dac13e1	0.08402229
162	0xbe49fae8	-0.1972462
163	0x3c34749f	0.011014133
164	0x3e4ff2fc	0.20307535
165	0x3e0063ff	0.12538145
166	0x3e2dc94c	0.1697132
167	0x3dc16bae	0.094443664
168	0x39f16a9e	0.00046046538
169	0xbdc2ea9b	-0.09517404
170	0xbe07784a	-0.1322948
171	0xbd72aa36	-0.059244357
172	0xbe6810bd	-0.22662635
173	0xbe443a04	-0.19162756
174	0x3e797df7	0.24364458
175	0xbe3221f4	-0.17395765
176	0x3e581701	0.21102525
177	0xbe412148	-0.18860352
178	0xbe8d0b92	-0.2754789
179	0xbb894ec7	-0.004190299
180	0xbe11ef38	-0.14251411
181	0xbd761c2c	-0.06008546
182	0x3ebd3cf1	0.36960557
183	0x3e32244d	0.1739666
184	0x3e1cf27d	0.15326877
185	0x3e0170bb	0.1264066
186	0x3e249d06	0.16075525
187	0x3e8a2ca5	0.26987186
188	0x3d08f3d9	0.033435676
189	0x3e12b47d	0.14326663
190	0x3e952d93	0.29136333
191	0x3dd08933	0.10182419
192	0xbe0cf152	-0.13763931
193	0xbdf3ed56	-0.119105026
194	0xbdcbe2ba	-0.09955354
195	0xbdd4569a	-0.103680804
196	0x3df73a87	0.1207171
197	0x3d9c0972	0.07618989
198	0x3e24e8b3	0.16104393
199	0x3e16a0cb	0.14709775
200	0xbe1bdb8e	-0.15220472
201	0x3daf0afe	0.085470185
202	0x3e32eaa7	0.17472325
203	0x3e9a89ec	0.3018335
204	0xbb980cd6	-0.004640202
205	0xbe56b23b	-0.20966427
206	0xbe930a38	-0.28718734
207	0xbdd3483a	-0.103165105
208	0xbe642568	-0.22279894
209	0xbe320dab	-0.17388026
210	0xbde00f2b	-0.10940393
211	0x3dae11ac	0.084994644
212	0xbde69a19	-0.112598605
213	0xbe0a12b6	-0.134837
214	0x3af89033	0.0018963873
215	0xbe5a5c22	-0.21324208
216	0xbdfd9e52	-0.12383713
217	0x3e2cf588	0.16890538
218	0x3e4aa4fd	0.197895
219	0xbda8c118	-0.08239955
220	0x3e7a9b04	0.24473196
221	0x3e5f1828	0.21786559
222	0x3cd289e0	0.02570051
223	0x3e6c5406	0.23078927
224	0x3de7bb5b	0.11315032
225	0xbe46291e	-0.19351622
226	0xbde3d31d	-0.11124251
227	0x3dace985	0.08442978
228	0xbe0507da	-0.12991276
229	0x3d1d112a	0.038346447
230	0xbd9c91fe	-0.07645033
231	0xbe347165	-0.17621382
232	0x3c142214	0.009041328
233	0xbe2418ff	-0.1602516
234	0x3e86fd2c	0.2636503
235	0xbe34d8c7	-0.17660819
236	0x3e8bcf01	0.2730637
237	0x3cc8b75d	0.024501497
238	0x3e07ba76	0.13254723
239	0x3b10e25e	0.0022107582
240	0xbe7f4f7f	-0.24932669
241	0xbc65b76d	-0.014020783
242	0xbee908b1	-0.45514444
243	0xbdf5fb05	-0.12010769
244	0xbcc4f52e	-0.024042692
245	0xbe989309	-0.2979968
246	0x3e01ed96	0.12688288
247	0xbe3a628d	-0.18201657
248	0xbdf50e83	-0.119656585
249	0x3e04cbf6	0.1296843
250	0x3de4aea3	0.11166122
251	0x3eb53408	0.3539126
252	0xbd33de61	-0.04391325
253	0xbe5a63f6	-0.21327195
254	0xbc29bf41	-0.01036054
255	0x3e5a99ad	0.21347685

gcn2.bias f4 [64]
0	0x3ca8f55a	0.020624805
1	0xbbf69d7a	-0.007526097
2	0xbd0d357f	-0.034474846
3	0x3dc21183	0.09475996
4	0xbd3374e9	-0.043812666
5	0xbd48705d	-0.048935283
6	0x3e053ea9	0.13012184
7	0x3db13a44	0.086536914
8	0x3da4d34c	0.08048114
9	0xbc7fb17c	-0.01560628
10	0x3d6c204e	0.057647996
11	0xbb7ebde1	-0.00388705
12	0xbd4a2122	-0.049348004
13	0x3d292ffc	0.041305527
14	0x3d8567ad	0.06513915
15	0xbd20ac48	-0.0392268
16	0xbe33102c	-0.17486638
17	0x3d933256	0.07187335
18	0x3bf15815	0.0073652365
19	0x3d34c778	0.04413554
20	0xbd838f62	-0.064238325
21	0xbc3da590	-0.011575118
22	0x3d68056e	0.056645803
23	0x3c851e2f	0.016249744
24	0xbd161bef	-0.036647733
25	0x3cd5b502	0.026087288
26	0x3dcc7860	0.09983897
27	0xbc7a3c6b	-0.015273194
28	0x3dac2ff7	0.08407586
29	0xbd649523	-0.05580629
30	0x3da05d48	0.07830292
31	0x3b6d92e9	0.0036250895
32	0x3a1563b1	0.0005698754
33	0xbc96d346	-0.01841129
34	0xbba9354c	-0.005163824
35	0xbd67b43c	-0.05656837
36	0xbd3cf1d1	-0.04612905
37	0xbda42b34	-0.08016053
38	0x3de621d8	0.11236924
39	0xbd9baa31	-0.07600821
40	0xbe022ddc	-0.12712806
41	0x3e42059a	0.1894745
42	0x3dca867b	0.09888931
43	0x3dc22772	0.0948018
44	0x3e20a12c	0.15686482
45	0xbd838c96	-0.06423299
46	0xbc31b354	-0.010845978
47	0x3df27cfd	0.11840246
48	0x3e0e2deb	0.13884704
49	0x3ada0571	0.0016633702
50	0xbd836822	-0.06416346
51	0x3e11555c	0.14192718
52	0x3dd29a36	0.1028332
53	0xbcc9dc23	-0.024641102
54	0xbd037fec	-0.032104418
55	0x3a05a603	0.0005098285
56	0x3cdeb17e	0.027184244
57	0x3d54b368	0.051928908
58	0xbc371d6f	-0.011176451
59	0x3dd4182b	0.10356172
60	0xbc03b1d7	-0.008038006
61	0xbb886945	-0.0041629397
62	0x3cb1d6bb	0.021708837
63	0xbcc93055	-0.02455918

gcn2.lin.weight f4 [64, 64]
0	0xbc13448e	-0.008988513
1	0xbdd421d2	-0.10358013
2	0xbd782be8	-0.060588747
3	0xbe015b4a	-0.1263248
4	0xbc11cb1a	-0.008898521
5	0xbd8dff4a	-0.06933458
6	0xbee4f0ed	-0.44715062
7	0xbeadac6c	-0.3392061
8	0x3d2f43d8	0.04278931
9	0xbc630020	-0.01385501
10	0xbd0078a4	-0.031365052
11	0xbcc0b4ab	-0.02352365
12	0xbde36b70	-0.111044765
13	0x3cd61225	0.026131699
14	0xbd6b31ab	-0.057420414
15	0x3ca40dee	0.020026173
16	0xbab8d1fc	-0.0014100666
17	0x3cbaa47b	0.022783509
18	0x3e0830cb	0.13299863
19	0xbdfb7fca	-0.12280233
20	0x3df5b702	0.119977966
21	0x3e0fb7eb	0.14035003
22	0xbea18d9a	-0.31553346
23	0xbd3cb8c1	-0.046074633
24	0xbedc16fd	-0.4298629
25	0xbd9950f8	-0.07486147
26	0x3e7bfb98	0.24607694
27	0xbeaa0cb8	-0.3321283
28	0x3e668aec	0.22513932
29	0xbe7aac27	-0.24479733
30	0xbe64e429	-0.22352661
31	0x3c8c7954	0.017147698
32	0x3e3a52d8	0.18195665
33	0x3e4e8112	0.20166424
34	0xbe36b8d6	-0.17843947
35	0x3e5a9347	0.21345244
36	0xbe2444bb	-0.16041844
37	0x3e097310	0.13422799
38	0x3e0f6844	0.14004618
39	0xbe8f3690	-0.27971315
40	0xbe0d1480	-0.13777351
41	0x3c9f5bae	0.019452896
42	0x3e26c41e	0.1628575
43	0xbe83376d	-0.25628224
44	0xbe337c13	-0.175278
45	0xbd86c0c0	-0.06579733
46	0x3e04877a	0.12942305
47	0x3e5eb569	0.2174889
48	0xbe45e1f1	-0.19324471
49	0xbe5e2a2a	-0.21695772
50	0xbcb1b09d	-0.021690661
51	0xbe3be913	-0.1835063
52	0xbcbba9bf	-0.02290809
53	0x3e06182a	0.13095155
54	0xbe510983	-0.20413785
55	0xbef6cca1	-0.48202994
56	0x3e6c9f11	0.23107554
57	0x3c9ddef0	0.019271344
58	0x3e7c76fb	0.24654762
59	0xbd3a8668	-0.045538336
60	0xbc917d1e	-0.017759856
61	0x3c93283b	0.01796352
62	0x3d144c85	0.036205787
63	0xbca3ed51	-0.020010622
64	0xbd1e2ede	-0.038618915
65	0x3d9acbed	0.07558427
66	0xbf2f1cce	-0.6840333
67	0xbde9a194	-0.11407772
68	0xbd08647b	-0.03329895
69	0xbdfb12b9	-0.122594304
70	0xbd5c04e0	-0.053715587
71	0xbe3c54b8	-0.18391693
72	0xbe48c9cc	-0.1960823
73	0xbd155644	-0.036459222
74	0xbf14793b	-0.57997483
75	0xbf7d059c	-0.98836684
76	0x3d37aa81	0.04484034
77	0x3e60fe90	0.21972108
78	0xbf3ca90c	-0.73695445
79	0xbd52e3f7	-0.051486935
80	0x3dd1ca66	0.102436826
81	0xbd56ea8b	-0.05246977
82	0xbd9b099b	-0.075701915
83	0xbf306781	-0.68907934
84	0x3daa1987	0.0830565
85	0x3e6b2023	0.22961478
86	0xbe1597f3	-0.14608745
87	0xbf1583a8	-0.58404016
88	0x3e2a866b	0.16652839
89	0x3d451384	0.048114315
90	0xbb04ed7e	-0.0020283158
91	0x3d58bae3	0.052912604
92	0xbd912fd6	-0.07089202
93	0xbdaf8823	-0.08570888
94	0x3e1b6808	0.15176404
95	0xbd8c09fc	-0.06837842
96	0x3d72c176	0.05926653
97	0x3e4f9ce5	0.20274694
98	0x3e0ae650	0.1356442
99	0xbe227af1	-0.15867211
100	0x3e4a6be6	0.19767722
101	0xbf39a159	-0.7251182
102	0x3db078ca	0.08616789
103	0xbd168660	-0.036749244
104	0xbe1f242c	-0.15541142
105	0xbe10c92d	-0.14139242
106	0x3db06932	0.086138144
107	0xbee9a7ea	-0.4563592
108	0xbe982beb	-0.29721007
109	0xbe4b2bc5	-0.19840916
110	0xbe0c3f4f	-0.13696025
111	0xbe1b2906	-0.15152368
112	0x3da23e21	0.079220064
113	0xbe48d930	-0.196141
114	0xbd2321da	-0.039827205
115	0x3e2cb578	0.168661
116	0x3e1a71eb	0.15082519
117	0x3dc350f0	0.09536922
118	0xbd560e22	-0.05225957
119	0xbe50af18	-0.20379293
120	0x3c6affff	0.014343261
121	0xbd788731	-0.060675804
122	0x3e88181c	0.26580894
123	0xbcf22437	-0.029558284
124	0xbf598974	-0.8497536
125	0x3dfa386e	0.12217794
126	0xbdbf4cee	-0.09340845
127	0xbf3617aa	-0.7112986
128	0x3d80c8fc	0.06288335
129	0xbe239546	-0.15974912
130	0x3e9533ed	0.2914118
131	0x3e75c8a3	0.24002318
132	0x3dcb4676	0.09925549
133	0x3dfb0073	0.12255945
134	0xbe1c235d	-0.15247865
135	0xbe5f0aa2	-0.217814
136	0x3df7b266	0.12094574
137	0x3e9fb0fb	0.31189713
138	0xbd6d62ab	-0.057955425
139	0x3db22293	0.08698001
140	0x3e25cd93	0.16191702
141	0xbe061707	-0.13094722
142	0xbe7cf608	-0.24703228
143	0x3d36eea7	0.04466119
144	0xbdd9b907	-0.10630994
145	0xbcac2846	-0.021015298
146	0x3da49f88	0.08038241
147	0xbe1404d8	-0.14454973
148	0x3e6e12f1	0.23249413
149	0x3df5e3f0	0.12006366
150	0xbde2d9d4	-0.11076704
151	0xbe1bc254	-0.15210849
152	0xbe28d873	-0.16488819
153	0xbe247143	-0.16058831
154	0x3e063661	0.13106681
155	0xbe0267cd	-0.1273491
156	0xbe3a104f	-0.18170284
157	0xbe141e67	-0.14464723
158	0xbe9cc968	-0.3062241
159	0xbad46645	-0.0016204795
160	0xbdcc2ec0	-0.09969854
161	0xbe3b04a1	-0.18263485
162	0x3e03c906	0.12869653
163	0xbd9444e0	-0.07239699
164	0x3e5d6c55	0.21623357
165	0xbda19281	-0.078892715
166	0x3d8f60e2	0.07000901
167	0xbe2d9080	-0.16949654
168	0x3b908c87	0.0044112834
169	0x3d9443c0	0.07239485
170	0x3db779bf	0.08958768
171	0xbd734159	-0.059388492
172	0x3daa541b	0.08316823
173	0x3c06036c	0.008179527
174	0x3d988bbf	0.074485295
175	0xbce85632	-0.028361414
176	0xbe5d24a5	-0.2159601
177	0xbec69505	-0.38785568
178	0xbda21875	-0.07914821
179	0x3e7e9532	0.24861601
180	0x3e1ae2a2	0.15125516
181	0x3dc1f91f	0.09471344
182	0x3ea0f3f4	0.3143612
183	0xbe82ab78	-0.25521445
184	0xbcfe1623	-0.031016415
185	0xbe3da0ea	-0.18518415
186	0x3e606ce0	0.21916533
187	0x3cc990e7	0.024605228
188	0xbd335f5a	-0.043792106
189	0xbd997594	-0.074931294
190	0x3ca59f32	0.020217512
191	0xbdbc18e8	-0.09184438
192	0xbd001af7	-0.031275716
193	0xbedd96ad	-0.4327902
194	0x3baf0bad	0.005341968
195	0xbbeccb2e	-0.0072263693
196	0xbf47cd7d	-0.78047925
197	0xbd9a4d72	-0.07534303
198	0x3da2bf72	0.079466715
199	0x3e2b0774	0.16702062
200	0xbed5adba	-0.41734105
201	0x3c4419d2	0.011969047
202	0xbc8e9080	-0.017402887
203	0xbcee00af	-0.02905306
204	0xbbd0c495	-0.0063710907
205	0xbedcaf0e	-0.43102306
206	0xbcdb7057	-0.026786966
207	0xbed2df5d	-0.41186038
208	0xbd93ca6e	-0.07216345
209	0xbc8f1d0b	-0.017469903
210	0xbf30996e	-0.68984115
211	0x3c82eba2	0.0159815
212	0x3ba1751f	0.004927292
213	0xbe4e6583	-0.20155911
214	0x3e138d46	0.1440936
215	0xbcb2860b	-0.021792432
216	0x3e829777	0.25506184
217	0x3d8331ef	0.064060085
218	0xbbc7c881	-0.0060969
219	0xbd48c288	-0.049013644
220	0xbeb94722	-0.36187083
221	0x3e8e8f40	0.27843666
222	0x3dfe59b5	0.12419454
223	0x3c360a8d	0.011110914
224	0xbeda7808	-0.42669702
225	0xbe4fb01b	-0.20282023
226	0xbe26edee	-0.163017
227	0x3cf90640	0.030398488
228	0xbcb9d87f	-0.022686241
229	0xbd1bf6c4	-0.03807713
230	0xbf0e3b12	-0.55558884
231	0x3e09bcfc	0.13450998
232	0xbf230133	-0.63673705
233	0xbe72e9a2	-0.23721936
234	0x3c9a4509	0.018831747
235	0x3e84454d	0.25834122
236	0xbd9633a9	-0.07334072
237	0x3e3a6f2f	0.18206476
238	0xbf5ae4f3	-0.855056
239	0x3d83762a	0.064190224
240	0xbe9e0381	-0.30862048
241	0xbd71a263	-0.058992755
242	0x3e5feae8	0.21866953
243	0x3c9e4a98	0.019322678
244	0x3d91a334	0.07111207
245	0xbf41b5e5	-0.75668174
246	0x3d12461a	0.035711385
247	0x3d812182	0.06305219
248	0x3dd41d2c	0.103571266
249	0xbe01ab33	-0.12662964
250	0xbe118473	-0.14210682
251	0xbf1c49ae	-0.61049926
252	0xbbd2c00c	-0.006431585
253	0xbe9a5390	-0.30141878
254	0xbd05e5ea	-0.032689966
255	0xbbce7fc3	-0.0063018515
