outputs/models/model_rmf.pth (torch, 36285 bytes, 12 tensors)

lstm.weight_ih_l0 f4 [128, 6]
0	0x3e296ba5	0.1654497
1	0x39f3e779	0.00046521032
2	0x3d8a7c88	0.06762034
3	0xbcd57f44	-0.026061662
4	0xbb94cc6e	-0.0045409715
5	0xbd6331c2	-0.055467375
6	0x3e23220c	0.15930957
7	0x3a8d7a50	0.0010793898
8	0x3946949b	0.00018938111
9	0x39a37b74	0.00031181762
10	0x39cd14b9	0.00039116087
11	0x3e1d6f2a	0.15374437
12	0x3d76baa2	0.06023658
13	0x3db61a47	0.08891731
14	0x3ce79145	0.028267512
15	0x3d58128c	0.052752063
16	0x3a63852b	0.00086792064
17	0x3d18720e	0.037218146
18	0x3c95436f	0.018220631
19	0xbda3507d	-0.07974336
20	0xbab9b272	-0.0014167561
21	0xbd8fe514	-0.07026115
22	0xbcc30168	-0.023804381
23	0x3d6d6d1d	0.057965387
24	0x3e144f94	0.14483482
25	0xbd4d15da	-0.050069667
26	0xbc71a7d3	-0.014749485
27	0x3a8e8955	0.0010874668
28	0x3a1c171d	0.0005954372
29	0xbe0966b8	-0.1341809
30	0x3d420993	0.047372412
31	0x3dabf4e7	0.08396321
32	0x3db9ce52	0.090725556
33	0x3d8e067c	0.069348305
34	0x3d87bbdb	0.066276275
35	0xbdc77adb	-0.0974023
36	0x3caacd39	0.02084981
37	0x3d4344d9	0.04767308
38	0xbdb4863e	-0.08814667
39	0x390cb149	0.00013417484
40	0x3cce126e	0.025155272
41	0xbbb9bda2	-0.005668358
42	0x3dba33ec	0.090919346
43	0xba1ab815	-0.0005902064
44	0x3de54b75	0.11196033
45	0xb9ba67c1	-0.00035553987
46	0xbddd01d2	-0.10791363
47	0xbd16758f	-0.036733206
48	0x3da15dbf	0.07879209
49	0xbcf5cd46	-0.030005109
50	0xb890b020	-6.899261e-05
51	0xbda36438	-0.079780996
52	0xbc6bf3ef	-0.01440142
53	0x3d735214	0.059404448
54	0xbd0ee425	-0.034885544
55	0x3dac6043	0.08416798
56	0xb8d7fec0	-0.0001029945
57	0xb947453c	-0.0001900391
58	0xb96855fd	-0.00022157277
59	0xbd9b57a7	-0.07585078
60	0xbcab2bdb	-0.020894935
61	0xb97a5a7e	-0.00023875569
62	0xbdc92697	-0.098218136
63	0x3c5038d8	0.012708865
64	0x3c3b79da	0.011442626
65	0x3d8cd29d	0.06876109
66	0x3c9faa80	0.01949048
67	0xbc87e36e	-0.01658794
68	0x3ab364e3	0.0013686683
69	0xbb2402dd	-0.002502612
70	0x3d70b481	0.058765892
71	0x3defca7d	0.117085434
72	0x3d049cec	0.032376215
73	0xbddcf52d	-0.10788951
74	0x3d6ac69b	0.05731831
75	0x3c135b6b	0.008993964
76	0xb9e71278	-0.00044073514
77	0x3dc47ba6	0.095938966
78	0x3daaa5e8	0.08332425
79	0x3dc3cc69	0.095604725
80	0x3c70d115	0.014698287
81	0xbd188c66	-0.03724327
82	0x3d524156	0.05133184
83	0x3d8a0fd5	0.06741301
84	0x3dc5cec4	0.09658578
85	0xbdab66fa	-0.083692506
86	0xba5fb233	-0.00085333287
87	0xb93bbb28	-0.00017903431
88	0xb94ae25b	-0.00019348545
89	0xbe0416b0	-0.1289928
90	0x3de1e2af	0.110295646
91	0xbd2b04f3	-0.041752767
92	0xbdd74e8a	-0.10513027
93	0x3de92034	0.113830954
94	0xbcc6499f	-0.024205027
95	0x3daf2cac	0.08553442
96	0x3e21adb2	0.15788916
97	0xb8d36de5	-0.000100817335
98	0xbd9a5d21	-0.07537294
99	0xbd208d06	-0.03919699
100	0xbcd0c82c	-0.025486074
101	0x3d350e83	0.044203293
102	0xbc579681	-0.0131584415
103	0x38e14170	0.00010741025
104	0xb9735a50	-0.0002320793
105	0x3925d667	0.00015815497
106	0x3905cf03	0.00012760986
107	0x3e56fd15	0.2099498
108	0x3da2a744	0.0794206
109	0xbd37beb6	-0.04485961
110	0xbdaad6ec	-0.08341774
111	0xb9c58f87	-0.00037681704
112	0x3c4bf303	0.012448075
113	0x3d9bc2de	0.07605527
114	0x3e28775a	0.16451779
115	0x39eddb88	0.00045367726
116	0x38e4bfa0	0.0001090758
117	0x3c7dd6af	0.015493079
118	0xbd26a075	-0.040680367
119	0x3d394ead	0.045241047
120	0x3d0893c4	0.033344045
121	0xbc57d660	-0.01317367
122	0xb92ce85a	-0.00016489756
123	0xbd4606d1	-0.048346344
124	0xbabbd4c5	-0.0014330378
125	0xbe200c80	-0.15629768
126	0x3db64112	0.0889913
127	0x3d7913dc	0.060809955
128	0x3de058bf	0.10954427
129	0x3dc056ce	0.09391557
130	0x3cb314ac	0.021860443
131	0xbdc1272d	-0.094313
132	0xbda260c0	-0.0792861
133	0xbb94789c	-0.0045309793
134	0x374510ac	1.1745997e-05
135	0xbca1d515	-0.019754926
136	0x3c1fb16b	0.00974689
137	0xba9dc135	-0.001203573
138	0x3e06c673	0.1316164
139	0x3dc38491	0.095467694
140	0xb90ea10e	-0.00013602173
141	0xba878d9b	-0.0010341884
142	0x3d145908	0.03621772
143	0xbcc8321f	-0.024437962
144	0xbe3b43d1	-0.18287589
145	0xbd3ed50c	-0.046589896
146	0xbc4ed24e	-0.012623383
147	0xbd77abee	-0.0604667
148	0x3ab0d550	0.0013491306
149	0x3e04b6f4	0.12960416
150	0x3bfc1588	0.0076929964
151	0xbaad1b9b	-0.001320708
152	0xbd3dda43	-0.04635073
153	0xbdb4803e	-0.08813523
154	0xbddc4e2a	-0.10757096
155	0xbd83e7e4	-0.06440714
156	0xbc6a7925	-0.01431111
157	0x3cb471a5	0.022026846
158	0x3c9a0be6	0.018804502
159	0x3da77d24	0.081781656
160	0xbbf475a2	-0.007460312
161	0x3dccda75	0.10002605
162	0x3e0e8e20	0.13921404
163	0xb939ab61	-0.00017706818
164	0xbcc0df3a	-0.023543943
165	0xbde47cba	-0.11156602
166	0xbda133d7	-0.07871216
167	0x3d704ebe	0.058668844
168	0x3e5c1fa4	0.21496445
169	0xbde299f7	-0.11064523
170	0x3cc87ddd	0.024474079
171	0x3de1e691	0.11030305
172	0x3d70cf88	0.058791667
173	0xbd9dbfba	-0.077025846
174	0x3e0de88b	0.1385824
175	0xbdca8794	-0.09889141
176	0x3de16002	0.1100464
177	0xbde23ddf	-0.11046957
178	0xbdc5af1f	-0.09652542
179	0xbd98ff11	-0.07470525
180	0x3d841502	0.064493194
181	0x3de7665a	0.11298819
182	0xbd85d780	-0.06535244
183	0xb82791b9	-3.9951618e-05
184	0x3de1fe6d	0.11034856
185	0xbddb924c	-0.10721263
186	0xbde98ddf	-0.11404013
187	0x3cbf63f3	0.02336309
188	0xbd2c9ac6	-0.04213979
189	0x3a4edc30	0.0007891087
190	0x3dce33a9	0.10068447
191	0x3c65a4d0	0.014016345
192	0xbdc1d948	-0.09465271
193	0x3d0c6847	0.034279134
194	0x3dd4719f	0.10373234
195	0x3db4fa25	0.08836774
196	0xb763748e	-1.3557392e-05
197	0x3e5f3270	0.21796584
198	0x3e03c445	0.1286784
199	0xbd8b5d90	-0.06804955
200	0xbd90198c	-0.07036123
201	0x379c3635	1.8621891e-05
202	0x3daed3cf	0.08536493
203	0x3da0b52d	0.078470565
204	0xbe1daaeb	-0.15397231
205	0x3d965baf	0.07341706
206	0x3b3136c0	0.002704069
207	0xb93d57f1	-0.00018057205
208	0x38346dbe	4.301755e-05
209	0xbd29bba7	-0.041438725
210	0xbdd7657b	-0.10517403
211	0xbd129476	-0.035786115
212	0x3dd6c33c	0.10486457
213	0xbc4528dc	-0.012033667
214	0xbcdd2dc0	-0.026999354
215	0xbd14bd52	-0.036313362
216	0xbdb736f8	-0.08946031
217	0xbd2c370f	-0.042044695
218	0x3c3f90bc	0.011692222
219	0x39e02b0e	0.00042756688
220	0x3dd8c130	0.105837226
221	0x3e13dbad	0.14439268
222	0x3ab039df	0.0013444981
223	0x3a25eeda	0.0006329842
224	0xbabbc054	-0.0014324286
225	0x3c6261bd	0.013817248
226	0x3c574752	0.013139563
227	0xbd370fed	-0.044692922
228	0x3db0759c	0.08616182
229	0xbdadde1e	-0.08489631
230	0xbcd878ba	-0.026424754
231	0x3cfc906b	0.030830583
232	0xbdee5c45	-0.11638693
233	0x3e25c88a	0.16189781
234	0x3e3f1972	0.1866205
235	0x3dc271a9	0.09494335
236	0x3c8e6a6f	0.017384736
237	0x387487a1	5.8300448e-05
238	0x3d6ae8aa	0.057350792
239	0x3d2509b6	0.040292464
240	0x3d9292f3	0.071569346
241	0xbd97b46e	-0.07407461
242	0xbdcf28e3	-0.101152204
243	0x3c4cd6d9	0.012502396
244	0x3d2bed94	0.04197462
245	0x3d82c2dc	0.06384823
246	0x3c9bd314	0.019021548
247	0x3ab862cf	0.0014067533
248	0xbd5f2405	-0.05447771
249	0xbaae9f58	-0.0013322635
250	0x3a0d380a	0.00053870736
251	0xbd586f28	-0.05284038
252	0x3e2400ad	0.16015883
253	0xbd930d66	-0.0718029
254	0xbd2bc801	-0.041938785
255	0x38993332	7.3051444e-05

lstm.weight_hh_l0 f4 [128, 32]
0	0xbd85f19e	-0.065402254
1	0xbb878795	-0.0041360357
2	0xbc30fd33	-0.010802555
3	0x3d4baf2f	0.049727615
4	0x3db2d001	0.0873108
5	0xbdc7c857	-0.09755009
6	0xbd599da8	-0.05312887
7	0xbd37fadf	-0.044916984
8	0xbdba6d5c	-0.0910289
9	0xbdb00038	-0.08593792
10	0xbd380076	-0.044922315
11	0x3d1e417a	0.038636662
12	0xbd7500e9	-0.05981532
13	0x3d8720b7	0.06598037
14	0xbd9deb51	-0.07710899
15	0xbd0f0053	-0.03491242
16	0x3e03a3f1	0.12855507
17	0x3d100986	0.035165332
18	0xbdb12c6f	-0.08651053
19	0x3e0880ae	0.13330337
20	0xbda9e313	-0.08295264
21	0x3e1a5491	0.15071322
22	0xbd23307f	-0.03984117
23	0xbb2385ad	-0.0024951503
24	0x3dc6a151	0.096987374
25	0xbdacc400	-0.084358215
26	0x3db1f74e	0.08689748
27	0xbe214225	-0.15747888
28	0xbde94a54	-0.1139113
29	0x3ddfb752	0.109236374
30	0x3d088500	0.033329964
31	0xbd6b78a3	-0.057488095
32	0xbe0b3031	-0.13592602
33	0x3e16bff4	0.14721662
34	0x3c974d77	0.018469555
35	0x3b9a1a5a	0.0047028484
36	0xbd61c02f	-0.05511492
37	0x3db97c70	0.09056938
38	0xbd98183d	-0.07426498
39	0xbe0681ac	-0.13135403
40	0xbd6af935	-0.05736657
41	0xbcc9cadc	-0.024632864
42	0x3d833f1b	0.06408521
43	0x3d6e96a7	0.058249142
44	0x3de23b1b	0.1104643
45	0x3d445245	0.04793002
46	0x3d8ad666	0.067791745
47	0xbdd72d47	-0.10506683
48	0x3cdce129	0.026962833
49	0x3d539c8f	0.051662978
50	0x3dab3aee	0.08360849
51	0x3c817747	0.015803946
52	0xbd0486b4	-0.032355025
53	0xbdaaf462	-0.083473936
54	0xbcf6cf34	-0.030128099
55	0x3d5d350a	0.05400566
56	0x3d230896	0.03980311
57	0x3a125624	0.0005582294
58	0x3d46863b	0.048467856
59	0xbde7d4dc	-0.113198966
60	0xbd442c0a	-0.04789356
61	0xbde3d219	-0.11124057
62	0xbdc16a31	-0.094440825
63	0xbda95ea0	-0.082700014
64	0x3c8ec573	0.017428135
65	0x3d895287	0.06705194
66	0x3ccce260	0.025010288
67	0x3c705a82	0.014670016
68	0x3d0673d6	0.032825314
69	0xbddc9626	-0.10770826
70	0x3db12be3	0.08650949
71	0x3d74c4cb	0.05975799
72	0xbdffcedc	-0.12490627
73	0xbc675e93	-0.014121669
74	0x3d6143da	0.05499635
75	0xbdaac73d	-0.08338783
76	0xbb0e1d8e	-0.0021685096
77	0x3dd71b86	0.105032966
78	0x3d3b6961	0.045754794
79	0xbcb76c14	-0.022390403
80	0xbd6faff0	-0.058517396
81	0x3dc14e86	0.09438805
82	0xbda0eefd	-0.078580834
83	0x3de33e89	0.11095912
84	0xbcb607d6	-0.022220533
85	0x3b1cdc10	0.0023934878
86	0x3db93e7d	0.09045122
87	0x3c26f508	0.010190256
88	0x3dbec0ef	0.09314143
89	0xbd54b155	-0.05192693
90	0x3dbfb3b5	0.09360448
91	0xbb4ef4e1	-0.0031579065
92	0xbded0eff	-0.11575126
93	0x3dccb2e8	0.09995061
94	0xbd9565b4	-0.07294789
95	0x3c50de29	0.01274828
96	0x3d7f65bc	0.06235288
97	0x3d646278	0.05575797
98	0x3d43583e	0.047691576
99	0xbdca1c09	-0.098686285
100	0x3d650b80	0.05591917
101	0x3dcef62f	0.101055495
102	0x3dcfd84f	0.101486795
103	0x3ce43b80	0.027860403
104	0xbd2d8883	-0.042366516
105	0xbc9d5a17	-0.019207997
106	0xbcdd4a5e	-0.027013
107	0xbddb39e9	-0.10704405
108	0xbccf75a4	-0.02532465
109	0x3dd18221	0.10229898
110	0xbd2d3a99	-0.04229221
111	0x3d1262bd	0.035738695
112	0x3deb5c5e	0.11492227
113	0x3da7afe1	0.08187843
114	0x3cba9fba	0.022781242
115	0x3c52bf03	0.012862924
116	0x3ca85c88	0.020551935
117	0xbd21d77d	-0.039512146
118	0xbb7586ac	-0.0037464304
119	0xbd9045e9	-0.07044584
120	0x3d92afcd	0.071624376
121	0x3da9ec85	0.08297066
122	0xbd2efcc3	-0.04272152
123	0xbdc3d272	-0.09561624
124	0xbd4090c9	-0.047013078
125	0xbdadb942	-0.08482601
126	0xbccdead6	-0.025136393
127	0xbdcba1de	-0.09942983
128	0xbe20461f	-0.15651749
129	0x3d94da27	0.07268172
130	0x3d8b74ee	0.06809412
131	0x3da0b958	0.078478515
132	0x3ca32866	0.019916724
133	0x3c3b412f	0.011429115
134	0x3d256374	0.04037805
135	0xbe0d84ab	-0.1382014
136	0xbc08b0c8	-0.008342929
137	0xbcf6cde4	-0.030127473
138	0x3c45b7d7	0.012067757
139	0xbde23db6	-0.11046927
140	0x3da5885c	0.08082649
141	0xbdbb9004	-0.09158328
142	0x3d9369a6	0.07197885
143	0xbcc9366d	-0.024562085
144	0x3e12efea	0.14349332
145	0x3b092694	0.0020927535
146	0xbd13ad54	-0.03605397
147	0xbd7babe2	-0.061443217
148	0xbde907e1	-0.11378456
149	0x3dc591ed	0.09646974
150	0xbe095261	-0.13410331
151	0xbc913ee3	-0.017730182
152	0x3db6322e	0.0889629
153	0xbe02a89a	-0.12759629
154	0x3dc4ec9e	0.09615444
155	0xbd7c2969	-0.06156293
156	0xbe11bcdc	-0.142322
157	0x3db817a4	0.08988884
158	0x3dbf8eaa	0.09353383
159	0x3da019ed	0.07817445
160	0xbe469278	-0.19391811
161	0x3db0ceae	0.08633171
162	0x3df020f1	0.11725033
163	0xbc7fc02c	-0.015609782
164	0xbbb21051	-0.005434074
165	0xbd32be47	-0.043638494
166	0xbe3393fe	-0.17536923
167	0x3d3088d5	0.043099243
168	0xbd8b7491	-0.06809343
169	0xbd803c5b	-0.06261512
170	0x3db03ba1	0.08605123
171	0x3e2cb6e1	0.16866638
172	0x3d745832	0.059654422
173	0x3dfeeacb	0.12447127
174	0xbdaf58fa	-0.08561893
175	0x3db7f53e	0.08982323
176	0x3e284201	0.16431428
177	0xbd0d32d7	-0.034472313
178	0xbdf99764	-0.121870786
179	0x3d186855	0.037208874
180	0xbe01053a	-0.1259965
181	0x3e010e0b	0.12603013
182	0xbdcdbd11	-0.10045827
183	0x3cc26497	0.023729606
184	0x3dba3735	0.09092561
185	0xbd18cb13	-0.03730304
186	0x3d3a04ea	0.045414843
187	0x3d7f3b2b	0.062312286
188	0x3c9f27e2	0.019428197
189	0xbd16ab05	-0.03678419
190	0x3d686fbd	0.056747187
191	0xbdea7bab	-0.11449369
192	0x3d7d5b0e	0.061854415
193	0xbda1dccc	-0.07903442
194	0x3d967c5e	0.0734794
195	0x3d876cbe	0.06612538
196	0xbd182205	-0.03714182
197	0x3db48b0e	0.08815585
198	0xbc684dde	-0.014178721
199	0xbe106edf	-0.14104794
200	0x3ddc364f	0.10752546
201	0x3cb21461	0.021738233
202	0xbdd02fbc	-0.101653546
203	0x3d946bd1	0.07247127
204	0x3dc9f3c2	0.09860946
205	0xbc5e5c53	-0.0135718165
206	0xbd9051d6	-0.07046859
207	0xbd51f96a	-0.05126325
208	0xbc67c288	-0.014145501
209	0x3daae988	0.08345324
210	0xbba897cd	-0.005145049
211	0x3da8ebcf	0.08248102
212	0xbd84474b	-0.064589106
213	0xbdd43c8f	-0.10363113
214	0xbdd84f03	-0.10561945
215	0x3d828fe4	0.06375101
216	0xbdb88d39	-0.09011311
217	0x3dac9954	0.084276825
218	0xbb528cc7	-0.0032127367
219	0xbd371977	-0.04470202
220	0xbd3cc559	-0.046086643
221	0x3dda1e59	0.106503196
222	0x3d7f61f0	0.06234926
223	0xbc491365	-0.01227269
224	0xbd6ccae0	-0.057810664
225	0xbc05ef97	-0.008174798
226	0xbdce705f	-0.10080027
227	0xbdb8ba1e	-0.09019874
228	0xbd9a471c	-0.07533094
229	0x3cffee91	0.031241687
230	0xbc231356	-0.0099533405
231	0xbd8d51bf	-0.069003575
232	0xbda9430c	-0.08264741
233	0x3d7077a5	0.058707852
234	0x3d351315	0.04420765
235	0xbd77619f	-0.060395833
236	0xbd57df76	-0.052703343
237	0x3d1280d5	0.035767395
238	0x3de00123	0.10937717
239	0x3dd8ce13	0.105861805
240	0x3de00289	0.109379835
241	0xbd610868	-0.054939657
242	0x3d59680f	0.053077754
243	0xbcb32f85	-0.021873245
244	0xbb6fee74	-0.0036610635
245	0x3d54c147	0.051942136
246	0xbd5af3ed	-0.053455282
247	0x3cf0a094	0.029373445
248	0x3dc48f58	0.09597653
249	0xbcca0197	-0.024658961
250	0x3d0b73bf	0.03404593
251	0xbe1eb5f2	-0.15499094
252	0xbe055f12	-0.13024548
253	0xbcaf78fc	-0.021419995
254	0x3dc86fcf	0.09786951
255	0xbc01e73e	-0.007928668

lstm.bias_ih_l0 f4 [128]
0	0x3d50f202	0.051012047
1	0x3e064d93	0.1311553
2	0xbe096e80	-0.13421059
3	0x3dbe6428	0.09296447
4	0x3e052b1a	0.13004723
5	0xbccaf8b9	-0.024776803
6	0x3c7d205b	0.015449609
7	0x3e12a439	0.14320458
8	0xbd223507	-0.039601352
9	0xbdd13207	-0.1021462
10	0x3d0fc48e	0.03509956
11	0xbdbb67ee	-0.091506824
12	0x3d42fd7b	0.04760502
13	0xbd325bed	-0.0435447
14	0x3e085036	0.13311848
15	0xbb71d384	-0.0036899755
16	0xbcdae060	-0.026718318
17	0x3d584454	0.052799538
18	0x3e3c3afb	0.18381874
19	0xbcd7878a	-0.026309747
20	0x3c6d8f3d	0.014499483
21	0x3dc4c818	0.09608477
22	0x3d9e1ca5	0.07720307
23	0x3e0c8bbd	0.13725181
24	0xbded8647	-0.11597877
25	0x3d81c04b	0.06335505
26	0x3d970c5f	0.073754065
27	0x3e2d94bf	0.16951273
28	0x3dd51ca7	0.104058556
29	0x3e14ef9b	0.14544527
30	0x3dc33ff6	0.09533684
31	0x3da089c5	0.078387775
32	0x3da3f28e	0.08005248
33	0xbd6bff31	-0.057616416
34	0x3db0c75d	0.086317755
35	0xbda14e79	-0.078762956
36	0x3cb32f17	0.02187304
37	0xbdb980be	-0.09057759
38	0xbd361a51	-0.04445869
39	0x3d646646	0.055761598
40	0x3dc36aad	0.09541831
41	0x3d11b818	0.035575956
42	0x3cfa5212	0.030556712
43	0x3d6e2b80	0.058146954
44	0x3de736e1	0.11289764
45	0x3e3b9853	0.18319826
46	0x3e3d1ce9	0.1846806
47	0x3d2b385b	0.04180179
48	0x3e03533e	0.12824723
49	0x3d31194e	0.043237023
50	0xbc1e8939	-0.009676271
51	0xbd910af4	-0.07082167
52	0x3d549d4d	0.051907826
53	0x3dc7ab33	0.097494505
54	0x3e3afb0c	0.1825983
55	0x3ddc22a7	0.10748797
56	0x3da078d9	0.0783555
57	0xbd70451d	-0.05865966
58	0x3e400bc6	0.18754491
59	0x3df7acfb	0.1209354
60	0x3e4f78c0	0.20260906
61	0x3e032e82	0.1281071
62	0xbd80d4a6	-0.062905595
63	0x3d065965	0.032800097
64	0xbd6f9baf	-0.05849808
65	0xbe006916	-0.12540087
66	0xbcc8d0e0	-0.024513662
67	0x3d9c664b	0.07636698
68	0x3e27267b	0.16323273
69	0xbdb3447f	-0.08753299
70	0x3da2f124	0.0795615
71	0xbda91b1d	-0.082571246
72	0xbda8366a	-0.08213504
73	0x3ce8c591	0.02841452
74	0xbe3f6ee3	-0.18694644
75	0x3df934a3	0.12168243
76	0xbdab13fa	-0.083534196
77	0xbd59c3ce	-0.05316525
78	0x3e37a887	0.17935382
79	0x3db40e71	0.08791817
80	0x3e1802f2	0.14844874
81	0x3d59ab1b	0.053141695
82	0xbdf67aac	-0.120351166
83	0xbe13d937	-0.1443833
84	0xbe060078	-0.13086116
85	0xbdb0a1f7	-0.08624642
86	0xbe32a8ad	-0.17447157
87	0x3da20e87	0.07912927
88	0xbda54de1	-0.08071495
89	0xbe1f4efe	-0.15557477
90	0xbe092c70	-0.13395858
91	0xbd3453c3	-0.044025194
92	0xbdf3c33b	-0.11902472
93	0x3e661478	0.22468746
94	0xbde996cb	-0.114057146
95	0x3de0a66b	0.10969242
96	0x3e659f48	0.22424042
97	0x3e109967	0.14121018
98	0x3d190dc9	0.037366662
99	0x3d9988c1	0.07496787
100	0x3e7aaa24	0.24478966
101	0xbd55ce88	-0.052198917
102	0xbc81799a	-0.015805054
103	0x3de125ca	0.10993536
104	0x3ddbeb4f	0.10738241
105	0x3cee02cb	0.029054066
106	0x3e1b4c78	0.1516589
107	0x3d8a015f	0.06738543
108	0xbd8102cc	-0.062993616
109	0xbdb50cfb	-0.088403665
110	0x3c9a4df5	0.018836001
111	0x3d232046	0.0398257
112	0xbd8e6230	-0.069523215
113	0x3ddf0014	0.10888687
114	0x3d496d46	0.049176477
115	0xbd989a5c	-0.07451317
116	0x3d897cd3	0.067132615
117	0x3d7a3621	0.061086778
118	0xbdb0a839	-0.08625836
119	0xbd882d28	-0.06649238
120	0xbd1ba8e3	-0.03800286
121	0x3d115711	0.035483424
122	0x3e036379	0.12830915
123	0x3d711171	0.058854524
124	0xbd58a6ba	-0.052893378
125	0xbdd349e1	-0.10316826
126	0xbdfa4d8e	-0.12221824
127	0x3e330bee	0.1748502

lstm.bias_hh_l0 f4 [128]
0	0x3de722f7	0.11285966
1	0x3df7fd4a	0.12108858
2	0xbd9dc399	-0.07703323
3	0x3d2a6b00	0.04160595
4	0x3d91b2e4	0.07114199
5	0x3bf12172	0.0073587233
6	0xbcebce9c	-0.028785042
7	0x3d6676db	0.056265693
8	0x3d95af37	0.0730881
9	0xbd2cb1a0	-0.042161584
10	0x3e1ca266	0.15296325
11	0xbcb81d75	-0.022474984
12	0x3d9cb928	0.07652503
13	0x3e1b2531	0.15150906
14	0x3de1055d	0.10987351
15	0x3e448a98	0.19193494
16	0x3c70cf4c	0.014697861
17	0x3aa61ea1	0.0012673923
18	0x3d67fc21	0.056636933
19	0x3d9bc61d	0.076061465
20	0x3da0a510	0.07843983
21	0x3e0e6769	0.13906635
22	0x3d679874	0.056541875
23	0x3d2932ca	0.0413082
24	0x3d86000a	0.06542976
25	0xbdc59709	-0.09647948
26	0xbc327df6	-0.010894289
27	0x3d9c8155	0.076418556
28	0x3e30dcfa	0.17271796
29	0x3e66f39e	0.2255387
30	0xbdaa7587	-0.08323198
31	0x3d8e461e	0.069469675
32	0x3e59573f	0.21224688
33	0x3e350112	0.1767619
34	0x3dc5decc	0.09661636
35	0xbced1eaa	-0.028945286
36	0x3e03ff38	0.12890327
37	0x3bb03f81	0.005378664
38	0xbd5f2031	-0.05447406
39	0x3c93f38c	0.018060468
40	0xbd95e889	-0.07319743
41	0x3d2fc21e	0.042909734
42	0x3c09c336	0.008408358
43	0x3e0d0848	0.1377269
44	0x3db86df1	0.09005345
45	0x3e5b9af6	0.21445832
46	0xbd031d4e	-0.03201037
47	0x3e2b8ed4	0.16753703
48	0x3e2ac002	0.16674808
49	0x3dac2cb9	0.08406968
50	0x3e52d259	0.20588054
51	0x3e3f579a	0.18685761
52	0xbd4b5e02	-0.0496502
53	0xbd3e66bf	-0.046484705
54	0xbaff2722	-0.0019466619
55	0x3e3bae34	0.18328172
56	0xbdaf0b03	-0.08547022
57	0x3d51a511	0.05118281
58	0x3e2d76a8	0.16939795
59	0x3c3e246f	0.011605366
60	0x3d700967	0.058602717
61	0x3c111051	0.008853988
62	0xbcd73cdd	-0.026274139
63	0x3e2596f3	0.16170864
64	0x3b9e2dab	0.0048272214
65	0x3e27d0d9	0.16388263
66	0xbdefb5ea	-0.11704619
67	0x3e2bce42	0.167779
68	0xbcc03b0b	-0.023465654
69	0x3e234f69	0.15948261
70	0x3e1e6f36	0.15472111
71	0x3dfb4086	0.12268166
72	0x3d51cd2e	0.051221065
73	0xbdcaf60a	-0.099102095
74	0x3d8ea026	0.0696414
75	0xbe0a0d96	-0.13481745
76	0xbdbb3d75	-0.091425814
77	0xbe1884da	-0.14894429
78	0x3e07e9bd	0.13272758
79	0x3e0a85aa	0.13527551
80	0x3e095e8a	0.1341497
81	0xbd610e2b	-0.054945152
82	0xbd036650	-0.032079995
83	0x3e10a8a8	0.14126837
84	0xbd39a59d	-0.045323957
85	0xbdf65e62	-0.12029721
86	0x3cf85e7b	0.03031849
87	0xbe412992	-0.18863514
88	0x3d852b79	0.065024324
89	0x3d2afca9	0.04174486
90	0xbc28ab1a	-0.0102947
91	0x3cde0835	0.027103523
92	0x3d0c8483	0.03430606
93	0x3e38fc51	0.18065001
94	0x3dd18e3a	0.10232206
95	0x3e4e460b	0.20143907
96	0x3dbee3f8	0.09320825
97	0x3b0d7e7d	0.0021590285
98	0xbd094468	-0.033512503
99	0x3e0c38be	0.1369352
100	0x3daf4c44	0.085594684
101	0xbd845b61	-0.06462742
102	0x3bdb138d	0.0066856802
103	0x3d95da4b	0.07317027
104	0xbdbbdc06	-0.091728255
105	0xbd500fb0	-0.05079621
106	0x3e05a4f4	0.13051206
107	0x3dd11df4	0.10210791
108	0x3e267383	0.16255002
109	0x3bbbcf54	0.0057315025
110	0x3dba6362	0.09100987
111	0xbdbaa597	-0.09113615
112	0xbdb77c1d	-0.089592196
113	0x3e0f96d3	0.14022379
114	0x3d17bd5d	0.037045825
115	0x3d4e965a	0.050436355
116	0xbb2a78bd	-0.0026011907
117	0x3db70361	0.08936191
118	0xbdc8caf9	-0.09804339
119	0xbbb0bab6	-0.0053933514
120	0xbdb00bcd	-0.08596001
121	0x3db08da9	0.086207695
122	0x3e3bf7d1	0.18356253
123	0x3d2ae689	0.04172376
124	0x3e645989	0.2229978
125	0x3e559d6a	0.2086083
126	0xbb873a32	-0.0041268105
127	0x3d7c660f	0.06162077

gcn1.bias f4 [32]
0	0x3d345865	0.044029612
1	0xbc87c009	-0.016571062
2	0xbcf77cc1	-0.030210854
3	0x3cd5fd4f	0.026121764
4	0x3be6dddc	0.0070454907
5	0x3d1d4aed	0.038401533
6	0x3d566292	0.052340098
7	0x3d58e7f2	0.052955575
8	0x3d68805e	0.056763045
9	0x3ceba15e	0.02876347
10	0xbcbe6526	-0.02324159
11	0x3caf7c83	0.021421677
12	0x3c9c1a05	0.019055376
13	0xbcdb0988	-0.026737943
14	0x3c44df7c	0.012016173
15	0x3d1f86f0	0.038947046
16	0x3d02d98d	0.031945754
17	0xbcdee410	-0.027208358
18	0x3d6149a9	0.05500189
19	0x3d430764	0.04761447
20	0xbcedd193	-0.029030597
21	0x3d2e9344	0.042620912
22	0xbcd76ea8	-0.026297882
23	0xbc81374b	-0.015773436
24	0x3d4e22c8	0.05032614
25	0x3d536b24	0.05161585
26	0x3d4f8742	0.0506661
27	0xbce87b80	-0.028379202
28	0x3c236ebb	0.009975131
29	0x3d856f74	0.065153986
30	0x00000000	0.0
31	0xbca8da98	-0.020612046

gcn1.lin.weight f4 [32, 32]
0	0xbd325616	-0.04353913
1	0x3e413d7e	0.18871114
2	0xbcec15e9	-0.028819041
3	0xbde14635	-0.10999719
4	0x3e48856a	0.19582143
5	0x3de3ced6	0.11123435
6	0xbd278d59	-0.040906284
7	0x3e7df5aa	0.24800745
8	0x3e2acd37	0.16679846
9	0xbda51b12	-0.08061804
10	0xbe8cd391	-0.27505162
11	0x3e188330	0.14893794
12	0x3e04dbca	0.12974468
13	0x3e53566f	0.2063844
14	0xbcefd468	-0.029276088
15	0xbdeac172	-0.11462678
16	0x3d011d81	0.031522278
17	0xbe764678	-0.24050319
18	0x3e6849e2	0.22684434
19	0xbe5afb45	-0.21384914
20	0x3dc2671b	0.09492322
21	0xbe15bbdd	-0.14622445
22	0xbe35e9b2	-0.17764929
23	0xbe6510c5	-0.22369678
24	0x3e16476d	0.14675684
25	0xbe878e87	-0.26475927
26	0xbe923832	-0.285585
27	0xbe10a4a4	-0.14125305
28	0xbe50973a	-0.20370188
29	0x3cc3872a	0.023868162
30	0x3e3fa71f	0.18716095
31	0x3ea3a948	0.3196509
32	0x3c868543	0.016420966
33	0xbe53e9c4	-0.20694643
34	0x3cfd9718	0.030955836
35	0x3d6153df	0.055011626
36	0xbe400f12	-0.18755749
37	0x3dc91196	0.098178074
38	0x3a73647a	0.00092846865
39	0xbcbd10da	-0.023079325
40	0x3e277ace	0.1635544
41	0xbd90aeb8	-0.07064575
42	0x3e21e6d3	0.15810709
43	0x3e14886f	0.1450517
44	0x3e1b9afe	0.15195844
45	0x3aa80f81	0.0012822003
46	0xbe2f9451	-0.17146422
47	0x3df66928	0.12031776
48	0x3d4b387f	0.049614426
49	0xbdbce452	-0.09223236
50	0xbd0296ae	-0.03188198
51	0xbdf3ac49	-0.11898095
52	0xbe223a72	-0.15842608
53	0xbe74e065	-0.23913725
54	0x3e548715	0.20754655
55	0x3dc2f538	0.09519428
56	0x3dfc79e6	0.12327938
57	0x3def6998	0.11690062
58	0x3c7a12b2	0.015263246
59	0x3e64c556	0.22340903
60	0xbe600fb4	-0.2188099
61	0xbe14c684	-0.14528853
62	0xbdeb092c	-0.11476359
63	0x3d0ba26e	0.034090452
64	0x3d15b7e0	0.03655231
65	0xbd613bd5	-0.0549887
66	0xbe10c030	-0.14135814
67	0xbe148fba	-0.14507952
68	0x3d19ebec	0.03757851
69	0xbde0147a	-0.109414056
70	0xbe62c6a6	-0.22146091
71	0x3d919645	0.0710874
72	0x3d6ecb99	0.058299635
73	0x3e2908bf	0.16507243
74	0xbda820dd	-0.08209393
75	0x3e63adfe	0.22234342
76	0x3c926729	0.017871456
77	0xbd19f121	-0.037583474
78	0xbe646e5d	-0.22307725
79	0xbe04d4ac	-0.12971753
80	0x3e421dc8	0.18956673
81	0xbe7b29c6	-0.24527654
82	0xbe34a559	-0.176412
83	0xbe0cb0f2	-0.13739374
84	0x3d4f1be3	0.050563704
85	0x3e1f0497	0.15529095
86	0xbe06bffe	-0.13159177
87	0x3e50b7ef	0.20382665
88	0xbd8923be	-0.066962704
89	0xbd9a456d	-0.07532773
90	0xbe6e472e	-0.2326934
91	0xbd20916a	-0.039201178
92	0x3e06cba5	0.13163622
93	0xbde372bc	-0.11105868
94	0xbccbd294	-0.024880685
95	0x3df504ac	0.11963782
96	0x3da092e8	0.0784052
97	0xbe619595	-0.22029717
98	0x3b650af2	0.003494915
99	0x3e0868d8	0.13321245
100	0x3cce7594	0.02520255
101	0x3e43651d	0.1908154
102	0x3cd8dc60	0.02647227
103	0xbe70ae1a	-0.23503914
104	0xbd3f2188	-0.046662837
105	0xbe2893b6	-0.16462597
106	0x3dd3b6a8	0.10337573
107	0xbce4fe10	-0.027953178
108	0xbe206e0b	-0.15666978
109	0xbcbb0cac	-0.02283319
110	0x3de46308	0.11151701
111	0x3e7c1547	0.24617492
112	0xbe1c39ad	-0.15256377
113	0xbd2127ce	-0.0393446
114	0x3e632e3e	0.22185609
115	0xbc3d85b0	-0.011567518
116	0xbd4d64b8	-0.05014488
117	0x3d64b303	0.05583478
118	0xbc551027	-0.013004339
119	0xbe0476ba	-0.12935916
120	0x3d19f54d	0.037587453
121	0xbd3b080e	-0.04566198
122	0xbe30f279	-0.17279996
123	0x3da2a8db	0.07942363
124	0x3e1727c2	0.1476126
125	0x3d78915b	0.060685497
126	0x3e1f7fe5	0.15576132
127	0xbe5277d3	-0.20553522
128	0x3cf323bc	0.029680125
129	0xbc12cc48	-0.008959837
130	0x3b28a8ac	0.0025735302
131	0x3c86d7ca	0.016460318
132	0xbbc69b0c	-0.0060609635
133	0xbd7e58b9	-0.06209633
134	0x3e1180d5	0.14209302
135	0x3e5d5190	0.21613145
136	0xbe5133cb	-0.20429914
137	0x3d290a8b	0.04126982
138	0xbda776dc	-0.081769675
139	0xbd45c008	-0.04827884
140	0x3bb93352	0.00565187
141	0xbe8e1a9c	-0.27754676
142	0x3e8cfaad	0.27535
143	0x3e1b50ec	0.15167588
144	0xbe775e63	-0.241571
145	0xbe4070fa	-0.18793097
146	0xbe66ab3d	-0.2252626
147	0xbe3a20e7	-0.18176614
148	0x3e534e14	0.20635253
149	0x3e53e56c	0.20692986
150	0xbd8737d9	-0.06602449
151	0xbdfbd009	-0.12295539
152	0x3e3f54df	0.1868472
153	0x3d50c86a	0.05097238
154	0x3e03bfb0	0.12866092
155	0xbe4fe08c	-0.20300502
156	0x3e59457c	0.21217912
157	0xbe38045a	-0.1797041
158	0x3e5954d0	0.2122376
159	0x3cfb085f	0.03064364
160	0x3e29aea6	0.1657053
161	0xbdc34bf4	-0.09535971
162	0xbe513e3b	-0.20433895
163	0x3bf37e10	0.0074307993
164	0x3e66cf34	0.22539979
165	0x3e596b9e	0.21232459
166	0x3e830f4f	0.25597617
167	0x3d9ab374	0.07553759
168	0x3e6cb462	0.23115686
169	0x3e575128	0.21027052
170	0xbcdf3f81	-0.02725196
171	0xbe62ab76	-0.2213572
172	0xbe33cf5d	-0.17559572
173	0x3de87a34	0.113514334
174	0x3e696de2	0.22795823
175	0xbd9bc64a	-0.0760618
176	0x3e8a350b	0.26993594
177	0xbe8b3eca	-0.27196342
178	0x3d8c3342	0.06845714
179	0x3d512c6f	0.051067766
180	0x3e7757d7	0.24154602
181	0xbe963df0	-0.2934413
182	0xbe40523c	-0.1878137
183	0xbe82976a	-0.25506145
184	0xbdb128a4	-0.0865033
185	0x3e6a7ec8	0.22899926
186	0xbea8ee85	-0.32994476
187	0xbd5702b4	-0.052492812
188	0xbdbf114b	-0.0932947
189	0x3e8bcb23	0.2730342
190	0x3dbf99da	0.09355517
191	0x3e21518a	0.15753761
192	0x3db54845	0.08851675
193	0x3dfe61c5	0.12420992
194	0xba0d94b6	-0.0005400883
195	0x3db271d8	0.0871312
196	0xbe3852a2	-0.18000272
197	0x3dab7894	0.08372608
198	0x3d2ec55c	0.042668685
199	0xbe750e78	-0.239313
200	0xbde20dc9	-0.110377856
201	0x3bac3a90	0.0052560046
202	0x3e58722c	0.21137303
203	0xbe713013	-0.23553495
204	0xbdb8a9b1	-0.09016741
205	0xbe954be3	-0.2915946
206	0x3e182ac8	0.1486007
207	0x3e82b26e	0.25526756
208	0x3d4f4c73	0.050610017
209	0x3d6d9369	0.05800191
210	0xbd84e35a	-0.06488676
211	0xbe40cac2	-0.18827346
212	0x3ca37c49	0.019956725
213	0xbd857c54	-0.06517854
214	0x3e6de2ae	0.23231003
215	0x3dff0251	0.12451614
216	0xbdebd3e5	-0.11515025
217	0xbe4d7853	-0.20065431
218	0x3e7305ad	0.23732634
219	0xbe143d95	-0.14476617
220	0xbe943f1a	-0.28954393
221	0xbe1e7e52	-0.15477875
222	0x3e93277e	0.28741068
223	0x3e47e072	0.19519213
224	0xbe82f1a6	-0.25574988
225	0x3e1ddabc	0.15415472
226	0x3e6d73a7	0.23188649
227	0xbe0cf266	-0.13764343
228	0x3eac9f3f	0.33715245
229	0x3e2558a5	0.16147096
230	0xbd7d8058	-0.061889976
231	0xbdc2ea6b	-0.09517368
232	0x3e122252	0.14270905
233	0x3e33c5d0	0.17555928
234	0xbdf56cc6	-0.119836375
235	0x3dd7e7aa	0.10542233
236	0xbe716917	-0.23575245
237	0xbe9f945d	-0.3116788
238	0x3dd15e76	0.10223095
239	0x3ea1bae7	0.31587908
240	0xbe5254ac	-0.20540112
241	0x3d4356dd	0.04769026
242	0xbeaf0a4a	-0.34187537
243	0xbc5e08a7	-0.013551868
244	0x3d7906df	0.06079757
245	0x3d502d89	0.050824676
246	0xbe98ca33	-0.29841766
247	0x3e5f45f2	0.21804026
248	0xbc590171	-0.013244973
249	0xbeae4f17	-0.34044716
250	0x3c599d70	0.013282165
251	0x3e5ea9c3	0.21744446
252	0x3dde9039	0.10867352
253	0x3eab7a81	0.334919
254	0xbe11082e	-0.14163277
255	0x3d973440	0.07383013

gcn2.bias f4 [32]
0	0x3d825bb5	0.06365148
1	0x3c1af992	0.009458916
2	0x3d819736	0.06327669
3	0x3d0774e0	0.033070445
4	0x3d64f837	0.05590078
5	0x3cec6758	0.028857872
6	0x3d38fb50	0.045161545
7	0x3d076ab9	0.033060763
8	0x3d49fa86	0.049311183
9	0x3d2e23d5	0.04251464
10	0x3d419e71	0.047270242
11	0xbcbc341e	-0.02297407
12	0x3d2a761e	0.04161655
13	0x3ca863fa	0.020555485
14	0x3d3e19e7	0.04641142
15	0x3d7f7e01	0.062376026
16	0xbaa2d818	-0.001242402
17	0x3b6a4c07	0.0035750882
18	0xbd2bacee	-0.041912965
19	0xbd2a03bb	-0.041507464
20	0xbc94ffb8	-0.018188342
21	0xbd0c5e90	-0.03426987
22	0xbc35bc9f	-0.011092334
23	0x3d0e1510	0.034688056
24	0xbca6a8ba	-0.020344127
25	0xbbb97cb8	-0.0056606196
26	0xbcf7491b	-0.030186227
27	0x3d3425df	0.04398143
28	0x00000000	0.0
29	0xbcdf2091	-0.027237209
30	0x3d4276b3	0.04747648
31	0xbc7f9b87	-0.015601045

gcn2.lin.weight f4 [32, 32]
0	0x3e99a5f2	0.3000942
1	0x3e40d697	0.1883186
2	0x3e547cfe	0.20750806
3	0x3cf7f888	0.030269876
4	0x3dcb1fec	0.09918198
5	0xbe07aac0	-0.1324873
6	0x3c0f5e36	0.008750489
7	0x3d845854	0.0646216
8	0x3e391bd3	0.1807702
9	0x3df73f0b	0.12072571
10	0xbc15e8dc	-0.009149756
11	0xbda08e86	-0.07839684
12	0xbdf58c10	-0.119896054
13	0xbce1cab4	-0.027562477
14	0x3d00e3d0	0.03146726
15	0x3db6ed8b	0.089320265
16	0xbe0c608e	-0.13708708
17	0x3e61aec2	0.22039321
18	0x3e8a4e0d	0.27012673
19	0x3dc52eb2	0.09628047
20	0xbe16336c	-0.14668053
21	0x3de358af	0.111008994
22	0xbc5860be	-0.013206659
23	0x3d9ca4eb	0.07648643
24	0xba01c81a	-0.0004950777
25	0xbde90880	-0.11378574
26	0x3c923524	0.017847605
27	0xbd52bb68	-0.051448256
28	0xbe1753dd	-0.14778085
29	0x3ea80c05	0.3282167
30	0x3d567c1e	0.05236446
31	0x3d634575	0.05548616
32	0x3df02dc0	0.11727476
33	0x3d0a501a	0.033767797
34	0xbe1add5c	-0.15123504
35	0xbe75327d	-0.23945041
36	0x3c56fb8d	0.013121498
37	0x3e598307	0.21241389
38	0xbd1ef074	-0.038803533
39	0xbe5e437b	-0.2170543
40	0xbe99d563	-0.30045614
41	0x3e52e59e	0.20595405
42	0xbd3bfb44	-0.045893922
43	0x3e47c088	0.19507039
44	0x3e5c5233	0.21515732
45	0x3e67acb0	0.22624469
46	0x3ea637c9	0.32464436
47	0x3eb8167e	0.3595466
48	0x3e9d06d8	0.30669284
49	0x3e653212	0.22382382
50	0x3d401fe4	0.046905413
51	0x3e55850d	0.20851536
52	0xbbb2df6b	-0.0054587624
53	0xbccaeace	-0.024770167
54	0x3dd72722	0.10505511
55	0x3bc5cb6f	0.006036214
56	0xbe3c1f76	-0.18371376
57	0xbe352772	-0.17690828
58	0xbe672ce9	-0.22575726
59	0xbd244efb	-0.040114384
60	0x3eb4c27c	0.3530463
61	0x3d6e02c9	0.058108125
62	0xbe5e343f	-0.21699618
63	0x3d0242ee	0.03180211
64	0xbe643fe4	-0.22289997
65	0x3c9b8a3f	0.01898682
66	0xbe43cbfa	-0.1912078
67	0x3ca71e22	0.02040011
68	0x3e1894d2	0.1490052
69	0x3e98e076	0.2985875
70	0x3d363d82	0.044492252
71	0x3e76d002	0.24102786
72	0x3c4b50e4	0.012409423
73	0x3e2933cb	0.16523664
74	0x3c1f7cd2	0.009734349
75	0x3dfb91ce	0.122836694
76	0x3d47a4d5	0.04874118
77	0xbe1d93be	-0.1538839
78	0xbc85bda0	-0.016325772
79	0xbe5dbaf8	-0.21653354
80	0xbe5c1f9d	-0.21496435
81	0xbe19bae7	-0.15012704
82	0x3d98eb3a	0.07466741
83	0xbe477ed2	-0.19481972
84	0xbe5ea169	-0.2174126
85	0xbdd2512f	-0.10269391
86	0x3e47a94e	0.19498178
87	0xbd966b89	-0.073447295
88	0x3e92264f	0.28544852
89	0x3e846f12	0.2586599
90	0xbdbeb93a	-0.09312673
91	0x3e312385	0.17298706
92	0x3d082ddb	0.033246856
93	0xbd4fe9ea	-0.050760187
94	0x38a70a2a	7.965074e-05
95	0x3e2b7403	0.16743474
96	0x3e67ceef	0.22637533
97	0xbdb74ce8	-0.089502156
98	0xbe1ce9e1	-0.15323593
99	0xbd061980	-0.032739162
100	0x3e1bd1e6	0.15216789
101	0xbdd8d850	-0.10588133
102	0x3e79a712	0.24380139
103	0x3ea3c61b	0.3198708
104	0xbd8bed7a	-0.068324044
105	0xbdf47c73	-0.11937799
106	0xbe0ca0de	-0.13733241
107	0x3dccfdc6	0.10009341
108	0xbca22ecc	-0.019797705
109	0xbde7e092	-0.1132213
110	0xbcdca9c0	-0.026936412
111	0xbe223cec	-0.15843552
112	0xbe63acaa	-0.22233835
113	0x3d440068	0.04785195
114	0x3e211eb7	0.15734373
115	0x3d341ca1	0.043972615
116	0x3e0a240a	0.1349031
117	0x3e2e214e	0.17004892
118	0xbe4d01c6	-0.20020208
119	0xbd9685c9	-0.07349736
120	0xbc7e92e9	-0.015537956
121	0x3d9138ed	0.07090936
122	0x3e3896db	0.18026297
123	0x3b839201	0.0040152078
124	0x3dd301f7	0.10303109
125	0x3d731307	0.059344318
126	0xbdbbf1b4	-0.091769606
127	0xbe02257c	-0.12709612
128	0x3e7f8f50	0.24957013
129	0x3e2b2c8e	0.16716215
130	0x3e0bb1e1	0.13642074
131	0xbe71b527	-0.2360426
132	0x3e3d5929	0.18491043
133	0x3e9f933e	0.31167024
134	0x3e6db9a4	0.23215348
135	0x3e7423e5	0.23841818
136	0x3b35e5a2	0.002775528
137	0xbe2508a5	-0.16116579
138	0x39991f84	0.00029205915
139	0xbe84fc24	-0.25973618
140	0xbe573c82	-0.21019176
141	0xbdd3302a	-0.10311921
142	0xbdab5699	-0.083661266
143	0x3d8ac9cd	0.06776772
144	0xbe186b56	-0.14884695
145	0xbde9adb5	-0.11410085
146	0x3b9f4b1c	0.0048612487
147	0x3e77c4ce	0.24196169
148	0xbdcf7849	-0.101303644
149	0x3e8c64ba	0.27420598
150	0xbc8ee18c	-0.017441534
151	0xbd2a96a2	-0.04164756
152	0x3e4ca362	0.199842
153	0x3de7babc	0.11314914
154	0x3e43127b	0.19050018
155	0x3d1290e8	0.035782725
156	0xbe88ae92	-0.26695687
157	0x3ead9f44	0.33910573
158	0x3ddeee06	0.10885243
159	0xbd730709	-0.05933288
160	0xbe4048ab	-0.1877772
161	0xba8caf28	-0.0010733353
162	0xbe20518e	-0.1565611
163	0xbc805fc2	-0.01567066
164	0x3d3e2b16	0.04642781
165	0x3dd95660	0.10612178
166	0xbe750e06	-0.23931131
167	0x3d303e82	0.043028362
168	0xbd05877f	-0.032599922
169	0x3e20cad9	0.1570238
170	0xbc4ee8ca	-0.012628743
171	0xbdf76419	-0.12079639
172	0xbe4e8791	-0.20168902
173	0x3d986365	0.07440833
174	0xbe9cbf95	-0.30614915
175	0x3e16812b	0.14697711
176	0xbe806c0c	-0.25082433
177	0xba7f8d22	-0.00097485085
178	0xbda63f0a	-0.081174925
179	0x3dc5f54c	0.09665927
180	0x3d86b355	0.065771736
181	0x3e7ef955	0.248998
182	0xbc9ea438	-0.019365415
183	0x3b979489	0.004625861
184	0x3e29530f	0.1653559
185	0x3e7e1285	0.24811752
186	0x3d82d35d	0.063879706
187	0xbc26c15a	-0.010177935
188	0x3e316c06	0.17326364
189	0x3d4cfc54	0.050045326
190	0x3cebbdc9	0.02877702
191	0xbe042b86	-0.12907228
192	0xbd74c620	-0.05975926
193	0xbe32ff51	-0.17480208
194	0xbddd8d3b	-0.10817953
195	0xbdfe8a68	-0.12428743
196	0xbe0f5caa	-0.14000192
197	0xbdc2e041	-0.09515429
198	0xbdcc6735	-0.09980623
199	0x3d163125	0.03666796
200	0xbe79c13d	-0.24390121
201	0xbdefcc23	-0.11708858
202	0x3cea99b3	0.028637743
203	0x3e9b679d	0.30352488
204	0x3dacf015	0.084442295
205	0x3b01e29b	0.0019818905
206	0xbe38c69e	-0.18044516
207	0x3df7cfa2	0.1210015
208	0x3e7b4b3e	0.24540421
209	0xbd0237a0	-0.03179133
210	0x3c6c2e91	0.014415399
211	0xbd8683c9	-0.06568105
212	0xbe111824	-0.14169365
213	0x3d817b3c	0.06322333
214	0x3cfe5c4c	0.03104987
215	0x3dce7f38	0.10082859
216	0x3def36d1	0.11680377
217	0x3e52d527	0.20589124
218	0x3ddb844b	0.10718592
219	0x3d90857d	0.07056711
220	0xbb1d4f39	-0.002400352
221	0xbe7ccfec	-0.24688691
222	0x3e6f4283	0.23365216
223	0xbcd7a402	-0.026323322
224	0xbdf95343	-0.12174084
225	0xbe13d9c8	-0.14438546
226	0xbaab6350	-0.0013075862
227	0xbe5fea38	-0.21866691
228	0xbd080287	-0.033205535
229	0x3ca3d02e	0.019996729
230	0x3e53fe94	0.20702583
231	0x3e382276	0.17981896
232	0x3abf1f1f	0.0014581418
233	0x3df2c96a	0.11854823
234	0xbbd69764	-0.006548809
235	0xbe0f912a	-0.1402022
236	0xbd8cfafc	-0.06883809
237	0xbdf528ab	-0.119706474
238	0x3e2bd882	0.1678181
239	0x3e3ed14a	0.18634525
240	0xbddfb5ae	-0.109233245
241	0x3cc6f0e3	0.024284786
242	0x3e82d96b	0.25556502
243	0xbe6eaeb4	-0.23308831
244	0xbd608209	-0.05481151
245	0x3e70d43c	0.23518461
246	0x3d5f7ab5	0.054560382
247	0x3cc33ff0	0.023834199
248	0x3c95b853	0.01827637
249	0x3e835590	0.25651217
250	0x3e17f31f	0.14838837
251	0x3cf1c6a0	0.029513657
252	0xbe194ca0	-0.14970636
253	0xbe2311e9	-0.15924801
254	0xba1e6e70	-0.0006043678
255	0xbd9e4ff0	-0.077300906

fc1.weight f4 [16, 32]
0	0x3c345b1a	0.011008048
1	0xbceae0a7	-0.028671576
2	0x3c61391c	0.013746526
3	0xbc25d3be	-0.010121284
4	0x3dfee0ea	0.12445243
5	0xbd90863c	-0.07056853
6	0x3abbe645	0.0014335593
7	0xbd443109	-0.047898326
8	0xbcc5036b	-0.024049481
9	0xbcf10e1d	-0.029425675
10	0xbca1c2a7	-0.019746138
11	0x3a255fba	0.0006308515
12	0x3d5dbf5e	0.05413758
13	0xbd0a93a7	-0.03383222
14	0x3c8e783f	0.017391322
15	0xbdd7c54f	-0.105356805
16	0xbc2d2760	-0.01056847
17	0xbc94aed3	-0.018149769
18	0x39eb6f8f	0.0004490581
19	0xbcecd965	-0.028912256
20	0x3a6dba99	0.0009068638
21	0x3dc42173	0.095766924
22	0xbd083d0d	-0.033261348
23	0x3dc2c241	0.09509707
24	0xbd81352b	-0.06308969
25	0x3b8b385d	0.0042486624
26	0x3d28aff2	0.04118342
27	0xbdbe5d60	-0.092951536
28	0xbd2f31f3	-0.042772245
29	0xbd22e996	-0.039773546
30	0x3d8b4ac3	0.06801369
31	0x3a2f0e74	0.0006677874
32	0xbe72145a	-0.23640576
33	0x3e254917	0.16141163
34	0xbe3e272f	-0.18569635
35	0xbe065441	-0.13118078
36	0xbe5957e0	-0.21224928
37	0xbd18090e	-0.03711801
38	0x3da69691	0.08134187
39	0x3d1c96aa	0.038229622
40	0xbdc72df6	-0.09725563
41	0xbe4999e3	-0.1968761
42	0x3c475cb7	0.012168101
43	0xbde5479f	-0.11195301
44	0xbce53224	-0.02797801
45	0x3e024546	0.12721738
46	0x3e0f66b9	0.1400403
47	0x3e3ef893	0.18649511
48	0x3d80be26	0.06286268
49	0x3dd33e00	0.1031456
50	0x3d5e31d8	0.054246753
51	0x3e377907	0.17917262
52	0x3cbbb9d9	0.022915768
53	0xbdf274a3	-0.11838653
54	0x3d67744d	0.056507397
55	0xbaac5d62	-0.0013150389
56	0x3c869084	0.016426332
57	0x3de8619d	0.11346743
58	0x3c842cab	0.01613458
59	0x3dcda9cb	0.10042151
60	0xbb2ab1e2	-0.0026045968
61	0xbe17732f	-0.14790033
62	0x3e1b64cb	0.15175168
63	0x3dc7d7c8	0.09757954
64	0xbd839ced	-0.064264156
65	0x3d9bf965	0.076159276
66	0xbd9bc09f	-0.07605099
67	0x3d536452	0.051609345
68	0x3dc744ab	0.09729894
69	0x3abcd608	0.0014407048
70	0x3dacd608	0.08439261
71	0x3d4c4b3b	0.049876433
72	0x3d6a24ec	0.057164118
73	0x3c8fc3cc	0.017549418
74	0xbda6728f	-0.08127319
75	0xbd7c35d4	-0.061574772
76	0x3dc99a64	0.09843901
77	0xbd8b3021	-0.06796289
78	0xbd905869	-0.07048113
79	0x3d098d82	0.033582218
80	0xba9b0e3a	-0.0011829801
81	0x3de8430e	0.11340915
82	0x3d21e29f	0.039522763
83	0xbc822778	-0.01588796
84	0x3cf346db	0.029696872
85	0x3dd8bb99	0.105826564
86	0xbb80c6ea	-0.0039299624
87	0x3e04d8ec	0.12973374
88	0x3cc52aad	0.024068201
89	0xbcd9b8d4	-0.02657739
90	0xbdd41b37	-0.10356753
91	0x3e271180	0.1631527
92	0x3dbf2f6c	0.09335217
93	0x3d2b9f2a	0.041899838
94	0x3d74bf19	0.059752557
95	0x3d2387f3	0.039924573
96	0xbbba6f24	-0.0056895185
97	0x3ceaba64	0.028653331
98	0x3e2f3cf4	0.17113096
99	0x3c54e3be	0.012993751
100	0x3db63211	0.08896268
101	0xbdacf0cb	-0.08444365
102	0x3d88700a	0.06661995
103	0xbaf37e6e	-0.0018577108
104	0xbd4614d1	-0.048359696
105	0x3dd6f8fa	0.10496707
106	0x3dd8a420	0.10578179
107	0xbd9759a1	-0.07390142
108	0x3c855e19	0.01628022
109	0x3d922c7c	0.07137391
110	0xbdcbd63b	-0.099529706
111	0xbdbd5956	-0.09245555
112	0x3d815b4c	0.063162416
113	0xbd90913a	-0.0705895
114	0xbdbe70ff	-0.09298896
115	0xbe3e11fe	-0.18561551
116	0x3b906109	0.0044060987
117	0xbda68fd6	-0.08132903
118	0x3ce4b57f	0.027918575
119	0x3d8984da	0.067147925
120	0xbd70dc85	-0.058804054
121	0xbd9c4679	-0.07630629
122	0x3ceb3f25	0.028716633
123	0x3d98e3e2	0.0746534
124	0x3de6c0dc	0.11267254
125	0x3e0c7799	0.13717498
126	0xbe043af2	-0.12913111
127	0x3d0f4112	0.034974165
128	0xbd567e44	-0.05236651
129	0x3e04948c	0.12947291
130	0xbde9d8ec	-0.11418328
131	0xbd148e77	-0.036268678
132	0x3de356df	0.11100554
133	0x3dbdcd54	0.09267679
134	0x3ddc960b	0.10770806
135	0x3d87b119	0.066255756
136	0xbd109d31	-0.03530616
137	0x3da0a3c1	0.078437336
138	0x3b9deb1b	0.0048192865
139	0xbd2a2494	-0.04153879
140	0xbcec4801	-0.028842928
141	0xbde3cbb3	-0.11122837
142	0x3c13f413	0.00903036
143	0x3e42dbad	0.19029112
144	0x3de52c33	0.11190071
145	0x3c8f5731	0.01749763
146	0x3cccc797	0.024997516
147	0xbd4627d7	-0.048377838
148	0xbd794b84	-0.060863033
149	0xbbf2069f	-0.007386043
150	0xbb2a8512	-0.0026019257
151	0x3d4b4c19	0.04963312
152	0xbc7ceb77	-0.015436999
153	0x3e05cb48	0.13065827
154	0xbdabeec2	-0.08395149
155	0xbd4deac5	-0.05027272
156	0x3dbff701	0.09373284
157	0x3c9beaa0	0.019032776
158	0xbdfbf885	-0.12303261
159	0xbd6847d6	-0.056709133
160	0xbd732d00	-0.059369087
161	0x3e1e0760	0.15432501
162	0xbddebc9c	-0.10875818
163	0x3d381b0a	0.04494766
164	0xbd521e43	-0.05129839
165	0xbdbafc94	-0.09130207
166	0x39fc0a25	0.00048072744
167	0x3b7a8099	0.0038223623
168	0x3a3387f6	0.0006848568
169	0xbddd38d9	-0.108018585
170	0xbd894054	-0.06701723
171	0xbd83db97	-0.06438368
172	0x3c6faf21	0.014629156
173	0x3e024be1	0.12724258
174	0xbdac6d7f	-0.08419322
175	0xbd3ebfeb	-0.046569746
176	0x3d4bb3be	0.049731962
177	0x3dcc90dc	0.09988567
178	0x3d590b94	0.052989557
179	0x3daa6070	0.08319175
180	0xbbf09bb0	-0.007342778
181	0xbcdb43a5	-0.026765654
182	0xbd03cf1e	-0.032179944
183	0xbe0341b0	-0.12818027
184	0x3d6aec55	0.05735429
185	0xbba3999a	-0.004992676
186	0xbc41ae35	-0.011821319
187	0x3cc423cb	0.023942849
188	0xbd2fb18a	-0.042893924
189	0xbdad729d	-0.084691264
190	0xbd1be026	-0.03805556
191	0x3b2cd594	0.002637242
192	0x3e2f78c4	0.17135912
193	0xbd6f0912	-0.05835826
194	0x3c01678e	0.0078982245
195	0x3cdccb4d	0.02695241
196	0x3e277a84	0.1635533
197	0x3e2578e0	0.16159391
198	0xbda5d548	-0.08097321
199	0x3e6a7b30	0.22898555
200	0xbc1c2926	-0.009531295
201	0x3e315285	0.17316635
202	0x3e05fd0e	0.13084814
203	0x3dcc20cd	0.09967194
204	0x3e0f67b0	0.14004397
205	0x3dd9af14	0.106290966
206	0x3c6c541e	0.014424352
207	0x3c708cdd	0.014682022
208	0x3aa4bc3d	0.0012568306
209	0xbe068212	-0.13135555
210	0x3d389c0c	0.045070693
211	0xbe399d13	-0.18126325
212	0x3d00d3f6	0.03145214
213	0xbdd291c8	-0.10281712
214	0x3d2ca992	0.042153902
215	0xbe115fc4	-0.14196688
216	0xbdc0d8f0	-0.094163775
217	0x3d34074a	0.043952264
218	0xbdcdacbc	-0.10042712
219	0x3e52f57e	0.2060146
220	0xbd94dbb4	-0.072684675
221	0xbc0caf58	-0.008586727
222	0x3e2d88ad	0.16946669
223	0xbc317c33	-0.010832834
224	0x3cc303fe	0.023805615
225	0x3ce382bc	0.0277723
226	0x3d9b426f	0.075810306
227	0xbd44808c	-0.047974154
228	0x3d6b9bb1	0.057521526
229	0x3e2ffeef	0.17187093
230	0xbe1b8662	-0.15187982
231	0x3bd268fd	0.006421207
232	0xbdb984d1	-0.09058536
233	0x3ddeb991	0.10875238
234	0x3e2bca96	0.16776499
235	0xbbe68486	-0.007034841
236	0xbd02a1a6	-0.03189244
237	0x3db64558	0.08899945
238	0xbe2ab38f	-0.16670059
239	0xbdd445ae	-0.10364853
240	0xbda6771e	-0.081281886
241	0x3dab375e	0.0836017
242	0x3d78ab3b	0.060710173
243	0x3daec004	0.08532718
244	0x3c90053c	0.017580621
245	0x3dd62870	0.104569316
246	0xbcafe193	-0.021469867
247	0xbe22e368	-0.15907061
248	0xbd443898	-0.047905535
249	0xbe30087a	-0.17190734
250	0x3c769089	0.015049108
251	0x3d30c97f	0.04316091
252	0xbcb1779a	-0.021663476
253	0x3e10dfb0	0.1414783
254	0x3dabb025	0.08383206
255	0x3d208053	0.03918488

fc1.bias f4 [16]
0	0xbdeb2489	-0.11481578
1	0x3d731f1b	0.059355836
2	0x3c43bcf7	0.011946908
3	0x3be022df	0.0068400945
4	0xbe051a2e	-0.12998268
5	0xbd2d9ef1	-0.042387906
6	0x3daa265d	0.083080985
7	0x3dd36c95	0.10323445
8	0x3c7d1fd7	0.015449486
9	0xbd910741	-0.07081462
10	0xbdcaaceb	-0.09896263
11	0xbd893cc8	-0.06701046
12	0xbd36117f	-0.04445028
13	0x3dc716dd	0.09721158
14	0xbd7f8f3c	-0.06239246
15	0x3c894611	0.016757043

fc2.weight f4 [6, 16]
0	0x3d084cca	0.033276357
1	0x3e763c43	0.24046426
2	0x3d73fc3c	0.05956672
3	0x3d78709e	0.060654275
4	0x3e0606e9	0.13088574
5	0x3dbdc2d5	0.09265677
6	0xbda3e782	-0.08003141
7	0x3d22d314	0.03975208
8	0x3e48f43f	0.19624422
9	0x3e78775d	0.24264283
10	0x3e5a4b12	0.213177
11	0x3c32caa2	0.010912569
12	0xbe1da643	-0.15395455
13	0x3e3ae25a	0.18250409
14	0xbdfa264d	-0.122143365
15	0x3e851211	0.25990346
16	0xbddf047c	-0.10889527
17	0x3d36b693	0.04460771
18	0xbd74101a	-0.05958567
19	0x3cd9e0c7	0.02659644
20	0xbc92a350	-0.01790014
21	0xbc2dea92	-0.010615008
22	0xbe41a5ce	-0.18910906
23	0x3dc163cd	0.094428636
24	0x3e03000b	0.12792985
25	0xbe0e85b6	-0.13918194
26	0xbe2fee2e	-0.17180702
27	0xbdd9b004	-0.106292754
28	0xbcc8578f	-0.024455814
29	0x3e17c035	0.14819415
30	0x3ceccd4a	0.028906483
31	0x3df9d793	0.12199321
32	0x3da54fbb	0.08071848
33	0xbdf4d6a7	-0.11955004
34	0x3e0feb78	0.14054668
35	0xbd8722d6	-0.06598441
36	0x3d8a146e	0.06742178
37	0xbd20d71a	-0.039267637
38	0x3e0760a3	0.13220458
39	0xbc548271	-0.012970553
40	0xbd573a38	-0.052545756
41	0x3c07fbeb	0.008299808
42	0xbdc96013	-0.09832778
43	0xbd345051	-0.04402191
44	0x3e151d94	0.14562064
45	0x3e0f1281	0.13971902
46	0x3dca83c7	0.09888416
47	0xbdc453bb	-0.09586283
48	0x3dc1c3da	0.09461184
49	0x3dfca893	0.123368405
50	0xbd62368b	-0.055227797
51	0x3d9656a2	0.07340743
52	0x3c890caa	0.016729672
53	0x3d89a9f0	0.06721866
54	0x3d0d3f70	0.034484327
55	0xbe002a26	-0.12516078
56	0x3e1849b0	0.1487186
57	0x3dca8a3a	0.09889646
58	0xbd8a1958	-0.06743115
59	0xbdf0a1b8	-0.117495954
60	0xbe34419c	-0.17603153
61	0x3e4d7d7a	0.20067397
62	0x3de7301b	0.11288472
63	0xbd848612	-0.064708844
64	0x3c5cb6e9	0.013471344
65	0xbdbf691d	-0.09346221
66	0x3d998b47	0.07497268
67	0xbdaaae71	-0.08334053
68	0xbdd83700	-0.105573654
69	0x3e30f195	0.17279656
70	0xbe4c8a7c	-0.19974703
71	0xbe52bd2a	-0.20579973
72	0xbe2b923d	-0.16755004
73	0x3daab037	0.083343916
74	0xbd0bf7c4	-0.034171835
75	0xbab602b6	-0.0013886306
76	0xbdc6d484	-0.09708503
77	0x3e0f1e95	0.1397651
78	0x3dba328a	0.09091671
79	0xbbeb441c	-0.00717975
80	0xbd559fd6	-0.052154385
81	0x3de45591	0.11149133
82	0x3d1acdd4	0.03779395
83	0xbe5ee031	-0.2176521
84	0xbc88869a	-0.016665746
85	0x3d4cafbd	0.049972285
86	0xbdb6e731	-0.08930815
87	0xbe55cf87	-0.20879947
88	0x3e042e81	0.12908365
89	0x3d64296d	0.05570357
90	0x3e574783	0.21023373
91	0xbd4bf97a	-0.049798466
92	0x3e25155a	0.16121426
93	0xbda1b033	-0.078949355
94	0xbe688e7e	-0.22710606
95	0x3e853da8	0.26023602

fc2.bias f4 [6]
0	0xbe0287b5	-0.1274708
1	0x3c871330	0.016488642
2	0xbdd18d2d	-0.10232005
3	0xbdba3a1d	-0.090931155
4	0x3e292666	0.16518554
5	0x3e01cce0	0.1267581
