outputs/models/model_janela90d.pth (torch, 115215 bytes, 11 tensors)

lstm.weight_ih_l0 f4 [256, 1]
-0.052270904 0.1556626 0.19062005 -0.031776104 0.2219451 -0.0015951551 0.12955171 0.1056618
-0.01849695 -0.033580214 0.017766828 0.11175351 -0.6137076 0.08034532 -0.014939412 -0.050809264
0.3230931 -0.043517727 0.24040087 0.30414382 0.11919221 0.03725336 0.26375198 0.102595866
0.42056817 -0.105638206 -0.04098421 -0.119038776 0.016837316 0.6521145 -0.025632128 0.0721683
0.04913405 0.19987883 -0.013626423 0.2971008 0.14904752 -0.012411638 0.09165282 0.14252408
0.23982336 0.21526088 0.16637667 0.13994627 0.010519573 -0.05496977 0.159967 0.063284904
-0.18918763 0.17793585 0.39195785 -0.062209774 -0.055900324 0.17488055 -0.06722772 0.045405902
0.32203162 0.38553452 0.12206676 0.102168344 0.1960719 0.20554276 0.2242028 0.11301214
-0.06314437 0.080669194 0.016841143 -0.033644423 -0.017155945 0.0021918267 0.09700608 0.020556346
-0.0961826 -0.04100205 0.10667355 0.02766952 -0.002907887 0.085494176 0.11136833 -0.040243417
0.024713635 -0.091373354 -0.077694535 -0.060548812 -0.12159939 -0.01909031 0.0077943206 -0.06113471
-0.093864545 -0.05655861 -0.0037685335 0.036307544 -0.0702907 0.014528662 -0.098287836 0.08018342
-0.09982899 0.10819574 0.09070793 0.021041676 0.018461809 -0.092824146 -0.04751134 -0.07763231
-0.08149926 -0.058315083 0.11702095 -0.108921126 -0.039422393 0.026955351 -0.043049425 -0.029975161
-0.08895397 -0.0690766 0.118284866 -0.08102842 -0.09747863 0.08595599 0.06555772 0.08192372
0.09653792 -0.067986175 -0.038757205 0.08139403 0.025820479 0.06474559 -0.019795313 0.12064566
-0.12127662 0.13005902 0.14920765 0.17087598 0.10526856 0.055402994 -0.0783734 -0.106461495
-0.15717405 0.065242805 -0.14005603 -0.15335806 0.21991587 0.16298398 0.12338885 -0.07717482
-0.11665889 0.120429106 0.16626246 -0.06872899 0.11599462 -0.08117138 0.17056388 0.15871845
0.18986873 -0.07339497 -0.07558767 -0.12987119 -0.1293321 0.11270283 0.08557239 -0.108503826
-0.10849428 -0.06309213 -0.00073613145 0.13597682 0.12552342 0.078970864 0.12858821 -0.13510002
0.1575763 0.15332973 0.14491265 0.14532946 0.1236143 0.114190154 -0.16639435 -0.11976424
0.12222597 0.08149071 0.19655322 0.10229732 0.1518739 0.111359805 0.12160607 0.15951882
-0.073614605 -0.17490116 -0.092435814 0.08391707 -0.08942407 0.14685327 0.14203408 0.12515263
-0.09231273 0.19820264 0.23634379 -0.11102875 0.33930874 -0.010492631 -0.003208032 0.13623875
0.08017598 0.06355383 0.10928659 0.118768744 -0.6107184 -0.008926637 0.033652876 0.061568324
0.35878628 0.00094220054 0.21833391 0.30036557 0.2611649 -0.0030583458 0.21726282 0.060820073
0.48807707 0.014868081 0.0114808455 -0.09960125 -0.08351927 0.5174937 0.15592778 -0.00023534661
0.14684409 0.07369552 -0.14652318 0.17964429 0.19586414 0.038544204 0.126712 0.08507458
0.14413634 0.19869466 0.121472314 0.0019393486 -0.087114125 0.08564022 0.10862468 -0.09935833
-0.1051803 0.1642667 0.37111562 0.007965839 0.08343133 0.13798872 -0.012819808 0.1139863
0.3126957 0.53379285 0.13844265 0.17650063 0.20372698 0.23423141 0.1839515 0.17189668
00000000: 041a 56bd 0466 1f3e e731 433e a927 02bd
00000010: 9445 633e 8614 d1ba 34a9 043e 3765 d83d
00000020: ea86 97bc 688b 09bd bd8b 913c 06df e43d
00000030: f11b 1dbf 168c a43d 6fc4 74bc 601d 50bd
00000040: 756c a53e a53f 32bd a52b 763e bdb8 9b3e
00000050: 0c1b f43d fb96 183d 800a 873e c81d d23d
00000060: b654 d73e d858 d8bd 0fdf 27bd 9aca f3bd
00000070: 69ee 893c faf0 263f 78fa d1bc f9cc 933d
00000080: c940 493d 09ad 4c3e 5c41 5fbc 991d 983e
00000090: ea9f 183e 2f5a 4bbc 79b4 bb3d d5f1 113e
000000a0: 4194 753e 596d 5c3e a55e 2a3e 134e 0f3e
000000b0: 4a5a 2c3c fb27 61bd 64ce 233e 849b 813d
000000c0: 67ba 41be d134 363e b3ae c83e adcf 7ebd
000000d0: bdf7 64bd e313 333e b0ae 89bd 8afb 393d
000000e0: 54e1 a43e c864 c53e 23fe f93d a33d d13d
000000f0: 12c7 483e cd79 523e 6b95 653e e972 e73d
00000100: d651 81bd e435 a53d 70f6 893c bcce 09bd
00000110: a08a 8cbc c0a4 0f3b 20ab c63d c865 a83c
00000120: 62fb c4bd c4f1 27bd aa77 da3d 30ab e23c
00000130: 4092 3ebb 9217 af3d 1415 e43d 48d6 24bd
00000140: 4074 ca3c f421 bbbd 501e 9fbd 0802 78bd
00000150: 1a09 f9bd 4863 9cbc 8067 ff3b 6468 7abd
00000160: 0e3c c0bd 00aa 67bd 80f9 76bb 38b7 143d
00000170: 92f4 8fbd a009 6e3c 224b c9bd 3437 a43d
00000180: 2473 ccbd ba95 dd3d 14c5 b93d 985f ac3c
00000190: 383d 973c 961a bebd 409b 42bd b0fd 9ebd
000001a0: 16e9 a6bd ccdb 6ebd aea8 ef3d 0a12 dfbd
000001b0: 6079 21bd 78d1 dc3c 9854 30bd 788e f5bc
000001c0: 802d b6bd 0878 8dbd 563f f23d 3af2 a5bd
000001d0: e0a2 c7bd b209 b03d 2043 863d a0c7 a73d
000001e0: acb5 c53d 563c 8bbd e0bf 1ebd eab1 a63d
000001f0: 7885 d33c 5699 843d c829 a2bc 1215 f73d
00000200: e05f f8bd 312e 053e e4c9 183e 1dfa 2e3e
00000210: 0b97 d73d 40ee 623d 3c82 a0bd 7c08 dabd
00000220: 3cf2 20be 059e 853d d96a 0fbe e509 1dbe
00000230: a031 613e 46e5 263e 4bb3 fc3d d50d 9ebd
00000240: dbea eebd 89a3 f63d b540 2a3e c9c1 8cbd
00000250: 968e ed3d 2e3d a6bd 4ca8 2e3e 1787 223e
00000260: f36c 423e 1a50 96bd b5cd 9abd f4fc 04be
00000270: a26f 04be bed0 e63d 9440 af3d 4137 debd
00000280: 4032 debd 7236 81bd f2f8 40ba 823d 0b3e
00000290: 3689 003e 7abb a13d a1ac 033e a957 0abe
000002a0: ae5b 213e 7802 1d3e fb63 143e 3fd1 143e
000002b0: 7e29 fd3d 87dc e93d 4863 2abe f446 f5bd
000002c0: 9c51 fa3d 9ae4 a63d 3f45 493e 4281 d13d
000002d0: d584 1b3e 9c10 e43d 9a0c f93d e758 233e
000002e0: 41c3 96bd 4a19 33be fd4e bdbd b6dc ab3d
000002f0: f823 b7bd b460 163e 6271 113e 0328 003e
00000300: 750e bdbd a2f5 4a3e 1b04 723e 0b63 e3bd
00000310: e0b9 ad3e 49e9 2bbc d93d 52bb 2c82 0b3e
00000320: 4e33 a43d 8328 823d a6d1 df3d 073d f33d
00000330: 0b58 1cbf 0741 12bc 99d7 093d 112f 7c3d
00000340: d6b2 b73e 02fe 763a ed92 5f3e 84c9 993e
00000350: 68b7 853e 876e 48bb 257a 5e3e 781e 793d
00000360: 3de5 f93e 4099 733c 281a 3c3c bdfb cbbd
00000370: 270c abbd 787a 043f 88ab 1f3e 60c7 76b9
00000380: 4c5e 163e aded 963d 2c0a 16be acf4 373e
00000390: 9c90 483e 87e0 1d3d cac0 013e 953b ae3d
000003a0: 7a98 133e 9d76 4b3e 7ac6 f83d be31 fe3a
000003b0: e468 b2bd 2464 af3d 9e76 de3d 617c cbbd
000003c0: c568 d7bd 8835 283e de02 be3e 2683 023c
000003d0: 0cde aa3d ea4c 0d3e 2c0a 52bc a671 e93d
000003e0: a719 a03e a6a6 083f e9c3 0d3e 95bc 343e
000003f0: ce9d 503e 5cda 6f3e c85d 3c3e af05 303e

lstm.weight_hh_l0 f4 [256, 64]
0.10248944 0.08938792 0.067285284 0.060723454 -0.046847954 0.024360761 0.1080693 0.10592835
-0.001282692 -0.015486345 0.004726216 -0.0073960274 0.013412297 0.036804184 0.08195567 -0.03137836
0.054039344 -0.08178711 0.016885146 0.043835655 0.019751966 -0.07679358 0.04036431 0.051583275
-0.017339334 0.092454255 0.077171445 0.0022678971 0.08929333 -0.04911022 0.09233521 -0.11855492
-0.09245907 0.1194057 0.02331908 -0.00966078 -0.00812453 0.047273517 -0.07546817 -0.07892406
0.085067555 -0.021829858 0.09210852 -0.07744552 0.08469312 0.04063645 -0.123319924 -0.06654191
-0.12105335 0.07606518 0.08353391 -0.117856115 0.100528255 0.091467455 -0.0064008236 0.122685865
-0.092452005 -0.015301064 -0.04349287 -0.087510586 0.025798604 -0.046609536 0.04394783 -0.12283416
-0.011616275 0.04294707 0.0907561 0.04374613 -0.02683489 0.08174607 -0.08712949 0.013250768
0.04948497 -0.079327926 0.083520666 -0.06554045 0.03918168 -0.082950026 -0.021150425 0.08330931
-0.08450119 -0.080160946 0.07105827 -0.008378342 -0.02619049 0.031818733 0.068025276 -0.07325041
0.110652834 0.056022182 -0.09510967 0.025867432 -0.0021603405 -0.04491651 -0.100565374 -0.0038897395
0.1011599 0.056290984 0.057722256 0.04717201 -0.013517588 0.11949685 -0.011301741 -0.030003473
0.10331698 -0.023725748 0.09049015 0.005842805 -0.046717227 -0.11866149 -0.044618085 0.08360368
0.09416352 0.08756782 0.05004944 0.09658392 -0.09749089 0.06770803 -0.088294104 0.050279543
0.051001966 -0.058302402 -0.10172787 0.10399057 0.081425086 0.1043634 -0.06348488 0.014681831
0.09699647 -0.027919099 0.033023655 0.052987024 0.06221056 -0.10628641 -0.023502141 0.014634877
-0.12152095 0.05832173 -0.07720299 0.06829332 -0.028092459 -0.0053447783 -0.010866836 0.08231163
0.07791223 -0.08469182 -0.11094771 -0.12215288 -0.003235206 0.058624253 -0.10582775 -0.06925018
0.05019912 -0.10020329 -0.00034114718 -0.008820623 -0.07761006 0.118908584 -0.044358984 -0.036304027
-0.008851215 0.015526339 -0.0125095695 0.08360726 -0.045383796 -0.051375046 0.12443222 -0.06650609
0.04710549 0.07999228 0.043031782 -0.11851071 0.042797804 0.009863839 -0.051760435 0.050472707
-0.03573951 -0.06300934 -0.115578905 0.12042515 -0.042106822 -0.07269171 -0.09339571 -0.062124908
0.011439726 0.01291883 -0.08144234 0.024973646 0.085515335 -0.012337178 -0.11185637 -0.007637486
0.07530643 0.0039235353 -0.053401306 -0.08581017 -0.07669571 -0.1140407 -0.054859415 -0.06976542
-0.07461958 0.030437604 -0.105458975 0.11533387 -0.062333062 -0.017070204 0.12362011 0.05121611
-0.08941966 0.09430726 0.10316971 0.063161254 0.09520845 0.07952747 -0.10095377 -0.0328691
-0.015355006 -0.08799556 -0.08133438 0.027538434 0.1038713 -0.030449063 -0.03401658 0.103148594
0.0315454 0.02544932 0.0064154863 -0.05267124 -0.09868726 0.111056045 0.07452908 -0.0020071715
-0.012036264 -0.0960291 -0.061207622 -0.029054016 -0.022915691 -0.08952187 0.046474203 0.01775229
-0.050767258 0.00076188147 -0.010091841 -0.010199681 -0.0959114 -0.06529252 -0.044558257 0.11440402
-0.018871307 -0.005101368 -0.023740962 0.086869106 -0.082824126 -0.059195682 -0.0869495 0.0668786
00000000: fce5 d13d 0411 b73d decc 893d 28b9 783d
00000010: a4e3 3fbd 3890 c73c 7053 dd3d f6f0 d83d
00000020: 0020 a8ba 70ba 7dbc 60de 9a3b 605a f2bb
00000030: 40bf 5b3c fcbf 163d 60d8 a73d 9886 00bd
00000040: 5c58 5d3d 0080 a7bd b852 8a3c 048d 333d
00000050: e0ce a13c f445 9dbd 0c55 253d fc48 533d
00000060: 380b 8ebc a858 bd3d 100c 9e3d 00a1 143b
00000070: 6cdf b63d cc27 49bd 3e1a bd3d eccc f2bd
00000080: 2e5b bdbd fa8a f43d a807 bf3c 4048 1ebc
00000090: c01c 05bc e0a1 413d 0e8f 9abd f0a2 a1bd
000000a0: e637 ae3d 88d4 b2bc 64a3 bc3d c29b 9ebd
000000b0: 9673 ad3d 6872 263d 288f fcbd 2047 88bd
000000c0: d2ea f7bd 10c8 9b3d d413 ab3d 8c5e f1bd
000000d0: c2e1 cd3d 4a53 bb3d 00be d1bb ba42 fb3d
000000e0: 7a57 bdbd 50b1 7abc 9425 32bd c038 b3bd
000000f0: 9857 d33c a4e9 3ebd a402 343d 7a90 fbbd
00000100: 3052 3ebc 44e9 2f3d 56de b93d 242f 333d
00000110: d8d4 dbbc 7c6a a73d f270 b2bd c019 593c
00000120: c0b0 4a3d ae76 a2bd e20c ab3d 123a 86bd
00000130: f87c 203d b4e1 a9bd a843 adbc 129e aa3d
00000140: f60e adbd 6c2b a4bd 0087 913d 5045 09bc
00000150: 708d d6bc 5c54 023d d650 8b3d 5004 96bd
00000160: f49d e23d 8477 653d dcc8 c2bd f0e7 d33c
00000170: 8094 0dbb 60fa 37bd 38f5 cdbd 00eb 7ebb
00000180: ec2c cf3d 6091 663d 2c6e 6c3d 7037 413d
00000190: e078 5dbc c4ba f43d f02a 39bc d8c9 f5bc
000001a0: da97 d33d 805c c2bc e652 b93d 0075 bf3b
000001b0: 905a 3fbd cc04 f3bd 74c1 36bd 6838 ab3d
000001c0: ced8 c03d c256 b33d a400 4d3d cacd c53d
000001d0: 4ea9 c7bd 82aa 8a3d 8ad3 b4bd ecf1 4d3d
000001e0: 70e7 503d 80ce 6ebd b456 d0bd 02f9 d43d
000001f0: 32c2 a63d 7abc d53d 5c04 82bd 108c 703c
00000200: 16a6 c63d 98b6 e4bc d043 073d ec08 593d
00000210: 80d0 7e3d b0ac d9bd 9087 c0bc 20c7 6f3c
00000220: fadf f8bd c4e2 6e3d 9a1c 9ebd 5edd 8b3d
00000230: 2822 e6bc 4023 afbb d00a 32bc 0093 a83d
00000240: 7290 9f3d e872 adbd 8e38 e3bd 4a2b fabd
00000250: c005 54bb fc1f 703d 38bc d8bd 0ad3 8dbd
00000260: 989d 4d3d 6237 cdbd 00dc b2b9 6084 10bc
00000270: 06f2 9ebd 5886 f33d c4b1 35bd 88b3 14bd
00000280: b004 11bc 3062 7e3c f0f4 4cbc 483a ab3d
00000290: 5ce4 39bd a46e 52bd 52d6 fe3d 5834 88bd
000002a0: b0f1 403d fed2 a33d 1842 303d beb5 f2bd
000002b0: c04c 2f3d f09b 213c c002 54bd 78bc 4e3d
000002c0: 9863 12bd 0a0b 81bd a2b4 ecbd 76a1 f63d
000002d0: 3478 2cbd 64df 94bd 4046 bfbd b076 7ebd
000002e0: b06d 3b3c 80a9 533c 3ecb a6bd 8895 cc3c
000002f0: aa22 af3d e021 4abc f414 e5bd e043 fabb
00000300: 423a 9a3d 0091 803b 54bb 5abd 3ebd afbd
00000310: a412 9dbd 2c8e e9bd 44b4 60bd 2ce1 8ebd
00000320: 26d2 98bd 4858 f93c e0fa d7bd 2a34 ec3d
00000330: f450 7fbd d0d6 8bbc 8a2c fd3d fcc7 513d
00000340: a821 b7bd 2a24 c13d a44a d33d b05a 813d
00000350: a6fc c23d 4cdf a23d dac0 cebd c0a1 06bd
00000360: 9093 7bbc 0437 b4bd a492 a6bd 4898 e13c
00000370: 7aba d43d 5070 f9bc f854 0bbd 923f d33d
00000380: c035 013d 187b d03c 0039 d23b ccbd 57bd
00000390: 8c1c cabd 5a71 e33d b4a2 983d c08a 03bb
000003a0: c033 45bc e8aa c4bd d8b4 7abd b002 eebc
000003b0: b0b9 bbbc 3e57 b7bd bc5b 3e3d 406d 913c
000003c0: 54f1 4fbd 00b9 473a 4058 25bc 901c 27bc
000003d0: 326d c4bd 16b8 85bd b882 36bd a84c ea3d
000003e0: 0098 9abc 6029 a7bb 687c c2bc 6ee8 b13d
000003f0: b29f a9bd 2c77 72bd 9412 b2bd a6f7 883d

lstm.bias_ih_l0 f4 [256]
0.11202111 0.11669162 0.042552516 0.22636868 0.04493361 0.0048076804 -0.0845715 0.07495068
0.021246724 0.022834655 -0.03831872 -0.06709397 0.15766227 0.20454346 -0.017942226 -0.07178564
0.09465814 0.04360499 0.0720843 0.06731966 -0.07313245 -0.027200403 0.15740825 0.14828533
0.06796973 0.03981298 0.037959803 0.15369467 0.00912394 0.085944645 0.12852731 -0.101751305
0.08815129 0.15858299 0.025008611 0.19875598 0.071800105 0.048061963 -0.042716816 0.11238413
0.1454864 0.002276502 0.12415128 -0.05235481 0.031782176 0.06978454 0.12834163 0.04291695
0.062376827 0.09365782 0.017593998 -0.02112727 0.12352129 0.15502045 0.073724695 -0.023188755
-0.0011032082 0.020587353 -0.0017542997 0.14828542 0.020285174 -0.0837862 -0.059718378 -0.045558784
0.021070823 -0.11195657 -0.04372838 -0.052376315 0.02658385 -0.09489617 0.10173705 -0.077334985
-0.029133707 0.09183557 -0.05152832 -0.069959745 0.07940328 0.10990822 -0.08497839 -0.041557282
0.008498877 -0.013407379 0.061921656 -0.112063825 0.0039153546 -0.059816316 -0.08294466 0.06523579
-0.10454431 0.07685897 -0.015411183 0.08638635 0.10422248 0.024396002 0.1123105 0.027053222
0.016857952 -0.078433916 0.051618174 -0.019183666 -0.012024239 0.033266157 0.103195205 -0.10554704
-0.020350829 0.045750305 -0.11365661 0.07512081 -0.050252587 0.039336413 0.03999172 0.11687085
-0.11147915 0.0029507875 0.0015046597 0.059596807 -0.061081037 0.08190961 -0.06904706 0.06405628
-0.096747145 0.05321738 -0.06647062 -0.028197035 -0.011035711 -0.04626791 0.12119773 0.05792345
-0.0019939821 -0.07175742 -0.09662672 0.034435965 -0.11062517 0.021237265 0.03281676 -0.07094687
-0.11223294 0.098454334 0.008397685 0.08703918 -0.025581704 0.06089488 -0.04153096 -0.0137640275
0.07267408 0.023185626 0.12961745 0.06382388 -0.030853176 0.01888501 0.09335437 0.013922071
-0.023444565 -0.011355627 -0.03375866 -0.100153744 0.14785644 -0.012995159 -0.12954162 6.070073e-05
-0.084370874 0.091635145 -0.044872485 -0.123829015 -0.05247322 -0.060555898 -0.017274937 -0.042331368
-0.049388796 -0.015444154 -0.053785678 0.102859184 -0.025045417 0.034651525 -0.112149164 -0.07264307
0.024495987 -0.061139405 -0.012690327 -0.053917132 0.12516494 0.05612657 0.09169881 -0.03163166
-0.11126826 0.02270387 -0.030308546 0.16851105 0.0782473 -0.10159463 0.012012413 0.033579297
0.117892474 0.100422315 0.03350967 0.0491858 0.13931446 -0.091301486 0.10882458 -0.018795427
-0.050656494 0.1351705 -0.05739065 0.047799677 0.26535207 0.088062614 0.100331634 0.08218095
0.12045767 0.1305129 0.038211532 0.12431541 -0.07360955 0.032422133 0.100104734 0.16890748
0.10356854 -0.054233264 -0.003455376 0.26037332 0.09506965 0.06163146 -0.041478265 -0.019077167
0.047251005 -0.037943803 -0.102092065 0.101394586 0.14965671 0.022570644 -0.06897111 -0.008765302
-0.011134224 0.041681226 0.055648133 0.1441885 0.17956823 0.06699934 0.1377058 0.068291984
0.08323176 0.042434342 -0.0012197135 0.13874924 0.0041856086 0.053456225 0.030440198 0.021482421
-0.06696945 0.06915676 0.09595928 0.056286737 -0.08844759 -0.02664191 0.08112924 -0.026522176
00000000: 536b e53d 04fc ee3d 8c4b 2e3d 31cd 673e
00000010: 4e0c 383d bf89 9d3b d333 adbd be7f 993d
00000020: 9c0d ae3c be0f bb3c 17f4 1cbd 9068 89bd
00000030: 3872 213e d773 513e 93fb 92bc 5a04 93bd
00000040: 20dc c13d 259b 323d efa0 933d e4de 893d
00000050: 77c6 95bd 61d3 debc a12f 213e 1cd8 173e
00000060: b733 8b3d ef12 233d bd7b 1b3d 2362 1d3e
00000070: 947c 153c bf03 b03d aa9c 033e fd62 d0bd
00000080: aa88 b43d 9463 223e dcde cc3c b086 4b3e
00000090: ef0b 933d 9fdc 443d d4f7 2ebd a729 e63d
000000a0: 63fa 143e 5e31 153b 0743 fe3d ff71 56bd
000000b0: 072e 023d 32eb 8e3d fd6b 033e afc9 2f3d
000000c0: d87e 7f3d accf bf3d 4a21 903c 1913 adbc
000000d0: bbf8 fc3d aebd 1e3e f9fc 963d 58f6 bdbc
000000e0: 8699 90ba cfa6 a83c 88f0 e5ba 22d8 173e
000000f0: 182d a63c 1998 abbd 429b 74bd d99b 3abd
00000100: b89c ac3c 7c49 e5bd 881c 33bd 8c88 56bd
00000110: 60c6 d93c ec58 c2bd 845b d03d ce61 9ebd
00000120: d0a9 eebc 4a14 bc3d 5c0f 53bd 0e47 8fbd
00000130: 309e a23d 9017 e13d 2609 aebd f837 2abd
00000140: e03e 0b3c a0aa 5bbc 90a1 7d3d b881 e5bd
00000150: 604c 803b f401 75bd e4de a9bd 589a 853d
00000160: 541b d6bd 3c68 9d3d 307f 7cbc 54eb b03d
00000170: 9872 d53d 20da c73c 0c03 e63d b89e dd3c
00000180: b019 8a3c f6a1 a0bd 946d 533d 1027 9dbc
00000190: 5001 45bc 1842 083d 0258 d33d 0c29 d8bd
000001a0: c8b6 a6bc ac64 3b3d ccc4 e8bd f0d8 993d
000001b0: a8d5 4dbd 381f 213d 5cce 233d fc59 ef3d
000001c0: 2e4f e4bd 0062 413b 0038 c53a c81b 743d
000001d0: 1c30 7abd 3ac0 a73d 8c68 8dbd f02f 833d
000001e0: 5e23 c6bd 78fa 593d c021 88bd 78fd e6bc
000001f0: 20cf 34bc 6c83 3dbd 8436 f83d 2441 6d3d
00000200: 78ad 02bb 8ef5 92bd 3be4 c5bd ba0c 0d3d
00000210: 738f e2bd c6f9 ad3c de6a 063d 984c 91bd
00000220: 62da e5bd 6da2 c93d 7296 093c 9941 b23d
00000230: b990 d1bc e96c 793d 5e1c 2abd 8482 61bc
00000240: 26d6 943d c8ef bd3c 70ba 043e 18b6 823d
00000250: cdbf fcbc bdb4 9a3c 9330 bf3d 6619 643c
00000260: d10e c0bc f40c 3abc 8546 0abd 681d cdbd
00000270: ae67 173e a6e9 54bc 8fa6 04be ea98 7e38
00000280: a3ca acbd 35ab bb3d 36cc 37bd 119a fdbd
00000290: 29ee 56bd 7609 78bd 2b84 8dbc a863 2dbd
000002a0: e84b 4abd 7a09 7dbc 5f4e 5cbd d6a7 d23d
000002b0: 0c2c cdbc c2ee 0d3d 76ae e5bd e4c5 94bd
000002c0: cfab c83c 506d 7abd 17eb 4fbc 36d8 5cbd
000002d0: 3d2b 003e f9e4 653d 96cc bb3d 3390 01bd
000002e0: 9de0 e3bd 77fd b93c a149 f8bc 298e 2c3e
000002f0: 1f40 a03d d810 d0bd b6cf 443c 728a 093d
00000300: 9c71 f13d 37aa cd3d 7041 093d 0d77 493d
00000310: 73a8 0e3e 46fc babd 6cdf de3d def8 99bc
00000320: 2f7d 4fbd 236a 0a3e 7512 6bbd 98c9 433d
00000330: 3adc 873e 2c5a b43d ac7a cd3d 7c4e a83d
00000340: 83b2 f63d 2ca5 053e b283 1c3d 1499 fe3d
00000350: 9bc0 96bd 12cd 043d b603 cd3d 15f6 2c3e
00000360: be1b d43d b323 5ebd 9773 62bb a74f 853e
00000370: e0b3 c23d 4571 7c3d 1de5 29bd b847 9cbc
00000380: 458a 413d f66a 1bbd a515 d1bd f7a7 cf3d
00000390: 9c3f 193e 12e6 b83c ba40 8dbd 579c 0fbc
000003a0: 526c 36bc efb9 2a3d 4cef 633d 26a6 133e
000003b0: bce0 373e f336 893d c002 0d3e abdc 8b3d
000003c0: 6a75 aa3d a2cf 2d3d cbde 9fba 4814 0e3e
000003d0: 6e27 893b eaf4 5a3d b95d f93c e7fb af3c
000003e0: 4727 89bd 0fa2 8d3d 4d86 c43d ec8c 663d
000003f0: 0324 b5bd 2340 dabc 1627 a63d 0945 d9bc

lstm.bias_hh_l0 f4 [256]
0.10461006 0.1365837 0.13739975 0.2690878 0.043803476 0.08062213 0.06903494 0.12870401
0.041201692 0.12843706 0.08833634 0.027444614 0.20894954 0.12021439 0.05910077 -0.09451933
0.11669998 -0.019739866 -0.07824329 0.10887253 0.13653824 0.081977956 0.046642993 0.028124876
0.12991272 0.065587424 0.107666664 0.1934881 0.0845271 -0.041907795 0.026036315 -0.07287694
0.0031360858 0.066783234 -0.06347144 0.012373701 -0.016640626 0.07317829 0.09005384 0.08940943
-0.038226195 -0.024621222 0.051963124 0.03358381 0.042627618 -0.015390192 -0.07226382 0.03282268
0.015539694 0.13790351 0.12044179 0.02893986 0.15090023 0.09058498 0.16380309 0.08824188
0.084111534 0.15381783 -0.02777529 0.09485754 -0.008299882 0.07503206 0.12906834 0.18224336
-0.112519294 -0.00216116 -0.04904042 -0.062432304 0.051506504 -0.10015567 0.006752193 -0.099420294
-0.122205466 0.076053575 0.07701303 -0.08902958 -0.101315394 -0.053396672 -0.122192204 -0.07694425
0.10373156 -0.03566262 -0.062021106 0.052763313 -0.09774631 -0.061088234 0.121417105 0.089250386
0.08234355 -0.028839678 0.07688324 0.09725298 0.08035062 -0.103080586 -0.018900633 0.018514305
0.05005102 -0.007770464 0.0030713528 0.019110754 0.022809803 0.102811426 0.11204384 -0.07870951
0.08347207 -0.10578036 -0.07717843 -0.013761684 0.10498983 0.07652339 -0.03362249 -0.018482164
0.11762667 -0.1049242 0.09937738 0.006321147 0.0050495565 0.07765955 0.10042216 0.07056153
0.06953238 -0.089821234 -0.08276495 -0.027545244 -0.09130204 0.10220811 0.09144403 -0.10606487
-0.07758121 0.05685621 0.042554457 0.15182184 -0.16731146 0.0871052 -0.10515166 0.025368594
-0.11336118 0.12928918 0.006246603 -0.037607767 0.0011702711 0.123540245 -0.038553976 0.06007856
-0.031164546 0.10273153 -0.047078084 -0.07953287 0.028824411 0.1371354 -0.11509212 0.08763333
-0.045941707 0.15353617 0.10529491 -0.08772148 0.0043254895 -0.100690484 -0.029575434 0.084821485
0.070269726 0.10545429 -0.12009835 -0.033860035 -0.18725453 -0.0446136 0.044198453 0.0059842025
-0.11677328 -0.20502053 0.08359708 0.075051114 0.13121228 0.08995716 -0.10315663 -0.15352851
-0.11162734 0.09911168 -0.17753488 0.07359333 0.10433166 -0.03444956 0.046281833 0.004635456
0.07246477 0.13385081 -0.070524156 -0.021463702 -0.038431942 0.002010212 -0.010659965 0.07873938
0.022467079 0.018321231 -0.05057361 0.16119087 0.06797995 -0.0267034 0.084264904 -0.008646978
-0.07265589 0.082013905 0.015642414 0.1141322 0.101561524 0.11139476 -0.08999711 -0.1131081
-0.08576711 -0.07650251 -0.023966048 0.1474088 0.030021654 0.14367148 -0.010231724 0.15450199
-0.06724842 0.13305748 -0.050247695 0.04210671 0.10187106 0.120507166 -0.008130533 -0.05937839
0.07644537 0.012462291 -0.0857188 0.14659019 0.024777517 0.110166036 0.037272874 0.14394507
0.018620694 -0.022110434 0.009791779 -0.03713514 0.11108348 0.13306423 0.12438502 0.055150967
0.068509296 0.14072873 0.046469748 -0.052864455 -0.04495193 0.100115374 -0.036315285 -0.055959716
-0.06492581 0.1093416 -0.030827582 -0.037322894 0.06810223 0.033916358 0.10220227 0.12344214
00000000: cd3d d63d 99dc 0b3e 85b2 0c3e e0c5 893e
00000010: 466b 333d 371d a53d 3162 8d3d fcca 033e
00000020: 1bc3 283d 0185 033e afe9 b43d 87d3 e03c
00000030: def6 553e f632 f63d a613 723d 5a93 c1bd
00000040: 6600 ef3d 80b5 a1bc 053e a0bd 90f8 de3d
00000050: aed0 0b3e 0fe4 a73d b90c 3f3d 2466 e63c
00000060: d707 053e b352 863d 5780 dc3d bf21 463e
00000070: 8b1c ad3d 82a7 2bbd 1c4a d53c 8140 95bd
00000080: ca86 4d3b a6c5 883d 50fd 81bd 10bb 4a3c
00000090: ec51 88bc 80de 953d 266e b83d 4b1c b73d
000000a0: 1293 1cbd 72b2 c9bc 49d7 543d 2d8f 093d
000000b0: 4c9a 2e3d 2527 7cbc 0eff 93bd 1371 063d
000000c0: 339a 7e3c 9436 0d3e 2faa f63d 4913 ed3c
000000d0: 9785 1a3e 9e84 b93d ffbb 273e 29b8 b43d
000000e0: ab42 ac3d 6c82 1d3e 0189 e3bc ac44 c23d
000000f0: 3afc 07bc 69aa 993d 7e2a 043e 019e 3a3e
00000100: 8470 e6bd 40a2 0dbb 9cde 48bd 04b9 7fbd
00000110: 7cf8 523d 6a1e cdbd 8041 dd3b de9c cbbd
00000120: dc46 fabd fac1 9b3d 02b9 9d3d 2455 b6bd
00000130: 727e cfbd 78b6 5abd e83f fabd f294 9dbd
00000140: 3671 d43d f812 12bd d809 7ebd 581e 583d
00000150: 382f c8bd a837 7abd 88a9 f83d e8c8 b63d
00000160: bca3 a83d 3041 ecbc f674 9d3d 922c c73d
00000170: de8e a43d ea1b d3bd 80d5 9abc 50ab 973c
00000180: 4c02 4d3d 609f febb c048 493b 288e 9c3c
00000190: a0db ba3c cc8e d23d 3e77 e53d 7432 a1bd
000001a0: 68f3 aa3d 60a3 d8bd ba0f 9ebd b078 61bc
000001b0: e804 d73d 4cb8 9c3d bcb7 09bd e867 97bc
000001c0: 40e6 f03d 80e2 d6bd 5e86 cb3d a021 cf3b
000001d0: c076 a53b f80b 9f3d 22aa cd3d 9082 903d
000001e0: fe66 8e3d 32f4 b7bd ac80 a9bd 90a6 e1bc
000001f0: 90fc babd 7c52 d13d 0247 bb3d 8a38 d9bd
00000200: e6e2 9ebd 0fe2 683d 954d 2e3d 2f77 1b3e
00000210: b253 2bbe 3664 b23d c159 d7bd ccd1 cf3c
00000220: e829 e8bd 6264 043e 4eb0 cc3b 9a0a 1abd
00000230: c863 993a ab02 fd3d c6ea 1dbd f014 763d
00000240: ca4c ffbc e964 d23d f3d4 40bd 21e2 a2bd
00000250: 2c21 ec3c 396d 0c3e 6bb5 ebbd 1a79 b33d
00000260: 5f2d 3cbd 9638 1d3e dca4 d73d 52a7 b3bd
00000270: d6bc 8d3b d036 cebd 2e48 f2bc e3b6 ad3d
00000280: 93e9 8f3d 6bf8 d73d 20f6 f5bd d2b0 0abd
00000290: a7bf 3fbe c0bc 36bd 7009 353d 2117 c43b
000002a0: d426 efbd e7f0 51be f234 ab3d 66b4 993d
000002b0: 835c 063e 763b b83d c943 d3bd 9436 1dbe
000002c0: e09c e4bd 11fb ca3d b4cb 35be 1ab8 963d
000002d0: d6ab d53d fb1a 0dbd 0592 3d3d 06e5 973b
000002e0: 6968 943d 3010 093e f86e 90bd a5d4 afbc
000002f0: d06a 1dbd c3bd 033b 22a7 2ebc 1d42 a13d
00000300: e10c b83c 6816 963c 4626 4fbd 380f 253e
00000310: 1239 8b3d 17c1 dabc 1493 ac3d 0eac 0dbc
00000320: 9ccc 94bd e8f6 a73d 8524 803c 25be e93d
00000330: 7dff cf3d f022 e43d 6850 b8bd 38a5 e7bd
00000340: aba6 afbd 59ad 9cbd 7254 c4bc 55f2 163e
00000350: f9ef f53c 9e1e 133e f6a2 27bc c535 1e3e
00000360: 8ab9 89bd 3840 083e 87d0 4dbd 1678 2c3d
00000370: c6a1 d03d 76cc f63d ed35 05bc c136 73bd
00000380: 648f 9c3d a32e 4c3c 578d afbd bd1b 163e
00000390: 38fa ca3c bb9e e13d 71ab 183d 5666 133e
000003a0: 6d8a 983c f120 b5bc b36d 203c 041b 18bd
000003b0: bc7f e33d fd41 083e 93bd fe3d fbe5 613d
000003c0: 9a4e 8c3d 311b 103e 1057 3e3d 6688 58bd
000003d0: 841f 38bd 4a09 cd3d 56bf 14bd 0436 65bd
000003e0: d3f7 84bd 7dee df3d 208a fcbc e4df 18bd
000003f0: 2f79 8b3d e1eb 0a3d 6c4f d13d 3ccf fc3d

gcn1.bias f4 [64]
0.038943663 0.075081065 -0.019923618 0.006128758 -0.02549282 -0.0151726 0.040083986 -0.020049594
0.03799736 0.0056465096 0.019080933 -0.027015157 0.007089513 -0.024298893 -0.024930838 -0.08953849
0.050999776 0.028446948 0.04720009 -0.04097464 -0.024804808 0.019936841 -0.010011851 0.019140689
0.0 0.029267875 -0.00990917 -0.01542389 0.01697604 -0.022175837 -0.11070933 0.015519569
-0.02967939 -0.006005233 0.016322624 0.026814498 0.019428547 0.008747307 0.020077186 0.0
0.05110924 0.0100044105 0.041509826 0.035331544 0.045726445 0.022734184 0.03447225 0.03233589
0.02112474 -0.027485656 0.00071300415 -0.08390915 0.040030383 -0.12440806 0.03269667 0.05958874
0.004469579 0.014525647 -0.08196424 -0.057792008 0.01653452 0.06483841 0.06401717 0.027591076
00000000: 6483 1f3d 1ac4 993d db36 a3bc c0d3 c83b
00000010: 52d6 d0bc 7f96 78bc 1b2f 243d 0c3f a4bc
00000020: 1fa3 1b3d 5b06 b93b 9e4f 9c3c e44e ddbc
00000030: 254f e83b 790e c7bc c23b ccbc f55f b7bd
00000040: 24e5 503d 9309 e93c e254 413d 06d5 27bd
00000050: 7433 cbbc 9652 a33c bf08 24bc efcc 9c3c
00000060: 0000 0000 2fc3 ef3c 125a 22bc 7cb4 7cbc
00000070: 5611 8b3c 1aaa b5bc 93bb e2bd ca45 7e3c
00000080: 3122 f3bc 8cc7 c4bb 06b7 853c 14aa db3c
00000090: 9e28 9f3c dd50 0f3c e978 a43c 0000 0000
000000a0: ec57 513d 8ae9 233c 3506 2a3d cfb7 103d
000000b0: a74b 3b3d 0a3d ba3c c632 0d3d a372 043d
000000c0: ca0d ad3c 9929 e1bc e6e8 3a3a 8fd8 abbd
000000d0: e6f6 233d a7c9 febd f2ec 053d 5313 743d
000000e0: 8c75 923b fbfc 6d3c dedc a7bd 50b7 6cbd
000000f0: 6773 873c 00ca 843d 6f1b 833d ae06 e23c

gcn1.lin.weight f4 [64, 64]
-0.019759495 -0.020033687 -0.13596393 -0.023288622 -0.07048867 0.156448 0.039217588 0.06521034
-0.18901792 -0.031977143 0.21916488 0.1839158 0.5711383 -0.10748114 0.08893832 -0.11374534
0.21028017 -0.062058024 -0.22192836 0.15993021 0.009132796 -0.054911915 -0.05904717 0.13742803
-0.35079455 0.10513946 -0.28237674 0.14652087 -0.1111768 -0.33451194 -0.01366414 -0.100941926
0.015109378 -0.23553751 -0.24186341 0.029828662 0.05199402 0.06319939 -0.17685665 0.14680547
-0.25118664 -0.23315372 -0.14934617 -0.018661186 0.18441932 0.0707609 0.010126613 -0.010097692
0.15474457 -0.17486212 -0.29842004 0.1636531 -0.09932884 0.0019203041 0.27862358 0.096855454
0.21303177 0.10095088 -0.20701325 -0.017834185 -0.033758305 -0.06233301 0.06968137 0.044500537
-0.28338403 0.2604751 0.019983483 0.3612037 0.013019833 -0.03402663 0.07772366 -0.006181317
-0.35566553 0.069481626 -0.010720004 -0.15281573 0.18614164 0.030157832 -0.15677477 0.0852829
0.09149205 0.105881095 0.19956176 -0.011472637 -0.0017392015 0.18942392 0.10351217 0.2122131
-0.13297558 0.18798077 -0.23498729 -0.28053743 -0.030460715 -0.09615694 0.13999945 0.00993457
-0.33729234 -0.22890046 -0.22749354 0.002651825 -0.17561795 0.14223617 0.036894318 -0.17022102
-0.1686001 0.20936997 0.051900387 0.2818292 0.1911381 -0.05473847 -0.23686063 -0.17031531
0.07322605 0.2338456 0.22502199 0.118209384 0.0037929232 0.23748298 -0.01389573 0.021827793
-0.012892686 -0.11314409 -0.057871968 0.3429341 -0.14602818 0.08728087 0.084310286 0.066736445
0.13771679 -0.23586905 0.008963103 0.17877279 0.1579861 -0.16443598 0.18588907 0.004427526
-0.15576413 -0.09893613 0.10435194 -0.17247549 -0.15228999 -0.055649444 0.010329885 -0.09269945
-0.06974453 0.013720301 0.14978607 0.025483929 0.08641282 0.028560335 -0.12177603 0.11710647
0.018653926 -0.1609055 -0.0659083 -0.11856225 0.03484564 0.035757102 -0.035411146 0.07662191
-0.16411126 -0.10966404 0.113258995 0.06451215 -0.1579942 -0.18647343 -0.13162129 -0.1887
-0.029758645 0.063377224 -0.062403437 0.09988072 0.08445076 0.13045369 0.13383745 0.043939248
0.06592425 0.057535898 0.10299992 -0.09166215 -0.11563418 -0.21733259 -0.015248593 0.060373336
0.17928258 0.18612699 0.0884402 -0.037455402 -0.14692307 0.069296986 0.12708677 -0.2109915
0.07315469 0.13671876 0.020110726 -0.005048373 0.18081678 0.015702153 0.057269145 -0.20212016
-0.076352514 0.17305484 0.04289011 0.017632788 0.03043771 -0.01322698 -0.11441368 0.11700826
-0.17042662 -0.04531304 -0.005759175 0.06791012 0.2022342 -0.23180863 0.11271321 0.02756347
0.09245588 0.08779497 -0.19061771 -0.15278876 0.057780974 0.19772467 0.15897204 0.07770863
-0.15114984 0.09671992 -0.15717097 0.124829344 0.0826332 0.1326681 0.15491776 -0.22286461
0.1816922 -0.08365558 -0.028299956 -0.19171783 -0.15374224 0.005489897 -0.04255217 -0.07300299
-0.15661867 -0.08193723 -0.008843518 0.19549379 0.11947846 0.059455156 0.2174307 0.19919994
-0.023319297 -0.20935981 -0.010464344 -0.021572063 0.13710605 0.09119759 0.010900297 0.1331093
00000000: aade a1bc b01d a4bc 213a 0bbe c8c7 bebc
00000010: 5d5c 90bd e833 203e 9fa2 203d 008d 853d
00000020: ea8d 41be 77fa 02bd c26c 603e 6c54 3c3e
00000030: 1f36 123f 121f dcbd 4b25 b63d 51f3 e8bd
00000040: af53 573e 8e30 7ebd 3041 63be bfc4 233e
00000050: b9a1 153c 51eb 60bd 72db 71bd efb9 0c3e
00000060: 589b b3be 5b53 d73d af93 90be 9109 163e
00000070: aab0 e3bd 2645 abbe 8fdf 5fbc a4ba cebd
00000080: 538d 773c bf30 71be 0bab 77be 3d5b f43c
00000090: aef7 543d af6e 813d e919 35be 2c54 163e
000000a0: 899b 80be d9bf 6ebe 34ee 18be 58df 98bc
000000b0: 6bd8 3c3e 17eb 903d 18ea 253c ca70 25bc
000000c0: 5c75 1e3e 0e0f 33be 83ca 98be ae94 273e
000000d0: eb6c cbbd b7b2 fb3a c0a7 8e3e 275c c63d
000000e0: 0025 5a3e 56bf ce3d 48fb 53be ff18 92bc
000000f0: 2646 0abd e650 7fbd 1bb5 8e3d 3246 363d
00000100: b617 91be fe5c 853e 67b4 a33c b1ef b83e
00000110: 2351 553c 825f 0bbd 952d 9f3d a58c cabb
00000120: cb19 b6be 624c 8e3d f5a2 2fbc ba7b 1cbe
00000130: ea9b 3e3e 8f0d f73c 9189 20be cda8 ae3d
00000140: 2f60 bb3d 30d8 d83d eb59 4c3e baf7 3bbc
00000150: ebf5 e3ba 58f8 413e 30fe d33d 644e 593e
00000160: c02a 08be 087e 403e 82a0 70be 9aa2 8fbe
00000170: c088 f9bc eeed c4bd 045c 0f3e 9bc4 223c
00000180: 95b1 acbe e264 6abe 11f4 68be 3eca 2d3b
00000190: 31d5 33be 5ca6 113e 7f1e 173d 6b4e 2ebe
000001a0: 81a5 2cbe 1565 563e 8095 543d eb4b 903e
000001b0: b5b9 433e 7235 60bd 988b 72be 2367 2ebe
000001c0: 8af7 953d 3975 6f3e 2a6c 663e c317 f23d
000001d0: b192 783b bd2e 733e eaaa 63bc 33d0 b23c
000001e0: d83b 53bc 17b8 e7bd 280b 6dbd 0f95 af3e
000001f0: 6988 15be 50c0 b23d dfaa ac3d 1ead 883d
00000200: a105 0d3e a887 71be fbd9 123c 3710 373e
00000210: 1cc7 213e e861 28be b459 3e3e c814 913b
00000220: a280 1fbe 079f cabd 78b6 d53d 6a9d 30be
00000230: e8f1 1bbe acf0 63bd ae3e 293c 36d9 bdbd
00000240: 38d6 8ebd 1dcb 603c 8561 193e acc3 d03c
00000250: 34f9 b03d 5df7 e93c b665 f9bd 84d5 ef3d
00000260: 1ed0 983c 69c4 24be eefa 86bd c4d0 f2bd
00000270: 4dba 0e3d 0a76 123d 470b 11bd f3eb 9c3d
00000280: c80c 28be 8a97 e0bd 55f4 e73d f21e 843d
00000290: 3bc9 21be e4f2 3ebe bbc7 06be 933a 41be
000002a0: 67c8 f3bc ebcb 813d bf9a 7fbd 438e cc3d
000002b0: 85f4 ac3d a795 053e af0c 093e a4f9 333d
000002c0: 4b03 873d c3aa 6b3d 9ff1 d23d 5eb9 bbbd
000002d0: 9dd1 ecbd 6f8c 5ebe 3cd5 79bc 084a 773d
000002e0: da95 373e 1398 3e3e 2320 b53d d66a 19bd
000002f0: 0073 16be 94eb 8d3d 0923 023e 280e 58be
00000300: 20d2 953d 0100 0c3e 40bf a43c d26c a5bb
00000310: 0928 393e cda1 803c 0d93 6a3d 96f8 4ebe
00000320: b55e 9cbd 4a35 313e 8aad 2f3d a372 903c
00000330: 8158 f93c fab5 58bc b851 eabd 07a2 ef3d
00000340: 5184 2ebe 2b9a 39bd 76b7 bcbb 7614 8b3d
00000350: 7b16 4f3e 3e5f 6dbe 2fd6 e63d c9cc e13c
00000360: 8259 bd3d d9cd b33d 4a31 43be a874 1cbe
00000370: beab 6c3d 5678 4a3e 91c9 223e b425 9f3d
00000380: 06c7 1abe 1815 c63d 6df1 20be 87a6 ff3d
00000390: 983b a93d 25da 073e c3a2 1e3e 9f36 64be
000003a0: 850d 3a3e 9e53 abbd 4fd5 e7bc ae51 44be
000003b0: 9b6e 1dbe 98e4 b33b 2f4b 2ebd 9782 95bd
000003c0: a560 20be b5ce a7bd 67e4 10bc 862f 483e
000003d0: 1fb1 f43d 4087 733d 27a6 5e3e 12fb 4b3e
000003e0: 1c08 bfbc 6b62 56be a472 2bbc e5b7 b0bc
000003f0: 8765 0c3e cdc5 ba3d 2997 323c ce4d 083e

gcn2.bias f4 [64]
0.031521056 0.01344081 0.011407399 0.08022333 0.060454644 0.0964828 0.0979999 0.05631785
0.012571769 0.05373867 0.06398457 0.09982002 0.029830575 0.033520393 0.0273749 0.059371952
-0.06112238 0.13419773 0.021336623 0.058494978 0.09207646 0.03633026 0.18049495 -0.05208014
0.036787532 0.026428884 0.06551489 0.109100595 0.07393347 0.041702215 0.08852198 0.07420372
0.024277166 -0.00021530212 -0.0032462417 0.03622793 0.10788699 0.054323398 0.04606273 0.14943185
0.04029019 -0.008103169 0.08193948 0.040742442 0.016433228 0.050904304 0.030000634 0.12296269
0.015246344 0.08463733 0.017847242 0.051627547 0.07291593 0.239795 0.027196161 0.023184914
0.03276078 0.093965515 0.014465359 0.012525534 0.028841853 0.0933147 0.02786183 0.03527379
00000000: 391c 013d d836 5c3c 19e6 3a3c 214c a43d
00000010: 4a9f 773d c698 c53d 2cb4 c83d 8cad 663d
00000020: d2f9 4d3c 141d 5c3d 580a 833d 706e cc3d
00000030: 405f f43c ae4c 093d 5441 e03c 0130 733d
00000040: 765b 7abd 216b 093e 24ca ae3c 6e98 6f3d
00000050: 9592 bc3d 0acf 143d abd3 383e fc51 55bd
00000060: 86ae 163d 6381 d83c ac2c 863d 2270 df3d
00000070: 6e6a 973d f1cf 2a3d 034b b53d 1ff8 973d
00000080: e8e0 c63c b9c2 61b9 e6be 54bb bd63 143d
00000090: dbf3 dc3d 3682 5e3d 46ac 3c3d aa04 193e
000000a0: 5407 253d 27c3 04bc e3cf a73d 8ce1 263d
000000b0: fa9e 863c 0881 503d e4c3 f53c ddd3 fb3d
000000c0: cdcb 793c 5656 ad3d 6134 923c 6877 533d
000000d0: f254 953d d28c 753e 7cca de3c 4aee bd3c
000000e0: 2b30 063d fe70 c03d 1d00 6d3c e637 4d3c
000000f0: c045 ec3c c71b bf3d 7e3e e43c 407b 103d

gcn2.lin.weight f4 [64, 64]
0.038974598 -0.4652084 0.12692979 -0.05700497 -0.17230602 0.032631863 0.17798933 0.07809275
-0.1604091 -0.12821868 0.027223162 -0.012878055 -0.13512631 -0.12384797 0.3946678 0.5230877
-0.36081395 0.19479986 0.07513887 0.63417715 0.07809466 0.04016845 0.16685478 -0.059580144
0.10215159 -0.12271879 0.016062628 0.023337835 -0.3307303 -0.11342967 0.11491864 0.14665021
0.0020326097 0.20645095 -0.059643894 0.0356875 -0.1544129 0.07767323 0.014062951 -0.10128095
-0.11653255 -0.18383254 -0.0327313 -0.020292401 -0.44284686 0.01097154 0.04683848 -0.03975377
0.10024255 0.3243603 0.0564613 0.12537415 -0.4049273 -0.13209456 0.09814251 -0.16897964
-0.05657956 0.08327354 -0.17786692 -0.13738559 -0.17350838 -0.32784423 -0.41301572 0.009344667
0.075455934 -0.03426718 -0.068341225 0.26294518 0.09247317 0.05634658 -0.2752839 0.2771353
-0.0018660685 0.3112743 -0.05436424 0.08284736 0.06041555 0.06715511 -0.26735082 -0.3302587
0.09492916 -0.027133808 -0.15022951 -0.51846886 -0.15966481 0.32856327 -0.0030967498 -0.0023199618
-0.05458246 -0.21549115 0.08593673 0.18940467 0.037716545 -0.05433082 0.12678853 -0.0042633265
-0.093012914 0.07938345 -0.04998935 -0.05262102 0.03904706 -0.20878917 -0.03183338 -0.1460365
-0.44946888 -0.061803795 -0.48438263 -0.06864814 -0.0686369 0.11064035 0.06823563 0.66425484
0.21373586 -0.36584517 0.15377967 -0.3102903 0.103877164 0.17191565 -0.2908449 0.09699088
0.043193195 0.20699906 -0.12249389 0.25726682 0.34642154 -0.010464291 -0.008896951 -0.7132447
-0.07727294 -0.3719868 -0.038847033 -0.11291688 0.07764515 0.08698948 0.109488234 -0.1974378
0.12794651 -0.22508126 0.1801686 -0.19406846 0.07630789 -0.13556705 0.26307142 0.35804826
-0.4223953 0.03139509 0.10922584 0.82423514 -0.19654718 0.05573023 -0.012199039 -0.030653145
0.20705636 0.18877466 0.020135062 -0.03189646 -0.14903904 -0.10642025 -0.18263054 -0.18262044
0.0790776 -0.18933907 0.18091026 -0.064507335 0.17475398 0.011360629 -0.19971316 0.033335537
0.014206703 -0.045180578 -0.062896706 0.14183073 -0.39104775 0.12851217 -0.06439493 -0.055901095
0.016082598 0.39468727 -0.17500274 0.1728567 -0.36770412 -0.16489765 -0.043577094 -0.21002631
-0.18482521 -0.11749198 0.041396443 0.055967335 -0.07627189 -0.50882834 -0.28524163 -0.06235224
-0.15527429 0.0082606515 0.14229545 0.1417447 0.14187437 -0.13020332 0.10716057 -0.11360177
-0.3710588 0.04049436 -0.32994235 -0.10352382 0.045406155 -0.16333863 0.08124334 0.11316996
-0.08394799 -0.35323414 0.040097315 -0.10520563 -0.03491351 0.055907372 -0.030150179 -0.38633615
0.14223678 -0.1349024 -0.1960736 -0.1713296 -0.050254624 0.20358163 0.015197193 -0.36085746
0.091841705 -0.033092517 -0.39102593 -0.022397084 -0.25217086 -0.03634936 -0.18467832 -0.15927128
-0.01232365 -0.1328175 -0.24512006 -0.37380755 -0.036826942 -0.10958427 -0.26512232 -0.18629286
0.12172391 0.048124183 -0.016977174 -0.09080599 -0.03455594 0.20440745 -0.27238327 -0.054649867
-0.16528803 0.17962682 0.23369431 0.18143386 -0.1395839 -0.02034267 0.090945385 -0.10343959
00000000: d4a3 1f3d cc2f eebe e2f9 013e 0b7e 69bd
00000010: fd70 30be fda8 053d d642 363e 17ef 9f3d
00000020: 4842 24be c24b 03be 1c03 df3c 7afe 52bc
00000030: 8d5e 0abe 01a4 fdbd e611 ca3e 13e9 053f
00000040: 9bbc b8be 9d79 473e 68e2 993d 6f59 223f
00000050: 18f0 9f3d ac87 243d fbdb 2a3e 4f0a 74bd
00000060: da34 d13d fd53 fbbd c695 833c fd2e bf3c
00000070: 7b55 a9be d14d e8bd 775a eb3d 792b 163e
00000080: 8835 053b e167 533e 284d 74bd 0e2d 123d
00000090: 6a1e 1ebe 2413 9f3d 4b68 663c 636c cfbd
000000a0: 9ea8 eebd 993e 3cbe 4111 06bd 403c a6bc
000000b0: d3bc e2be f9c1 333c b5d9 3f3d d9d4 22bd
000000c0: f74b cd3d 8e12 a63e f743 673d 1562 003e
000000d0: a252 cfbe cc43 07be f1fe c83d 0009 2dbe
000000e0: f8bf 67bd 518b aa3d bf22 36be cfae 0cbe
000000f0: 2eac 31be 33db a7be cc76 d3be 601a 193c
00000100: a488 9a3d be5b 0cbd 7cf6 8bbd c0a0 863e
00000110: 9362 bd3d accb 663d 03f2 8cbe aee4 8d3e
00000120: de96 f4ba 585f 9f3e 0aad 5ebd e0ab a93d
00000130: 4c76 773d 9e88 893d 35e2 88be ab17 a9be
00000140: 386a c23d b847 debc c4d5 19be 60ba 04bf
00000150: 2c7f 23be 7239 a83e d7f2 4abb 800a 18bb
00000160: dc91 5fbd b6a9 5cbe 99ff af3d 4cf3 413e
00000170: aa7c 1a3d fe89 5ebd dad4 013e 60b3 8bbb
00000180: 8e7d bebd ca93 a23d a2c1 4cbd 2389 57bd
00000190: cfef 1f3d d4cc 55be b863 02bd 988a 15be
000001a0: c920 e6be fa25 7dbd 0001 f8be 6597 8cbd
000001b0: 8191 8cbd 6897 e23d 1fbf 8b3d 9b0c 2a3f
000001c0: 93dd 5a3e 0f50 bbbe 6b78 1d3e 5fde 9ebe
000001d0: 8dbd d43d a80a 303e 9fe9 94be 28a3 c63d
000001e0: 59eb 303d 90f7 533e 14de fabd 7ab8 833e
000001f0: 2a5e b13e 6b72 2bbc 84c4 11bc 3497 36bf
00000200: 4641 9ebd 0e75 bebe 111e 1fbd f740 e7bd
00000210: 6c04 9f3d 8a27 b23d 5e3b e03d 222d 4abe
00000220: 6904 033e b47b 66be 1e7e 383e e2b9 46be
00000230: 5047 9c3d 17d2 0abe 4cb1 863e 1a52 b73e
00000240: 3244 d8be 2398 003d ccb1 df3d 1301 533f
00000250: aa43 49be 6245 643d 7ade 47bc 4e1c fbbc
00000260: 9506 543e 254e 413e 49f2 a43c dda5 02bd
00000270: b19d 18be dcf2 d9bd 8003 3bbe da00 3bbe
00000280: 70f3 a13d 1ae2 41be 8a40 393e 6c1c 84bd
00000290: b5f2 323e ef21 3a3c 9b81 4cbe d88a 083d
000002a0: 3bc3 683c 450f 39bd fdcf 80bd 133c 113e
000002b0: 6937 c8be b298 033e 7de1 83bd 8cf8 64bd
000002c0: a7bf 833c 7314 ca3e eb33 33be 5901 313e
000002d0: b743 bcbe eeda 28be e57d 32bd 2311 57be
000002e0: d242 3dbe a39f f0bd 518f 293d 013e 653d
000002f0: 7034 9cbd 9342 02bf 310b 92be 1065 7fbd
00000300: 3900 1fbe af57 073c e6b5 113e 8625 113e
00000310: 8447 113e 0554 05be 0077 db3d 0ba8 e8bd
00000320: 6bfb bdbe 6add 253d 34ee a8be 4c04 d4bd
00000330: cefb 393d 3e42 27be e962 a63d a7c5 e73d
00000340: ecec abbd 1bdb b4be 153d 243d 0d76 d7bd
00000350: 7801 0fbd 21ff 643d 82fd f6bc dacd c5be
00000360: 85a6 113e db23 0abe 85c7 48be 0771 2fbe
00000370: cbd7 4dbd b477 503e a6fd 783c 4fc2 b8be
00000380: 8117 bc3d 058c 07bd 8d34 c8be 177a b7bc
00000390: 8a1c 81be 11e3 14bd 501c 3dbe 0318 23be
000003a0: 22e9 49bc 5001 08be c100 7bbe b463 bfbe
000003b0: d9d7 16bd b86d e0bd 1dbe 87be 8ec3 3ebe
000003c0: 634a f93d dd1d 453d b713 8bbc 7ef8 b9bd
000003d0: 888a 0dbd 3050 513e d275 8bbe 8ad8 5fbd
000003e0: 4441 29be 18f0 373e 904d 6f3e ccc9 393e
000003f0: 15ef 0ebe aca5 a6bc 9341 ba3d 23d8 d3bd

fc1.weight f4 [32, 64]
0.0037616915 -0.07416107 0.11963064 0.008808651 -0.07281834 -0.036379736 -0.08820359 -0.17572874
-0.025335424 -0.020956142 0.036967993 -0.029498875 0.050704934 -0.104331546 -0.05729218 0.07594216
0.10019577 0.022008039 0.11777789 0.045791022 0.05576973 0.16885307 -0.15734741 -0.17488421
0.16768354 -0.08440639 0.04321761 -0.13525881 -0.112076536 0.013650592 -0.1305104 0.1517053
-0.024388203 -0.01763195 0.0178138 0.08237101 -0.049104 -0.04886252 0.1664497 -0.14209305
-0.13397683 0.065351486 -0.10163498 0.1268294 -0.18021487 -0.07511603 -0.050676428 -0.16105205
-0.03262332 -0.050105542 0.13240167 0.13620615 -0.053215068 0.32513884 -0.021905279 -0.14497605
0.07386799 0.08759698 -0.15400408 -0.07067227 -0.036790896 0.0366213 -0.04759296 0.056755446
0.09909888 -0.05704654 -0.09738179 -0.0924307 -0.12640515 -0.066407524 -0.09125899 -0.06050384
-0.12625332 0.052742705 -0.050476193 -0.13856143 -0.00024954497 -0.12898552 -0.14930011 -0.08417511
-0.05614858 0.10559564 0.13986784 0.09814182 0.123740144 0.00958085 0.07690475 -0.085889615
0.08481505 -0.11106815 -0.014986404 -0.12374492 -0.008421003 0.035211813 -0.13664936 -0.12926453
-0.053723037 0.04895349 0.13020046 0.0053911363 0.035107534 -0.14892013 -0.07051034 -0.09158853
-0.15878709 -0.03332544 -0.068141304 0.10440842 -0.1593375 0.17168437 0.065030016 -0.011738202
-0.008818612 -0.16605872 -0.04468988 0.033104993 -0.051538087 -0.1537968 -0.056913316 -0.0791768
-0.011925486 -0.05233446 -0.056129385 -0.14410913 0.0061187516 -0.08708833 -0.0066193864 0.04939908
0.10188445 -0.12784186 -0.13928242 -0.024198411 -0.20112365 0.0013096955 -0.10409201 -0.082720354
-0.021544 -0.035365507 -0.113818765 -0.1669233 -0.09955539 -0.013283609 -0.17885642 -0.032406516
-0.0071041766 -0.09500685 -0.027265612 0.017783297 0.17380323 -0.1025181 0.044295955 -0.03488361
-0.01934123 0.022229956 -0.15580055 -0.08290336 -0.093416154 0.0639074 0.018318456 -0.043365337
-0.16345687 -0.09071214 0.050459612 0.09208724 -0.09097129 -0.22936371 -0.05610585 -0.049438253
-0.17418516 -0.066025116 -0.011448819 0.052165665 -0.055225257 -0.09487487 0.045658324 -0.05151621
-0.15297134 -0.17614639 0.11959801 0.04731045 -0.02327451 -0.2200515 0.124383904 -0.09100942
-0.050716873 -0.082291335 -0.011299369 0.05181618 -0.16357553 0.04473028 0.041756153 0.033049107
0.001535719 -0.60196716 0.056646816 -0.08189334 -0.45622385 -0.114751436 0.11193044 -0.64916545
-0.37036228 -0.6371279 -0.7955432 0.04614991 -0.73299927 -0.11475279 -0.5162833 -0.028314658
-0.011999703 -0.033570603 -0.30470133 -0.05756239 0.05180839 0.02722227 -0.04822509 -0.3995363
-0.1506659 -0.65796864 -0.5340499 0.04611889 -0.49349937 -0.22225468 -0.05227654 -0.011022446
-0.40607506 0.052899398 0.14081523 0.13090432 -0.13122886 -0.6013417 0.02076386 0.060363967
-0.7464867 0.08658023 -0.1020635 -0.025134787 -0.7477303 -0.02212589 -0.16362116 -0.31779754
0.13230564 -0.04514583 -0.113945596 -0.0077387327 -0.78463423 -0.15960047 -0.0746936 -0.27184826
0.074839935 -0.00031407468 -0.9459656 -0.684511 -0.7897498 -0.095198266 0.2324841 0.051359586
00000000: b686 763b c2e1 97bd e900 f53d 2952 103c
00000010: c821 95bd eb02 15bd 15a4 b4bd 3cf2 33be
00000020: 3c8c cfbc 37ac abbc c06b 173d a0a7 f1bc
00000030: faaf 4f3d c7ab d5bd 34ab 6abd 9087 9b3d
00000040: 7133 cd3d 344a b43c 8935 f13d 5e8f 3b3d
00000050: cd6e 643d d2e7 2c3e ae1f 21be d914 33be
00000060: 3cb5 2b3e 42dd acbd f304 313d 4981 0abe
00000070: 6288 e5bd bca6 5f3c 85a4 05be a258 1b3e
00000080: c5c9 c7bc e170 90bc 3fee 913c 22b2 a83d
00000090: 4721 49bd 1124 48bd ca71 2a3e d780 11be
000000a0: 3931 09be 00d7 853d 0026 d0bd 91df 013e
000000b0: 3f8a 38be 6fd6 99bd 1692 4fbd d4ea 24be
000000c0: 08a0 05bd 783b 4dbd 4e94 073e a079 0b3e
000000d0: 0bf8 59bd 9978 a63e b372 b3bc 9a74 14be
000000e0: 1a48 973d 0c66 b33d 3fb3 1dbe a0bc 90bd
000000f0: 0db2 16bd 3700 163d d6f0 42bd 6678 683d
00000100: 5bf4 ca3d a2a9 69bd 1b70 c7bd 4f4c bdbd
00000110: 5a70 01be ab00 88bd fee5 babd e0d2 77bd
00000120: 8d48 01be bc08 583d 20c0 4ebd 0ce3 0dbe
00000130: 5cd5 82b9 c814 04be 21e2 18be 0064 acbd
00000140: 0efc 65bd 8742 d83d 8439 0f3e 94fe c83d
00000150: 796b fd3d fff8 1c3c 3d80 9d3d e5e6 afbd
00000160: 83b3 ad3d b377 e3bd 8989 75bc fa6d fdbd
00000170: 3ff8 09bc 433a 103d cfed 0bbe ec5d 04be
00000180: b00c 5cbd 7483 483d 4553 053e 21a8 b03b
00000190: ebcc 0f3d 857e 18be ba67 90bd c492 bbbd
000001a0: 1599 22be 4280 08bd ab8d 8bbd 15d4 d53d
000001b0: 5f29 23be 07ce 2f3e 752e 853d 9651 40bc
000001c0: f17b 10bc 4c0b 2abe bc0c 37bd 1a99 073d
000001d0: 9a19 53bd e97c 1dbe f01d 69bd 7227 a2bd
000001e0: 1d63 43bc a95c 56bd ede7 65bd 5891 13be
000001f0: cf7f c83b 5e5b b2bd 70e7 d8bb b156 4a3d
00000200: cba8 d03d fae8 02be 0da0 0ebe bf3b c6bc
00000210: 5cf3 4dbe 17aa ab3a 312e d5bd 4a69 a9bd
00000220: 0b7d b0bc 6cdb 10bd d019 e9bd f1ed 2abe
00000230: b2e3 cbbd 7fa3 59bc 2326 37be b2bc 04bd
00000240: 27ca e8bb f492 c2bd 225c dfbc 47ae 913c
00000250: 79f9 313e 02f5 d1bd ad6f 353d 1ee2 0ebd
00000260: 8071 9ebc 991b b63c 2e8a 1fbe 3dc9 a9bd
00000270: f850 bfbd e2e1 823d 9610 963c da9f 31bd
00000280: 3d61 27be 49c7 b9bd bdae 4e3d 3c98 bc3d
00000290: 284f babd 52de 6abe 3fcf 65bd c47f 4abd
000002a0: 985d 32be 2d38 87bd d493 3bbc aaab 553d
000002b0: e133 62bd c14d c2bd 3904 3b3d a902 53bd
000002c0: 85a4 1cbe b85f 34be cdef f43d 9ac8 413d
000002d0: 2faa bebc 2e55 61be fdbc fe3d 2663 babd
000002e0: 7fbc 4fbd 5c88 a8bd fd20 39bc 343d 543d
000002f0: 5880 27be 1937 373d 8008 2b3d 805e 073d
00000300: 2e4a c93a 851a 1abf 7e06 683d b2b7 a7bd
00000310: 2c96 e9be cd02 ebbd c93b e53d b52f 26bf
00000320: 20a0 bdbe d01a 23bf b8a8 4bbf b007 3d3d
00000330: d7a5 3bbf 8303 ebbd 242b 04bf 24f4 e7bc
00000340: 679a 44bc 5481 09bd d001 9cbe 8ac6 6bbd
00000350: 0935 543d 3d01 df3c ac87 45bd 0690 ccbe
00000360: 2948 1abe a270 28bf 7fb7 08bf 29e7 3c3d
00000370: f3ab fcbe bb96 63be ed1f 56bd 7d97 34bc
00000380: 12e9 cfbe 0aad 583d de31 103e c80b 063e
00000390: dc60 06be 88f1 19bf f818 aa3c 3540 773d
000003a0: c119 3fbf fa50 b13d ab06 d1bd 78e7 cdbc
000003b0: 416b 3fbf 5b41 b5bc 4e8c 27be 5cb6 a2be
000003c0: 217b 073e d5ea 38bd 4f5c e9bd 3295 fdbb
000003d0: cadd 48bf 4e6e 23be f5f8 98bd b22f 8bbe
000003e0: ae45 993d 64aa a4b9 cd2a 72bf 1d3c 2fbf
000003f0: 0b2d 4abf 4ff7 c2bd 5010 6e3e 6e5e 523d

fc1.bias f4 [32]
0.09757448 -0.015504916 0.022256786 0.25567853 0.15393814 0.30690235 0.34558693 0.47062662
0.2641531 0.14884254 0.18726408 0.2673969 0.32979748 0.007962986 0.1272541 0.3187866
0.018281907 0.1877005 0.16722333 0.1159126 0.17804597 0.33374843 0.40478852 0.14987889
0.33992016 -0.033824578 0.17486495 0.3112025 0.34899923 0.06602372 0.11855662 -0.012117404
00000000: 21d5 c73d 5508 7ebc dd53 b63c 4ce8 823e
00000010: f6a1 1d3e 4e22 9d3e c5f0 b03e f9f5 f03e
00000020: 133f 873e 2e6a 183e 28c2 3f3e 3fe8 883e
00000030: 37db a83e 2f77 023c e64e 023e ff37 a33e
00000040: f0c3 953c 8f34 403e 983c 2b3e 9663 ed3d
00000050: af51 363e 13e1 aa3e 7140 cf3e da79 193e
00000060: 040a ae3e a48b 0abd cc0f 333e ef55 9f3e
00000070: 07b0 b23e 7237 873d d0cd f23d 1388 46bc

fc2.weight f4 [1, 32]
-0.14400828 -0.05024596 -0.16210099 -0.72198164 -0.6181256 0.2947867 -0.6689236 0.15385877
0.21054377 -0.2466463 -0.112877235 0.1841208 -0.564148 -0.035236128 -0.19060823 0.20855883
-0.06836496 0.20637457 -0.21409094 0.10186226 -0.07960157 0.25060773 -0.64416814 0.09891517
0.14035046 -0.000774262 -0.4377911 0.23511635 0.18788849 -0.19058111 -0.100917116 -0.16610187
00000000: e876 13be b5ce 4dbd cdfd 25be cad3 38bf
00000010: 7b3d 1ebf 48ee 963e 943e 2bbf 278d 1d3e
00000020: c998 573e d990 7cbe 2e2c e7bd 2a8a 3c3e
00000030: 016c 10bf c253 10bd ce2e 43be 7290 553e
00000040: ee02 8cbd db53 533e a83a 5bbe 299d d03d
00000050: 2606 a3bd a84f 803e 34e8 24bf 0994 ca3d
00000060: 08b8 0f3e d8f7 4aba 2826 e0be 57c2 703e
00000070: d765 403e b227 43be a2ad cebd 9c16 2abe
