outputs/models/model_cvli_novo_criterio.pth (torch, 36529 bytes, 12 tensors)

lstm.weight_ih_l0 f4 [128, 6]
000000 29 e7 0f 3e 24 fc 30 00 05 72 18 80 20 b4 7c 80
       0.14053024 4.498555e-39 -2.244954e-39 -1.1452218e-38
000010 6c 54 1d 80 44 9e e6 3c 51 d0 08 3d 61 8f 26 00
       -2.693514e-39 0.028151639 0.03340179 3.541184e-39
000020 b4 1c 30 80 28 f1 42 80 6c c7 44 00 a6 c4 94 bd
       -4.4184e-39 -6.147653e-39 6.316353e-39 -0.0726407
000030 b0 8f b2 bc 0f db 34 00 d9 96 3b 80 61 aa 42 80
       -0.021797031 4.854029e-39 -5.472408e-39 -6.122263e-39
000040 1d da 44 80 f3 a4 d7 bc e0 13 e9 bc cc 31 ec 80
       -6.323058e-39 -0.026323771 -0.02845186 -2.1691041e-38
000050 45 39 30 00 7d 2c 09 00 f8 e3 3b 00 46 50 0e 3d
       4.428648e-39 8.42479e-40 5.500074e-39 0.034744523
000060 fa 4a 2b 3e a3 cc 45 00 a6 c5 08 80 05 65 0e 80
       0.1672782 6.410059e-39 -8.05587e-40 -1.321936e-39
000070 a5 0b 0f 80 35 58 2b 3e e5 5b 33 3c d4 8f 10 00
       -1.38171e-39 0.16732867 0.010947202 1.520964e-39
000080 95 78 0e 00 ee 56 37 00 07 db 25 80 33 33 33 3c
       1.328954e-39 5.082137e-39 -3.476486e-39 0.0109375
000090 89 1e 97 3d 8b ac 3e 00 76 9c 06 80 ff c4 25 80
       0.07378871 5.755698e-39 -6.0714e-40 -3.468582e-39
0000a0 7c 45 0b 00 42 3d 5f 3e 53 11 07 3e ef 98 00 80
       1.035117e-39 0.21800712 0.13190202 -5.4862e-41
0000b0 4b a6 11 80 97 64 42 80 aa 16 06 80 ac 6b 8d bd
       -1.620858e-39 -6.097228e-39 -5.59143e-40 -0.069053024
0000c0 ed fe 80 3c aa b0 13 80 ba 60 15 80 70 17 aa 00
       0.015746558 -1.80825e-39 -1.963244e-39 1.5620442e-38
0000d0 7d e4 12 00 fd 6b 83 3d 52 b5 bd 3b 84 00 47 80
       1.735005e-39 0.064170815 0.0057894373 -6.520505e-39
0000e0 e0 27 08 00 0e 64 22 80 e6 1b 40 80 d5 9e 06 bd
       7.48988e-40 -3.1583e-39 -5.88748e-39 -0.032866318
0000f0 d9 88 9d 3d 2d e2 43 00 e0 85 2c 00 f1 5a 3d 00
       0.07692117 6.234115e-39 4.088787e-39 5.634589e-39
000100 83 d2 10 00 88 3b 64 3d e6 2c ac 3d fe 38 42 00
       1.544885e-39 0.055720836 0.08407001 6.081588e-39
000110 32 eb 3f 00 58 12 04 80 00 9d 25 00 0f 7a d7 3d
       5.870008e-39 -3.73922e-40 3.454234e-39 0.10521328
000120 6c 28 33 3c dc da 02 80 e3 2c 08 80 33 9b 1f 00
       0.01093493 -2.62183e-40 -7.50786e-40 2.902575e-39
000130 89 15 14 00 d6 b9 d1 bc 32 e8 14 3d 78 f9 0d 00
       1.844435e-39 -0.025601309 0.03635425 1.283354e-39
000140 f5 99 06 80 c8 79 10 80 8e 1f 0b 00 c5 14 ae bc
       -6.06242e-40 -1.513055e-39 1.02151e-39 -0.021250138
000150 74 b3 1c 3e 89 b8 2b 80 15 10 2a 00 b1 9b 36 00
       0.15302831 -4.015125e-39 3.86286e-39 5.014968e-39
000160 c9 63 3b 00 bb ad b7 3d 77 65 84 3d 3e 1a 30 80
       5.45409e-39 0.08968683 0.064646654 -4.417518e-39
000170 f1 6f 4b 80 7e 8d 35 00 b6 db 15 80 5e f8 b9 3c
       -6.927819e-39 4.918039e-39 -2.007363e-39 0.022701439
000180 f4 ef 43 3e 43 7c 21 80 d4 49 0e 00 63 07 39 00
       0.19134504 -3.075148e-39 1.312181e-39 5.237273e-39
000190 19 59 38 00 36 39 44 3e 6a 85 e6 3c 97 68 19 80
       5.17475e-39 0.19162449 0.028139789 -2.333407e-39
0001a0 0d d2 2c 80 92 e9 14 80 4d c0 1a 00 0c 34 a9 3c
       -4.116114e-39 -1.920499e-39 2.456707e-39 0.0206547
0001b0 2f a9 46 3d a2 84 3f 00 94 1b 21 80 b1 6f 36 00
       0.04850119 5.833216e-39 -3.040465e-39 4.999184e-39
0001c0 a4 63 34 80 c0 e5 4b 3e 52 47 21 3e ef b5 38 80
       -4.81119e-39 0.19911861 0.15749863 -5.208053e-39
0001d0 96 72 00 80 5f de 45 80 ff 90 05 80 21 56 db 3d
       -4.1106e-41 -6.416421e-39 -5.11192e-40 0.10709787
0001e0 2a cb 1d 3e 12 64 0b 80 76 f3 2c 80 28 fe 04 80
       0.15409532 -1.046089e-39 -4.128099e-39 -4.58516e-40
0001f0 5e c6 48 80 04 3b 35 3e f7 0f 1a 3e fe 75 43 80
       -6.683316e-39 0.17698294 0.15045153 -6.195306e-39
000200 5f 55 1c 00 30 ca cb 00 c4 7a 28 00 57 20 ed 3d
       2.602019e-39 1.8715137e-38 3.71746e-39 0.11578434
000210 f1 70 00 3e dc 69 04 00 e6 e8 40 80 fe 50 20 00
       0.12543084 4.05317e-40 -5.96102e-39 2.96779e-39
000220 f5 8b 24 80 2a 1b b5 3b 88 ac 06 bc 5a 08 1d 00
       -3.356285e-39 0.00552692 -0.008219846 2.666225e-39
000230 40 37 47 00 40 8f 58 00 2c 0a 0f 01 e0 ab 20 bd
       6.54014e-39 8.132912e-39 2.627225e-38 -0.039226413
000240 42 2e 3c 3d 05 e7 19 00 21 97 12 00 f9 9d 1f 80
       0.045942552 2.378762e-39 1.707254e-39 -2.90357e-39
000250 eb d3 18 80 1c 25 0d 3e f1 63 22 3d cc fd 46 00
       -2.280074e-39 0.13783687 0.039646093 6.51953e-39
000260 d6 62 02 80 66 fd 33 00 2c ba 3b 80 b4 7e 08 3e
       -2.19127e-40 4.774513e-39 -5.48508e-39 0.13329583
000270 cd 6a c4 3d 3c 7e 37 00 5b d5 23 80 b1 cc 03 00
       0.09590683 5.096237e-39 -3.29078e-39 3.48936e-40
000280 ff 16 28 80 86 be 4d 3d 61 ba 05 3d ee 2a 29 80
       -3.681669e-39 0.050230525 0.032648448 -3.780656e-39
000290 88 27 a6 80 7c f8 c9 80 7a 38 06 00 2d 45 5c bc
       -1.5258874e-38 -1.8548074e-38 5.71273e-40 -0.013444227
0002a0 c4 bf 30 3e de c8 39 80 82 48 1a 80 ba 54 2f 00
       0.17260653 -5.306681e-39 -2.413734e-39 4.346662e-39
0002b0 14 7c 3c 80 6f a1 2b 3e ce 26 71 3d bc f2 0d 00
       -5.55464e-39 0.16760801 0.058874898 1.280938e-39
0002c0 66 34 48 00 e5 36 1b 00 d1 f2 27 00 82 a7 c0 3d
       6.630953e-39 2.499251e-39 3.66869e-39 0.094069496
0002d0 bf 83 c6 3d dd 82 19 00 4a 25 46 00 97 72 0e 80
       0.09693097 2.342832e-39 6.441862e-39 -1.326804e-39
0002e0 f2 91 11 80 02 af 4b 3d db fd 85 3d 0f 76 45 00
       -1.613559e-39 0.049727447 0.0654256 6.379e-39
0002f0 93 94 2e 80 26 3b 16 00 89 e8 1a 00 99 2f 18 bc
       -4.277731e-39 2.0416e-39 2.471141e-39 -0.009288692
000300 5e 2e d5 3d ba fb 23 00 06 bf 10 80 fb fe 17 80
       0.104092345 3.304545e-39 -1.537894e-39 -2.203686e-39
000310 fe d2 3f 80 2d 45 cc 3b b4 c6 d4 3d d8 7b 2a 00
       -5.861326e-39 0.0062338323 0.10389462 3.901518e-39
000320 04 69 44 80 e6 a7 36 80 05 5d 1f 00 af 92 89 3d
       -6.282486e-39 -5.019347e-39 2.88027e-39 0.06717431
000330 ab 1d 16 3e d4 db 2c 00 64 de 24 00 da a8 3d 00
       0.14659755 4.119621e-39 3.385857e-39 5.662538e-39
000340 62 a8 0a 00 d5 7b 28 3e 41 bf e9 3d aa 6f 10 80
       9.7876e-40 0.16453488 0.11413432 -1.509425e-39
000350 27 f1 3c 00 27 6d 14 00 8c 76 07 80 b4 82 99 3d
       5.596639e-39 1.875866e-39 -6.85375e-40 0.07495633
000360 ca 91 2d 3e 3d a2 1a 80 62 3b 3d 80 87 7d 23 80
       0.16950145 -2.445923e-39 -5.623268e-39 -3.259273e-39
000370 10 6b 1a 80 a0 cc 4b 3e 77 d7 dc 3d db 7a 36 00
       -2.42613e-39 0.19902277 0.10783284 5.003189e-39
000380 4b 9e 25 80 1a 5c 07 01 f6 07 43 80 a2 d7 dc 3d
       -3.454698e-39 2.4861664e-38 -6.155834e-39 0.10783316
000390 8d a1 94 bc 33 ff 06 80 91 53 18 80 ce 36 1e 80
       -0.01814344 -6.42561e-40 -2.23403e-39 -2.774725e-39
0003a0 cf 9e 2e 80 e6 7a 75 bd b4 96 24 bc 31 c6 24 80
       -4.281403e-39 -0.05993166 -0.010045696 -3.377176e-39
0003b0 e6 cb 30 80 03 c0 03 00 3f 36 00 80 f1 35 bf 3d
       -4.481249e-39 3.44387e-40 -1.946e-41 0.093364604
0003c0 25 db 6e 3c 05 ff 3d 80 a4 c1 44 80 ad 30 34 00
       0.014578615 -5.693449e-39 -6.314279e-39 4.792907e-39
0003d0 ed 80 3e 80 5f b1 a3 3a 12 40 30 3e ba a9 1a 80
       -5.74005e-39 0.0012488774 0.17211941 -2.44861e-39
0003e0 71 1e 0c 80 43 13 08 80 92 c9 40 00 e7 a3 09 3e
       -1.112946e-39 -7.41594e-40 5.949782e-39 0.1344143
0003f0 fa ad cf 3d 22 65 0d 80 89 43 14 80 79 6f 2f 80
       0.10140605 -1.230141e-39 -1.860937e-39 -4.356257e-39

lstm.weight_hh_l0 f4 [128, 32]
000000 f0 41 69 bb f5 43 90 bb 2c 14 24 3c 58 4c 35 bc
       -0.003559228 -0.0044026324 0.010014575 -0.011065565
000010 b1 e4 88 bc 0e ff 09 bc b6 51 95 bb 1a 2d 6f 3b
       -0.016710611 -0.008422626 -0.00455686 0.0036495388
000020 6d 92 b7 3b ee 3b 1f 3c 14 64 69 bb bb 16 2d 3b
       0.005602172 0.009718878 -0.003561263 0.0026411253
000030 e4 fc 87 3c 4d e3 d1 3a 49 4a 44 3b 7e 0a 28 bc
       0.01660008 0.0016013175 0.0029951504 -0.010256408
000040 e0 4a 10 3c d7 a6 79 3a 80 d5 08 bb de ef f5 bb
       0.008806914 0.0009523457 -0.002087921 -0.007505401
000050 a0 d4 a0 3b b5 3b 15 bc 02 74 f6 3a c8 1b e0 3b
       0.0049081594 -0.009108474 0.0018802884 0.0068392493
000060 23 79 b6 3b f7 71 69 bb 34 17 9a bb 15 84 21 bb
       0.00556864 -0.0035620907 -0.004702473 -0.0024645377
000070 31 a1 40 3c 7a 8a b9 bb ae 67 4a bb e8 b4 f1 3a
       0.011757181 -0.0056622596 -0.0030884552 0.0018440755
000080 5f f3 3d bc 1e 16 ab bc 3b 04 e9 3c 9d fd 78 bc
       -0.011593669 -0.02088457 0.0284444 -0.015197185
000090 43 92 4d bd f0 e9 6f bb 21 38 14 3c b4 15 a3 3c
       -0.050188314 -0.0036607943 0.009046585 0.01990781
0000a0 d8 2d 23 bb af a9 ea 3c 8b 14 bf bc a3 57 e5 bb
       -0.0024899151 0.028645365 -0.023325225 -0.0069989725
0000b0 5d 07 f3 3c 80 12 59 3c e0 d4 63 bc 8e 81 d4 bc
       0.029666597 0.01324904 -0.013905734 -0.025940683
0000c0 83 3f a8 bb 3a 39 ac 3c 06 e4 95 3c 1f 2f e2 3b
       -0.0051345243 0.021023382 0.018297207 0.00690259
0000d0 e2 8d 89 3c df f3 b8 bc ee fe 01 3d 6e 72 00 3d
       0.016791288 -0.022577224 0.03173726 0.03135913
0000e0 d6 c2 be 3c 36 3e 49 3c 2e c3 4f 3c e5 8c 69 bc
       0.023286264 0.012282899 0.012680812 -0.014254783
0000f0 4f 73 f4 3c 61 7c 59 bc 5e 64 91 bc d6 22 54 3c
       0.02984014 -0.013274283 -0.017748054 0.012947759
000100 7e 56 e2 bb 69 84 87 bc 46 7b cd 3c a8 bf 47 bc
       -0.0069072833 -0.01654263 0.025083195 -0.0121916905
000110 b0 b0 17 bd 1f 6e b6 bc af 59 df 3c cc 9b df 3c
       -0.037033737 -0.022269307 0.027264444 0.02729597
000120 bd ff 4d 3b 94 03 82 3c 60 f4 fa bb 55 da 4c bc
       0.003143295 0.015870847 -0.0076585263 -0.012503226
000130 00 2d ad 3c a5 c0 39 3c 05 19 7b bc d2 27 e9 bc
       0.021139622 0.011337434 -0.015325789 -0.02846137
000140 2b 76 0a bc 88 6f 04 3c ac b9 65 3c 4c ea 90 bc
       -0.008451025 0.008083232 0.014021318 -0.017689846
000150 92 2f 72 3b fa dc 7e bc 01 bd b2 3c 35 fe 10 3c
       0.0036954624 -0.015555615 0.02181864 0.00884967
000160 4e 5d b6 bb ce ba 73 3c 63 c6 ec 3b 59 49 44 bc
       -0.005565322 0.014876081 0.007225798 -0.011980378
000170 e8 8d 44 3c a3 f6 45 bc 80 f8 85 bc 49 ef 40 3c
       0.011996724 -0.012082729 -0.016353846 0.0117758
000180 9d 23 56 bd a2 a3 d4 bc 28 18 e1 3b a8 c1 8d bc
       -0.052280057 -0.025956932 0.0068693347 -0.017304257
000190 d9 f7 c3 3c cb e5 5a 3d 5f 09 a7 3d 30 f0 83 3a
       0.023921894 0.053441804 0.08156084 0.0010066088
0001a0 ab 21 22 bc 19 f3 86 3c d3 b4 16 bc b0 c9 75 bd
       -0.009895722 0.01647334 -0.009198385 -0.060006797
0001b0 aa f6 0b 3c f6 da 39 3d 6f ba a3 bd 11 68 3e 3d
       0.008542696 0.045374833 -0.07994544 0.046485964
0001c0 e8 60 af bd ab ac b5 3c 61 94 92 3d c6 9d b0 3d
       -0.08563405 0.022177061 0.07157207 0.08623843
0001d0 96 4a f1 3c bf 4f 56 3c 96 05 a1 3d 6c 74 10 bc
       0.02945451 0.013080536 0.078623936 -0.00881682
0001e0 c2 e9 c3 bc f0 08 62 3d 87 74 a1 bc 4a 70 35 bd
       -0.023915175 0.055184305 -0.019708885 -0.04429654
0001f0 73 ea 00 bd 5a 02 4d 3d 7a 1a 90 bb 59 53 db 3c
       -0.03147359 0.05005107 -0.0043976875 0.026773142
000200 e5 de 22 3d b1 38 ea 3c bf 76 10 bd 86 55 08 3d
       0.03976335 0.028591486 -0.035269495 0.033284687
000210 d3 67 32 3d e7 11 8e 3b b0 f9 4b bc 3a f1 5d bd
       0.043556046 0.00433563 -0.012449667 -0.05418513
000220 f9 00 24 bb 4f 74 11 bd 96 0c d9 3c 52 42 53 bb
       -0.0025024994 -0.03551131 0.02649526 -0.0032235575
000230 67 29 1b bd 81 01 a0 bc 6d a3 db 39 b9 6a 14 3d
       -0.03788128 -0.019531967 0.00041892697 0.03623459
000240 73 6c f5 3c bb 65 b2 bc 45 2f 2a bd 01 9b 21 bd
       0.02995894 -0.021777024 -0.041548986 -0.039454464
000250 42 e7 1f bd e0 20 11 3d c7 0e 37 bd 19 b9 01 bd
       -0.039038904 0.035431743 -0.044691827 -0.031670664
000260 7b e0 76 bd 92 db 0a bd 15 ae 52 bd b7 d1 c7 3c
       -0.060272675 -0.033900805 -0.05143555 0.024391992
000270 6e 54 ef bc a9 b1 e3 bc b9 bf 02 3c a7 41 02 bc
       -0.029215064 -0.027794676 0.007980281 -0.007950223
000280 d9 2e a8 bc 01 97 66 bc dc b0 6b bc f9 73 2b 3c
       -0.020530151 -0.014074088 -0.014385428 0.010464662
000290 b1 21 e0 3d 93 0a 41 3d ad 59 4e 3d c0 fb 9b bc
       0.10943926 0.047129225 0.05037849 -0.019040942
0002a0 ce d0 0e bd a0 fe 2b bc 43 30 0d 3b ab ac 47 bd
       -0.0348671 -0.010497719 0.0021543659 -0.048748653
0002b0 4b 2c b1 bc fa e9 62 3d 2e e7 79 bd 84 5c 8b bc
       -0.021627566 0.05539892 -0.061011486 -0.017011888
0002c0 57 4c 84 bd e1 0b 5c 3c 72 5c e8 3c 14 a1 28 3d
       -0.06459873 0.0134305665 0.028364394 0.04116924
0002d0 b6 86 de 3c 30 c8 80 bb ed 2c 4e 3b 15 f9 fd bc
       0.027163845 -0.003930114 0.0031459883 -0.03100256
0002e0 98 4b 38 bd 66 50 1c 3d 76 80 90 bc 52 c6 11 bd
       -0.044993967 0.03816261 -0.01763938 -0.035589524
0002f0 bc 31 02 bc b6 2c e6 3c 9e 2b df bc ee 3e 32 3d
       -0.007946428 0.028097492 -0.027242478 0.043517046
000300 be fa 59 3b 7a 25 93 ba e0 0b e2 3a 47 8d 21 3d
       0.0033261026 -0.0011226379 0.0017245971 0.039441373
000310 11 bd 7c bc ae 22 84 3d 08 d5 1f bd 4f 85 42 bc
       -0.015425936 0.06451927 -0.03902152 -0.011872604
000320 a8 5f 2c 3d 07 11 15 3a 65 b0 2a bc 1e 5b b9 3c
       0.042083412 0.0005686436 -0.010418032 0.022626456
000330 55 07 2a bb 7b f7 a3 3b c6 66 ba 3c 34 c7 58 3c
       -0.0025944312 0.005003867 0.022754084 0.0132310875
000340 34 3f ac 3c ae 6b 41 3c 44 a9 e5 bb f4 aa 98 3c
       0.021026231 0.011805458 -0.0070087034 0.018636204
000350 be c7 98 3c a1 cb b3 bc 21 59 14 3b f4 a1 56 3c
       0.018649932 -0.021947684 0.0022636133 0.013100136
000360 6a 76 d0 bb 51 e5 4b bc 74 0f f7 bc 61 3e fb bb
       -0.0063617723 -0.01244481 -0.030158736 -0.0076673483
000370 86 94 6f 3c e6 a0 c8 3b 75 54 1a bb 06 05 d1 3b
       0.014622813 0.006122696 -0.0023548875 0.0063787727
000380 4e 60 c7 3b 09 66 cd ba de cf c9 ba 65 25 d3 3c
       0.0060844785 -0.0015670668 -0.0015397032 0.025774667
000390 7b e7 46 bd 0b 39 47 3c 91 24 31 bc 2c 95 2f 3a
       -0.0485606 0.012159596 -0.010811941 0.00066979486
0003a0 05 89 8f 3c 53 37 c1 bb f7 b5 6c 3b 6a 44 9e bb
       0.01752139 -0.0058964877 0.0036119202 -0.004829933
0003b0 1b 8b b4 bb bd aa 30 3c 5e 7b 67 3c 2e 17 97 3c
       -0.0055097467 0.010782895 0.014128534 0.01844367
0003c0 ac 43 51 bc b1 c0 19 3b 6c f6 ab bc 1f c2 99 b9
       -0.012772482 0.00234608 -0.020991527 -0.00029327066
0003d0 bb 72 46 bb 44 0b b9 3b 93 5c 1e bc 75 b2 1e bc
       -0.0030280787 0.005647095 -0.009665626 -0.009686102
0003e0 40 50 02 bd 0d 85 98 bc 52 c9 a7 bc 10 72 d1 ba
       -0.031814814 -0.018618131 -0.02048174 -0.0015979428
0003f0 63 08 62 bc ab 18 8c 3b d4 9d 78 3b 60 e8 fc 3a
       -0.013795945 0.0042754016 0.003793587 0.0019295327

lstm.bias_ih_l0 f4 [128]
000000 79 83 bd 3c e0 04 d1 bb 57 ce 00 3d ab 00 12 3e
       0.02313398 -0.006378755 0.03144678 0.14258067
000010 07 15 67 3d f4 b9 91 3e bf 7b da 3d 54 35 9d 3d
       0.056416538 0.28462183 0.10668134 0.07676187
000020 52 14 4c 3e 07 9d 47 3d 45 1f b3 3c e0 5b aa 3d
       0.19929627 0.048733737 0.021865496 0.08318305
000030 64 01 62 3d ed 91 0d 3b fe 9f d9 3d eb f4 49 3e
       0.055177107 0.002160187 0.10626219 0.19722335
000040 c5 3b a6 3d 70 a2 31 3c 2a c7 42 3d 5f 53 d4 3d
       0.08116869 0.010841951 0.04755322 0.10367464
000050 62 4c e2 3c a8 d9 8a 3d ca 28 f2 3d 92 c8 11 3d
       0.027624313 0.06779796 0.11824186 0.03559167
000060 da e9 06 3e 8c 4e 8a 3d f9 63 e1 3d a3 b8 15 3d
       0.13175145 0.06753263 0.110053964 0.036553036
000070 8e 64 a6 3d a8 ce 4c 3d b3 1e 82 3d 3a 77 40 bc
       0.08124648 0.05000177 0.06353512 -0.011747176
000080 dd 7f 46 3d c3 13 88 3d 68 2b 5b 3d 1a 57 54 3d
       0.048461784 0.06644394 0.053508192 0.05184088
000090 8a 3e 2d 3e f8 4c a1 3e 4f 38 3b 3e f6 69 ed 3d
       0.16918388 0.31504035 0.18283199 0.11592476
0000a0 0f c1 89 3e 32 32 08 3d 54 a3 3a 3d fb 10 55 3d
       0.26905105 0.033250995 0.045565918 0.052018147
0000b0 6e 89 c8 3d 66 a5 e3 3c cb 83 a7 3d bf 07 68 3e
       0.09791838 0.027788829 0.081794344 0.22659205
0000c0 b7 bb 9e 3d 1d 3f 57 3d 0a 95 a3 3c 71 e9 95 3c
       0.077506475 0.052550424 0.019968528 0.01829979
0000d0 90 7f 78 3d 7c fc a8 3d 23 11 74 3d 81 a8 d6 3d
       0.060668528 0.082512826 0.059586655 0.10481358
0000e0 01 0a 49 3e b0 e7 e3 3d 02 bf 2d 3e 4e ab 2c 3d
       0.19632722 0.11128175 0.16967395 0.042155556
0000f0 57 54 11 3c 44 e6 12 bd aa b7 a6 3d 66 5e 89 3d
       0.008870206 -0.03586413 0.081405 0.06707458
000100 a5 9d ca bc 97 46 dd bd 2e 55 a5 bd a7 a7 03 3e
       -0.024733374 -0.108044796 -0.08072887 0.12856923
000110 6f 1a 17 3e de f9 74 3d 11 3a e8 3d 39 f7 71 bd
       0.14756177 0.059808604 0.113392 -0.05907366
000120 48 8b fe bd 8f 1b e4 bd 27 ce 81 bb ea a9 26 be
       -0.124289095 -0.11138069 -0.003961343 -0.16275755
000130 2d d0 2b be 51 6a bb 3d b0 94 e4 bd 10 e5 bc 3c
       -0.16778632 0.091511376 -0.111611724 0.023058444
000140 35 2d 13 be 84 e9 6d 3d 99 90 23 3c 95 48 fd 3d
       -0.14372714 0.058084026 0.009983205 0.123673595
000150 12 01 05 3d 38 70 cd 3c c0 a1 a8 3d 29 95 b2 ba
       0.032471724 0.025077924 0.08233976 -0.0013624775
000160 9b 6d 67 be 51 36 51 bd b2 df 55 bc b3 b3 d9 3b
       -0.22600405 -0.05107719 -0.013053821 0.0066437363
000170 c5 b5 21 be c4 77 12 3e 22 3c 5e bc 6b e4 2b 3d
       -0.15791996 0.143035 -0.0135641415 0.041965883
000180 b6 14 f7 3a 35 06 42 3d 89 4b ad 3d 4d 6b 85 3d
       0.0018850777 0.0473692 0.08461673 0.065146066
000190 6b 86 3d 3e 73 1d af 3e 44 f8 58 3e 17 8e 44 3e
       0.18508308 0.34202155 0.21188456 0.19194828
0001a0 c6 56 38 3e ad e5 73 3d 95 aa f3 3c f7 5e fb 3d
       0.18001851 0.059545208 0.029744426 0.122739725
0001b0 64 7c 27 3d 5d ed 55 3d 19 19 e1 3d 67 03 6f 3e
       0.040890113 0.05222832 0.10991115 0.23341142
0001c0 15 11 37 bd aa 30 7a 3d 54 3b 8b 3d 77 16 07 3e
       -0.044694025 0.061081566 0.06798425 0.13192163
0001d0 7f 2a b1 3d f0 88 9b 3d e7 85 33 3e 90 2c e0 3d
       0.086506836 0.07594478 0.17531548 0.109459996
0001e0 0e 24 db 3d 32 23 0a bd 95 c2 0f 3e a7 84 7e 3d
       0.10700236 -0.03372497 0.14039071 0.062138226
0001f0 76 26 ad 3c 09 0c 5e 3d f5 35 9c 3d 18 37 bc 3c
       0.021136504 0.054210696 0.07627479 0.02297549

lstm.bias_hh_l0 f4 [128]
000000 75 8f 71 3c d8 54 fc 3c 36 79 e5 3d 6a fb 16 3e
       0.0147436755 0.030802175 0.1120476 0.14744344
000010 7e 29 41 3e 83 c0 91 3e d3 84 ae 3d 6e 6f dc 3d
       0.18863484 0.28467187 0.08521428 0.10763441
000020 b0 78 45 3e 22 68 50 3d dc df 9d 3c 8d 7e 68 3d
       0.1928432 0.05088056 0.019271784 0.056761313
000030 bc a9 80 3c 2c e0 0d 3d e5 93 dc 3d 2e c1 26 3e
       0.015705936 0.034637615 0.10770396 0.1628463
000040 a3 4a 88 3d c3 0d 97 3c 9b 7f 51 3d d9 d1 d0 3d
       0.06654861 0.01843918 0.051147085 0.10196275
000050 8c dd 0b 3d cc f8 9a 3d 8b 1c f9 3d c3 2d b9 3d
       0.03414683 0.075669855 0.12163647 0.090419315
000060 a1 70 1d 3e fb a3 c4 3d bf 92 f5 3d aa 32 51 bb
       0.15374996 0.09601589 0.1199088 -0.0031921067
000070 b0 97 dc 3d fd 4d 21 3d e1 ec 66 3d 32 68 19 bc
       0.107711196 0.039381016 0.05637825 -0.009363221
000080 8f 1e 1e 3d 3c 80 62 3d 96 3d 82 3d 1f 71 a5 3d
       0.03860336 0.055298075 0.06359403 0.08078217
000090 a1 64 82 3e 92 30 a1 3e 87 6e 3b 3e 93 4a 50 3d
       0.254674 0.3148237 0.18303882 0.05085237
0000a0 c4 2f 92 3e fd 34 1d 3d c5 c2 34 3d 97 89 34 3d
       0.28552067 0.03838061 0.04413106 0.04407653
0000b0 52 e5 63 3d 48 e5 6c 3d 1c 55 74 3c 97 6d 86 3e
       0.05563862 0.057835847 0.01491287 0.26255485
0000c0 43 25 7e 3d 48 10 74 3d 47 60 c2 3c da 4f bc 3c
       0.062047254 0.05958584 0.02372755 0.022987295
0000d0 79 57 6d 3d 44 92 68 3d ba a3 87 3d 7d ef 08 3e
       0.05794475 0.056780115 0.06623025 0.13372608
0000e0 19 f1 52 3e b8 98 d1 bc 1a 4e 0f 3e 36 4e 7f 3d
       0.20599784 -0.025585517 0.13994637 0.062330447
0000f0 9a 23 15 3c c9 8a f6 bc c9 a7 a4 3d ce 7a a1 3d
       0.009102726 -0.030095475 0.08039815 0.07884751
000100 1a 48 b6 bc 0d ae 01 3e 68 11 2b be ba fa 82 3e
       -0.022251178 0.12664051 -0.16705859 0.25581914
000110 8d bc 0e 3e a8 9a 3d 3d 37 41 0e bd 78 cf 38 be
       0.13939114 0.04629007 -0.034730162 -0.18047893
000120 10 57 c9 bb 56 de 59 bd f3 5b 0e 3e ad 48 c0 3d
       -0.006144412 -0.05319055 0.13902263 0.09388862
000130 2d f0 e3 bc 3a 38 e3 3d 7e 7d b2 bd 37 4e 10 be
       -0.027824486 0.11094709 -0.08715342 -0.14092337
000140 5e ae 0f be 40 49 96 bd 68 b6 54 bd 9a 30 07 3e
       -0.1403136 -0.0733819 -0.05193177 0.13202134
000150 ee 6c 34 3d 08 3f f3 3c 9b d8 ca bd dd d0 84 be
       0.044049196 0.029693142 -0.099045955 -0.259406
000160 87 20 30 be 0a 8c f6 3d 51 f6 fc bd 5c fb ef bd
       -0.17199908 0.12038429 -0.123516686 -0.11717865
000170 b5 2f 48 bc 8f 0c c3 3d 88 1e 18 be d9 38 04 3e
       -0.0122184055 0.0952388 -0.14855397 0.1291231
000180 f2 dd 30 bd 48 b2 f1 3c c3 ad 0b 3d 70 b2 59 3d
       -0.043180414 0.029503956 0.03410126 0.053148687
000190 7e 55 43 3e c7 0e af 3e 66 00 be 3d c6 21 c7 3d
       0.19075581 0.34190962 0.0927742 0.09723239
0001a0 96 ae 54 3e 2e e4 73 3d f9 e3 1d 3d 72 81 c6 3d
       0.20769724 0.05954378 0.03854749 0.096926585
0001b0 98 b0 92 3d b5 2a a4 3d 3b af 06 3e 53 85 56 3e
       0.07162589 0.08015958 0.13152783 0.20949297
0001c0 05 6f 9d bd fb fa 7e 3d 4b 8b 85 3d 47 12 06 3e
       -0.07687191 0.062251072 0.06520709 0.1309291
0001d0 75 8f f1 3d 35 c6 8e 3d e1 4d 2d 3e ca 69 72 3d
       0.117949404 0.06971399 0.1692424 0.05918292
0001e0 da 23 f2 3d 6a f0 13 3d 1f 27 10 3e f6 4b 01 3d
       0.118232444 0.03611795 0.14077424 0.031566583
0001f0 49 25 33 3d 84 a7 3c 3d 5f 11 cc 3d 45 c5 e8 3c
       0.04373673 0.046058193 0.09964251 0.028414378

gcn1.bias f4 [32]
000000 f6 39 0e bd f1 02 89 bc 82 b8 c6 bb b5 9e ca 3d
       -0.034723245 -0.016725035 -0.0060644755 0.09893552
000010 31 bb 8c 3d aa 62 11 3d 07 54 98 bd d3 b8 51 3d
       0.068716414 0.035494484 -0.07437902 0.051201653
000020 ca 42 07 be b7 2a 15 bc 56 29 ea 3c 3e 6d 6d 3d
       -0.13209072 -0.009104422 0.028584164 0.05796551
000030 af 7c 90 3d 18 fe 06 b7 8d 0d 7c a3 a3 e3 b4 3d
       0.070550315 -8.046183e-06 -1.3663817e-17 0.08832481
000040 56 71 47 3d f9 74 c3 3d ed 89 48 bd 91 d6 80 bd
       0.04869207 0.09543795 -0.04895966 -0.06290925
000050 49 8a 8c 3c 08 19 1d be 0b 7f 99 bc ff bf 56 3d
       0.017155783 -0.1534158 -0.018737337 0.052429195
000060 ae 6a 2a bd 62 50 bb 3d 96 a5 e4 3d b6 16 cf 3d
       -0.041605644 0.09146191 0.111643955 0.10111754
000070 92 5e 8b 3d 7d a5 9e bd 18 0c 23 3d e1 c4 cd 3d
       0.06805147 -0.07746408 0.039806455 0.10047317

gcn1.lin.weight f4 [32, 32]
000000 18 af ce bc 53 19 a5 bd 0b 18 ab 3d e6 ad 61 3d
       -0.025229976 -0.08061471 0.08354195 0.055097483
000010 4d bb 1b be db 6c 8e be 6a 6a a5 3d 26 ea 0e 3e
       -0.15208168 -0.27817425 0.080769375 0.13956508
000020 dd f0 38 be 21 21 ad bb 5d 89 1e 3d f6 c9 be bd
       -0.18060632 -0.0052834903 0.03870522 -0.09315865
000030 d6 b6 e7 3d eb 4c bd 3a 91 37 a4 3d 5b 1c 68 be
       0.1131417 0.0014442479 0.08018411 -0.22667067
000040 8c ac 0c 3d b7 fd 7c bd 17 7c 89 3d 64 f6 00 be
       0.03434424 -0.0617654 0.067131214 -0.1259399
000050 54 47 95 3d c0 d8 12 3d 82 86 be bd 28 c0 b1 bd
       0.072889954 0.03585124 -0.09302999 -0.08679229
000060 ff 46 4e 3e 44 33 57 3c 8a 37 61 3e 2a b3 9a bb
       0.2014427 0.013134781 0.21993843 -0.004721065
000070 30 e7 53 bd 8e 32 45 3c 75 fd af bd 3a f1 47 3d
       -0.05173415 0.012035979 -0.08593265 0.048814036
000080 1b 76 ae bd 1a 7c 5d bd 12 87 ea bb 59 69 2c 3b
       -0.085186206 -0.05407343 -0.007157215 0.002630791
000090 65 d0 05 3c 18 a6 53 bd 25 d6 b1 3d e4 18 38 3c
       0.008167361 -0.05167207 0.08683423 0.011236403
0000a0 5d 17 ac bd 44 93 e4 3c 02 f3 00 3a 0f d5 a3 bd
       -0.08402894 0.027902253 0.00049190235 -0.07999622
0000b0 7c 4e a0 3c 42 f2 c3 3d 2e 2d a7 bd ce bd 79 bd
       0.019568674 0.095676914 -0.08162914 -0.060972027
0000c0 65 06 ec bd 44 29 ef 3c 1e ff 84 3d 37 ee 90 3d
       -0.11524657 0.029194482 0.06493972 0.07076686
0000d0 3b 99 17 3d 0d f7 0a 3c 68 ac 93 3c 78 29 91 bd
       0.037011366 0.008481753 0.018026546 -0.07087988
0000e0 a2 e7 d2 bc d7 a0 af 3d 31 bf 79 3c 0a 51 88 bd
       -0.025745217 0.085756 0.0152433375 -0.06656082
0000f0 9c 7b 17 bd 39 41 00 3e 08 49 4f bd b8 08 97 3d
       -0.036983117 0.1252488 -0.050606757 0.0737471
000100 32 79 98 bd 78 b4 9f bd 7b de 72 3d aa c7 98 3d
       -0.07444991 -0.077980936 0.059294205 0.07459958
000110 d1 e5 31 be 03 c1 26 be bc 4f 6f 3d 04 a2 e9 3d
       -0.17372824 -0.16284566 0.05842565 0.11407855
000120 34 37 08 bd f9 6c 06 3d f6 b8 7a 3c 44 55 13 bd
       -0.03325577 0.03281877 0.015302887 -0.035969988
000130 e8 cc d8 3c f5 97 72 3d b8 e0 3a bd 5b 00 10 be
       0.026464894 0.05922695 -0.045624465 -0.14062636
000140 18 ee b1 bd 4c 5b ae 3b 07 da 0f bd 66 32 b7 38
       -0.08687991 0.005320942 -0.035120036 8.7355074e-05
000150 39 67 6e bc 01 cc ee bd a3 33 17 bb be 19 4d bd
       -0.014550977 -0.116600044 -0.002307155 -0.050073378
000160 ae 10 e4 3d 6e 43 1c 3e 17 dd d9 3d e5 7d 9b bd
       0.11135994 0.15260097 0.10637873 -0.07592372
000170 cc 6c 82 bd 74 62 50 3d 83 05 f8 bd 44 30 f2 3d
       -0.063684076 0.050875142 -0.12110426 0.11825612
000180 6e 26 1c be 2d a7 2f 3b e4 69 16 bc 81 6e 96 3d
       -0.15249035 0.0026802525 -0.00918052 0.07345296
000190 31 6c ae bd d6 25 d4 bc 63 c7 de 3c 76 90 8b 3c
       -0.085167296 -0.025896948 0.027194684 0.017036658
0001a0 ab 8d 9e 3c 71 47 93 bb a9 dc 29 3d 9a 18 82 3b
       0.019354662 -0.0044946005 0.041470204 0.003970218
0001b0 7d a3 c8 3d 61 3e b0 3d 6a de 2d 3d f3 bb a0 bb
       0.09796808 0.08605648 0.04244844 -0.004905218
0001c0 fe 5a dd 3b 26 0f 06 3b 49 ec 36 3e cd 73 4b 3d
       0.006755232 0.0020455807 0.17863573 0.049670983
0001d0 be 27 14 3e cf ee 90 bd 4e 85 bf bd 95 96 c6 bd
       0.14468285 -0.07076799 -0.09351598 -0.0969669
0001e0 34 cd 56 bd db 3d 3f 3e fc 95 54 bc 38 2f 83 bb
       -0.05244179 0.1867594 -0.012975212 -0.0040034316
0001f0 60 2a 36 be 75 b6 d1 3d cb ff 8b bd 9f c9 d8 3c
       -0.17789602 0.10239879 -0.06835898 0.026463328
000200 97 2e b9 bd fb 3b ff bd c3 68 18 3e 57 93 40 3e
       -0.090420894 -0.12462612 0.14883713 0.18806206
000210 25 72 1a 3e ad cd 63 3d be fd 92 bc 19 08 e2 3d
       0.15082605 0.05561607 -0.01794326 0.11036701
000220 69 9f 11 3e d2 36 82 bb f0 ca b3 3b d3 51 d8 bc
       0.14220966 -0.0039738202 0.0054868385 -0.026406204
000230 27 1b 04 3e 79 17 e2 3d 53 d9 ff bd e1 73 8c bb
       0.12900983 0.11039633 -0.12492623 -0.004286275
000240 6c ff 2f be ef d6 90 bc fa af 9a 3c c4 3b c3 3d
       -0.1718728 -0.017680613 0.01888274 0.09532884
000250 6b 33 79 3d d2 32 e3 bc 6e c4 dc 3c 33 d9 cb 3d
       0.06084005 -0.027734194 0.026949134 0.09953537
000260 31 f7 e1 3d e0 6c fd 3d 5a a4 4e bd 2c 02 74 bd
       0.11033476 0.12374282 -0.050449707 -0.059572384
000270 11 98 31 be a4 db 6e 3d 26 c5 92 bd 22 ec 2b 3d
       -0.17343165 0.058314934 -0.07166509 0.04197324
000280 76 6b 55 be 62 b5 da 3c 86 66 19 3c 5c 45 45 3e
       -0.20841774 0.026697818 0.009362822 0.1926474
000290 ba 9d 5a be a2 d3 ee bc 3c f1 4c 3e 46 2c d6 3d
       -0.2134923 -0.029153649 0.20013899 0.10457663
0002a0 58 00 ed bd be 64 34 be 14 02 d6 bd 66 db 06 be
       -0.11572331 -0.17616555 -0.10449615 -0.13169631
0002b0 9e 24 47 3e 69 77 08 be 38 32 44 3c 6b 95 23 3e
       0.19447562 -0.13326801 0.011974864 0.15974967
0002c0 11 61 71 be 48 de a5 3d 40 a1 9d 3d 37 ab 75 3d
       -0.23572184 0.080990374 0.076967716 0.059977736
0002d0 18 f1 e5 bc c5 e2 04 be 60 71 52 bd 88 5a 2a be
       -0.028069064 -0.1297713 -0.051377654 -0.16636097
0002e0 12 60 40 be be 67 34 3e e5 46 a5 bd 34 ce 65 bd
       -0.18786648 0.176177 -0.08070163 -0.056104854
0002f0 72 81 c9 bd f3 2a 61 3e 43 ca 0c be b7 72 e8 3d
       -0.09839143 0.2198904 -0.13749032 0.11350005
000300 c6 53 c6 3b 62 0b c8 ba 21 de f7 3d 47 6b 0d 3d
       0.006052467 -0.0015262181 0.121029146 0.034526136
000310 62 3e c5 bd 5f 2a 97 be b0 4e 11 3e ae bc 32 3e
       -0.09631039 -0.29524514 0.14190173 0.17454788
000320 d3 10 9a bd 30 90 ce bb 71 de 5e 3c 05 1b ab bd
       -0.0752274 -0.0063038096 0.013602839 -0.08354763
000330 9f b8 f9 3c a6 9e 9e 3c 60 04 3a 3d 82 26 6b be
       0.030483542 0.019362759 0.04541433 -0.22963908
000340 f9 a9 fe bd 10 7b 6b bb 14 cf e9 3b 31 e8 12 be
       -0.124347635 -0.0035931505 0.0071352813 -0.14346386
000350 7c 89 95 3b 47 86 9a bd c9 a0 a8 bd d7 5f 98 bd
       0.0045635086 -0.075451426 -0.08233792 -0.07440155
000360 a5 ae 53 3e a0 98 c5 39 67 86 17 3e ad 61 67 bd
       0.2067209 0.00037688483 0.14797364 -0.056489635
000370 d4 4c 59 bd 55 98 ac bb fb f2 c7 bd 51 c9 c0 bd
       -0.053051785 -0.005267183 -0.09763142 -0.09413398
000380 74 a7 3e bd 1c 2e 55 3d 42 06 8e 3d d5 c1 2f 3e
       -0.046546414 0.052045926 0.06934787 0.17163785
000390 fd 2a 4a bd 01 3c 1a 3d f3 9d 74 3c 3f d5 79 bd
       -0.049357403 0.03765488 0.014930236 -0.060994383
0003a0 6a 60 f2 3d 08 0b f8 bc f1 d3 02 3e ca 8e 9f bd
       0.11834796 -0.030278698 0.12776162 -0.07790907
0003b0 3b 86 c0 3c e2 2b 76 3d 26 85 51 be aa cb 04 bd
       0.023501506 0.060100444 -0.20460948 -0.03242079
0003c0 0f ba 3c be 8c 00 11 3c 0f 62 66 bd 94 e1 51 bc
       -0.1843035 0.008850228 -0.05624586 -0.01281013
0003d0 91 77 c6 3d 6b f4 07 be f2 f9 9c 3d 8b 99 fc bd
       0.09690774 -0.13276832 0.07664861 -0.123339735
0003e0 4c 0d 50 3e d2 4e 2e 3e c7 5b 03 3d 8f de ff bd
       0.20317572 0.17022255 0.032069948 -0.124936216
0003f0 7d 27 5a be 4a 9b aa 3d c1 11 33 3d ea a4 7e 3c
       -0.21304126 0.083304 0.043718103 0.015542248

gcn2.bias f4 [32]
000000 9d 04 44 3e 23 70 02 bd df fc ad bc a8 78 89 bd
       0.19142385 -0.031845223 -0.021238742 -0.067124665
000010 e3 66 ce bc 2a 92 46 be 19 01 9c bc 30 70 56 3e
       -0.025195545 -0.19391695 -0.019043492 0.20941234
000020 7c 80 d9 bc 0e a1 a7 bc e6 89 d5 bc 47 de ac bc
       -0.026550524 -0.020462539 -0.026066732 -0.021102084
000030 23 72 85 bd f8 46 fe bc df 5f f1 ba 28 4c 41 bb
       -0.065159105 -0.0310397 -0.0018415413 -0.0029494856
000040 79 38 4c 3e c5 1c 2f bd ba 4b 3b be 02 f1 32 be
       0.19943418 -0.042752046 -0.18290606 -0.1747475
000050 c5 de 14 bd 0e 2e d9 bc c0 49 20 3e fa 01 2b 3e
       -0.036345262 -0.026511218 0.15653133 0.16699973
000060 5a a8 94 bc d5 2d 17 bd b0 1b 3f 3e 29 1d da bc
       -0.018146683 -0.036908943 0.18662906 -0.026625233
000070 ea a5 53 3e 5c 26 63 bd c5 dc 36 bd fe 46 5f 3e
       0.2066876 -0.055456504 -0.044644136 0.21804425

gcn2.lin.weight f4 [32, 32]
000000 0e 87 26 bc 18 12 39 bd 0e 4d c6 bc 52 b0 f5 bc
       -0.0101640355 -0.04518327 -0.024206664 -0.029991303
000010 93 ac de bc 17 e7 e8 bd f0 8c d0 bb 44 f9 0c bd
       -0.0271819 -0.11372202 -0.0063644573 -0.034417406
000020 b4 fe 13 bc b9 83 8a bc 6b c1 44 bd 18 06 00 be
       -0.009032894 -0.016908513 -0.04803602 -0.12502325
000030 72 45 e4 bd de 2d f3 97 3e dc c3 93 51 f7 a3 bc
       -0.11146058 -1.5715085e-24 -4.9442096e-27 -0.02001539
000040 92 2a bf bd 9d b7 52 bd 8e 03 0b bd ce b9 18 bc
       -0.093342915 -0.05144464 -0.033938937 -0.009321643
000050 90 22 6c bc 5c 87 10 bc 77 56 e0 bc 1f d5 19 bd
       -0.014412537 -0.008821335 -0.02738498 -0.037556764
000060 b6 f1 c6 bc e4 af b2 bd 60 7f a5 bd 80 67 c7 bd
       -0.024285179 -0.08724955 -0.080809355 -0.09736538
000070 ad e4 38 bd a7 06 44 bc 7d 8a 70 bd 8b 18 a2 bd
       -0.045139957 -0.011964477 -0.058725823 -0.079148374
000080 23 38 26 3d 06 6d 9a bc 40 30 ca 3d 7f 1f a9 3d
       0.04058088 -0.018850815 0.09872484 0.082579605
000090 d0 b5 95 3d 51 c3 0d 3e 8c 92 71 3d 50 e3 3d 3d
       0.073100686 0.13844039 0.05897765 0.04635936
0000a0 be 87 26 bc 49 0f d9 3c 13 4b 1f 3d 62 0a 60 3d
       -0.010164199 0.026496546 0.038889956 0.0546974
0000b0 0e 28 05 3d 7c 2c 3c 9a f6 27 0a 9f 9a 01 15 3e
       0.032508902 -3.8913423e-23 -2.925569e-20 0.14551392
0000c0 8d 07 c2 3d 44 27 ba 3d a7 2b d4 3d 66 04 9b bc
       0.094740964 0.090895206 0.103598885 -0.018922996
0000d0 ed 33 6c 3d e0 d4 55 bc 45 38 b6 3d 05 1f 33 3d
       0.057666708 -0.013051242 0.08897451 0.043730754
0000e0 ec f9 82 3d 10 05 af 3d e1 8c 99 bc f6 a9 c3 bc
       0.06395325 0.085458875 -0.018743934 -0.023884755
0000f0 47 80 fd bc 12 6c 08 3d 5f 5d 0f 3d a8 51 1b 3d
       -0.030944956 0.03330619 0.035001155 0.03791967
000100 90 38 90 3d 6b a6 bc bc 3a 7b 80 3d 1e 5b 3c 3d
       0.070420384 -0.023028573 0.062735036 0.045985334
000110 80 f1 cb 3d 1d 99 c4 3d e3 af b0 3d 54 bf 89 3d
       0.09958172 0.095995165 0.08627298 0.06725946
000120 1f 76 c7 bb 00 7e 14 3d a5 e5 41 3d 03 a0 28 3d
       -0.006087079 0.036252975 0.047338147 0.041168224
000130 00 83 d8 3d 28 f4 1d 99 86 79 4a 80 99 a7 dc 3d
       0.10571861 -8.166017e-24 -6.839421e-39 0.10774154
000140 e5 da 27 3d cd 94 a2 3d 73 c8 49 3d f3 2a 29 bc
       0.04098024 0.07938538 0.04926343 -0.010325181
000150 60 63 85 3d 0b 41 5a 3a 50 aa 9f 3d 84 85 00 3d
       0.06513095 0.0008325732 0.077961564 0.03137733
000160 2a 9a 28 3a e5 56 2a 3d ad f9 95 ba e5 ee 91 3c
       0.00064316636 0.041586775 -0.0011442207 0.01781411
000170 2e a3 7d 3b 2c fd a4 3d 40 b1 0f 3d 01 d9 51 bd
       0.0038702 0.08056101 0.03508115 -0.05123234
000180 94 12 97 3d 63 f4 8b bb dd ba c9 3d 2b c0 d3 3d
       0.0737659 -0.0042710765 0.098500945 0.103393875
000190 f7 44 2a 3e 8c 47 12 bc 95 7b 7f 3d f0 8a be 3d
       0.1662787 -0.008928191 0.062373716 0.09303844
0001a0 18 62 82 bc c1 0d 5e 3d 9a 82 16 3d 20 0b 02 3d
       -0.015915915 0.054212335 0.036745645 0.03174889
0001b0 84 ae 77 3c 60 68 d4 19 be 6c da 8e c7 d0 05 3e
       0.015117291 2.1962443e-23 -5.3845864e-30 0.13067923
0001c0 08 f3 2a 3d 29 dd 91 3d f9 38 ab 3d 4b e5 16 bc
       0.04173568 0.07122261 0.08360476 -0.009209941
0001d0 c7 4f b9 3d 0b 63 67 bc c9 57 a5 3d 99 e4 10 3d
       0.090484194 -0.014122735 0.08073384 0.035374258
0001e0 da 50 dc bc ef 28 0d 3e 1f 00 89 3d 6b a1 08 bd
       -0.026894022 0.13785146 0.06689476 -0.033357065
0001f0 c7 54 f1 3b 72 4e 69 3d bc 01 00 3e b9 53 dc 3a
       0.0073648426 0.056959577 0.12500662 0.0016809619
000200 68 71 83 3d f5 25 34 bc bf 76 b0 3d 7b 56 a9 3b
       0.06418115 -0.010995378 0.08616399 0.00516778
000210 2e fe d9 3c 30 fd 0e 3e 6b c3 90 3d 0c 8e 95 3d
       0.02661046 0.13963771 0.07068523 0.07302484
000220 88 6a f7 bc bb 10 72 3d 9f e0 03 3d 68 5c ef 3a
       -0.030202165 0.059097987 0.032196637 0.0018261792
000230 dd 6a ee 3d 02 78 09 1a ca 01 e4 82 b2 21 db 3d
       0.11641476 2.8427878e-23 -3.3502616e-37 0.10699786
000240 00 59 d7 3c 4b 05 b3 3d e4 82 9a 3d 71 65 63 bc
       0.026287556 0.08741244 0.07544497 -0.013879166
000250 b0 3b 13 3d 19 1f 62 bc 97 b0 85 3d cd 1f 72 3d
       0.035945594 -0.01380136 0.065278225 0.05911236
000260 9f 14 cf 3d a5 01 bf 3d f3 3e f1 bc f9 97 0b bd
       0.10111355 0.093264855 -0.029448962 -0.03408048
000270 49 27 a6 3c 0f 72 5d 3d 1b 5a e5 3d 67 56 c0 3c
       0.020282404 0.054063853 0.11198827 0.0234787
000280 92 a1 d0 bd 23 f2 34 be 00 f4 32 be 58 82 b0 3d
       -0.10187067 -0.17670493 -0.17475891 0.08618611
000290 b4 cf 99 3d ef d7 ca 3c 52 37 e7 bd 1d 0d bc 3d
       0.07510319 0.024761168 -0.112898484 0.09182189
0002a0 43 63 31 bd 9a a9 e8 bd 2e 2f 81 be 4a 93 0c bc
       -0.043307554 -0.11360474 -0.25231308 -0.008580038
0002b0 1b 99 32 3d 73 8b 26 19 e3 c7 83 80 45 28 aa 3d
       0.043603044 8.6101604e-24 -1.2102156e-38 0.08308462
0002c0 f7 b8 80 3d 6f bd 9d 3d 16 c9 39 be d4 38 e3 bc
       0.06285279 0.07702147 -0.18143114 -0.027737059
0002d0 99 4d 07 be 25 b8 35 bd 2f 84 2e be c8 f3 59 be
       -0.13213195 -0.044365067 -0.17042612 -0.21284401
0002e0 db a8 4a be 13 8a 13 3d 79 18 8e 3d 2e f9 4c 3d
       -0.19790976 0.03602035 0.069382615 0.050042324
0002f0 47 26 a0 3d 12 91 dd bd c7 53 87 3d 8c 18 b1 3d
       0.07819801 -0.108186856 0.06607776 0.0864726
000300 c6 5e 2b 3d 97 f8 bb bc ef 2d d4 3d 7a 6c ba 3c
       0.04183843 -0.022945685 0.10360324 0.022756804
000310 75 bd ca 3d 84 4d d5 3d ac cd 06 3d 94 4b de 3d
       0.09899417 0.104151756 0.032910988 0.10854259
000320 d1 df 91 bc f3 e0 15 3c 26 d9 d1 3c 1c a2 04 3e
       -0.01780692 0.00914787 0.02561624 0.12952465
000330 61 da d2 3d 27 04 44 99 d9 fe 79 81 fd 06 3b 3d
       0.10295559 -1.0133801e-23 -4.591692e-38 0.04566096
000340 59 34 98 3d ef 81 8a bc 57 e7 c9 3d 22 fb df bc
       0.074318595 -0.01690766 0.09858578 -0.02734143
000350 b2 32 2d 3d 23 c1 21 bd bd e4 67 3d 36 4f 2a 3d
       0.042284675 -0.03949083 0.056614626 0.041579448
000360 c7 9f 95 3d 95 80 d0 3d 95 a0 32 bd 84 ef 86 3c
       0.07305866 0.10180775 -0.043610174 0.016471632
000370 47 e8 02 bc 20 61 a6 3d 07 a4 fa bb de 4e fd bc
       -0.00798995 0.08123994 -0.007648948 -0.030921396
000380 29 d3 27 3e ea b7 f0 3d 90 27 e9 3d 04 29 a9 3d
       0.16389145 0.11753829 0.11384499 0.08259776
000390 fe f8 af 39 a1 06 7d 3d 1c 14 e2 3d eb 24 8d 3d
       0.00033564115 0.0617739 0.11038992 0.06891807
0003a0 24 5d 2a be e3 52 af 3d 82 c5 3a 3d 22 9c e6 bc
       -0.16637093 0.08560731 0.045598514 -0.028150622
0003b0 dd 41 4e 3c bd 50 08 32 7a fe 18 22 3f 9c 96 bd
       0.012588945 7.9346e-09 2.073456e-18 -0.0735402
0003c0 1c 5a 58 3d 8e 74 61 bd cb f6 50 3d b9 9e 98 bd
       0.05282031 -0.055042796 0.05101661 -0.07452149
0003d0 76 db dc 3d cb 4f 65 be b9 60 22 3a 7a f5 2f 3d
       0.10784046 -0.2239372 0.00061942224 0.042958714
0003e0 ea 88 0f 3e db c1 1b bd fc ea 1e bf 91 f7 1c bf
       0.14017072 -0.03802667 -0.6207731 -0.61315256
0003f0 11 1c 21 bf 0b 38 6f 3e 7e 5a 83 bc 8d bb 17 bf
       -0.6293345 0.23361222 -0.016034361 -0.59270555

fc1.weight f4 [16, 32]
000000 5e 5b 86 bd 45 15 e4 3d 03 a4 e4 3d ab 73 19 3d
       -0.06560396 0.11136869 0.11164095 0.037463825
000010 8b 3a 5a 3d cd c1 32 3e e8 ee 29 3e 48 2e c0 3e
       0.053278487 0.17456742 0.16595042 0.3753531
000020 e9 b7 94 3d 4b 55 bc 3b 10 6d fd 3d 8f 89 9d 3d
       0.072616406 0.0057474724 0.12374318 0.07692253
000030 c4 c9 f2 3d c3 aa 1f 3e c9 ab 13 3e 93 b6 e3 3d
       0.1185489 0.15592484 0.14421 0.11118808
000040 10 1a 88 3e 1e ba 41 3d 52 ef 51 3e 85 18 49 3e
       0.26582384 0.047296636 0.2050145 0.1963826
000050 b6 8b 99 3d 17 10 a1 3d ae 12 89 bd 84 44 91 bd
       0.07497351 0.07864397 -0.06693016 -0.070931464
000060 c3 eb 8a 3d 00 c6 92 3d d7 3a 74 bd 42 2e 2d 3d
       0.06783249 0.07166672 -0.059626427 0.042280443
000070 d2 40 bc 3e 72 94 d2 3d b5 e0 90 3d 5c 66 e0 3e
       0.36768204 0.1028222 0.070741095 0.43828094
000080 9a 43 89 bd c7 d8 26 3e 31 7b 94 3d 19 b7 a0 3d
       -0.06702347 0.16293631 0.072500594 0.07847423
000090 b5 2a 31 3e 48 2d ec 3d 2c 1a 1d 3e b4 67 95 3e
       0.17301448 0.11532074 0.15342015 0.29180682
0000a0 28 5f a0 3d 09 d3 de 3d 00 d2 00 3e 6a c5 a9 3d
       0.078306496 0.108800955 0.12580109 0.08289607
0000b0 3b 10 23 3e e5 10 3d 3e 7c 79 d3 3d 8c 14 2e 3d
       0.1592416 0.18463476 0.10325906 0.042500064
0000c0 a8 67 8a 3e aa 6b 7b 3d ea d2 55 3e 3d 73 d0 3d
       0.27032208 0.061381973 0.20881239 0.1017823
0000d0 7a 67 a3 3d c9 35 b0 3d 8e 50 a3 bd 24 60 95 bd
       0.07978721 0.08604009 -0.07974349 -0.07293728
0000e0 0d ca e9 3d 7d 78 12 3e 2e 70 85 bd b9 10 6f 3d
       0.11415491 0.14303775 -0.06515537 0.058365557
0000f0 5f 69 9a 3e 98 52 93 3d 4f 7a 28 3e 39 da bc 3e
       0.30158517 0.07193488 0.16452907 0.3688524
000100 7b 66 80 bd ab 19 30 3b 11 70 89 3d ae 20 b3 3c
       -0.062695466 0.0026870768 0.06710828 0.021866169
000110 cb 6c 1f 3d eb 2f 46 3e b5 b3 42 3d 9f 79 b9 3e
       0.038922112 0.19354217 0.047534663 0.36225602
000120 d6 75 b2 3d fa 13 09 bc 88 ed 47 3d 6e 37 95 3d
       0.08713882 -0.008366579 0.04881051 0.07285963
000130 1a 47 6c 3d 21 af 49 3d 8f 00 cf 3d 53 46 81 3d
       0.057684995 0.04923928 0.101075284 0.063122414
000140 59 7f 6f 3e bf a0 b7 3c 14 ab 6c 3e f5 39 47 3e
       0.23388423 0.022415517 0.23112136 0.19455703
000150 2d ed 2d 3d f7 ce 98 3d ee a0 90 bd c9 a5 8d bd
       0.042462517 0.074613504 -0.07061945 -0.06916387
000160 2d 02 47 3d 6f 1f d8 bc f0 ff 50 bd a1 34 05 3d
       0.04858606 -0.026382176 -0.05102533 0.032520894
000170 25 40 ac 3e eb e1 fd 3c 9b 10 30 3d b8 79 ca 3e
       0.33642688 0.030991515 0.042984586 0.3954599
000180 b8 16 1b be bf 16 29 3e 4e f9 bc 3d 1e 6a 54 3d
       -0.15145385 0.16512583 0.092272386 0.051859014
000190 29 3f aa 3d ba e1 26 3e 98 50 c0 bc 2e cb d3 3e
       0.08312828 0.16297045 -0.02347593 0.4136595
0001a0 d4 c1 97 3d be 99 d3 3c 0b d7 0f 3d 42 89 99 3d
       0.07410017 0.025830146 0.03511719 0.07496883
0001b0 af 53 53 3c 6d a3 17 3d e5 81 d4 3d 4c da 3f 3d
       0.01289837 0.03702109 0.10376338 0.046839043
0001c0 cf ec a2 3e cc 8b 81 3d c3 f4 78 3e a1 6f 34 3e
       0.31821296 0.06325492 0.24312119 0.17620708
0001d0 39 c1 da 3c 50 d9 a2 3d 56 84 19 be e4 52 23 be
       0.026703464 0.07951605 -0.14991888 -0.15949589
0001e0 80 41 ff 3d ab 7d 21 3d 05 48 19 be 0b 70 26 3d
       0.12463665 0.039426487 -0.1496888 0.040634196
0001f0 3a ee e2 3e a5 33 c4 3d a0 a0 7a bc e0 a2 f3 3e
       0.44322377 0.09580163 -0.015297085 0.475852
000200 7d 65 01 3d 64 0e 14 be a2 a2 c9 bd 9a 47 42 be
       0.031590927 -0.14458615 -0.09845473 -0.18972626
000210 38 95 0d be 38 ec 97 bd 44 af b2 bd d1 3d 9c 3d
       -0.13826454 -0.07418102 -0.087248355 0.07628978
000220 ae 38 0f be 0c e1 69 bd 36 a9 08 be 84 69 10 be
       -0.13986465 -0.057099387 -0.13345799 -0.14102751
000230 0e a9 38 be 5f ad 08 be c9 e7 ab bc 2d 6a 85 bd
       -0.18033239 -0.13347386 -0.020984547 -0.06514392
000240 ff b6 8c 3d d7 13 1b be 39 2c fc bd c0 f7 2a bd
       0.06870841 -0.15144287 -0.12313122 -0.04174018
000250 3b 47 22 be fe 39 14 be ac e3 21 3d 37 66 30 3d
       -0.15847485 -0.14475247 0.039523765 0.04306623
000260 a2 af 8d bd 94 82 11 be 29 9d c3 3c d8 ec d5 bd
       -0.06918265 -0.14209968 0.02387865 -0.10445565
000270 49 95 a6 3d de d0 3e be 94 ee 0d be d7 b0 9d 3d
       0.08133943 -0.18634364 -0.13860542 0.07699745
000280 e8 d6 3b be ae 00 9f 3d d1 cf 8f 3c 5e 91 a5 3d
       -0.18343699 0.077638015 0.01755515 0.08084367
000290 5e c2 50 3d 0e b7 6c 3e de f0 33 bd dc 2c e9 3e
       0.050966613 0.23116705 -0.04393088 0.45542037
0002a0 67 fe a9 3d dc 24 fb 3d 93 81 0b 3d c8 58 b5 3d
       0.083004765 0.1226289 0.03405912 0.08854824
0002b0 e8 dd 5b bc 6e 97 2d 3d 9a a8 1c 3e 93 28 b7 3d
       -0.013419606 0.042380743 0.15298691 0.08943286
0002c0 c1 ff 93 3e 7a 9e b3 3d 9e 39 97 3e 99 42 7e 3e
       0.28906062 0.087704614 0.29536146 0.24830092
0002d0 fb 1b da 3d 00 74 86 3d 6a e7 3c be e7 de 41 be
       0.10649868 0.06565094 -0.18447652 -0.18932687
0002e0 4b 97 d6 3c 2f dd 2a 3d f6 55 39 be 50 91 c1 3d
       0.026195189 0.041714843 -0.18099198 0.09451544
0002f0 c6 2a cd 3e 17 63 c3 3d 52 39 40 bd 4b 99 f5 3e
       0.40071696 0.09540384 -0.046929665 0.47968516
000300 a6 ce 36 be aa 44 01 3c 1d b9 8b 3c 6b 32 19 3d
       -0.17852268 0.007889906 0.017056042 0.037401598
000310 dc 56 9d bd 23 08 83 3e de 21 09 3e 7d 00 c1 3e
       -0.07682583 0.25592145 0.13391826 0.37695685
000320 13 2c 9e 3d 5c 32 e3 3d be 1b 68 3c c6 b3 a6 3d
       0.0772325 0.1109359 0.0141667705 0.08139758
000330 a6 ad c1 bc 86 12 08 bc fa 0b 08 3e da 0a 1b 3d
       -0.023642372 -0.008305198 0.13285819 0.037852146
000340 f0 13 83 3e fa 7b 07 3d fd e9 8b 3e 93 03 3d 3e
       0.2560115 0.033077218 0.27326956 0.18458395
000350 91 54 78 3d 0a 14 a4 3c d3 b8 3d be 21 bd 43 be
       0.060627524 0.020029087 -0.18527536 -0.19115116
000360 fb 22 a0 bd b3 7f 0b 3e 78 db 38 be c5 5c f3 3c
       -0.07819172 0.13622932 -0.1805247 0.029707322
000370 41 ab b7 3e 5e 55 80 3d 59 34 1f 3c 03 26 ce 3e
       0.35872844 0.062662825 0.0097170705 0.40263376
000380 74 0b 0e be 8a eb 11 bd ef e5 b7 3d 71 4b b4 3d
       -0.13871557 -0.03562502 0.08979403 0.08803452
000390 8e 79 13 3c 68 59 57 3e 8e d8 14 bc 78 f1 d9 3e
       0.009001149 0.210302 -0.009084834 0.4256704
0003a0 1e be a1 3d 2e 64 0e 3d 8c c6 9a 3d d5 13 9c 3d
       0.0789759 0.034763508 0.07557401 0.0762097
0003b0 9c 4a 50 3d 58 e3 86 bd 30 e6 1f 3e 24 b4 b4 3d
       0.050852403 -0.06586331 0.15615153 0.088234216
0003c0 d9 97 88 3e 5c 59 a9 3d f8 6c 85 3e a0 e7 63 3e
       0.2667835 0.08268997 0.260597 0.22256327
0003d0 e9 74 08 3d a3 2f c1 3d b9 9d 11 be fd d4 1c be
       0.03331462 0.09432914 -0.14220323 -0.15315624
0003e0 bb 45 bb 3d 2e ab 14 3d 05 a3 10 be 3c 3e b4 3d
       0.091441594 0.036296062 -0.14124687 0.08800933
0003f0 3a a7 c8 3e 9b 96 fc bc c7 79 5b 3d c3 bc eb 3e
       0.39190084 -0.030833533 0.053582933 0.4604245

fc1.bias f4 [16]
000000 b1 b4 96 3c 32 b0 a9 3d f9 ef 26 3e fa 08 a1 3c
       0.018396707 0.0828556 0.1630248 0.0196576
000010 5a 23 52 3e f0 83 d4 3c 1b 98 b0 3c fc dd 81 3c
       0.20521298 0.025941819 0.021556905 0.01585292
000020 ea 01 bd 3c 8a 74 a3 3e 82 2b a3 3d 27 5b 2c b3
       0.023072202 0.3192485 0.07967283 -4.0129773e-08
000030 fe 76 62 a1 a5 62 2c 3e ac bf 4a ac 9f 10 06 3e
       -7.6729263e-19 0.16834505 -2.8812326e-12 0.13092278

fc2.weight f4 [6, 16]
000000 f4 80 c7 3e 1d 2d 49 3e a0 17 87 3e 7d 26 02 3f
       0.3896557 0.19646116 0.26385212 0.5083998
000010 6b 85 e5 be 6e 77 bb 3e fa e9 e5 3e b7 d4 e9 3e
       -0.44828352 0.36614555 0.44905072 0.456701
000020 6a 20 a7 3e a9 47 ba be 84 1d 95 3e a3 20 8b 92
       0.32641917 -0.36382797 0.2912408 -8.780179e-28
000030 72 cd 3b a0 8b aa 81 be ac e6 d0 2a c5 e8 9b 3e
       -1.5907492e-19 -0.25325426 3.7108283e-13 0.30451027
000040 29 37 8f bc 66 77 5b bd bb af 72 3d 3f f3 4d bb
       -0.017482357 -0.053580664 0.05924962 -0.0031425504
000050 59 ee 49 3c 6f 62 83 3a 99 61 b7 3c cc 18 a9 bc
       0.012324893 0.0010023842 0.022385405 -0.020641707
000060 a4 1e 1b 3c c5 b2 62 3e 4c d6 e4 3d 98 25 55 80
       0.0094677545 0.22138508 0.111736864 -7.819503e-39
000070 11 05 52 1e c1 88 29 3e 65 e9 7c a9 c7 45 35 3a
       1.1118355e-20 0.16556074 -5.6157678e-14 0.00069149997
000080 b2 8e 6c 3c 4e e7 25 bd e6 2c 44 3b bd ba ca 3b
       0.014438318 -0.040503792 0.0029933988 0.0061868117
000090 5a f5 b6 bb 5a cb 15 3b 34 f2 cd ba 27 a8 0a ba
       -0.0055834474 0.0022856803 -0.0015712441 -0.0005289339
0000a0 7b 5f 85 3c 14 b5 66 3c 21 54 20 3d c3 27 45 80
       0.01628088 0.014081258 0.03914273 -6.350913e-39
0000b0 f3 60 8c 9d ab b9 bc 3c 96 ba 4d 26 55 46 21 bd
       -3.7157935e-21 0.023037752 7.1376534e-16 -0.039373714
0000c0 03 05 b6 bc 43 18 42 bd 84 74 e3 3c 24 c6 f7 bb
       -0.022219187 -0.04738642 0.02776552 -0.007561462
0000d0 94 f2 bf 3c 02 05 2e bc ab ec dd 3c aa 25 f0 bc
       0.0234311 -0.010621311 0.027090391 -0.029314835
0000e0 3b 0c 14 3d 7c 93 f1 3d 9c 77 8c 3d 51 cb 0d 80
       0.036144476 0.117957085 0.06858751 -1.266798e-39
0000f0 a8 40 60 9e a0 1e 80 3d 70 a3 33 a7 d1 48 d0 3c
       -1.1871832e-20 0.06255841 -2.492984e-15 0.025425347
000100 9d f4 da bd 40 ab 1c 3e 1a 3b 22 3d 1c 87 c5 bc
       -0.106911875 0.15299702 0.039607145 -0.024112277
000110 bd 6a 40 3d 59 63 c1 3b b0 82 bb 3c 0d a3 13 bc
       0.046976794 0.0059017357 0.022889465 -0.009011042
000120 c6 57 be bd 2f 20 82 b9 74 1b a1 bd cf f2 d1 85
       -0.09294085 -0.0002481951 -0.078665644 -1.974346e-35
000130 aa 2d e8 1e b6 41 10 3e 54 75 8a a9 a4 f7 2f 3e
       2.4582842e-20 0.14087567 -6.148784e-14 0.17184311
000140 1d cd 8c 3e 60 4f da 3e 62 dc e2 3e 98 5e a7 3e
       0.2750024 0.42638683 0.44308764 0.32689357
000150 d5 97 90 be 85 30 11 3f 19 39 f0 3e c7 6a e4 3e
       -0.2824084 0.5671466 0.46918562 0.44612715
000160 39 06 69 3e 59 6b 03 be 54 74 9a 3e 6c 7e 09 0a
       0.2275628 -0.12833919 0.30166876 6.6200874e-33
000170 5c 17 67 a0 a3 a8 ee bd b9 b5 13 2b 15 0b 61 3e
       -1.957419e-19 -0.11653259 5.247708e-13 0.21976884

fc2.bias f4 [6]
000000 43 89 fa 3b f8 c1 eb bd 9b b4 48 bb ef c8 7e bd
       0.0076457574 -0.11511606 -0.0030625227 -0.062203344
000010 f2 02 84 bd 6e 6d 20 be
       -0.06445874 -0.15666744
