outputs/models/model_rmf.pth (torch, 117650 bytes, 11 tensors)

gcn1.bias f4 [32]
00000000: e569 a63d 7d25 b23c ba30 4abd fd92 be3c
00000010: e21f 6b3c dea3 e53c 4c4d 0d3d f38d 9bbc
00000020: e3ee 8b3d ed07 ea3c ed57 bfbc 2934 823d
00000030: b774 a73d 8761 d33c 0ec0 8b3c b3ec 8a3d
00000040: 3779 ba3d 33d6 abbc f741 dc3d 0e29 473d
00000050: 0e9f 86bc b495 ae3d 3575 a03c 469e c73d
00000060: 40bf e43d 6bcb 6d3d be52 de3d 4dea c4bc
00000070: 50d6 b13d 2750 093d f575 c13d 49c1 983d
0.081256665 0.021746391 -0.049362876 0.023263449 0.014350863 0.02803224 0.034497544 -0.018988585
0.068326734 0.028568232 -0.023357356 0.06357605 0.081765585 0.02580334 0.017059352 0.06783428
0.09105151 -0.020976162 0.10754769 0.048623137 -0.016433265 0.08524647 0.019587139 0.09746985
0.111692905 0.058055323 0.108556256 -0.024037505 0.08683455 0.033523705 0.09446327 0.07458741

gcn1.lin.weight f4 [32, 1]
00000000: c095 4b3d 19e0 b4be 1b22 14be 52dc 04bf
00000010: fc23 a6be 9f37 01bf e054 07bf 66bc 8c3e
00000020: 236b 783e e4aa f9be ee48 b43e d644 3e3e
00000030: 7a04 743e 96c0 0cbf 395a dabe aa64 b93e
00000040: 4849 3b3d 0e94 9d3e 005b cd3d c2f6 ab3e
00000050: aef4 723e 4c49 283c fe73 9dbe d1d4 ae3e
00000060: 83d7 463e b353 d43d 2243 c93e dc18 bf3e
00000070: 74a7 83bd d8bb 24bf 70d2 d33d 464f e9bb
0.04970336 -0.35327223 -0.14466135 -0.5189868 -0.3244933 -0.50475496 -0.52863884 0.27487487
0.2425962 -0.48763192 0.3521189 0.18580946 0.23829833 -0.5498136 -0.4264696 0.36209613
0.045724183 0.3077702 0.100271225 0.335867 0.2372615 0.010271382 -0.30752558 0.3414674
0.19418149 0.10367527 0.3930903 0.37323654 -0.064284235 -0.64349127 0.10342872 -0.007120046

gcn2.bias f4 [32]
00000000: 532d 883d 40fa a4bc 26d9 e03c 74d4 3e3c
00000010: 9ced 8e3c de86 ffbb 7a81 6fbc 17b7 f43b
00000020: d417 013d 9e58 dc3c 786e 143c d0e7 0a3d
00000030: 8e65 4c3d d89c adbb 7614 753c b0e5 01b7
00000040: 8c57 823b e6a2 36bd 80e5 043c db1d 483c
00000050: c8ea 113c edc1 903c 52db 48bb e4ef 0e3c
00000060: 0713 3c3b d65a 883c 1e98 c33b 77b7 92bc
00000070: c45a b63d cd28 5eb9 6c32 9c3c d5e4 fb3c
0.0664927 -0.02013886 0.027447294 0.011647332 0.017447285 -0.00779806 -0.014618272 0.007468115
0.031516865 0.026897725 0.009059541 0.03391248 0.049901538 -0.0052982382 0.014958492 -7.7424775e-06
0.0039777216 -0.044588946 0.008111358 0.012214149 0.008906074 0.017670596 -0.0030648303 0.008724187
0.0028697865 0.016644876 0.0059690615 -0.017909748 0.08904031 -0.0002118677 0.019067012 0.030748764

gcn2.lin.weight f4 [32, 32]
00000000: 6970 19be c9ee 0ebe a3a1 003e ef73 5cbe
00000010: 9a97 4e3d 59a5 80be 1f52 96be 0047 8bbb
00000020: f2a7 29be aedc 9abe 7bf2 1f3e 1679 a73e
00000030: 4ee4 933d 175c c7be 7837 aabe 30a5 0fbe
00000040: 3395 ae3e 3cc1 01bc 0b0c 803b e869 13be
00000050: bd55 903c bec9 cebd 40b4 d0be 9a80 ce3d
00000060: a96e 203e 6328 2ebe 0aec 813e fa1e 6ebe
00000070: a8d4 883e 8c39 133c 6ffd df3d 8025 d33d
00000080: b207 3cbe 1d3d 30be aa9f 7cbc 9248 4b3d
00000090: 0026 bcbe 054a 043e ed79 8cbe 62c2 a9bd
000000a0: 8170 273e 99e7 81bb 7ce4 42bc 3699 6c3e
000000b0: 1e48 073e 7efa 2ebe 5548 b7be 8509 a83d
000000c0: 402c d6bc fe33 483e 32ef 87bd 5711 873d
000000d0: 8616 46be fd39 f6bd 4557 5abe e915 963e
000000e0: 301c 74be 8091 d9bc b59f 5b3e 886a 5b3d
000000f0: 5000 85be b07f cabe ed3e 283c 88f9 61be
00000100: 1735 383e 22ef 2f3e 9ceb 5dbe 8206 493e
00000110: c65e 5dbe 2745 4e3e 36de 1c3e 132d 213d
00000120: 8ed7 d6bd 65e8 8d3e 7fb9 29bd a357 603e
00000130: 4abd b9bd debc 553e 19a4 6a3e f80c adbd
00000140: 644b 0bbd 75be 203e 9b38 eebd e8c6 b93d
00000150: 52b8 0cbe 4b91 12bd a4f9 733e 3bd2 1fbe
00000160: 7b8e 5d3d b0b3 c43d 075c 8d3c 8aff 933e
00000170: 8e5d 2b3e abe2 573e e3be 1dbd a1db 963e
00000180: 94e5 5e3d dc3e e43d c80e 0dbd b219 ec3c
00000190: 9357 443e 0eb9 67be 3455 983e 5580 5ebe
000001a0: f2d8 8d3e ee81 dbbc 68b0 03be 6dd0 063d
000001b0: 18eb 11be 0c3b 193e b341 973d 02c5 043e
000001c0: dc61 55be 5a6d 863e e4ff 02be 4e79 493e
000001d0: fe91 81bd ef73 44be 7ba4 943e 64a7 6bbe
000001e0: 1fd1 7c3e d69f 87be 026c 103e 423b 3cbe
000001f0: f929 22be 6fa3 3e3e 6be9 643d f2d3 12be
00000200: 9607 313e 378c 093e 3ac2 7b3d 98ad c4bd
00000210: 4dfc 8f3e 1165 8abe 9ecb 913e 7d94 ea3d
00000220: 733f 6e3e 300b 8b3e 33e9 e0bd cef0 84be
00000230: 14fc 5c3e a1c8 d0bd 6676 173e e33d 5e3e
00000240: 6e29 19be 8f55 89be e47b 07be 4c2d 3b3e
00000250: 8fda a73c efa5 4c3e f741 1ebe 3f73 93ba
00000260: 2f69 7e3d 1408 d8bd 538e 5d3e d4b0 813e
00000270: 1914 96bd e3ab 3a3e 96d2 f3bd f7dd 66be
00000280: 1eff debd f28f 2b3e 06e1 2c3e 22cd c1bd
00000290: 52ff 79be ad9c 123e d11e 6b3e 5b93 843e
000002a0: 7d5d 243d 62d7 4dbe 0e5d 5ebe 9efa c13b
000002b0: d38e 683e db59 2a3e ec23 333e e60f 0e3e
000002c0: 80a1 e1bd 61da 1abe 2605 88be 1da6 0dbe
000002d0: 131a 493e 6f22 123d 6f21 1ebe f955 b6bc
000002e0: 070c b53c 368b 5a3e 035d 0d3e 2bda 82be
000002f0: 80c1 46bd f456 12be cb52 8cbe 41ca 3d3e
00000300: cc9d ac3d e846 e63c 7e13 89be 62b1 163e
00000310: 5bdb 3f3e 683e 463e b6fe 7b3e ff36 53bb
00000320: 3b89 70be 4657 67be 689a 77bd de12 c63d
00000330: 6cff ed3d c24d f93d 9abf 17bc 99b3 c5bd
00000340: 86ab 66bc 764f aabe 9788 53be 2a9b 6bbd
00000350: dd2e b93d 3fc3 263e 5375 ae3d 6fde 133e
00000360: 39f6 28be ca7c e9bd 390d e7bd 31bf a33d
00000370: c373 833e e2c4 293e a0ff b73d 7932 663e
00000380: 7b43 33be 906a 0bbf 757a 41bd 3c12 99bd
00000390: 5803 0ebe f4e6 06bf 9886 2dbe 47e3 b53c
000003a0: 39d4 33be 0701 93be d8ed 283e 6d8d 5cbe
000003b0: b5a5 0c3e c100 4abe 0099 7abe dcb7 fcbd
000003c0: 5105 30be 02c8 c13c 02e9 03bd 25d2 993e
000003d0: 543a 0b3e 88ea 153d 8940 e9be c510 1abe
000003e0: 4c3e b2bc c1aa 803e 0b66 1b3e cb1c a63d
000003f0: e25e ecbc ae16 43be 697c 9a3e f8ca 843e
-0.14984287 -0.13958277 0.1256166 -0.215286 0.050437547 -0.2512615 -0.29359528 -0.004250407
-0.16567972 -0.3024649 0.15619843 0.3270957 0.0722128 -0.38937446 -0.33245444 -0.14027858
0.34098205 -0.007919606 0.0039076856 -0.14395869 0.017619008 -0.10097073 -0.4076252 0.100831226
0.15667213 -0.17007594 0.25375396 -0.23254004 0.26724744 0.008985888 0.109370105 0.10309887
-0.1836231 -0.17210813 -0.015418926 0.049629755 -0.36747742 0.12918861 -0.27436772 -0.08289029
0.1635151 -0.003964376 -0.011895295 0.2310532 0.13211104 -0.17087743 -0.35797372 0.08204941
-0.026144147 0.19551083 -0.0663742 0.06595104 -0.1934453 -0.12022779 -0.21322353 0.2931359
-0.23838878 -0.026558638 0.21447642 0.053568393 -0.259768 -0.39550543 0.010268909 -0.22067845
0.17989002 0.17181066 -0.21671909 0.19631389 -0.21618184 0.20143567 0.15319142 0.039349627
-0.104903325 0.27716365 -0.04143667 0.21908431 -0.09069307 0.20872828 0.22914161 -0.08449739
-0.034007445 0.15697654 -0.116318904 0.090711415 -0.13742188 -0.035783093 0.23825699 -0.1560754
0.054090958 0.09604585 0.017255796 0.28905898 0.16734907 0.2108256 -0.038512122 0.2946444
0.05441816 0.11144802 -0.034437925 0.028820846 0.19174032 -0.22629187 0.29752505 -0.21728642
0.2770458 -0.026795354 -0.12860262 0.032913614 -0.14249837 0.14963931 0.07385578 0.12965778
-0.20838112 0.26255304 -0.12792927 0.1967518 -0.06326674 -0.1918485 0.2903174 -0.23013073
0.24689148 -0.26489133 0.14103702 -0.1838198 -0.15836324 0.18617032 0.055886667 -0.14338663
0.1728805 0.13432394 0.061464526 -0.09603423 0.28122178 -0.27030233 0.2847566 0.11454103
0.23266391 0.27156973 -0.10981979 -0.2596497 0.21580535 -0.10194517 0.14791259 0.21703295
-0.1495721 -0.2682309 -0.13230854 0.18278998 0.020489959 0.19985174 -0.15454851 -0.0011249556
0.06211203 -0.10548416 0.21636324 0.25330222 -0.07328052 0.18229632 -0.119054005 -0.2254561
-0.108885035 0.1675413 0.16882715 -0.09462954 -0.24413803 0.1431758 0.22960974 0.25893673
0.04012822 -0.20101693 -0.21715185 0.0059197685 0.22710733 0.1663584 0.17494172 0.13873252
-0.11017132 -0.15122367 -0.26566428 -0.13832898 0.19638853 0.03567737 -0.15442441 -0.022257792
0.022100462 0.21342167 0.13805012 -0.25557074 -0.04852438 -0.14290982 -0.27406916 0.18534185
0.08428535 0.028109983 -0.26772684 0.14716104 0.18736021 0.19359744 0.24608883 -0.0032228825
-0.2348985 -0.22591886 -0.060449988 0.096715674 0.116209835 0.12173034 -0.00926199 -0.09653396
-0.01407898 -0.3326375 -0.20657574 -0.057521023 0.090421416 0.16285418 0.085184716 0.1444032
-0.16500176 -0.11400755 -0.11281819 0.07995451 0.25674257 0.16579011 0.089843035 0.22480191
-0.1750621 -0.54459476 -0.047235925 -0.07474181 -0.13868463 -0.52696157 -0.16945875 0.0222031
-0.17561425 -0.2871172 0.1649698 -0.21538325 0.13735087 -0.1972685 -0.24472427 -0.12339756
-0.17189528 0.023654941 -0.032204635 0.3004314 0.13596469 0.03660062 -0.4555705 -0.1504546
-0.021758221 0.25130275 0.15175645 0.081109606 -0.028853837 -0.1905162 0.30173042 0.25936103

lstm.weight_ih_l0 f4 [256, 32]
00000000: 3878 953d a7f9 393d 9a7f 093d 576c 5dbd
00000010: e52b 6abd 6f69 77bd dd6b e9bc 7db7 fd3c
00000020: 72da 0abd 787d 1abd d2c7 6cbd ab42 f33c
00000030: 270b 903d 94c0 643d 1e22 823d a9cb 64bd
00000040: 233c d13c 3d17 403d 66b9 bc3c ddd2 603d
00000050: 8b67 cebb 466d a2bb b5d4 30bc 4c49 93bb
00000060: 6151 0b3d 0204 9ebd 5e8e 953d d69d c3bd
00000070: 8fc7 b0bd 5898 b4bd 3597 88bd d1a5 81bd
00000080: 5889 b83c 1665 1b3b fbe3 da3c b6fd 3e3c
00000090: 3d25 4bbd 7977 573b f729 4d3c c455 88bc
000000a0: 9651 31bc f514 f1bc f9f3 dc3b a7aa f53c
000000b0: 2bc6 283d a48f 293d c590 273d f180 43bc
000000c0: 7941 6abd f7fa 633c 0ab2 043c 580a 7a3c
000000d0: 4d18 913a 1fbf feba ad66 033d 06e4 4cbd
000000e0: 4005 4e39 5c46 a7b9 1f04 843c e3c1 08bb
000000f0: c32b 6c3b 5f9b 6c3b 9c9a 2d3a 5c1f b9b7
00000100: 0fe8 d53c d139 9ebd a0f0 223d e83e d7bd
00000110: 8ead 403d 81a5 88bb 7f31 98bd 504f 20bc
00000120: 7204 21bc bdcc d7bb 36de af3c 4367 d1bc
00000130: 9a81 993c 4dbc bb3c 3ccf cebb 4843 46bc
00000140: a36d 2d3d 0f5a d93b fb72 023d 5136 f9b9
00000150: 2449 b3bc ebb4 443c 7f4a 8dbd 0169 95bd
00000160: 289b 643d c8c9 093c 0466 a83d 1988 0a3d
00000170: 54da 9cbc a147 2b3b 4905 4fbd 6b0c a3bc
00000180: 97d1 a0bd c719 59be 4763 183e 82ad e23d
00000190: fd45 19bc fb18 8dbd e43b 1d3d 4fc9 1abe
000001a0: 9c07 333c 107a 09be 0cdc a13d 8a44 293d
000001b0: 072f 62bd b596 00be 58dc c1bd cb8f 8fbd
000001c0: 1500 d6bd 0c60 28be dfe1 c7bd 5b32 e5bd
000001d0: 00e4 003d be49 963d e28f dcbd c879 01be
000001e0: 773b 14be 1424 6ebd 8429 693c 6074 953d
000001f0: 70ea 0dbe eebc bf3d 1541 5cbd 43c1 a4bd
00000200: ebb4 a4bb 74a2 2e3d 3c7a d3bd 9666 54bd
00000210: 5390 8cbd e511 83bd 1dac a4bc 4356 293d
00000220: f031 cb3a c175 66bd cbac c2bd f916 553d
00000230: fdbb 843b c1ca 023d 2bf7 163d b549 b1bd
00000240: 18f3 1abd a809 25bc 2788 f63c 799f fd3d
00000250: 4c45 233d 460a 7dbd f2f2 d8bc ccf7 213d
00000260: b6e8 043c cb6e d7bd edd4 e53d 0082 f7bd
00000270: 705c f6bd 8e33 95bc a401 45bd 9038 c7bd
00000280: 92c7 413d 15f7 8dbc 9b89 5abc 4694 15bd
00000290: a988 39bd 5d3f ac3c ad71 14bd d516 973c
000002a0: 0826 ccbc a3fa fa3c 0676 adbd a1db 363c
000002b0: 5ac4 f23c e6c5 4e3d 4164 1f3d 6904 37ba
000002c0: e62e fbba 2b7c 203c c588 2b3d 30b3 6a3d
000002d0: fcc6 1c3d 72cd ecbc 367f 3d3d 2766 3d3b
000002e0: b05f 943d 620c 023d 8886 c73d 5310 4ebd
000002f0: 89f1 703d 1351 193c 06da 9a3c bdb3 743c
00000300: 40ea 9a3c f47a 77bd 581f 1dbc d93f 2f3c
00000310: 1fcf 6bbd 6202 72bc 31ae cfbc 0e94 00bd
00000320: 1a1f 78bd ed82 09bd 5da9 04bc ccf7 3e3d
00000330: 13d0 1d3d ca3d c03c 1128 1ebb d846 5bbd
00000340: ea29 08bd dc96 1a3c 462f 84bb 5cce ea3c
00000350: d591 37bd 82b9 9a3c 2fcd cb3c 7b56 febd
00000360: ca78 8dbd af8f 94bc aeaf 42bd c688 e2bb
00000370: 31aa 75bc 94be 87ba b09a c8bc 211e acbb
00000380: ee3f 4ebd 9567 edbd 3442 053d d4c2 cd3c
00000390: 65c3 e9bc 197f 293b 760a bdbc 189c 2fbe
000003a0: 5208 7bbd 6185 17be 6101 c8bb 5810 a93d
000003b0: f930 823d 6b5d d4bd 4ce1 1ebd 1dbd 65bd
000003c0: 2780 fbbd 5ed5 f4bd 709f 6cbb 0313 1dbd
000003d0: b93f 19bd 83bb babc 4042 9cbd 6952 29be
000003e0: eeea a8bd cbb4 99bc 7dfd b3bc 8591 1d3d
000003f0: d1cd 03bd 3b2a 0f3c e071 9cbc e5c3 62bd
0.072983205 0.045404103 0.033568956 -0.0540584 -0.057170767 -0.060403284 -0.028493816 0.030971283
-0.033899732 -0.037717313 -0.05780775 0.029694876 0.07033377 0.05584772 0.063541636 -0.055858288
0.02554137 0.04689716 0.023037624 0.054888595 -0.0062989644 -0.004956874 -0.010792901 -0.0044948217
0.034013156 -0.07715608 0.07302545 -0.09551589 -0.08631813 -0.0881812 -0.066694655 -0.06330455
0.022526428 0.0023711375 0.026720038 0.011657169 -0.04959606 0.0032877608 0.012522212 -0.016642459
-0.010822674 -0.029428938 0.006742951 0.0299886 0.041204613 0.041396752 0.040909547 -0.0119325975
-0.057191346 0.013914815 0.008099088 0.015261255 0.0011069864 -0.0019435621 0.03208034 -0.050022148
0.00019647647 -0.00031905144 0.016115246 -0.0020867519 0.0036036826 0.003610335 0.0006622465 -2.2068321e-05
0.02611163 -0.07725871 0.03978026 -0.10510045 0.047040515 -0.00417012 -0.07431316 -0.009784535
-0.00982772 -0.006585686 0.021468263 -0.025561934 0.018738557 0.022916937 -0.0063113254 -0.012101002
0.042340886 0.0066330503 0.031847935 -0.0004753345 -0.021885462 0.012006025 -0.068989746 -0.072954185
0.05581203 0.008409925 0.08222583 0.0338212 -0.019147076 0.0026135223 -0.05054215 -0.019903382
-0.07852476 -0.2120124 0.14881621 0.1106825 -0.009355065 -0.0688953 0.038387194 -0.15115856
0.010927107 -0.1342547 0.07903299 0.04132513 -0.05522063 -0.1255749 -0.09465855 -0.07009848
-0.104492344 -0.16442889 -0.09759878 -0.11191245 0.031467438 0.07338284 -0.10769631 -0.12644112
-0.14475809 -0.058139876 0.0142310895 0.072975874 -0.13858962 0.09362207 -0.053773005 -0.08044674
-0.00502645 0.042635396 -0.10326049 -0.051855646 -0.06863465 -0.063998975 -0.020101601 0.04134203
0.0015502553 -0.056264643 -0.09505614 0.05202386 0.0040507303 0.031931642 0.03685681 -0.086566366
-0.03782949 -0.010073103 0.03009422 0.123839326 0.03986101 -0.061777376 -0.026483033 0.03954296
0.008112123 -0.10519179 0.11222253 -0.120853424 -0.1202935 -0.01821306 -0.048097268 -0.09727585
0.047309466 -0.017329732 -0.013338472 -0.036518358 -0.045296345 0.021026308 -0.036241222 0.018443504
-0.024920478 0.030637091 -0.08469777 0.011160762 0.029634643 0.0504817 0.03891397 -0.0006981553
-0.0019163757 0.009795229 0.04187848 0.057299793 0.038275704 -0.028906558 0.046263896 0.00289
0.072448134 0.03175009 0.09742457 -0.050308537 0.058824096 0.0093577085 0.01890279 0.014935431
0.018910527 -0.06041999 -0.009589992 0.010696375 -0.057570573 -0.014771076 -0.025351616 -0.031391196
-0.060576536 -0.033572126 -0.00809702 0.046623036 0.038528513 0.023466963 -0.0024132768 -0.05353436
-0.033243097 0.009435382 -0.0040339557 0.028662853 -0.04481681 0.018887285 0.024878113 -0.124188386
-0.06907804 -0.01813492 -0.047530822 -0.0069132773 -0.01499419 -0.0010356479 -0.024487823 -0.005252615
-0.050353937 -0.11592022 0.03253384 0.025117315 -0.028535554 0.002586311 -0.023076277 -0.17149389
-0.06128723 -0.14796974 -0.00610368 0.082550704 0.06356997 -0.103693806 -0.03878908 -0.056088556
-0.122803025 -0.11954759 -0.0036105774 -0.03834821 -0.037414286 -0.02279449 -0.07629824 -0.16535343
-0.08247934 -0.018762967 -0.021971459 0.038468856 -0.032178704 0.008738096 -0.019097269 -0.0553626

lstm.weight_hh_l0 f4 [256, 64]
00000000: 0407 273d 9cff 91bd 155b aa3c 141f febb
00000010: 1e3b 87bd f736 b9bc 4150 4a3d 19cf b6bc
00000020: 8c0a 73bc 6a5b 023d 8371 14bd f87d 32bd
00000030: 0b56 d4bb 68f1 1a3d 6adf 903b 0bde cf3c
00000040: 493e c7bb 1dae 083d 54b7 1a3d a1d8 1c3c
00000050: 9493 e63c fa90 9fbc 310a 26bd 5166 95bc
00000060: 0ec1 063d a44d 70bd 56d1 313c 78f5 b13c
00000070: 9422 e5bc 64a9 1cbc 3ceb 4d3c a3ab bb3c
00000080: c3c4 30bc e5f7 6c3d d862 92bd 8a3f 95bc
00000090: ec5d 543d 6e86 9ebc 1eba 1f3d 68cf 8dbc
000000a0: aa00 67ba 7b37 a2bd 0c83 6cbd 304a e33c
000000b0: 096f dcbc 49b7 bf3c b69a 573d d517 1a3c
000000c0: f5ee 4a3c d0b1 38bd 1413 e83c fabe adbc
000000d0: 82fc 4c3b 16c7 953c f245 503d d462 8dbc
000000e0: 1e92 343d 9e8e ca3c ae34 f73c d408 e23c
000000f0: 47c9 4dbd 6cbd dc3c 6db9 be3c 7340 7dbb
00000100: 08e6 303d 557a 6cbd 8c15 ff3c 7329 353c
00000110: ff6b febc 4f08 1bbd 40fc 163d 7d2b 8a3c
00000120: 0021 02bd 490e 983c 6489 90bc e6e7 26bd
00000130: 2435 94bd d704 4dbc 4c31 69bb a6d9 633c
00000140: 1985 4bbc 65cc 173d 8a4e e73c 60d5 0c3d
00000150: e113 533d 849c cebc db02 2fbd de72 c43c
00000160: 2a5f ae3c 12b4 9cbc 92c9 bcbb 6802 b63c
00000170: eb52 17bc 81cd 5ebc 4d86 babc 9c29 163d
00000180: a912 3e3d 1068 d33c 81d2 08bd 76ce 98bc
00000190: 0f11 673d 64ba f0bb 381e 173d eb4c cebc
000001a0: 0da4 7a3d 2693 f6bc 52ce 2dbd a7b6 aebc
000001b0: a855 80bd 8d4f d43c 422d fa3c 2230 b2bc
000001c0: e8b6 3fbd 014f 3dbd 6507 8d3d 160a cfbc
000001d0: 4ab3 2e3d e1c1 543d 1bd9 2c3d c174 dabc
000001e0: 4794 153d 8e8d 0c3d 5a38 bbbc bc58 633d
000001f0: 768e b0bc 7246 afbc eeb2 d13c 9241 0dbd
00000200: 0a80 e43b 2734 d03c 0d98 44bd ba0f 043d
00000210: c2c6 a03b 1096 9e3c 4b54 2a3d 541a 67bc
00000220: 13d4 e5bc daad f73c 3182 2abd 8ce3 a63c
00000230: 55e4 06bd ce7e f4bc 674c 663b eec3 babd
00000240: 7004 8fbc 58f6 be3c 997e 57bd c29d d03b
00000250: 23ee 4fbd 638c 40bd 2891 71ba 7810 603c
00000260: eac6 0dbd 338d 51bd 2b8f 133d a611 48bd
00000270: 3806 db3b 21d7 da3a 71a0 7e3c 8662 6e3d
00000280: de6b 4c3a 41dd cc3b 64d2 01bb 8d58 3bbd
00000290: c885 fbbc 57f5 333c 1623 0dbd 8215 dc3c
000002a0: 75c3 06bb 066f 52bd 6ce1 c9bc 67b0 293d
000002b0: 4cc0 f0bb 7130 7fba 6e39 fbba ef4d d53b
000002c0: b310 6b3d 7e3b 403d 11aa 0ebd f3a2 20bd
000002d0: 4e0a 96bb 1101 9f3b a718 633c 66dd 4b3d
000002e0: b0a1 913c c47a cdbc 1281 9b3d e77e 94bc
000002f0: c77d 273d d246 76bd 38bc 52bb d068 16bd
00000300: 393a 7a3c 9052 8dbd 1972 3dbd 710c 183d
00000310: f71a 06bc b363 133d 964e e1bc 47c4 8f3d
00000320: 6c77 1a3d 944e a6bd f8f5 883c 03ed ef3c
00000330: 8da8 06bd aaf1 773d 910a c43c 2274 67bc
00000340: 090f b9bc d5a5 aa3c de4b 1cbd 82c9 d5bb
00000350: bb01 173d e635 133d 9df7 b5bc 6e18 f43c
00000360: bd6f 4fbc 6004 e53c 64e9 e33c dd70 6f3c
00000370: b80a 6f3d e7a0 7b3a f5d4 273d 89ab 0fbd
00000380: a47c 35bd c00e d6bc 71bb 923c 9355 363d
00000390: 2b55 7b3c 9726 863d 222c 15bd 8744 8b3c
000003a0: d92e de3c 1be8 4abc b6c7 f0bc 8115 2f3c
000003b0: 86e5 f9bc bdf6 d43b 6159 fabc 9acc 5c3d
000003c0: e583 f5bd ec7f 573c a430 3339 cb21 ff3c
000003d0: 75b2 9f3b 5ad5 413d c9c1 d4bb 274e 8a3d
000003e0: e44d 04bd 9578 c1bc 7361 923c b73e 1dbc
000003f0: e8cb 9a3d a815 6a3d 6fb0 043d 623e fc3b
0.040778175 -0.07128832 0.020795384 -0.0077551696 -0.066030726 -0.022609217 0.049392942 -0.022315549
-0.014834058 0.03182546 -0.036241066 -0.043577164 -0.0064799837 0.03782788 0.0044211643 0.025374433
-0.006080423 0.033369172 0.03777249 0.009573133 0.028146543 -0.01947831 -0.040537063 -0.018237265
0.032898955 -0.058667794 0.010853132 0.021723494 -0.02797059 -0.00956187 0.012568291 0.022908991
-0.010789099 0.0578536 -0.07147759 -0.018218774 0.051847383 -0.01935121 0.038995855 -0.017310813
-0.00088120496 -0.07920738 -0.057742164 0.027745336 -0.026908414 0.023402827 0.05263778 0.009405096
0.012386073 -0.04509145 0.02832941 -0.021209229 0.0031278436 0.018283408 0.050847955 -0.017259039
0.04408466 0.024726208 0.030176487 0.0275921 -0.05024078 0.026945792 0.023281777 -0.003864315
0.043188125 -0.057733852 0.031138204 0.011057246 -0.031057356 -0.03784972 0.036861658 0.01686644
-0.031769753 0.0185615 -0.017643638 -0.0407485 -0.07236698 -0.012513361 -0.0035582362 0.013906872
-0.01242187 0.03706016 0.028235693 0.034383178 0.05153263 -0.025221117 -0.042727333 0.023980554
0.021285612 -0.019128833 -0.0057613337 0.022217944 -0.009236078 -0.013598801 -0.022769118 0.036660776
0.046404514 0.025806457 -0.033403877 -0.018653136 0.056412753 -0.0073464382 0.036894053 -0.025183162
0.061191607 -0.030099463 -0.04243309 -0.02132733 -0.06266338 0.025916839 0.030539159 -0.021751467
-0.046805292 -0.046217922 0.06886176 -0.025273364 0.042651452 0.05194271 0.042199235 -0.026667
0.03651836 0.034314685 -0.022854019 0.055504546 -0.021552306 -0.021395896 0.025598016 -0.03448636
0.0069732713 0.025415493 -0.04799657 0.03224156 0.0049065063 0.019358665 0.041584294 -0.014105398
-0.028055226 0.030234266 -0.041628066 0.020372175 -0.0329326 -0.029845621 0.0035140754 -0.09119402
-0.01745817 0.023310825 -0.052610967 0.0063664624 -0.050764214 -0.047008883 -0.00092150504 0.013675801
-0.034613527 -0.05116005 0.036025207 -0.048844956 0.006684091 0.0016696193 0.015541182 0.058199428
0.0007798056 0.0062519615 -0.001980924 -0.045738745 -0.03070344 0.010983787 -0.03445729 0.026865724
-0.0020563279 -0.05137541 -0.024643622 0.041427996 -0.0073471423 -0.00097346964 -0.0019166896 0.0065095345
0.057388972 0.046931736 -0.034830157 -0.0392179 -0.004578865 0.004852422 0.013860858 0.04977169
0.017777294 -0.025082953 0.075929776 -0.018126918 0.040891435 -0.060126133 -0.0032155644 -0.03672105
0.01527267 -0.06900513 -0.04625139 0.03712124 -0.00818514 0.035983752 -0.027503293 0.07019859
0.037711546 -0.08120456 0.01671885 0.02928782 -0.032875586 0.060533203 0.02393082 -0.014126809
-0.022590177 0.020831028 -0.03815829 -0.0065242657 0.036866885 0.035940073 -0.022212798 0.029796805
-0.012660918 0.027956188 0.02782125 0.014614311 0.05835983 0.00095988665 0.040974576 -0.035075698
-0.04430832 -0.02613008 0.017911645 0.044515204 0.01534013 0.06550329 -0.03641904 0.01700045
0.027121948 -0.01238444 -0.029392105 0.010686279 -0.030504953 0.00649914 -0.030560197 0.05390606
-0.119880475 0.013153058 0.0001708889 0.031144043 0.0048735687 0.04732261 -0.0064928276 0.067531876
-0.032300845 -0.023617068 0.017868733 -0.009597472 0.07558423 0.05714956 0.032394823 0.0076978663

lstm.bias_ih_l0 f4 [256]
00000000: dc93 e83d 5fcc b73d 0452 acbd d537 ea3d
00000010: e692 51bc 8712 2f3d 3352 533d d41c 1c3b
00000020: a871 f23c 3807 e53b 7524 febb 8529 afbd
00000030: b444 b63d 73f4 903d 0c19 f3bc c613 a53d
00000040: 3751 e2bd c533 b5bd b2c8 a73d 2e1b 9fba
00000050: 12bd ff3d 55ca ed3c 1356 40bd f1ae c83d
00000060: 6290 53bc c027 8b3c db57 cdbd 3c5c 853c
00000070: 0a1d a9bd c725 9d3c 918d 3f3c 0d81 be3d
00000080: e68a 5c3d c187 5ebd 586e f13c 6388 2f3d
00000090: efab 9dbc 9494 b63d c8bd 363d d888 a13d
000000a0: 7554 52bd 4e0f 0cbd 56c1 b0bd a1d9 9f3c
000000b0: d366 cf3b 4bc5 5d3b 096b 5ebd 72dd 013e
000000c0: 41d3 a23d 2795 033e 52ac f23d 8bc0 b9bc
000000d0: cd2c 733d dfec b93c 3889 9cbd 7693 a63d
000000e0: 5ea5 b8bd a210 323d b8ac ec3c f693 54bd
000000f0: 99b3 163d cca2 ca3d d357 f3bc c8e6 f9bc
00000100: 6de4 f3bb 3284 dd3d 072e debb 07c7 703c
00000110: 1fbb fd3d ae3c 3f3d 4c37 d13d ec79 da3d
00000120: 8269 823d 9557 ce3d 4e3e 213d 5873 7cbc
00000130: d990 7e3d 32b7 8f3c c478 c43b 73cb be3d
00000140: 6a5b 46bc b628 033c bc26 78bd 63b4 ca3d
00000150: 0b68 25bd 81e0 cd3c 4ad6 babc 3b95 9d3d
00000160: 6ec5 79bd a8f5 67bd 32a4 5e3d bfa2 f1bb
00000170: 84ea 6abb 1e8c 873d 80dd 733d 85e3 e6bd
00000180: 8861 a6bd 9858 bcbc d7ea e13d 2354 003e
00000190: ddad e13d a426 a03d 6c43 c0bc d32f 2b3e
000001a0: 2d21 6dbc 78c3 86bd 9feb af3d 1131 eb3d
000001b0: a6c2 fc3d a142 c6bd 4fba a8bc 06a9 a4bd
000001c0: 421c 5c3d cef1 813d 675a 883d e2d2 7c3d
000001d0: 37e7 a53b 922e 36bd 31d1 8d3d 702e 96bd
000001e0: 678d 1ebc 6220 fdbc e8f4 d43d 4b47 fa3d
000001f0: 3a02 1d3d 4a95 c23d 21f1 c9bd deea aabc
00000200: 5a40 98bd 7335 c4bd 8dbb 3cbd 3606 c1bb
00000210: ea82 c2bd 357e 713d 8a04 19bd 1c95 1fbd
00000220: f977 e03c 6d75 49bd 24f8 eabc 0397 ec3d
00000230: 9113 a33c 721c 453d c7a2 4a3d dcf8 003c
00000240: 1adf 563d b43f 12bd 8f8a 8dbd 53fd 48bd
00000250: cec8 03bd 3a58 5c3d 1762 4d3d 138a c9bd
00000260: b207 5dbb 6584 daba abb1 34bd 4439 9f3d
00000270: 71fa ac3d 4759 393d 8185 4d3d 05d3 e4bd
00000280: f505 e9bd 0b6f 2abd 1a94 993c 421d 9c3d
00000290: 0981 07bd 81bc 4dbd 22e9 303d d61b 1a3d
000002a0: 001d d43a fa46 babb 413a 93bc 6bc9 c13d
000002b0: da8c 393d 5aae 29bd cbc3 6bbd f9e6 11bc
000002c0: 5246 6d3c 0016 7c3d 4186 ad3d bd17 c0bc
000002d0: 1795 3fbd 9e3a 36bb ce1e 3d3d 8005 f03d
000002e0: 5210 80bd c9c1 173d 43dd eabc 8953 81bd
000002f0: 4698 8d3d ffe7 2e3d a427 bf3d 8945 c53d
00000300: d75c d8bb c94f a1bd 38a2 7a3c 4757 38bd
00000310: 76ac 8fbd f13a 7f3c 2f48 2abc c1ab a73d
00000320: e3a9 993d 80b1 713d f22e 74bd 9747 9cbd
00000330: 292c af3a 3849 ac3d 98a2 453d 2f65 3cbb
00000340: 41cb 0cbd 422b c33d e055 8f3d cd1e 9b3d
00000350: d890 173d b66f 983d dac5 67bd 4805 bbbd
00000360: a080 213c bb1b 0c3e a4ca b3bd dbe0 99bd
00000370: 0c84 8c3b 0794 84bd 7b22 6abd 86c8 b23d
00000380: fc37 03bd 79a1 873c 2474 173e 79b0 ca3c
00000390: f371 9e3d bd86 193d 9d18 03bd ec13 183e
000003a0: d968 453c b17a bc3c e29a 9bbd 5d56 0dbd
000003b0: 35b3 48bd 5ffa 7b3d 90e1 81bd 5ab8 f93d
000003c0: a9a1 7e3d 9d98 063e 8fc7 a93d b378 033e
000003d0: c09c cdbd 5c5c 58bd 7d49 6f3d c210 933d
000003e0: 2ce8 a5bd e7ea 95bb 3559 ad3d b15e 333d
000003f0: a19c 9c3a f584 9a3d a640 c23d cb6d 713d
0.11356327 0.089745276 -0.08414081 0.1143643 -0.012791371 0.04274228 0.051592063 0.0023820894
0.029595211 0.006989386 -0.007755811 -0.08552841 0.08899823 0.07077875 -0.02967503 0.08060412
-0.11050647 -0.08847765 0.081925765 -0.0012138837 0.12487234 0.029027143 -0.046957087 0.097989924
-0.0129128415 0.016986728 -0.10026523 0.016279332 -0.08257492 0.019183053 0.011691467 0.09301958
0.0538434 -0.054328684 0.029471561 0.042854678 -0.019247023 0.08915058 0.044614583 0.07887429
-0.051350076 -0.034194283 -0.08630626 0.019512953 0.0063293963 0.003383952 -0.054301295 0.12682131
0.0795045 0.12849866 0.11849274 -0.02267482 0.059368897 0.022695957 -0.0764336 0.08133595
-0.09015916 0.043472894 0.028890952 -0.05189892 0.03679237 0.09894332 -0.029704964 -0.030505553
-0.007443002 0.1081623 -0.006780389 0.014695889 0.12389206 0.046688728 0.10215625 0.10667786
0.0636778 0.10075299 0.03936606 -0.0154083595 0.062149856 0.017543409 0.0059958417 0.093161486
-0.012106756 0.008005312 -0.060583815 0.09897687 -0.040382426 0.025131466 -0.02280726 0.07694479
-0.0609793 -0.05663076 0.054355808 -0.007374137 -0.0035845349 0.06618522 0.05953741 -0.11273865
-0.08124071 -0.022991464 0.1103112 0.12532096 0.1101949 0.0781987 -0.02346965 0.16717462
-0.014473242 -0.065802515 0.08589863 0.11483968 0.12341814 -0.09680677 -0.020596651 -0.08040051
0.053737886 0.06344949 0.06657868 0.06172455 0.0050629633 -0.044478007 0.06924666 -0.07333076
-0.009677268 -0.03089923 0.10398275 0.12220629 0.0383322 0.09501131 -0.09860445 -0.020863947
-0.07434149 -0.09580507 -0.0460773 -0.005890633 -0.09497626 0.05895825 -0.037357844 -0.03896056
0.027400957 -0.04918425 -0.028682776 0.11552241 0.01990679 0.04812283 0.049471643 0.007871833
0.05245886 -0.035705283 -0.069111936 -0.049069714 -0.032173924 0.053795077 0.050142374 -0.09840789
-0.003372651 -0.0016671537 -0.04411475 0.077745944 0.084462054 0.045251157 0.050176147 -0.11173061
-0.11378089 -0.041609805 0.018747378 0.07622768 -0.033082042 -0.0502286 0.043191083 0.037624203
0.0016182959 -0.0056847306 -0.017972114 0.094622456 0.045300342 -0.04142604 -0.05755977 -0.008905166
0.014482098 0.06154442 0.084728725 -0.02344882 -0.046773043 -0.0027805935 0.046171956 0.11719799
-0.06253113 0.037050042 -0.028669959 -0.06314761 0.069138095 0.042701717 0.09333733 0.096324034
-0.0066028642 -0.07876546 0.015297465 -0.04500511 -0.07015316 0.015578018 -0.0103931865 0.08187056
0.075031064 0.059007168 -0.059615083 -0.07630842 0.0013364601 0.08412403 0.048250765 -0.0028746834
-0.034373526 0.09529735 0.06998801 0.07574234 0.03700337 0.07443182 -0.05658517 -0.09131867
0.009857327 0.13682453 -0.08778885 -0.07513591 0.004288202 -0.064735465 -0.05716179 0.08729653
-0.032035813 0.016556488 0.14790398 0.024742352 0.07736578 0.037482012 -0.032005895 0.1485135
0.012048923 0.023007723 -0.07597901 -0.03450619 -0.04899903 0.06151807 -0.06341851 0.121933654
0.06216589 0.13144155 0.08290016 0.12839012 -0.10039663 -0.052822456 0.058419693 0.07180931
-0.08100924 -0.0045751217 0.084642805 0.043791477 0.0011948535 0.07544891 0.09484987 0.058942597

lstm.bias_hh_l0 f4 [256]
00000000: c3e0 1abd 5635 633d 3611 b3bd 3245 be3d
00000010: 7ed2 f43d 7c21 dcbd 204b bdbd 89b0 573d
00000020: 0caa eb3d 3104 8a3d b022 76bd 04cb 8abd
00000030: 9c82 c13c 3b8e 17bc 7620 bfbd eb4f 34bd
00000040: 0926 9abc 81fd 9b3d 94ae 813d 42e5 5abd
00000050: 59ae b63d c483 9c3c 8bb7 32bd 8f82 1b3c
00000060: d10b 623d ba7d 50bb 0169 0ebd d72e 183d
00000070: 37a7 acbd 3634 85bd 1c84 f4bc 6cd4 b9bc
00000080: cfdf 43bc edfc c43d c675 b03d 3b40 d53d
00000090: a574 0c3c 92ab bbbd 626c 853d c7a7 a9bd
000000a0: b133 f8bc 6455 433c de09 e23d 38e9 8f3c
000000b0: fb18 873d 9f32 4ebd 32b6 75bc 79ca f93c
000000c0: dee0 c63c 2ecf 8b3c c4e8 983d 0fc0 82bd
000000d0: ee12 fa3b 3314 0d3c 7f54 8dbb 950c 803d
000000e0: 7caa acbd 1abb bf3d 2dfd e9bc f22e 7c3d
000000f0: 3d0f f73d fe1b e3bc 3be8 52bd 34de 283e
00000100: baa4 0a3e 1b5a a03d 3d4e bbbd 9e36 123e
00000110: 999a 4bbd 2e65 29bd a513 37bd 1534 33bd
00000120: bcfb 973d 3773 d73d 1fb3 a33c 62f3 1a3d
00000130: 1c86 903d 6a49 fc3d 9545 61bd 795a 173e
00000140: 0eda 82bd f891 0c3d ff3f ae3c 4cec 75bd
00000150: 731d 043e f938 28bd 7037 c63d 5a3c d63d
00000160: ebb0 11bd cb22 663c b4be bebd c7f3 adbd
00000170: 13bd ccbd 5e38 a33d 8ce8 46bd cd3f 52bd
00000180: 4bb0 bbbd ec82 e53c c436 223e ed1b 823d
00000190: 86d6 e03d 78a2 c1bd ec4e eebc 1174 8d3d
000001a0: c8e9 693b a1fb 0b3e 50d2 873d 520e 553c
000001b0: 95b7 283d 81b2 8b3b 7dc8 e03d 04c5 16bc
000001c0: cfe1 40bd 1cf5 5c3d d1aa 1c3d d331 343d
000001d0: 787d a1bd 53c4 9fbd 84b3 143c 9347 85bd
000001e0: b0a3 79b9 3827 8b3d 4692 ac3d 018a b1bd
000001f0: 052a 36bd 5a30 dbbb 43b4 a0bd 9bf9 e23d
00000200: 9ca6 b23d 9538 f83c bcd4 f7bc b4f8 b03c
00000210: 4613 813d f004 c43d 0859 57bd 9485 023d
00000220: 5ecc 3c3d 82b4 95bd c8df 903d 96a3 ec3b
00000230: 4f64 afbd aff0 a33d 0c54 283d 4c91 b9bd
00000240: d0be 453d 3ac0 463d 5aa9 a8bd acc7 f13c
00000250: 1ffa 7fb9 6dcf 73bc 857e 01bd 6511 a83d
00000260: cf00 83bd 646e 223c b872 ab3c 0e63 1fbc
00000270: fed7 3c3d a6ee 1f3d 093c af3d 46d9 7bbd
00000280: f5cd 8fbd 9ec8 f5bd f08b c1bd 6b29 2dbd
00000290: aa21 343d cd70 c33d f473 e1bd 7572 a73d
000002a0: 913f 56bd e588 3b3c ae0e e7bc 0a9f 613d
000002b0: fb22 c93b 248d 883d 472c c1bd fa39 2f3d
000002c0: 3818 a7bd 8051 a13b 7d65 ebbd 123d 903d
000002d0: e7e5 debc dee0 4c3d 98a4 d9bd d494 e93d
000002e0: ce9b adbd b225 c9bd 8f03 57bc bbd0 bfbd
000002f0: 2c59 8e3d 47ea b63d abbb a83c 268a 88bd
00000300: bfdc 9cbc c4a2 b03d e2c9 943d a539 c93c
00000310: 4385 993d a79d 503b 9de0 ca3d cf3b 043d
00000320: a075 bebd 122a e13d 7984 b7bc 5228 243d
00000330: b708 db3d 7a2b 2bbd f591 b4bc c636 36bd
00000340: 620a 88bd ebeb b73c e4b6 003c c9b3 e33d
00000350: 3974 073e 7bf6 4abd 8081 9e3d ad5a 933d
00000360: f71e 3e3c 6e3d fa3c 1c27 3bbd ac90 24bd
00000370: bba1 543d 974b 803d c1db 003c ceb1 13bc
00000380: 17a6 ec3d 442f c43d 8513 1e3e 4efc 4f3d
00000390: 59b8 48bd 24b7 c4bd 914f 0e3c 0067 bf3d
000003a0: 9d7e 843d 814b 4c3d 1f0d 5a3c 45ba be3d
000003b0: e653 9f3c 54f2 b9bd 9b6f 09bc 712d 88bd
000003c0: 2358 f03d 31fa 89bd a1ca a1bb e8a2 bcbd
000003d0: 7760 ddbd 4be0 9abd 8493 963d fce5 2ebd
000003e0: 0770 233c 02e0 e63b ca02 9c3d 81d2 c63d
000003f0: cbaf e13d 9b29 283d 893d 8ebd 09bd 59bd
-0.037812006 0.055470787 -0.08743517 0.09290542 0.11954211 -0.10748574 -0.092428446 0.05265859
0.11507043 0.06739081 -0.060091674 -0.067770034 0.02362185 -0.009250219 -0.09332363 -0.04402153
-0.018816965 0.076167114 0.06332126 -0.053441294 0.08919973 0.0191058 -0.04363207 0.009491577
0.05518705 -0.003181322 -0.03476811 0.037154045 -0.08430331 -0.06504099 -0.02984815 -0.022684298
-0.011955216 0.09618554 0.086162135 0.104126416 0.008572732 -0.09163584 0.06514813 -0.08283954
-0.030298086 0.011922214 0.11037038 0.017567262 0.065965615 -0.050341245 -0.014997052 0.030492054
0.024277147 0.017066564 0.074662715 -0.063842885 0.007631651 0.008610773 -0.0043130512 0.062524
-0.08430955 0.09361859 -0.028563106 0.061568208 0.12063453 -0.027723309 -0.051491003 0.16491014
0.135394 0.07829686 -0.09145782 0.14278647 -0.049707983 -0.041356258 -0.04469647 -0.04375084
0.074210614 0.10520022 0.019982873 0.037829764 0.07056829 0.1231869 -0.054998 0.14780606
-0.06389247 0.034318894 0.02127075 -0.060039803 0.12901859 -0.04106996 0.096785426 0.1046073
-0.035569113 0.014046381 -0.093137175 -0.084937625 -0.099970005 0.079697356 -0.048561618 -0.051330376
-0.091644846 0.02801653 0.15841204 0.06352983 0.10978417 -0.094548166 -0.029090367 0.069069035
0.0035692323 0.13670208 0.06631911 0.0130039025 0.041190702 0.0042632227 0.1097574 -0.009202246
-0.047090348 0.053944692 0.03824884 0.04399283 -0.078852594 -0.07801118 0.009076003 -0.06507792
-0.00023807469 0.0679459 0.08426337 -0.086689 -0.044473667 -0.0066891136 -0.07846882 0.11082765
0.087231845 0.030300418 -0.030252807 0.021602966 0.06302504 0.09571254 -0.05257514 0.03186567
0.046093337 -0.0730982 0.07073933 0.0072216494 -0.08564054 0.08004891 0.04109578 -0.09060916
0.048277676 0.048523165 -0.08235426 0.029514156 -0.00024411872 -0.014880997 -0.0316148 0.08206443
-0.063966386 0.0099140145 0.020928726 -0.009728206 0.046104424 0.039045952 0.08556373 -0.061486505
-0.07021705 -0.12001155 -0.09450519 -0.042275827 0.043977417 0.095429994 -0.110084444 0.08176128
-0.052306715 0.011446212 -0.028205242 0.055083312 0.006138203 0.066675454 -0.09432273 0.0427799
-0.08158916 0.0049230456 -0.11493967 0.07042898 -0.027209235 0.050019138 -0.10627097 0.1140534
-0.08476983 -0.09821643 -0.013123407 -0.09365984 0.06950602 0.089314036 0.0205973 -0.06666975
-0.019148229 0.08624795 0.072650686 0.02456362 0.07496121 0.003183225 0.09906123 0.0322836
-0.09299779 0.109943524 -0.022402035 0.040077515 0.106950216 -0.04178951 -0.022042254 -0.04448583
-0.06642605 0.022451362 0.0078561045 0.11118276 0.13227929 -0.04955147 0.07739544 0.071950294
0.011604062 0.03054687 -0.045691594 -0.040177032 0.05191205 0.062644176 0.007864893 -0.00901456
0.115551166 0.09579328 0.15437134 0.050777726 -0.049003933 -0.09605244 0.008685962 0.093458176
0.06469462 0.049876694 0.013308792 0.09312872 0.019449186 -0.090794235 -0.008388425 -0.06649292
0.11735561 -0.06737173 -0.0049374853 -0.092107594 -0.10809415 -0.07562312 0.07352355 -0.0426998
0.00997544 0.007045747 0.076177195 0.09708119 0.11019858 0.041055303 -0.06945331 -0.053158794

head.0.weight f4 [32, 64]
00000000: 6784 0a3e 50f1 23be af09 e2bc 2e3e 7cbd
00000010: edee 13be 48c1 91bd 5a2f 023e c189 253d
00000020: f529 b93c ceb3 0dbc f97a 19be b1e5 31be
00000030: a17f fd3c 0f1e c53d 4fae 523c 93dd 303e
00000040: bc4c 00bd 84f3 1a3e 93e7 173e 20d8 f33d
00000050: 525c 04bd c04f e7bd dbda 6bbd f135 623d
00000060: 89d2 0c3d 3a12 1f3c 02e2 713c 81b4 c93c
00000070: 9d65 803d 8104 d7bb 446f 2d3d ef53 373c
00000080: fbfd 5d39 0ec0 093d e3ca e7bd 20fa 8abd
00000090: 605d 123d 91c0 a7bd 2c50 0a3e 4426 38be
000000a0: 7b10 2b3e afa9 e8bd d405 ff37 d0a3 ac3c
000000b0: 9295 06be 9429 8c3d 9f3b 5c3d da77 19bd
000000c0: c46f 04be 6045 63bd f1a3 a43d 964a 573d
000000d0: 9bfa 273e 0909 c33c f289 343e 519e e9bd
000000e0: bccf 45bd 87cf a53d dc1b d0bb 97be a53c
000000f0: 2427 6fbd ac2a b8bc a063 033e f1ed c63b
00000100: af40 81bd a03f 8f3d c0bb 5abd cde9 1c3d
00000110: 71cf a93d 16c6 123d ba37 52bd ac6d de3c
00000120: 8616 3b3d 942f 1bbd eadd 6b3d 8f30 3b3d
00000130: 50d9 463d cbe6 c0bc a8df febc 4e52 76bd
00000140: 047a 1cbc 3a69 56bd fed9 3abd 5a4a 84bd
00000150: 3854 c5bc 5e72 6e3d 54e0 5b3d 9b65 51bd
00000160: 73d4 7dbd ad16 623d 808c 903d 806b aebd
00000170: 2cce b63c 6795 363d dcb8 e73c a53c 20bd
00000180: 3a14 44bd 7b9f 6bbd e126 be3c fb63 923d
00000190: c501 61bd 11fb 413d 1ca7 3fbd fbec 6f3d
000001a0: 096d 70bd 5c88 643d 74b9 fd3c 6c0e 783d
000001b0: 97fb a83d f3f6 3bbd 04b8 4cbd 9e52 563d
000001c0: 2767 04bb ebda 683d 9844 94bd 8e9b 673d
000001d0: 220d 61bd b464 66bd 1a60 5bbd 580e 2f3d
000001e0: a26b 2cbd bd6c 07bc ba31 9b3d 1fa7 1bbd
000001f0: 1e26 333d beeb 663d 75bb 6cbd 8c24 953d
00000200: f1fc adbc 88af aebd a32e c83d 69c9 d33d
00000210: 453f 1e3d e185 a03d 7164 7bbd 771a 983b
00000220: 2f8e a73d dbdf 81bc 5930 7cbd dc1d 063c
00000230: 11fb ae3d 172d c9bc a653 fa3d d220 833d
00000240: 54c7 a0bd be13 cebd 88cd d4bd 8d58 43bd
00000250: e03e bdbd 9cfc ed3d 55da ba3c 26c1 3abc
00000260: 8787 b63d 9f3c db3d 8797 5c3d 4734 d03c
00000270: 3f9a d53d 72a7 e93d baeb ebbd b348 d93c
00000280: 6940 c0bd b024 e3bd 07d4 813d 9626 e03d
00000290: 252e a03c bd8c b13c ea9c 94bd 23ba ac3d
000002a0: 4ae2 613b 20a7 013e 86b2 e73c 5419 04bc
000002b0: db2a fc3d 7eb0 81ba 51c6 7fbd c3bb da3c
000002c0: 9641 10bb bef1 ae3d 42a8 47bc ef1e a53c
000002d0: 1b08 183c bd5e d7bc 9016 9cbb 4fff e1bd
000002e0: cec9 ba3d e7a4 8ebd 79d7 e43d d79f 8b3d
000002f0: f64f e43d 5a0e c93d 1ca7 f63c 531d c2bd
00000300: 4d90 2ebd fb23 c0bd 9693 5dbd bd10 55bd
00000310: 032d b6bd 1148 a3bd cad1 6ebb 5b44 613c
00000320: 9d63 a83c 7b27 35bd aebf 51bd a87b b1bd
00000330: 14ec e8bc 283d e73d c94f 9a3b 127e 053e
00000340: c46b b7bd 5fca 1d3e b9b2 0e3e 5199 d93d
00000350: 49d1 16bd de0e d7bd 885a 51bd f8cc db3d
00000360: a3f7 3e3d 7fce af3d a4f4 123d bdec 5c3d
00000370: 88cc f5bd b85c 543d 6d6b 8e3d 7a2f 413d
00000380: 2040 ff3b b318 8a3d 6bf5 7ebd 6b19 a73d
00000390: ca9b 043e 39f9 91bd 4072 71bd 8863 933d
000003a0: 83a1 f43d 2420 d93c 5af8 dabd 8a1c ac3d
000003b0: b30a 92bc 2410 24bd f2c0 14ba 1bcf e43c
000003c0: aba5 06bd 6d5c 84bd e214 ed3c 6c7d 06be
000003d0: eefc c53d 242f d73d a918 fa3d ce99 03bd
000003e0: 4912 f63c 5a53 493d 8ed5 023c 5e83 063e
000003f0: 3ee3 6dbd 2271 333d 8718 c63b 318c bbbc
0.1352707 -0.16010022 -0.027592508 -0.061582737 -0.14446612 -0.071169436 0.12713376 0.040414575
0.022603014 -0.008648826 -0.14988317 -0.17372777 0.030944647 0.09624874 0.012858941 0.17272024
-0.03132318 0.15131956 0.14834432 0.11906457 -0.032314606 -0.11294508 -0.057581764 0.055227224
0.03438047 0.009708935 0.014763357 0.024622204 0.06269381 -0.006561816 0.04234244 0.011189445
0.00021170817 0.033630423 -0.113179944 -0.06785989 0.03573358 -0.08191026 0.13507146 -0.17983347
0.16705506 -0.113604896 3.0401083e-05 0.021074206 -0.13142994 0.06843868 0.053767797 -0.037467815
-0.1293326 -0.055486083 0.08039082 0.052561365 0.16404192 0.02380802 0.17630747 -0.114071496
-0.048293814 0.08096223 -0.0063509773 0.020232482 -0.058386937 -0.022481285 0.12830973 0.0060708453
-0.063111655 0.069945574 -0.05340171 0.038308907 0.082915194 0.03583344 -0.051322676 0.027151905
0.045675777 -0.03788717 0.05758468 0.045700606 0.04854709 -0.02354755 -0.031112507 -0.060137086
-0.009550575 -0.052346446 -0.04561805 -0.06459494 -0.02408801 0.058214538 0.053680733 -0.05112229
-0.061970185 0.055197407 0.07058048 -0.08516598 0.022315107 0.044576075 0.02828639 -0.039120335
-0.047870852 -0.05752514 0.023211898 0.07147976 -0.05493333 0.047358576 -0.046790227 0.05857561
-0.058697734 0.055794105 0.03097222 0.06056063 0.08251112 -0.045889806 -0.04998018 0.052324884
-0.0020203085 0.0568494 -0.07239646 0.056544833 -0.054944165 -0.05624838 -0.053558446 0.04273829
-0.042094834 -0.008265671 0.07577844 -0.038001176 0.043737523 0.056377165 -0.05779596 0.072823614
-0.021238776 -0.08529574 0.0977452 0.1034115 0.038634557 0.078380354 -0.061375085 0.0046418267
0.08181416 -0.015853813 -0.061569545 0.00818583 0.08543981 -0.024557633 0.12222986 0.06402744
-0.07850519 -0.10062359 -0.103907645 -0.04769187 -0.09240508 0.11620447 0.022809187 -0.011398589
0.089125685 0.10704922 0.053855445 0.025415553 0.10429811 0.11408891 -0.11519571 0.026523924
-0.09387285 -0.11090982 0.06339269 0.1094486 0.019553253 0.021673555 -0.072564915 0.0843394
0.0034467154 0.1266141 0.028283369 -0.008062679 0.123128615 -0.0009894518 -0.06244499 0.02670086
-0.0022011749 0.085422024 -0.012186112 0.020156352 0.009279276 -0.026290292 -0.004763432 -0.110350244
0.091205224 -0.069650464 0.11173911 0.068175964 0.11148064 0.098171905 0.03010898 -0.094782494
-0.042618085 -0.09381863 -0.054095827 -0.052017916 -0.08895304 -0.0797273 -0.0036440962 0.013749207
0.020555312 -0.044227105 -0.05120819 -0.08666164 -0.028432883 0.112909615 0.004709218 0.13036373
-0.089561015 0.1540923 0.13935365 0.10624946 -0.036820684 -0.105008826 -0.051111728 0.10732454
0.046622884 0.08584308 0.03587784 0.05393671 -0.12001902 0.051846236 0.069540836 0.047164418
0.0077896267 0.06742992 -0.062245768 0.08159145 0.12950054 -0.071276136 -0.058946848 0.071967185
0.119448684 0.026504584 -0.106919006 0.08403881 -0.017827367 -0.040054455 -0.0005674503 0.027930787
-0.032872837 -0.06462941 0.028940622 -0.13133782 0.09667383 0.10507038 0.12211735 -0.0321291
0.030038016 0.049151756 0.007985486 0.1313605 -0.058078043 0.043809064 0.0060454044 -0.022893997

head.0.bias f4 [32]
00000000: bc07 f13d d1b0 b83c 3667 67bc cdd8 8f3d
00000010: 11c6 e33c 40f1 96bc ea8b 14bd 8746 7dbc
00000020: a35f ba3c d827 93bc 99c2 3fba f9c0 9c3d
00000030: 650a 73bc efb9 283d 46f9 d4b6 f172 95bc
00000040: f175 ca3d 9412 aa3b c26a 893c 367f c5bb
00000050: da7d 6a3c a1cf 7db8 e231 03bd 9168 b33d
00000060: 247b bdbc 238b 873c 6b07 e93c 53ae 2f3d
00000070: 758d 1e3d f3ec 36bc bdcb 853d 0d77 69bb
0.11769053 0.02254525 -0.0141237285 0.07023773 0.027804406 -0.018425584 -0.036266245 -0.01545871
0.022750681 -0.017963335 -0.0007315069 0.07653994 -0.014834021 0.041192945 -6.3471116e-06 -0.018243285
0.09885777 0.005190203 0.016774539 -0.0060271276 0.014312232 -6.051327e-05 -0.032029994 0.08760179
-0.023130007 0.016545838 0.02844592 0.042890858 0.038709123 -0.0111648915 0.065330006 -0.0035623938

head.3.weight f4 [1, 32]
00000000: e0f0 843d 32f1 73bd ea54 29be ec3e ef3d
00000010: f328 8abd 0498 0bbe 7df5 1cbd 787f 033e
00000020: d61d 88bd 5bb7 cc3d ebaa 9db9 55e3 fe3d
00000030: 9b9e 40bc 48a8 f23d a051 9a32 bc9a 97bb
00000040: c83a de3d 8826 0f3e 7c98 b53d 26fe 92a8
00000050: 5191 a5bd a274 f726 cb39 5cb9 282c a73d
00000060: d8de efbd 0ada d1bd 3c3b 8abd 4afc d33d
00000070: 8b58 1ebe f033 ceb9 406c 8cbd 0025 89bd
0.06491256 -0.059556194 -0.16536298 0.11681923 -0.06746092 -0.13632208 -0.038320053 0.12841594
-0.06646316 0.0999591 -0.00030072717 0.12445704 -0.0117565645 0.11848503 1.7965078e-08 -0.0046266
0.108510554 0.13979542 0.08866975 -1.6319475e-14 -0.080843575 1.7170681e-15 -0.00021002365 0.08162719
-0.11712426 -0.10246666 -0.06749579 0.10350855 -0.15463464 -0.00039330078 -0.068565845 -0.0669651
