outputs/models/model_interior.pth (torch, 28533 bytes, 9 tensors)

lstm.weight_ih_l0 f4 [128, 1]
-0.05397897 0.025703672 0.053279653 0.00732164 -0.014534881 0.02337941 -0.054071546 0.04655942
0.022417327 0.0149159245 0.02047825 0.009316551 0.00011596875 -0.004075237 0.01386529 0.073060185
-0.017018985 -0.037536345 0.035002723 0.029245386 -0.026981426 -0.008035748 -0.0068778414 0.073345944
-0.027493574 0.012043259 0.017126663 -0.0049041733 -0.0023063035 0.008062625 -0.08782984 -0.039286047
-0.0047387346 0.004187138 -0.033257917 -0.031531423 0.0011156049 0.0026802616 -0.0036213088 0.0015455467
0.026473368 -0.00044501995 -0.0007673603 -0.001807584 -4.7909067e-05 -0.011541508 0.0007153263 0.012149061
7.870132e-05 -0.0043669213 -0.0018354724 -0.004431737 0.00070878863 -0.0013277527 -0.0017268491 -0.0031337214
0.0041498286 -0.0012459288 -0.003202392 -8.717742e-05 0.0076907193 -0.0002915689 0.010891998 -6.774621e-05
0.12308265 0.05142788 -0.07464332 -0.10269135 0.073190376 -0.04848998 0.0908775 0.086690344
-0.05659742 -0.07244094 0.04617969 -0.039440453 0.025659772 -0.079576015 0.060017433 -0.113691516
-0.064554766 -0.050944123 -0.05140872 -0.085881986 0.0770622 -0.06323057 -0.032857094 -0.1204074
0.025051542 0.026215749 -0.0932258 -0.023774384 -0.035530116 0.023623748 -0.022505289 0.05732464
-0.01573224 -0.1294099 -0.08561583 0.038627453 -0.022308612 0.004563064 0.02030175 -0.08246834
0.091540344 -0.060265657 0.032802008 0.020650243 0.006621464 0.0055513117 -0.006566753 0.11399247
0.03889999 -0.08621655 0.046022967 0.032340333 0.0051776785 0.023191754 -0.0052329437 0.009011985
0.030133655 0.0011563293 0.07054463 -0.0062102196 0.001004457 -0.0021068363 0.07665465 0.041174047
00000000: 0d19 5dbd 8290 d23c c43b 5a3d 5eea ef3b
00000010: b623 6ebc 2d86 bf3c 207a 5dbd 17b5 3e3d
00000020: 8ba4 b73c ec61 743c 01c2 a73c 72a4 183c
00000030: 4034 f338 9189 85bb 3e2b 633c 94a0 953d
00000040: 666b 8bbc b6bf 19bd 045f 0f3d 0594 ef3c
00000050: 2708 ddbc 5fa8 03bc 845f e1bb 6636 963d
00000060: 343a e1bc 1751 453c 374d 8c3c 30b3 a0bb
00000070: 5a25 17bb 1a19 043c 22e0 b3bd 68ea 20bd
00000080: 6347 9bbb 4234 893b 7439 08bd 1827 01bd
00000090: 7d39 923a 54a7 2f3b 7b53 6dbb f193 ca3a
000000a0: adde d83c 9151 e9b9 ae28 49ba 74ec ecba
000000b0: f8f1 48b8 9818 3dbc bc84 3b3a db0c 473c
000000c0: 730c a538 6418 8fbb 3c94 f0ba 1b38 91bb
000000d0: 00ce 393a fd07 aeba 7157 e2ba 1f5f 4dbb
000000e0: 49fb 873b 6f4e a3ba 39df 51bb 05d3 b6b8
000000f0: 6e02 fc3b b7dd 98b9 5a74 323c f812 8eb8
00000100: c212 fc3d 0aa6 523d 99de 98bd d84f d2bd
00000110: d6e4 953d 6e9d 46bd fc1d ba3d b58a b13d
00000120: b2d2 67bd ea5b 94bd ea26 3d3d 508c 21bd
00000130: 7134 d23c c0f8 a2bd d7d4 753d 19d7 e8bd
00000140: 4a35 84bd c9aa 50bd f391 52bd e5e2 afbd
00000150: c9d2 9d3d 077f 81bd 2995 06bd 2898 f6bd
00000160: e438 cd3c 69c2 d63c 2bed bebd 7fc2 c2bc
00000170: 0788 11bd 9786 c13c 035d b8bc 3ecd 6a3d
00000180: e6e0 80bc 0784 04be 5a57 afbd d237 1e3d
00000190: 8dc0 b6bc c185 953b db4f a63c 29e5 a8bd
000001a0: 8179 bb3d 1fd9 76bd 665b 063d b32a a93c
000001b0: def8 d83b c7e7 b53b eb2d d7bb e274 e93d
000001c0: 9955 1f3d 4d92 b0bd 9482 3c3d 4c77 043d
000001d0: 84a9 a93b a2fc bd3c 1d79 abbb 01a7 133c
000001e0: dbda f63c f98f 973a b479 903d 197f cbbb
000001f0: fca7 833a d912 0abb 1dfd 9c3d 1ea6 283d

lstm.weight_hh_l0 f4 [128, 32]
-0.0012427712 0.0019030763 0.0067050266 0.0020127518 0.0067536645 -0.00040667356 -0.00017547529 0.0010653604
-0.0007022328 -0.00022106693 0.0106554665 -2.9505092e-05 -0.00018944735 0.0012754281 -0.0007290133 0.0012855575
-0.00039422818 -0.009872045 3.2731725e-05 0.00029065175 -8.907189e-05 0.0013458424 -0.0072412454 0.010385903
0.00024951278 -0.0006602199 -0.0063381414 0.0023141615 0.003573224 -0.007957329 -0.0011165747 0.00011914977
0.0024745099 -0.00045380386 -0.002276977 -0.0027466177 0.0015854621 -0.00068761175 0.0035276078 0.006216683
-0.004129238 -0.0012846218 -0.0074510546 -0.0008939119 0.000376303 -0.0021219086 0.001577621 -0.0025859934
0.005347261 0.0001473009 -0.002111584 -0.0020688106 0.001531634 0.013208884 0.007800233 -0.0024641955
0.0005010706 0.0003183476 -0.0020170957 -0.009267289 -0.0016840387 0.00042935027 -0.00073387026 -0.0010375963
-0.0012381356 -0.021150963 0.00082064496 0.0030104155 -0.00830629 0.0002630412 -0.0019233384 -0.00052412093
0.0039130375 0.0016216475 -0.00043190605 0.00094636093 -0.000694168 -0.00081944827 -0.0037778893 0.0037984834
0.0013311101 0.010980688 0.012784638 0.0022826379 -0.0018040697 -0.031921275 0.0047152713 0.013339331
-0.00079900207 -0.0009778633 0.0020179958 -0.006960942 -0.043896955 -0.0006300438 -8.6252665e-05 -0.0009880663
-0.00012623078 0.009331278 0.0002674975 0.013927743 0.00014785606 0.000854906 -0.009398907 0.00030312157
-0.0013620971 0.0023275341 -1.6986603e-05 -0.00013306648 -5.0063893e-05 0.0001142039 -1.0031303e-05 0.0015904615
-0.008898984 -0.00039932982 -0.00013831924 -0.00019832648 0.00015962696 -0.00048743305 -0.0059830565 -0.00029618744
0.00019645455 0.0074868286 0.0020183634 0.004063529 -0.013630949 -0.0005041439 -0.0017904348 0.004939405
-0.0032053427 0.00024039714 0.00048187881 9.894777e-05 0.0025818136 0.008665631 -2.8871673e-05 0.0004305597
-0.0025910663 -8.3888335e-05 0.0050414484 -7.77218e-06 -0.0002393297 8.157168e-05 -0.0042179413 -0.0001522013
-7.7602686e-05 0.0025045369 -3.5741057e-05 -7.092504e-05 -0.0002582522 6.461766e-05 0.00740874 -0.0001470616
0.003919645 -8.7027904e-05 -0.00025444705 -0.006479939 0.00013475132 -0.009824155 6.567914e-05 -0.0014604701
-0.00028192293 0.00016358393 0.00058276847 0.0019554782 0.009519292 -0.0013135939 -0.00020176661 -7.080096e-05
-0.0045643877 2.5671616e-05 -0.00020462184 7.4604875e-05 -7.469701e-06 0.007966927 -0.0020196573 0.00231713
1.418348e-05 -0.0072089825 9.871072e-05 -0.00072587805 -0.0001576708 0.0037765435 -0.008606048 -0.004139286
-0.010592256 -0.0007585675 0.0069738165 0.007877259 0.00071728457 -3.290877e-05 0.0005241922 0.0017939995
0.005431953 0.0009197494 0.0008760957 0.0013379542 -4.9012146e-05 -0.00025487426 -0.00022232518 -0.0022770623
-0.00044747596 -1.1046155e-05 -0.00042653465 8.2817816e-05 -0.007276459 0.00085321337 -0.00043639605 -5.7912042e-05
-0.00011188419 0.0075355284 0.00012957197 4.9192804e-06 -0.00017912098 0.00077114307 0.0051820274 -5.284483e-06
-0.00073777797 -0.00048580958 0.003055922 -0.0010203879 0.0012810776 3.3197786e-05 0.0049993657 -0.002625887
0.0006456717 -0.0010261484 -0.007276159 0.009566857 -0.00038819062 -0.00026984984 -0.00055667723 -0.0003217547
0.0011185165 0.0008916466 -0.00025717527 0.00029062922 -9.130492e-05 -0.013353506 -0.0008077334 0.00096660806
0.00033351177 0.00030517095 0.0031215278 0.00076272147 -0.00047873333 0.00017774865 0.0034575441 0.0007808597
-0.0001594875 -0.0004192595 0.0005946449 5.089202e-05 -0.021496415 -0.00011191527 0.006915 0.010321663
00000000: 7be4 a2ba a570 f93a d7b5 db3b 5fe8 033b
00000010: d84d dd3b cd36 d5b9 caff 37b9 90a3 8b3a
00000020: 0c16 38ba 34ce 67b9 4494 2e3c b481 f7b7
00000030: 63a6 46b9 442c a73a 411b 3fba 2780 a83a
00000040: 69b0 ceb9 5cbe 21bc 6c49 0938 9e62 9839
00000050: 1bcc bab8 fa66 b03a f847 edbb a229 2a3c
00000060: 0ad1 8239 9c12 2dba 2fb0 cfbb 30a9 173b
00000070: c02c 6a3b 755f 02bc 085a 92ba 0ce0 f938
00000080: 632b 223b 86ec edb9 5639 15bb 9900 34bb
00000090: 48cf cf3a d840 34ba 702f 673b 51b5 cb3b
000000a0: 8f4e 87bb c160 a8ba fa27 f4bb 6a55 6aba
000000b0: 894a c539 b80f 0bbb 2dc8 ce3a c579 29bb
000000c0: 1438 af3b c974 1a39 8062 0abb e294 07bb
000000d0: 1cc1 c83a 136a 583c 1999 ff3b 577e 21bb
000000e0: 475a 033a e4e7 a639 4031 04bb d4d5 17bc
000000f0: f6ba dcba 6b1a e139 3361 40ba f4ff 87ba
00000100: f048 a2ba c944 adbc 8d20 573a 644a 453b
00000110: 1b17 08bc cbe8 8939 8718 fcba 2965 09ba
00000120: f038 803b 768d d43a 7371 e2b9 3515 783a
00000130: d3f8 35ba 3ed0 56ba 7796 77bb faef 783b
00000140: a578 ae3a 58e8 333c a976 513c 4f98 153b
00000150: 8976 ecba e2bf 02bd 9082 9a3b 368d 5a3c
00000160: 1f74 51ba a62b 80ba 5a40 043b 9d18 e4bb
00000170: 4bcd 33bd 8629 25ba 8ce2 b4b8 0182 81ba
00000180: d15c 04b9 37e2 183c e83e 8c39 3031 643c
00000190: cf09 1b39 c51b 603a e0fd 19bc 4aec 9e39
000001a0: 6588 b2ba 8b89 183b 747e 8eb7 c387 0bb9
000001b0: b2fb 51b8 c080 ef38 1e4c 28b7 0877 d03a
000001c0: 0bcd 11bc 245d d1b9 ca09 11b9 dcf5 4fb9
000001d0: 8961 2739 288e ffb9 840d c4bb 9b49 9bb9
000001e0: 5eff 4d39 1254 f53b 8546 043b 5a27 853b
000001f0: 5854 5fbc 8628 04ba 06ad eaba bbda a13b
00000200: ba10 52bb 1e13 7c39 aea4 fc39 2e82 cf38
00000210: a533 293b 4afa 0d3c 7231 f2b7 bfbc e139
00000220: e1ce 29bb 35ed afb8 bc32 a53b 4265 02b7
00000230: 94f4 7ab9 7611 ab38 a836 8abb 3a98 1fb9
00000240: a0be a2b8 2823 243b abe8 15b8 97bd 94b8
00000250: 0666 87b9 5883 8738 04c5 f23b 8c34 1ab9
00000260: 5e70 803b c082 b6b8 4e67 85b9 ab55 d4bb
00000270: 084c 0d39 7ef5 20bc 38bd 8938 3f6d bfba
00000280: 0ecf 93b9 ba87 2b39 eec4 183a 7b27 003b
00000290: cef6 1b3c e62c acba 5091 53b9 fa7a 94b8
000002a0: dc90 95bb 6059 d737 c28f 56b9 3075 9c38
000002b0: 3ea4 fab6 b787 023c 3a5c 04bb feda 173b
000002c0: 95f5 6d37 5439 ecbb ea02 cf38 da48 3eba
000002d0: 6f54 25b9 e37f 773b 6200 0dbc d9a2 87bb
000002e0: 248b 2dbc 9ada 46ba 9d84 e43b 9e0f 013c
000002f0: 2708 3c3a 8607 0ab8 f169 093a a224 eb3a
00000300: 86fe b13b 561b 713a caa9 653a 4b5e af3a
00000310: 6492 4db8 a5a0 85b9 f61f 69b9 c43a 15bb
00000320: 359b eab9 e052 39b7 83a0 dfb9 7aae ad38
00000330: 5d6f eebb 2eaa 5f3a 16cc e4b9 95e6 72b8
00000340: 5ea3 eab8 98ec f63b b6dd 0739 4c10 a536
00000350: 6cd2 3bb9 8926 4a3a ffcd a93b 5d51 b1b6
00000360: 7167 41ba 42b4 feb9 dd45 483b 89be 85ba
00000370: d5e9 a73a da3d 0b38 b8d1 a33b 1317 2cbb
00000380: 4b42 293a d47f 86ba d86c eebb 4ebe 1c3c
00000390: 1086 cbb9 a27a 8db9 faed 11ba 2fb1 a8b9
000003a0: 309b 923a 64bd 693a 7bd5 86b9 985f 9839
000003b0: f57a bfb8 aac8 5abc 12be 53ba f863 7d3a
000003c0: 31db ae39 5aff 9f39 8c92 4c3b 5ff1 473a
000003d0: 80fe fab9 0a62 3a39 f797 623b 9bb2 4c3a
000003e0: 1a3c 27b9 0fd0 dbb9 f2e1 1b3a e474 5538
000003f0: 4019 b0bc 0eb4 eab8 3997 e23b 311c 293c

lstm.bias_ih_l0 f4 [128]
-0.050914753 0.009246587 -0.047086887 -0.06382827 0.0015764701 0.0046558618 0.0071326573 0.050190087
0.013818245 -0.00252005 -0.018951984 0.020795738 0.00061459484 0.048434664 0.041337337 -0.0060901456
0.014475786 0.017994218 -0.00482713 0.0035889356 -0.0076469486 0.066297784 -0.06518968 0.011788975
-0.010881192 0.019809972 0.0047313194 0.08140064 0.036403827 -0.0015541243 0.060729325 0.025377546
-0.026301006 -0.010161876 -0.07394002 -0.067974515 0.002333539 0.0005581293 0.03197687 -0.020421825
0.0016792512 0.0020644818 -0.013166418 -0.000936398 0.006636747 -0.01646664 -0.08254883 -0.023623338
-0.015822342 0.03354769 -0.0063132686 -0.005600811 0.03591937 0.03927646 0.057070162 -0.097029686
0.0080693895 -0.0058121313 -0.0068466095 -0.017052246 0.01895966 -0.018447205 -0.035033002 -0.026001744
-0.17226036 0.1304383 0.073804185 0.11324261 -0.035713073 -0.059127536 -0.049039513 0.14540017
-0.003962012 -0.043182004 -0.026578031 -0.011268343 -0.04045185 0.15632576 0.053039104 0.011253419
-0.008795207 -0.09732716 -0.024069898 0.009531061 0.014564996 0.111441314 0.02450408 -0.09939132
0.121713206 0.00430023 -0.04074718 0.14341106 0.14678667 -0.101426415 0.0760712 0.09621068
-0.0057972036 0.06347334 0.088664584 -0.025296919 0.001609555 0.018110141 0.019061074 -0.10835916
-0.016362567 -0.0005407969 -0.0143388845 0.032971874 0.00035087767 -0.02587846 -0.07750566 0.032325182
-0.018006528 -0.06291994 0.012947662 -0.003297964 -0.0173395 0.05480295 -0.082698934 0.06298506
-0.0032657494 -0.0007664546 -0.0026954948 -0.012764566 0.025230566 -0.022603113 -0.0032325215 -0.016194804
00000000: fd8b 50bd ff7e 173c 2ede 40bd 65b8 82bd
00000010: 8fa1 ce3a 3390 983b 11b9 e93b 1f94 4d3d
00000020: ec65 623c 6c27 25bb 3141 9bbc d35b aa3c
00000030: c31c 213a 6d63 463d 5751 293d d88f c7bb
00000040: d92b 6d3c 9c68 933c e72c 9ebb 5934 6b3b
00000050: 4193 fabb 22c7 873d 2b82 85bd 8c26 413c
00000060: 0747 32bc 8648 a23c 2f09 9b3b 61b5 a63d
00000070: 2e1c 153d c2b3 cbba 50bf 783d 92e4 cf3c
00000080: 3575 d7bc ff7d 26bc dd6d 97bd 3936 8bbd
00000090: 4aee 183b 6c4f 123a 2efa 023d ac4b a7bc
000000a0: 521a dc3a 424c 073b f6b7 57bc 9b78 75ba
000000b0: 1279 d93b 0ce5 86bc 5c0f a9bd bb85 c1bc
000000c0: db9d 81bc 4d69 093d 89df cebb 0287 b7bb
000000d0: 3020 133d 5ae0 203d 67c2 693d 80b7 c6bd
000000e0: 7935 043c b173 bebb 8659 e0bb 27b1 8bbc
000000f0: 4a51 9b3c 981e 97bc c47e 0fbd 9c01 d5bc
00000100: 0565 30be 9e91 053e a626 973d beeb e73d
00000110: df47 12bd b72f 72bd a8dd 48bd c8e3 143e
00000120: c4d3 81bb 9ddf 30bd 2cba d9bc db9e 38bc
00000130: d7b0 25bd dc13 203e 883f 593d 4360 383c
00000140: c619 10bc 7653 c7bd 3c2e c5bc 2b28 1c3c
00000150: 05a2 6e3c 583b e43d c8bc c83c ad8d cbbd
00000160: c644 f93d f2e8 8c3b 84e6 26bd 59da 123e
00000170: 3f4f 163e a7b8 cfbd 38cb 9b3d 1b0a c53d
00000180: 78f6 bdbb 4ffe 813d c795 b53d 7c3b cfbc
00000190: b4f7 d23a b85b 943c f825 9c3c 68eb ddbd
000001a0: ca0a 86bc 44c4 0dba a4ed 6abc 840d 073d
000001b0: 01f6 b739 10ff d3bc 4abb 9ebd 6967 043d
000001c0: 6d82 93bc 2bdc 80bd 6e22 543c a822 58bb
000001d0: 910b 8ebc 0f79 603d 0f5e a9bd 50fe 803d
000001e0: 2f06 56bb e6eb 48ba e6a6 30bb 7822 51bc
000001f0: 55b0 ce3c 2a2a b9bc b6d8 53bb f7aa 84bc

lstm.bias_hh_l0 f4 [128]
-0.025067674 -0.008381093 -0.048454136 -0.013488892 -0.0066798152 0.004651936 0.0010942398 0.0029982137
-0.024254123 -0.004317327 -0.0067869094 -0.0010136304 0.0004930707 -0.009970228 -0.039811406 -0.038254272
0.042090736 0.0131555265 0.0021133388 0.006904947 -0.013003506 -0.048418958 -0.027149186 -0.06617516
-0.0059151486 -8.5807995e-05 0.0069268425 -0.03105232 -2.341366e-05 -0.008451296 0.012937575 -0.015072519
0.08918785 -0.01805248 0.03374626 0.007003933 0.001955241 0.0005769955 -0.015355776 -0.07163412
-0.001247259 0.0020347836 0.000876372 0.026568899 -0.007557823 -0.022178367 -0.045618515 -0.023082156
0.01679514 -0.011753444 -0.0064585367 0.002551544 0.04570519 -0.013933592 0.08516575 -0.0878978
0.01998942 0.019799981 -0.006559371 0.08518782 0.015644254 -0.0066777673 0.06349104 -0.004462947
-0.040056225 0.10078873 0.14834742 0.07558584 0.06479899 -0.00078916625 0.016427226 -0.04848226
-0.11289111 0.01889306 -0.07988439 0.030844668 0.029783888 0.041114625 -0.15011702 -0.053768832
0.0016723643 -0.0825703 0.040710427 -0.010504009 -0.01609348 0.0923107 -0.002731649 0.009759073
0.0065884525 -0.1084731 0.024942024 0.0661815 0.1470841 0.10765333 0.08960512 -0.06897643
0.008712396 -0.017547864 -0.07179655 0.016625023 0.001616451 0.0054405434 -0.028348897 -0.013083872
0.008180907 0.008716355 -0.028754115 -0.0016733339 0.00034654673 -0.074343145 0.057247933 0.009557445
0.012972374 -0.059342433 0.0013249982 0.004345039 -0.032866918 0.026144415 -0.094443254 0.036614887
0.0006879292 0.0061574783 -0.011499827 -0.0315251 -0.036241982 -0.0022528807 -0.019133832 0.005946739
00000000: b95a cdbc da50 09bc d877 46bd 8300 5dbc
00000010: 5ae2 dabb 446f 983b 986c 8f3a ae7d 443b
00000020: 95b0 c6bc 5d78 8dbb b964 debb cbdb 84ba
00000030: 6a41 013a 2b5a 23bc 4911 23bd 83b0 1cbd
00000040: 5667 2c3d 478a 573c f17f 0a3b e542 e23b
00000050: a80c 55bc f552 46bd f867 debc d886 87bd
00000060: ddd3 c1bb d1f3 b3b8 91fa e23b 6f61 febc
00000070: 7468 c4b7 4e77 0abc 1ff8 533c baf2 76bc
00000080: 1fa8 b63d cbe2 93bc 8539 0a3d 4081 e53b
00000090: 8023 003b 8341 173a cb96 7bbc e9b4 92bd
000000a0: 117b a3ba 015a 053b 54bc 653a 05a7 d93c
000000b0: 9da7 f7bb 68af b5bc 7bda 3abd ca16 bdbc
000000c0: f695 893c 8491 40bc 22a2 d3bb ce37 273b
000000d0: 5e35 3b3d b849 64bc 616b ae3d c303 b4bd
000000e0: dac0 a33c 9233 a23c feef d6bb f476 ae3d
000000f0: 6128 803c 2cd1 dabb 9707 823d ea3d 92bb
00000100: ff11 24bd 526a ce3d 63e8 173e c0cc 9a3d
00000110: 55b5 843d 0de0 4eba 6492 863c 5695 46bd
00000120: 7433 e7bd 9ec5 9a3c 6d9a a3bd f5ad fc3c
00000130: 57fd f33c cf67 283d 47b8 19be b53c 5cbd
00000140: 3c33 db3a 9e1a a9bd fabf 263d 0219 2cbc
00000150: 79d6 83bc 640d bd3d 7705 33bb 85e4 1f3c
00000160: f2e3 d73b 2527 debd 3753 cc3c 2b8a 873d
00000170: 379d 163e 5979 dc3d e482 b73d 8443 8dbd
00000180: 70be 0e3c 8ac0 8fbc 120a 93bd 3331 883c
00000190: 18df d33a 9646 b23b f23b e8bc bd5d 56bc
000001a0: 3609 063c 0bcf 0e3c c08d ebbc c553 dbba
000001b0: b7b0 b539 3841 98bd cf7c 6a3d d496 1c3c
000001c0: 158a 543c 0d11 73bd 90ab ad3a d460 8e3b
000001d0: 769f 06bd d02c d63c 776b c1bd 7ef9 153d
000001e0: 2656 343a acc4 c93b c569 3cbc 7720 01bd
000001f0: 7972 14bd 11a5 13bb 8ebe 9cbc dddc c23b

gcn.bias f4 [32]
0.02120662 0.020758154 -0.013112409 -0.030625736 -0.021294562 -0.007210455 -0.014638619 -0.008288773
-0.009554758 -0.016090821 -0.012243323 -0.016847584 -0.021081304 -0.007431596 0.045403197 -0.011353316
0.0001861687 0.0 0.029914891 0.0 0.02061346 -0.024791313 -0.014445011 -0.015661817
0.02506637 0.0 -0.010242854 -0.01211058 -0.0025337797 0.014193273 -0.01761439 -0.014754928
00000000: 81b9 ad3c 010d aa3c 6ed5 56bc d3e2 fabc
00000010: ef71 aebc ae45 ecbb d1d6 6fbc a2cd 07bc
00000020: 8f8b 1cbc e6d0 83bc 3898 48bc f203 8abc
00000030: b3b2 acbc bf84 f3bb b4f8 393d 4203 3abc
00000040: 4836 4339 0000 0000 1310 f53c 0000 0000
00000050: 8fdd a83c 2717 cbbc c4aa 6cbc 364d 80bc
00000060: fd57 cd3c 0000 0000 a5d1 27bc 746b 46bc
00000070: c50d 26bb e78a 683c 0e4c 90bc a7be 71bc

gcn.lin.weight f4 [32, 32]
0.042832896 -0.10595404 0.0609414 -0.14551562 0.009675224 -0.116851605 0.026177527 0.021024367
-0.022339627 0.051474724 0.060861588 0.048222635 0.020031977 -0.11972831 0.10832872 -0.1180022
-0.04387133 0.0016565883 -0.06306291 -0.032239836 -0.034999166 -0.059625186 0.0030596326 0.07227184
0.003742284 -0.008283725 -0.055365633 0.0076771053 0.1483066 0.05218253 0.15159157 0.09225326
-0.15402217 0.13849479 -0.040753294 0.124115236 -0.080789715 0.031438302 0.013207192 -0.09444295
-0.083495386 -0.037909295 0.0049792076 -0.016568633 0.019058619 0.12984194 -0.09799699 -0.079597384
-0.02305044 -0.01048167 0.14051586 -0.061856873 0.12646541 -0.17517148 0.08136511 -0.110814705
-0.16003993 -0.020176005 -0.03360133 -0.12876561 0.107332885 0.026469724 0.16658294 0.00967441
-0.0006325339 -0.17361534 -0.16141514 -0.20255904 -0.06874881 0.03973513 0.043143943 -0.009530589
0.026523767 -0.019297486 0.14946231 -0.023462756 0.05846704 0.1558215 -0.021803202 0.07473674
-0.0011836321 -0.15973125 -0.11500539 0.09393147 -0.0012897843 0.09301657 -0.0041613234 -0.08169956
0.15959245 0.093584076 0.008854395 0.15429835 0.11259996 0.0031080316 0.19922212 0.047395438
0.012579105 0.18837537 0.07186292 -0.08437535 -0.05036374 0.0021295366 0.02729418 0.12994027
-0.14692563 0.0055782734 -0.05914911 -0.0071921586 0.072013475 -0.053256303 -0.005550945 0.0944095
0.048947766 -0.1310285 -0.038898356 0.0645561 0.07835986 -0.007245568 -0.18685952 -0.13236085
-0.11964321 -0.06156992 0.059402857 0.17387386 0.12627457 -0.030985799 -0.20071723 0.0016021192
0.0027920343 0.07851502 0.042876724 -0.22045298 -0.036862444 0.027673734 0.08458185 -0.18814558
0.18312427 -0.06845217 0.16846614 0.037118934 0.04442435 -0.0027384227 -0.09166109 -0.12007489
0.122721486 0.1398212 0.0847951 0.07907256 -0.024024097 -0.14469169 0.19429114 -0.02010636
0.18836822 -0.10139996 -0.062648 0.17777708 0.18832895 -0.109577306 0.062084593 0.036536932
0.016857332 0.15316963 0.11962477 0.018281406 0.02624019 0.093495816 -0.01960535 0.016783074
0.10284993 0.10262 -0.15709527 0.12798384 -0.044808608 0.13474774 -0.07866314 -0.1937699
-0.038782667 0.22174236 -0.010304717 0.1888873 0.024995793 0.14236641 -0.008498329 -0.15246624
-0.12729755 0.2026127 -0.012613239 -0.13862866 -0.035989653 0.05126544 0.20904264 -0.062362906
0.1507428 0.056529153 -0.0047533466 0.20569839 0.10010378 -0.16362132 0.026660226 -0.018517377
-0.1272035 0.027838068 -0.13238718 -0.011094842 0.03129978 -0.17643821 -0.112141415 -0.09023847
0.015413203 -0.21266757 0.13918924 0.0433953 0.0188795 0.18709245 0.1815456 0.15694024
0.15647589 0.14189513 0.04100852 -0.2098717 0.18647994 -0.031527214 -0.18488954 0.10038936
-0.020808794 0.08069783 -0.04436514 0.055464562 0.0011139722 -0.037627693 6.514496e-05 0.0144972075
-0.009760735 0.036855645 0.032809474 0.0007183917 -1.0493696e-06 8.096869e-05 -0.07499183 0.0012146902
0.04843283 0.084192015 0.024942169 -0.044186644 0.000598847 -0.0014186397 8.37421e-06 0.019751504
-0.020853259 0.011585182 -0.011359267 5.694681e-05 0.00011888416 0.005290855 -0.00846983 0.016322665
00000000: 8c71 2f3d 6ffe d8bd b09d 793d 0c02 15be
00000010: d584 1e3c e54f efbd 4172 d63c 4b3b ac3c
00000020: 9801 b7bc 29d7 523d 004a 793d 1985 453d
00000030: 1a1a a43c 1e34 f5bd 73db dd3d 23ab f1bd
00000040: 6cb2 33bd e121 d93a 2127 81bd eb0d 04bd
00000050: 495b 0fbd 8a39 74bd 1e84 483b 4203 943d
00000060: 1b41 753b 76b8 07bc 13c7 62bd 3a90 fb3b
00000070: afdd 173e 59bd 553d d23a 1b3e 47ef bc3d
00000080: fdb7 1dbe 94d1 0d3e edec 26bd 2130 fe3d
00000090: 1475 a5bd 73c5 003d fa62 583c 4e6b c1bd
000000a0: a1ff aabd c746 1bbd 9f28 a33b f1ba 87bc
000000b0: d220 9c3c 49f5 043e a5b2 c8bd f403 a3bd
000000c0: 47d4 bcbc 4fbb 2bbc 64e3 0f3e a25d 7dbd
000000d0: 2680 013e 2760 33be c0a2 a63d d2f2 e2bd
000000e0: 82e1 23be 2648 a5bc 8ca1 09bd 22db 03be
000000f0: 58d1 db3d 09d7 d83c b894 2a3e 6b81 1e3c
00000100: a2d0 25ba 38c8 31be 034a 25be a36b 4fbe
00000110: 2dcc 8cbd 4ec1 223d b4b7 303d 3026 1cbc
00000120: 5f48 d93c c315 9ebc a60c 193e f734 c0bc
00000130: 237b 6f3d ac8f 1f3e a19c b2bc 930f 993d
00000140: 1a24 9bba 9790 23be f287 ebbd 245f c03d
00000150: fb0d a9ba 797f be3d b65b 88bb 1952 a7bd
00000160: 346c 233e 02a9 bf3d 0612 113c 6300 1e3e
00000170: cf9a e63d 1eb0 4b3b e200 4c3e b821 423d
00000180: 9718 4e3c 79e5 403e de2c 933d fccc acbd
00000190: 364a 4ebd b28f 0b3b 0b98 df3c 100f 053e
000001a0: ac73 16be f3c9 b63b 5646 72bd 33ac ebbb
000001b0: cd7b 933d 4823 5abd b4e4 b5bb c559 c13d
000001c0: 747d 483d 562c 06be e253 1fbd fd35 843d
000001d0: 227b a03d 3b6c edbb 1a58 3fbe 9a89 07be
000001e0: 8007 f5bd be30 7cbd 6950 733d fd0b 323e
000001f0: 1f4e 013e eed5 fdbc d188 4dbe 33fe d13a
00000200: 90fa 363b 7ccc a03d 819f 2f3d 6dbe 61be
00000210: 13fd 16bd 07b4 e23c 4039 ad3d 3ca9 40be
00000220: ee84 3b3e a730 8cbd 6382 2c3e 060a 183d
00000230: 4ff6 353d 1c77 33bb cfb8 bbbd d3e9 f5bd
00000240: 6755 fb3d 4a2d 0f3e 0ea9 ad3d cbf0 a13d
00000250: 2fce c4bc 0f2a 14be 42f4 463e 18b6 a4bc
00000260: 99e3 403e c8aa cfbd 984d 80bd 320b 363e
00000270: 4ed9 403e 116a e0bd 6a4c 7e3d c0a7 153d
00000280: 6318 8a3c 80d8 1c3e d5fd f43d e3c2 953c
00000290: abf5 d63c bc7a bf3d 669b a0bc a87c 893c
000002a0: fca2 d23d 6f2a d23d 95dd 20be 320e 033e
000002b0: 3b89 37bd 50fb 093e 241a a1bd 9e6b 46be
000002c0: 93da 1ebd 6e10 633e 1ed5 28bc ac6b 413e
000002d0: fac3 cc3c 80c8 113e 933c 0bbc 1c20 1cbe
000002e0: 4a5a 02be b479 4f3e c2a7 4ebc acf4 0dbe
000002f0: e369 13bd b6fb 513d 460f 563e 3f70 7fbd
00000300: 525c 1a3e 1d8b 673d f6c1 9bbb 99a2 523e
00000310: 3603 cd3d 598c 27be 8c66 da3c c1b1 97bc
00000320: a241 02be a90c e43c 8190 07be 24c7 35bc
00000330: 3334 003d 38ac 34be 66aa e5bd f2ce b8bd
00000340: a987 7c3c 87c5 59be a087 0e3e 45bf 313d
00000350: 2ea9 9a3c 2a95 3f3e 17e7 393e f1b4 203e
00000360: 373b 203e f54c 113e 8df8 273d 9be8 56be
00000370: 99f4 3e3e ae22 01bd af53 3dbe f098 cd3d
00000380: 3477 aabc e744 a53d 39b8 35bd cf2e 633d
00000390: b402 923a 7f1f 1abd 6f9e 8838 b285 6d3c
000003a0: 7deb 1fbc f2f5 163d 3a63 063d 7352 3c3a
000003b0: 11d8 8cb5 bccd a938 5195 99bd 3d36 9f3a
000003c0: 8161 463d dd6c ac3d 8553 cc3c 0efd 34bd
000003d0: f1fb 1c3a a6f1 b9ba f57e 0c37 e8cd a13c
000003e0: 74d4 aabc c6cf 3d3c 381c 3abc 2cda 6e38
000003f0: 7351 f938 e95e ad3b 0bc5 0abc 1cb7 853c

fc1.weight f4 [16, 32]
0.1499467 0.002808308 0.048481412 0.17627788 -0.12088226 0.11093202 -0.13888879 -4.856553e-05
0.00032652615 0.017570833 0.05871562 -0.02180492 0.13537452 -0.009408024 0.052229747 0.102762826
-0.00025947014 0.00216226 -0.14233513 -1.1813547e-09 0.0006922642 0.049774125 0.0038574063 0.056506723
0.087853156 -1.090963e-08 0.1222232 0.037261218 -0.0014858352 0.17294767 -0.057729565 0.16100538
-0.09191624 -0.053058866 0.14588112 -0.037200086 -0.15432478 -0.13743149 -0.07886857 0.0030266724
0.010771759 0.10333549 0.046983078 0.008074549 0.028316608 0.00045455905 0.04630155 -0.018094152
9.2869894e-05 -0.0019786286 -0.14576589 -3.92951e-09 -0.08954012 0.13862784 2.1321752e-07 0.07933773
-0.018936515 0.006164906 0.07022287 0.0722713 0.0110235885 0.04676657 -0.04942885 0.033169057
0.034627847 0.012974839 0.09360807 -0.13802642 -0.061765652 0.042555045 0.059620988 0.00037235906
0.0005457598 0.029306473 -0.07809317 -0.030270444 0.08877517 -0.0005384634 -0.071552366 0.09747387
-0.00026373027 -0.0013820184 0.14443757 -1.8518834e-08 0.036043964 0.001272864 -1.1532052e-06 -0.080564156
0.10434437 -2.2687512e-09 0.15068887 0.15240939 -0.0050981673 0.09631567 -0.07314603 -0.05624021
-0.022849055 0.10375412 -0.13231504 -0.11059613 -0.052403197 -0.074889444 0.05023633 0.0017829293
-2.6365185e-05 0.04777916 0.066722624 -0.004305101 0.07558966 -0.00022355758 -0.062874824 -0.030550858
1.36915205e-05 2.5913284e-08 -0.0729864 -1.5697157e-08 -0.020836437 -0.12242694 0.011641615 -0.024293566
-0.013674744 -1.3534545e-08 -0.059664518 0.015738161 -0.0009737032 -0.029824695 0.057843424 0.06744699
4.5751978e-05 0.013116593 -0.054244526 -0.05995951 0.047153674 -0.025440197 -0.01122014 -0.0011366716
-4.0188314e-07 0.012152794 -0.025394598 4.1262065e-05 0.03006448 -6.539766e-06 -0.06813436 0.08873598
0.0016432344 -2.146137e-09 -0.057491288 2.9398825e-07 0.013217508 0.08033807 -0.008303243 0.002286165
0.0012546517 -5.936003e-09 -0.017112993 0.048630424 6.021819e-06 -0.00663757 -0.022325635 0.030696198
0.0064127846 0.018254658 0.0018435308 -0.034263186 0.010042092 -0.060730826 -0.03323415 -1.2653716e-06
0.0013705539 -8.892027e-08 0.0006501003 0.004214619 0.007961636 -0.0002808258 -0.0055048787 0.07582669
-0.0052904766 -1.1638965e-08 -0.0024630672 -1.8952626e-06 0.003075335 0.08030365 6.301031e-09 -2.5867608e-08
0.0037170334 -0.0006334346 0.040527962 -0.015378667 -5.612503e-05 0.0015464481 6.857321e-09 0.0001982917
7.359107e-08 0.0038576778 2.0721527e-07 0.00033754995 7.648185e-07 0.007416279 -1.5637143e-07 0.00056326896
0.010927145 -0.0011006119 -0.00013740841 -0.00010852885 2.5719578e-09 0.009259703 -0.0060483622 -0.010222402
-8.873959e-07 4.2000096e-07 -5.81354e-06 1.4733291e-09 -0.0023924476 0.0055658356 -1.1661699e-06 5.236176e-09
0.009219275 7.951265e-09 0.028940298 -5.157789e-09 -0.0044248514 -0.0049724 0.0019041309 3.2824787e-10
-0.010707689 3.9298584e-08 0.0005876228 -8.495864e-09 -1.4472915e-05 -1.2923989e-08 -2.5829826e-07 -0.006348844
0.0021149903 -0.0010008127 0.0016250332 5.6579272e-05 7.980382e-05 -0.0059657395 -0.0038814326 2.5627163e-08
0.0068909177 8.762108e-06 -7.2106704e-05 1.2320601e-07 0.010533354 5.6105876e-10 2.7774215e-07 3.556806e-08
-2.2763775e-08 0.00021328618 -0.0016147053 -1.5152303e-08 -1.7100827e-08 0.004289406 -4.122171e-05 -1.1585672e-09
00000000: a18b 193e 970b 383b 7294 463d 3082 343e
00000010: 1e91 f7bd 5430 e33d dd38 0ebe d7b2 4bb8
00000020: 9931 ab39 b5f0 8f3c ca7f 703d 3ba0 b2bc
00000030: 9e9f 0a3e 1d24 1abc dcee 553d 5175 d23d
00000040: 7e09 88b9 b4b4 0d3b 4dc0 11be 395d a2b0
00000050: 1079 353a f4df 4b3d 8acc 7c3b 9873 673d
00000060: 5bec b33d 0f6d 3bb2 2850 fa3d 389f 183d
00000070: 5bc0 c2ba 3219 313e d675 6cbd 98de 243e
00000080: 953e bcbd 4154 59bd dc61 153e 1e5f 18bd
00000090: 5107 1ebe d7ba 0cbe d885 a1bd 235b 463b
000000a0: 087c 303c 8fa1 d33d 5471 403d 1d4b 043c
000000b0: 3bf8 e73c e251 ee39 b2a6 3d3d 303a 94bc
000000c0: 25c3 c238 e1ab 01bb a743 15be 5604 87b1
000000d0: cf60 b7bd 75f4 0d3e c9f0 6434 d27b a23d
000000e0: c020 9bbc fb02 ca3b 02d1 8f3d fa02 943d
000000f0: 489c 343c 4e8e 3f3d e875 4abd 47dc 073d
00000100: eed5 0d3d 6b94 543c 96b5 bf3d cc56 0dbe
00000110: fbfd 7cbd 334e 2e3d 2335 743d 3039 c339
00000120: 5211 0f3a 2114 f03c 50ef 9fbd b9f9 f7bc
00000130: c2cf b53d ab27 0dba 0c8a 92bd 61a0 c73d
00000140: 4745 8ab9 d824 b5ba 71e7 133e 5913 9fb2
00000150: d6a2 133d 3bd6 a63a d4c7 9ab5 d2fe a4bd
00000160: 80b2 d53d 4be8 1bb1 2f4e 1a3e 3511 1c3e
00000170: 870e a7bb 2641 c53d 96cd 95bd 225c 66bd
00000180: f12d bbbc 0a7d d43d 987d 07be 3980 e2bd
00000190: bca4 56bd a35f 99bd 9cc4 4d3d 2eb1 e93a
000001a0: ce2a ddb7 15b4 433d dfa5 883d ce11 8dbb
000001b0: c0ce 9a3d c86a 6ab9 84c4 80bd cb45 fabc
000001c0: a2b4 6537 ea97 de32 e579 95bd 6ad6 86b2
000001d0: 2db1 aabc faba fabd 79bc 3e3c 4d03 c7bc
000001e0: 090c 60bc 8f85 68b2 c862 74bd 51ed 803c
000001f0: 1e40 7fba eb52 f4bc 3aed 6c3d a621 8a3d
00000200: d0e5 3f38 fae6 563c 822f 5ebd 1a98 75bd
00000210: 3624 413d f667 d0bc aed4 37bc 5ffc 94ba
00000220: 66c2 d7b4 831c 473c 5508 d0bc ce10 2d38
00000230: c949 f63c 2a70 dbb6 078a 8bbd 36bb b53d
00000240: cc61 d73a 3e7b 13b1 fc7b 6bbd 70d5 9d34
00000250: 3f8e 583c 4988 a43d 530a 08bc 7cd3 153b
00000260: 2073 a43a a2f5 cbb1 8c30 8cbc b230 473d
00000270: 080f ca36 f97f d9bb 40e4 b6bc 9876 fb3c
00000280: 5622 d23b cb8a 953c a1a2 f13a 8e57 0cbd
00000290: 9687 243c e3c0 78bd 8820 08bd d6d5 a9b5
000002a0: 28a4 b33a 6ff4 beb3 7e6b 2a3a c91a 8a3b
000002b0: 8671 023c cd3b 93b9 4562 b4bb 064b 9b3d
000002c0: bc5b adbb b6f4 47b2 696b 21bb ba60 feb5
000002d0: 8f8b 493b 3d76 a43d 7480 d831 7933 deb2
000002e0: 7999 733b 140d 26ba a600 263d cef6 7bbc
000002f0: cb67 6bb8 30b2 ca3a a29d eb31 86ec 4f39
00000300: 1e09 9e33 18d1 7c3b e67e 5e34 30f9 b039
00000310: ed4d 4d35 4204 f33b 0de7 27b4 57a8 133a
00000320: c507 333c 6842 90ba 4a15 10b9 fc99 e3b8
00000330: 5cbe 3031 02b6 173c 5731 c6bb dd7b 27bc
00000340: 6235 6eb5 7e7c e134 ee11 c3b6 297e ca30
00000350: 9cca 1cbb 9d61 b63b 4b85 9cb5 e4e9 b331
00000360: 710c 173c 099a 0832 3414 ed3c 6438 b1b1
00000370: 58fe 90bb 84ef a2bb 0894 f93a c874 b42f
00000380: 4e6f 2fbc 40c9 2833 b30a 1a3a 34f5 11b2
00000390: b2d0 72b7 4e08 5eb2 3eac 8ab4 f709 d0bb
000003a0: a69b 0a3b b42d 83ba 11ff d43a 884f 6d38
000003b0: 5a5c a738 407c c3bb a25f 7ebb ba22 dc32
000003c0: 35cd e13b f800 1337 fe37 97b8 9c4a 0434
000003d0: 1794 2c3c 0039 1a30 971c 9534 7fc3 1833
000003e0: 128a c3b2 93a5 5f39 85a4 d3ba 4428 82b2
000003f0: 1ee5 92b2 258e 8c3b 79e5 2cb8 763b 9fb0

fc1.bias f4 [16]
0.0398233 0.012067773 0.11254801 0.0122514935 0.089991935 -0.012323972 -0.056401964 -0.0100282645
-0.0017932111 -0.015093489 -0.052654825 -0.015200291 -0.007898355 0.07610569 -0.022273632 0.06330262
00000000: c21d 233d e9b7 453c 927f e63d 7dba 483c
00000010: b14d b83d 7cea 49bc bf05 67bd 974d 24bc
00000020: 2e0a ebba ae4a 77bc 96ac 57bd a40a 79bc
00000030: 1a68 01bc 4ddd 9b3d 3177 b6bc cea4 813d

fc2.weight f4 [1, 16]
0.21866223 -0.15481785 0.19097655 -0.026993899 0.00040496537 0.013630653 0.038807005 0.00024830565
0.04355298 -0.12116809 -0.01154232 0.09782417 3.904089e-09 -0.062223323 -0.049151782 -0.17364062
00000000: fee8 5f3e 9288 1ebe 5b8f 433e 4f22 ddbc
00000010: 8851 d439 1a53 5f3c 18f4 1e3d 052f 8239
00000020: 9c64 323d fa26 f8bd 001c 3dbc 0a58 c83d
00000030: bb24 8631 e2dd 7ebd 6153 49bd d9ce 31be
