outputs/models/model_capital_cvli.pth (torch, 36357 bytes, 12 tensors)

lstm.weight_ih_l0 f4 [128, 6]
00000000: d402 1e3d 5ab5 7fbb af94 113a 67e9 733c
00000010: a0d2 15bb 92d1 213e 39e0 77bd f5dd abbd
00000020: ff0e 30bd dce8 123d e6a1 ccbd 54d6 943d
00000030: 6fef 47bd d789 b23b ee08 2d3d daea 8db8
00000040: 7fd6 b3ba 9313 173e c235 45bd 76d6 f43b
00000050: 044a 633b e257 6cbd 84e9 bb3a 5e47 d4bd
00000060: 7e4a a83d 2372 483d 1b79 803d 9971 b139
00000070: 4e44 97ba a35e a23c be69 4c3c 5667 adbd
00000080: 3c6c 893d 04db 9539 b2b4 7bbd 6c98 023e
00000090: f385 cd3d 3d8f 0fbd fed8 a03d f1be 17bc
000000a0: f35a 9fbd 45a3 f6bd a167 c13d ac71 21b9
000000b0: 804f 973d 748b 8139 5e46 853d 5cf8 103e
000000c0: 274b 073e 9099 753d 2cbd 81bd ea3d d63c
000000d0: 2b76 29bd b543 19bc b1be 8c3d 63de 95ba
000000e0: 4691 253a 1afc 6fbc c395 3bbd 3c93 5a3e
000000f0: bca8 babd 756d 5a3d cd1c b7bd 5524 ba3a
00000100: bae9 6d3a f97c 523d 202f d43d c39f c13c
00000110: d73f 8a3d 724c dabc 93f2 943d e930 023e
00000120: 14ec a23d ac0b bf3d 1a7f 56bd f187 dc3d
00000130: 4dd0 bdbc 0ffd 823d 4f2c e63d be28 efbc
00000140: 8087 a7bd 8c95 26b8 cc43 823d 3deb e33d
00000150: da27 293e eea8 95bd de0a 9539 7831 b9bb
00000160: 8b24 6839 abe0 14be 324d e23d e945 9f3d
00000170: 09e0 9dbd 309e ad3d d7d6 7bbd 11cb 963d
00000180: abc7 ed3d 777e 6f3c 75ea 8a3d bd8f af3c
00000190: 08d6 903d 28c2 c9bc fc03 9cbd 5c50 933d
000001a0: 9008 ac3a b5b6 20bd 29fa cf3d 87c2 b6bd
000001b0: ec09 b83d 5049 d3bd bc40 65bc 1675 773c
000001c0: 13f1 a9bd 60b4 e23c 1812 16be fbf8 d8b9
000001d0: 7827 30bd 9ff4 4bbc 514c 813a 0ecc 2e3e
000001e0: f64b 04be 0517 573d 3584 b2bd afca cabd
000001f0: 361f 14bd 2e66 893d 645e 12be ab08 9dbd
00000200: 9531 833b f376 4dba b44d b53a 50f7 a83d
00000210: ad21 043e 3efc 7a3c c7a0 7cbb 26ab 16b8
00000220: 0282 86ba 9f6b 463d b65a 34bd 5ff9 dfbb
00000230: 9434 b4ba 40a1 163d 178e 11bd efda 363d
00000240: d3a5 28bd 7919 b8ba 2a56 a9b9 a46d e5bc
00000250: 9c90 d7b9 b8c2 f0bd 080d ddbd 2e71 dd3d
00000260: be31 bdbc 0210 d13d fca0 92b9 e3d2 a63d
00000270: 7cc3 20bd f037 8d3a c8bf 9cb7 61da ff38
00000280: 4a3b 4cbc 167f d23d c633 1f3e 1904 c13a
00000290: 0b51 0abd 7c2e 18bd 5f91 2bbd be11 80bd
000002a0: fcb7 a83d 9433 b8bd ab08 c2bd 1f6c dabd
000002b0: 122a 9e3d 4842 82bd 0b5f 4ebc 772b a6bd
000002c0: 37f4 ae3c b7ed 473a c782 8ebd c1ce 083e
000002d0: ebd1 c03d 9b6e c13d 73a0 613d 1be1 233d
000002e0: 83c2 fdbc 6078 9bbd da60 a63d 5cf4 9939
000002f0: 3693 b4bd 369e d43d 5a83 57bd f389 97bd
00000300: 4eae 323d f521 debd 2e21 953d 5432 81ba
00000310: 52ef 713d d76f c43d b9a5 eabd 41d1 acbd
00000320: b651 323d 9aff 2e3d 8658 dc3d 375c bcbd
00000330: f0e8 ad3a 8eff 8bbd 61d6 4cbc 5064 b93d
00000340: 1652 a8bd fbd1 0b3b 8f14 33bd 5e1c 64bd
00000350: 7c03 d73d a82f 4a3a ad6d 30bc eb8a 2a3e
00000360: 7ca1 ddbd 2f7c bd3d a557 b33a 8f80 18bd
00000370: 1d14 d6bc f4e8 563d c8f9 efbd 52ce dfbb
00000380: b66a 243a b9b2 6f3c c104 ca3d 9a65 783c
00000390: 9380 1ebd 3a51 20ba f293 a9bd ee1c 033d
000003a0: 3c09 893d 7cfd 23bc ca62 84bd 11dd a5bd
000003b0: 0f15 abbd b00e 24bd 7544 b6bd 736d 9fbd
000003c0: c42d cf3d 0e2d 2e3d 3b83 a13d d207 c03d
000003d0: 8195 adbd 8043 9c3c 3833 8dbd 3252 b73d
000003e0: 25db 9dbd 8109 e43d a0f5 a53b df40 cebd
000003f0: 5532 9c3c 8f50 383c 4295 5b38 b2de e938
0.038576916 -0.0039018006 0.00055534666 0.01488719 -0.0022861138 0.15802601 -0.06051657 -0.08391944
-0.04298305 0.035866603 -0.09991817 0.07267442 -0.048812326 0.0054485607 0.042244844 -6.7671484e-05
-0.0013720541 0.1475356 -0.04814697 0.007471855 0.0034681568 -0.057701 0.0014336561 -0.10365175
0.08217333 0.048936974 0.06273099 0.00033844708 -0.0011540742 0.019820517 0.012476383 -0.084669754
0.06710097 0.00028582674 -0.06145162 0.12753457 0.100353144 -0.035048712 0.07853888 -0.009261833
-0.07781019 -0.1204286 0.09443594 -0.00015396503 0.0738821 0.00024708698 0.06507562 0.14157242
0.13212262 0.0599609 -0.0633491 0.02615257 -0.04137246 -0.0093545215 0.06872309 -0.0011434074
0.0006315898 -0.014647508 -0.04579712 0.21345228 -0.09114215 0.053327043 -0.0894104 0.0014201502
0.00090756605 0.051388714 0.10360551 0.02363575 0.06750458 -0.02664778 0.0727283 0.1271397
0.079551846 0.09328398 -0.052367307 0.10768116 -0.023170615 0.06395923 0.1123892 -0.029194232
-0.081801414 -3.971676e-05 0.063605875 0.111288525 0.16519108 -0.073076114 0.0002842759 -0.005651649
0.00022138857 -0.14538829 0.1104988 0.07777006 -0.07708747 0.084774375 -0.061484184 0.073629506
0.11610349 0.014617554 0.067830004 0.021430844 0.07072073 -0.024628714 -0.076179475 0.07193062
0.001312511 -0.039236743 0.10155136 -0.08923822 0.089862674 -0.103167176 -0.013992485 0.015103599
-0.082979344 0.0276739 -0.1465534 -0.00041384235 -0.04300639 -0.012448459 0.0009864663 0.17070028
-0.12919602 0.052512188 -0.08716623 -0.0990194 -0.036162578 0.06708942 -0.1429382 -0.07667669
0.0040037134 -0.0007837854 0.0013832361 0.08250296 0.12903471 0.015318928 -0.003854798 -3.592218e-05
-0.0010262134 0.04844248 -0.04403182 -0.0068351473 -0.001374858 0.036774874 -0.035535898 0.044642385
-0.041173767 -0.0014045677 -0.0003229839 -0.028006382 -0.00041115738 -0.1175589 -0.10793501 0.10812603
-0.023095008 0.102081314 -0.00027967233 0.08145692 -0.03924893 0.0010774117 -1.8685954e-05 0.00012200024
-0.0124653075 0.10278146 0.15547094 0.0014725953 -0.033768695 -0.037153706 -0.041886684 -0.06253384
0.08238217 -0.08994213 -0.094743095 -0.10665154 0.07722868 -0.063602984 -0.012595902 -0.08113759
0.021356685 0.000762667 -0.069585375 0.1336012 0.09415039 0.094449244 0.055084657 0.0400096
-0.03097654 -0.07591319 0.08123942 0.00029364496 -0.08817141 0.10381739 -0.0526155 -0.073993586
0.04362326 -0.108463205 0.07281719 -0.0009856918 0.059066124 0.09591644 -0.1145739 -0.084383495
0.043534957 0.04272423 0.10759072 -0.09197276 0.0013268273 -0.068358526 -0.012502284 0.09052336
-0.08218782 0.0021334875 -0.043720778 -0.055691116 0.104987115 0.000771279 -0.010768336 0.16654555
-0.10821816 0.09252202 0.0013682736 -0.037231978 -0.026132638 0.052468255 -0.11717564 -0.006830015
0.00062720047 0.014630013 0.09864188 0.015160942 -0.038696837 -0.00061156193 -0.082801715 0.03201001
0.066912144 -0.010009166 -0.06464155 -0.08098806 -0.08353626 -0.04005307 -0.08899776 -0.07784548
0.10116151 0.042523436 0.07886358 0.093764916 -0.08475781 0.019075155 -0.06894535 0.089512244
-0.07707814 0.11134625 0.005064681 -0.10070967 0.019066969 0.011249675 5.2352676e-05 0.00011151786

lstm.weight_hh_l0 f4 [128, 32]
00000000: 72d9 93bd 70b7 f3bc fd22 9abc 7932 49bd
00000010: 6851 b5bd c5c6 96bd ffcc 50bd 8614 c43c
00000020: b250 6f3c 438b 153d 6e64 b43c c3ac 1a3b
00000030: db87 683d 4bda cfbd 69b2 d9bb 5671 9f3d
00000040: 7bdb 3dbd f677 3e3d 31f5 013e c8dd 683d
00000050: c17e efbd c8b1 abbd a891 adbd 327a 3d3b
00000060: b40c 8cbc 3ea1 3cbd db73 ff3d 4c4a d6bd
00000070: 26da 9cbc 3024 1fbd 2345 e6bd bf3e a8bd
00000080: a723 a53d d15b 973b bbce 7c3a 54e2 eebb
00000090: 3563 a4bd 1fe3 403d f186 9e3d d274 843d
000000a0: 57ec 9dbd 68f7 97bd 6d05 6bbd 53ca 43bc
000000b0: 31fa 2ebd c66f ccbc 42f6 f33d c5a7 53bd
000000c0: 8f78 c13d fdfb f03d 0255 fb3d c15a b43d
000000d0: dc15 5b3c e9f1 c8bd 149a a03c 2c45 48bd
000000e0: cecd 50bb 6143 babc 3c3d 303c 140e 423d
000000f0: 3fd3 903c 9551 5ebd 6753 e9bd 7859 25bc
00000100: 7264 f6bc 46ce 6ebc 599e a13b 6404 653c
00000110: 0d8a ca3d f76a cc3c 6ee2 c53b a003 973d
00000120: 205a 8d3c 49f9 94bd 6222 0ab9 6525 9c3d
00000130: a9cb 0c3d c6e5 e4bd 3d07 ed3c b4cc a43c
00000140: 7e2d 6b3d 6329 acbc fe32 2d3d 8bc3 7cbd
00000150: 0a91 d8bc f0ea 57bb 9ebf 28bd 006e aa3c
00000160: b02c a5bc 88e9 acbd 2146 c93d 2a13 993d
00000170: 930f 0ebd fddd 8abd 01c1 2ebd 4ba9 59bc
00000180: c1c4 31bd 8760 e4bd 7066 a8bc fe91 473d
00000190: fee5 b53d aa0c 1fbc eb7e a0bd 2cab 07bd
000001a0: 8446 783d 25e4 a83c ee2f 4f3d 299a 7bbc
000001b0: 7ab0 2e3c 108a 25bd a370 e7bc 8bf5 7dbc
000001c0: 6365 473c c215 babd c560 a5bd a3b2 d6bd
000001d0: 703c 4f3d 2b70 acbc c79e 3f3d 1902 a03d
000001e0: d35f 4c3c 56ae 09bd 405a 273c c9ef 9bbc
000001f0: 5958 a63d b35c c4bd e2ea 583d b338 3bbc
00000200: e12d ac3d 9519 e3bc 4301 a4bd 10ae 85bb
00000210: 38e7 e8ba eeb8 87bd 1ec1 c13c 0cd1 aa3d
00000220: 766d e43c a877 ddbd c0ac 833d 7de2 f43c
00000230: 777f afbc 3e26 873c 5127 c7bc a17d 403d
00000240: 7d1f 1fbd 6a77 e53d ad38 383d 8e09 293b
00000250: 1f1c e0bb 7235 cbbd bfa1 a33c ad1b 91bb
00000260: ae11 b6bd a5b5 b03d 3665 563d c1dc 703d
00000270: e9d5 a73d b332 b8bd 32dd aa3d 3a97 8a3b
00000280: 2ed4 32bd 4da2 8dbd 5279 e93d 3212 0bbe
00000290: aaec 873d 1b50 b83c 7456 9cbd bf5d ef3d
000002a0: c7c1 4c3c f4db d1bd b4ec 62bd 589d 98bb
000002b0: a3d1 d73d 995d 8fbd 2948 48bd 74f1 c13d
000002c0: fb98 ea3d a9aa 2a3c e9a3 6dbc 8a00 06bb
000002d0: 9102 f83d 9319 30bd 1e84 19bd 1c1f 983d
000002e0: bc62 5dbb 5bdf 06bb ebbe a93c 99e6 093d
000002f0: 6352 b1bc 0867 8c3d 9218 0f3d ed26 e13d
00000300: cede 4d3c c21e d8bc 8469 663d b035 2d38
00000310: bd70 1c3d 9414 373d 8d5e 283d d841 c03d
00000320: 79f4 1ebc 2588 10bd 46e5 793c 40f3 c23d
00000330: 436b e1bc 2740 613a 8d6b a4bb 2607 cf3b
00000340: d4ea 8bbd 4e7c 9cbb 6965 b73d 784b 5cbd
00000350: f955 473b 070d 823d 4f54 76bd 41d5 37bd
00000360: b0b4 683b a879 3a3a 6a06 8b3d bcac c73d
00000370: 99d5 bf3d f884 14bc 4aae e23c 6e35 c9bd
00000380: 7c58 b43d e31e 983d 091d e4bd 6897 1dba
00000390: adaa 8cbd a9c8 eabc 3b3d ebbc 15ff f13c
000003a0: d841 3c3d 659b 4d3c 0e37 803d 43a6 813d
000003b0: 8041 a5b7 71b4 cbbc da3c f03d 2be4 be3d
000003c0: 932c ce3c 2a98 193d d644 b0bb 3c97 b2bd
000003d0: cb18 d43d f63f bcba 966a 50ba 178f a43d
000003e0: 9f3c 0c3d 2495 c3ba 81b9 aa3d 9945 b1ba
000003f0: 058e 27bd 9a3c a83d e8b0 97bd f827 0bbd
-0.07219209 -0.029750556 -0.018815512 -0.0491204 -0.08853418 -0.07362131 -0.05097675 0.023935568
0.014606642 0.036509763 0.022020545 0.002360151 0.056770187 -0.10149058 -0.0066435826 0.07785289
-0.04635189 0.046501122 0.1269119 0.056852132 -0.11694098 -0.083835185 -0.08475047 0.0028911945
-0.017095901 -0.04605221 0.124732696 -0.1046339 -0.01914699 -0.03885287 -0.112436555 -0.08215093
0.08063441 0.0046190997 0.00096438423 -0.007290164 -0.08026735 0.0470916 0.07740582 0.06467594
-0.07711094 -0.07420236 -0.05737822 -0.011950093 -0.04271907 -0.024955641 0.11912204 -0.05167367
0.09446823 0.11766813 0.12272073 0.088063724 0.013371911 -0.09811766 0.01960472 -0.048894092
-0.003186095 -0.022737207 0.010756787 0.047376707 0.017678855 -0.05427702 -0.11392861 -0.010092132
-0.030077193 -0.014575547 0.0049322066 0.013978098 0.09889612 0.024953349 0.0060389554 0.07373738
0.017254889 -0.0727411 -0.00013173514 0.0762432 0.034373913 -0.11176638 0.028934116 0.020117141
0.05741643 -0.021015828 0.042284958 -0.06170992 -0.026436348 -0.003294643 -0.041198365 0.020804405
-0.02016291 -0.0844298 0.09827829 0.074743584 -0.03468282 -0.06780622 -0.04266453 -0.0132849915
-0.04340053 -0.11151224 -0.020556659 0.048723213 0.08881758 -0.009707609 -0.07836708 -0.033122227
0.060614124 0.0206166 0.05058282 -0.015356579 0.0106621925 -0.04041487 -0.028251952 -0.015500437
0.012170169 -0.09086181 -0.08075098 -0.10483291 0.050594747 -0.02104958 0.04678228 0.078129
0.012474018 -0.033613525 0.010214388 -0.019035237 0.0812232 -0.095879935 0.052958377 -0.011427092
0.08407188 -0.02772216 -0.08008053 -0.0040795878 -0.0017769104 -0.066270694 0.023651656 0.08340654
0.027884226 -0.10813838 0.06429434 0.029893154 -0.021423085 0.016497727 -0.02431074 0.04699481
-0.03884839 0.11204417 0.044975925 0.0025793049 -0.00683929 -0.09922303 0.019974587 -0.004428348
-0.08890091 0.08628396 0.052342616 0.058804277 0.08195097 -0.08994045 0.08342971 0.0042294534
-0.04365938 -0.06915722 0.11400093 -0.1358116 0.06636937 0.022499135 -0.07633677 0.116878025
0.012497372 -0.10247031 -0.05540152 -0.0046574287 0.10538032 -0.07000274 -0.048896942 0.09469882
0.1145496 0.010416665 -0.014504411 -0.0020447099 0.121098645 -0.04299314 -0.037479512 0.07427809
-0.0033780774 -0.0020579908 0.02072092 0.03366718 -0.02164573 0.06855589 0.03493554 0.10993753
0.012565328 -0.026381854 0.05625297 4.1296415e-05 0.038193453 0.04469736 0.041105796 0.09387559
-0.0097018415 -0.035286088 0.015252417 0.095190525 -0.027516967 0.00085926283 -0.005017704 0.006317991
-0.06831899 -0.0047755605 0.08954889 -0.05378291 0.0030416234 0.06350141 -0.060138997 -0.04488111
0.0035508089 0.0007113465 0.06788333 0.09749743 0.093669124 -0.009064905 0.027670998 -0.09824644
0.088059396 0.07427766 -0.111383505 -0.0006011636 -0.06868491 -0.028660135 -0.02871572 0.029540578
0.04596123 0.012549256 0.06260501 0.0633054 -1.9700034e-05 -0.024866315 0.117303565 0.09320863
0.025167739 0.03749863 -0.0053792996 -0.08720252 0.103562914 -0.0014362324 -0.0007950453 0.08035105
0.0342375 -0.0014921767 0.08336163 -0.001352477 -0.040906925 0.08214684 -0.07406789 -0.033973664

lstm.bias_ih_l0 f4 [128]
00000000: 48cf 173e e379 2ebd 096b 933d 2d24 a4bd
00000010: 86b2 ae3c 37b5 08be ea9c 6bbd ca4f fa3c
00000020: a4d8 303d ee4c 5cba 4594 8f3d bfd0 ccba
00000030: d53c 603d cebd 99bb a2e3 093e f5bc d4bd
00000040: e0c0 b03d 590d ad3c 3d50 83bd 04c6 eabc
00000050: 75fb c5bd 8efa 873d 9cb8 af3d f8ed b53d
00000060: e036 b3bc be2e d63d b63b e9bd 7cb1 d73d
00000070: 8cf9 873d b556 183d eeea bb3d 4407 0ebe
00000080: bffd 3ebd a763 80bd db75 7c3d 978a 2fbd
00000090: b466 dbbd 5088 50bd f274 4ebb e083 a73d
000000a0: de60 51bd 1027 413e 70da 7fbc d823 82bd
000000b0: 4254 b63d f3d9 f8bc c764 e73d 794a 013e
000000c0: 6647 e63d 1683 bcbc e2f1 173c cf02 b5bd
000000d0: b658 28bd 8228 dd3c d087 d8bc f54c 47bd
000000e0: 0512 02bd 0816 fbbc 51f8 903d d707 bbbd
000000f0: 9701 103e 604d 81bd 7e62 a0bd 1698 e6bc
00000100: bb2e 23bd f45f 1ebd 00b0 9c3c 3c28 d8bd
00000110: 7a62 9bbd d3bb 5fbd 2eb9 c0bd ac7d 1abe
00000120: 10d8 3b3e 12b4 d03d ef36 0e3e af69 c33d
00000130: 3875 bd3d a066 95bd 6871 713d 5001 bbbd
00000140: 4703 053e 5443 a73c d66f 243e ae2e 833d
00000150: 2d4b d53c 1da5 7dbc 2578 00be 42b7 bbbd
00000160: cca9 103b e9f3 f63d 6bfd 01be 655b 8bbb
00000170: 8452 b03d d20f 01bd 7e2f fd3d 71c2 20be
00000180: 4b02 d93d 753b c7bd a7c2 b63d c08e da3c
00000190: 98d9 08be 1ad6 5f3d 5452 a3bc 05d6 aa3c
000001a0: 404a eb3d 02dc 4dbc ae62 d0bd 9eaf 9abc
000001b0: afb3 11be 4489 b8bc 7987 103e f3e6 a3bc
000001c0: ace9 ff3d 5c03 83bd cd0c 81bc 4f2d e2bd
000001d0: a445 10bd fb09 08be 6e23 0fbc d8a2 92bb
000001e0: 67c1 713b b1ec 10be 821e ad3d 3918 3f3e
000001f0: 8d8e 4c3d f1af 9b3d 52c9 40bd 135a 95bd
0.14825165 -0.04259671 0.0719815 -0.080147125 0.021325361 -0.13350378 -0.05752269 0.030555625
0.043175355 -0.00084037974 0.07010702 -0.0015626176 0.054745514 -0.004691816 0.13465741 -0.10387603
0.08630538 0.021124529 -0.064117886 -0.028658874 -0.09667102 0.066395864 0.08580133 0.088832796
-0.021876752 0.10458134 -0.11388342 0.10531899 0.06639394 0.037192065 0.09175669 -0.13869959
-0.04662871 -0.06269007 0.061635833 -0.04285678 -0.107129484 -0.050911248 -0.003150281 0.0817945
-0.05111777 0.18862557 -0.015616044 -0.06354493 0.0890279 -0.030377364 0.11298519 0.12626065
0.11244087 -0.023011725 0.009273978 -0.08838426 -0.041100226 0.026996855 -0.026431948 -0.048657376
-0.031755466 -0.030650154 0.070786126 -0.09132355 0.14063106 -0.06313586 -0.07831286 -0.028148692
-0.039839488 -0.038665727 0.019126892 -0.10554549 -0.07587142 -0.054622483 -0.0941032 -0.15087003
0.1834414 0.10190596 0.13888143 0.09541642 0.09250873 -0.07294965 0.058946043 -0.0913111
0.12989531 0.020417847 0.16058287 0.06405388 0.026036823 -0.015481261 -0.12545832 -0.09165813
0.0022073863 0.12058241 -0.12694328 -0.0042528384 0.086094886 -0.031509228 0.12362574 -0.15699174
0.105961405 -0.097281374 0.08923846 0.026679397 -0.13364255 0.054647543 -0.019936718 0.020854006
0.114887714 -0.012564661 -0.10175072 -0.018882569 -0.142287 -0.02252639 0.14114179 -0.020007586
0.12495741 -0.06397125 -0.015753174 -0.11043798 -0.035222664 -0.13285057 -0.008736474 -0.004474979
0.0036888958 -0.1415279 0.084530845 0.18661584 0.049940635 0.076019175 -0.047066994 -0.07292571

lstm.bias_hh_l0 f4 [128]
00000000: 7621 33bd 46ed fd3d 9831 283e 06cc 0c3e
00000010: f0b4 88bd 2fe4 ae3c 65a7 813b ebc0 b23d
00000020: 0c61 8cbd ef83 173e f513 19bd 4353 543d
00000030: 7d3c 14be 4e67 3fbd ced2 c5bc 9bd5 1f3e
00000040: c0de f9bd 4066 fd3d e851 203e cbdd c4bd
00000050: 7931 c83d 8496 053e 3162 1dbe 7db4 f8bd
00000060: 587b a7bd ac40 00be 58aa f1bd 8fed 0d3e
00000070: 8019 cabd 2639 003e b7c2 e0bd e026 4abc
00000080: c14e 2ebd 7221 c93d 0faa 14be 6713 e2bb
00000090: fcc1 6ebd 47c7 ea3d d8f8 f3bd c61c b7bc
000000a0: aaaf 103d 4578 0fbe c45d 6bbd 4f34 9fbd
000000b0: c5df 02be 772c bdbc b9f1 0d3e 8ebd 88bd
000000c0: b451 e53d 66d8 143e 87dc 9dbd 28f1 32bd
000000d0: 1a36 f3bd 4831 813d 2d9e 6a3d 695e c4bb
000000e0: b1d8 923d 55c9 dbbb c61f 163d 083d c2bd
000000f0: fad3 0e3c f68f a5bd 9138 e4bd d33b c63d
00000100: 598f ebbd 54aa 3fbe 7d29 20be 3b69 083d
00000110: 640a 893d 5b75 cebd 521f 023e b409 c63d
00000120: daa0 05be 5ca0 213e f82d 85bc 9504 233e
00000130: 22a6 08be e930 033d 2daf 2bbe 3a34 acbd
00000140: ed8a 09be 11f2 ca3d 0053 403e e826 c3bd
00000150: 570e 2cbe 9d9f 153e ca2f 67bd c8f9 e8b9
00000160: 506e 3c3d 7368 9f3c 13ae aebc b58a 2b3e
00000170: e735 9a3d d23c da3d d855 093c cc6f 103d
00000180: bf52 10be 9cb2 8f3c abee a1bd 4cc4 003e
00000190: 7a5c 87bc 9fd9 da3b 59d7 bf3c 30f2 f23d
000001a0: cfce 273e ba7a 19bd 701b 3fbd 7fd5 c63d
000001b0: fce3 423d ed42 1fbd 997e c0bc 55c6 59bd
000001c0: 2838 703d 4536 b33d d8ff f3bc 9327 d23d
000001d0: 413c 01be 8e2b 133e b980 c3bd b2cb f2bd
000001e0: 842c cebd cfbd 9a3c 6cc0 2bbd e1b9 053e
000001f0: 5bfe ed3d 330d 25bd ecbc 863d 958f 8abd
-0.043733083 0.12398772 0.16425169 0.13749704 -0.06675136 0.02134904 0.0039567226 0.087282024
-0.06854448 0.14796422 -0.037372548 0.051837217 -0.144762 -0.04672938 -0.024148371 0.15608828
-0.12200689 0.12373018 0.15656245 -0.09612616 0.09775061 0.13045698 -0.15369488 -0.121438004
-0.08177823 -0.1252467 -0.118000686 0.13860153 -0.09868145 0.125218 -0.10974639 -0.01233837
-0.042555574 0.09820832 -0.14517997 -0.0068992856 -0.058290467 0.114637904 -0.119126976 -0.022352587
0.035323776 -0.14010723 -0.05746247 -0.07773649 -0.12780674 -0.023092492 0.13861741 -0.0667678
0.11197224 0.14535674 -0.07708078 -0.043687016 -0.118755534 0.06308228 0.057279754 -0.0059927
0.07170237 -0.0067073503 0.036651395 -0.09484297 0.008717531 -0.08084099 -0.11143602 0.09679379
-0.11501951 -0.18717319 -0.15640827 0.03330348 0.06691435 -0.100809775 0.1270726 0.096698195
-0.13049641 0.15783828 -0.016257271 0.15919717 -0.13344625 0.032029066 -0.16766043 -0.08408399
-0.13431902 0.09909452 0.18781662 -0.09528905 -0.16802345 0.14611669 -0.05644206 -0.0004443659
0.04600364 0.019458985 -0.02132324 0.16752131 0.07529812 0.10656132 0.008382283 0.035262868
-0.14094065 0.017541222 -0.079068504 0.12574881 -0.016523588 0.0066787745 0.023418115 0.118626
0.16387485 -0.037470557 -0.046657026 0.0970869 0.047580704 -0.038882185 -0.023497866 -0.05316766
0.058647305 0.087505855 -0.029785082 0.102614544 -0.12620641 0.14372084 -0.09546036 -0.11855258
-0.100670844 0.018889336 -0.041931555 0.13059188 0.1162078 -0.04029579 0.06579003 -0.06765667

gcn1.bias f4 [32]
00000000: 9a7a fe3c cfea e63c abe5 11ba 52aa 0c3a
00000010: b78a b33c 79aa 813c 00df c53c 92bd 86bc
00000020: 343e 1b3d 6a76 cebc f235 dc3c 62e3 933c
00000030: a5be 033d 89b2 993c c542 e43c 00bd 9abc
00000040: 9526 99bc 9619 fc3c dbe8 59bc de35 b63c
00000050: 4e00 6bbc 1f40 ff3c baad e93c e0a5 9c3c
00000060: 0023 bebc 6a5f a13b 0663 a837 a739 00bc
00000070: 47af 9cbc 112d 2dba fc68 bd3c 8db7 f23c
0.03106432 0.028188137 -0.0005565534 0.0005365956 0.02191673 0.015828358 0.024154186 -0.016447816
0.03790112 -0.025202949 0.026881192 0.01805276 0.032164235 0.01876189 0.02786387 -0.01888895
-0.018695155 0.03077392 -0.013300146 0.022242483 -0.014343334 0.031158505 0.028525222 0.019122064
-0.023210049 0.0049247043 2.0073272e-05 -0.007826245 -0.019126548 -0.00066061417 0.02312135 0.02962854

gcn1.lin.weight f4 [32, 32]
00000000: 0fa0 713d d8bb 72be cbb0 0cbe b316 14be
00000010: 7f5c f8bd 015d f33d 6f9c d93c a00f 6abe
00000020: 1fc5 da3d ecd8 9b3e e958 7fbe 31cc c0bd
00000030: 46d9 503e b96f 70bd d387 053e b968 1d3e
00000040: 57e5 78be f0e2 a43e 7922 e0ba ce6d f4bc
00000050: 23bd 4c3d 99cf 7bbe 2b35 81be 28f2 c13c
00000060: 4d8c ca3d b616 73be 42ad 063e d7e9 a23e
00000070: dd2a c43d cf31 c73d fb83 103e f457 8bbe
00000080: 9323 ad3d 05de 80be afee 92be 443c 9e3d
00000090: e851 cabd 508e 833e 3e4d 32be 9414 6e3e
000000a0: cc92 973e 2827 133e 1d49 8fbd 2f3f 973e
000000b0: 47b8 5ebe afa3 2ebe 6e07 6ebe 3b38 94be
000000c0: e350 4dbe 3edb e5bd 188b 04be 89d5 3a3c
000000d0: fd18 40be 5dd4 b73d f7e5 a0be 4c9e 28be
000000e0: 9ab0 8bbe 4bd3 7dbe 5364 e3bd 9a98 e83d
000000f0: 348d 0fbe 892f 793e c571 283e cbe1 e63c
00000100: d692 7d3e 4721 e1bd 1a98 31bd ce23 183e
00000110: 5d6b 83bd 42e2 e8bd 8ba9 103e e529 a9bd
00000120: ab81 733d 1916 5ebd b319 cd3d ce79 50bd
00000130: 7348 8cbd 60b6 14be 32ec cb3d 75c2 39be
00000140: 53f5 d83d 78ed 8abc 415c 803e d5de 173e
00000150: db56 9fbc 3ed2 fe3b 4d4e 9c3d c849 a0bd
00000160: 5cac aebd 5975 cd3d 48da ec3d 16ee 73be
00000170: a0c4 953e 0dda cdbd 99a3 943e e57a 41be
00000180: 3c14 d8bd 4523 0bbd 34b3 51be 9e1b 043e
00000190: c047 043e 96fd 2a3e 3a49 6e3e 1115 6c3e
000001a0: 2de9 dd3c 8ee9 3cbe b0c7 203e 2e87 1a39
000001b0: a2a4 533e bc9f ef3c 5c61 1ebe 7633 4a3d
000001c0: 8c32 f93d 6d08 2cbd 9556 b7bd 1f15 57be
000001d0: 095c df3d e790 52be 6e47 5d3e 8b81 d33d
000001e0: 6e73 aaba 6d32 09be 7190 4b3e 0f1e 133c
000001f0: 51fb 1abb 6558 3cbe 9510 243e 7297 0ebe
00000200: 13e3 6dbe 79f5 a93d e5a8 96be c85f 583d
00000210: d033 16be 84e8 853d d17b 2a3e 0887 60bd
00000220: 2255 05be 64c4 80be 26f6 8a3e 3ecf e4bd
00000230: 94ab 0ebd 0a14 a8bd a213 fb3d c5d9 c1bd
00000240: d931 853e bf7f 283d 6643 26bd aa23 c1bd
00000250: 141e 373e bb6e 593e b402 70be 2533 543d
00000260: e510 8f3d d470 353e 3451 553e 21b9 043e
00000270: fdb6 623e 21f5 f83d 3934 343e 9b5e 023d
00000280: 7653 aa3d 9edf 99bc 4f38 5dbd f336 5f3a
00000290: 26e5 d8bc 5f4c 903a bbb6 d5bc d764 3bbc
000002a0: 9a83 e83b 79c6 47be ca5b 25be 830c 69be
000002b0: a287 33bd 9bfd d23d 96e4 0d3e 3a04 623d
000002c0: 29ef 93bc ab9e 473d 39ef 343e 9ee8 aa3c
000002d0: e0b8 58ba bf66 c5ba 02e9 6b3e e887 063e
000002e0: 3a8f 53be b7d3 02be 1ac3 00be dc53 f63c
000002f0: e136 ffbd c20a cabb 6af3 e6b8 0727 523e
00000300: b274 2cbe 29bc 793d 0553 b43d 224b 7dbe
00000310: c3ab 873e f647 e0bc 20ba 8a3e 0e97 8c3d
00000320: f013 913e d4da 8b3e 8bf3 23be dc74 fb3d
00000330: c819 47be 89e9 e8bd 380c 573d 0005 8ebe
00000340: 6a9c 553d fef2 66be c2a5 0bbe ba27 6d3e
00000350: 037b 8e3e 7e2f 8f3e 8507 17be b84c abbd
00000360: 6a08 113c 862a 7f3e f0c5 c13d 8f11 42be
00000370: 0966 88bd c157 923e 9067 233c e2a7 31bd
00000380: a685 793d 47a6 01bd 6486 88be 95ef 12be
00000390: 6061 3c3e 262c 43be ee7f d93d 68d1 58be
000003a0: c1c4 36be 01e8 9abd 571b 7e3e bcde 28be
000003b0: 77df fe3d be60 093e 9e01 3a3d 936e 5cbe
000003c0: 7ff4 703e 30b9 033e 5870 88be e188 e73d
000003d0: aae0 f1bd 7f72 c8bd 3d8b adbd fd27 34be
000003e0: 6d94 143e a1fb 97be fc35 4c3e 3f3a 10be
000003f0: 6c5f 9dbe f8b9 583e 5321 b23d dfd9 4e3e
0.058990534 -0.23704469 -0.13739316 -0.14461784 -0.12127017 0.118829735 0.026563851 -0.22857523
0.10682129 0.30438936 -0.2493626 -0.094139464 0.20395383 -0.058700297 0.13040094 0.1537198
-0.24306236 0.3220439 -0.0017100117 -0.029837515 0.049985062 -0.24590911 -0.25235876 0.02367504
0.098900415 -0.23739132 0.1315203 0.3181903 0.09578488 0.09726297 0.14112847 -0.2721554
0.08454051 -0.25169387 -0.28697726 0.077263385 -0.098789036 0.25694513 -0.17412278 0.23250037
0.29604185 0.14370406 -0.06996367 0.29540393 -0.21749984 -0.17054628 -0.23245022 -0.2894915
-0.20050387 -0.11223458 -0.12943685 0.01140345 -0.18759532 0.08976052 -0.3142545 -0.16466635
-0.27283174 -0.24787633 -0.1110312 0.113572314 -0.14018708 0.2433454 0.1644965 0.028183838
0.24763045 -0.10992675 -0.043357946 0.14857408 -0.06416962 -0.1137128 0.14127176 -0.08259944
0.059449833 -0.054220293 0.10014667 -0.050897412 -0.06849756 -0.14522696 0.0995716 -0.18140586
0.10593667 -0.016958937 0.25070384 0.14831097 -0.019450596 0.0077765277 0.07632122 -0.07826573
-0.08528969 0.10032148 0.11565071 -0.23821291 0.29251575 -0.100513555 0.29031065 -0.18894537
-0.105507344 -0.033969183 -0.20478517 0.1290116 0.12917995 0.16698298 0.23270121 0.23054911
0.027088726 -0.18448469 0.15701175 0.00014736943 0.20668271 0.029250972 -0.15466827 0.049365483
0.12167844 -0.042000223 -0.08952061 -0.21004151 0.10906226 -0.20563088 0.2160928 0.10327443
-0.0013004371 -0.13398142 0.19879319 0.0089793345 -0.0023648331 -0.18393095 0.1602195 -0.1392496
-0.23231153 0.08298773 -0.2942573 0.05282572 -0.14668202 0.065384895 0.16648795 -0.054816276
-0.13020757 -0.25149834 0.2714092 -0.11172341 -0.0348316 -0.08206947 0.12259604 -0.09465364
0.26014593 0.041137453 -0.04059162 -0.094306305 0.17882568 0.21233647 -0.23438531 0.051806588
0.06985644 0.17718822 0.20831758 0.12961246 0.22140117 0.1215613 0.17598046 0.031828504
0.083167 -0.018783387 -0.05400878 0.0008514963 -0.026476454 0.0011009088 -0.02608811 -0.011437616
0.0070957663 -0.19509305 -0.16148296 -0.22758679 -0.04383052 0.10302278 0.1385673 0.055179812
-0.018058376 0.048735302 0.17669381 0.020862874 -0.00082672946 -0.0015060528 0.23038104 0.13137782
-0.20660105 -0.12776075 -0.12574425 0.030069284 -0.12461639 -0.006165833 -0.00011012594 0.205227
-0.1684139 0.06097046 0.08804897 -0.24735692 0.2649823 -0.027378064 0.27095127 0.06864749
0.28335524 0.2731539 -0.16010873 0.122781485 -0.19443429 -0.11372668 0.052501887 -0.2773819
0.05215112 -0.22553632 -0.1363745 0.23159686 0.27828225 0.2796592 -0.14748962 -0.08364242
0.008852104 0.24918565 0.09461582 -0.1895201 -0.06660087 0.28582576 0.009973422 -0.043372996
0.060918473 -0.031652715 -0.26665032 -0.14349206 0.1839652 -0.1905981 0.10620104 -0.21173632
-0.17848493 -0.075637825 0.24815117 -0.16491216 0.12444966 0.1341581 0.0454117 -0.21526556
0.23530768 0.12863612 -0.2664821 0.113054045 -0.118104294 -0.097874634 -0.08473823 -0.1759338
0.14509745 -0.29684165 0.19942468 -0.14084719 -0.30736864 0.21164691 0.08697762 0.20200299

gcn2.bias f4 [32]
00000000: 6ec8 00bc 6381 0b3d b8c1 95bc d441 d83b
00000010: 870e 623c 043f 113d 53b1 193d d461 ecbc
00000020: ffc6 c53c c2ab b73c 2003 133d 7c84 6ebc
00000030: 78a9 033d 2b04 8ebc 3c65 903c c87c 383d
00000040: f5b6 b9bc b6de ea3c 216e b6bc 692a a83c
00000050: a781 8e3b c977 2abb c8b8 b83c 73a4 793c
00000060: a73b 133d 7d99 28bc d770 cd3c bd2d 6abc
00000070: 6e32 133d 7965 04bc b7a8 d93c 122b ca3b
-0.007860286 0.03405894 -0.018280849 0.006599644 0.013797409 0.035460487 0.037522625 -0.028855242
0.02414274 0.022420768 0.035891652 -0.014557954 0.03214404 -0.017335972 0.017626397 0.045040876
-0.022670249 0.02867065 -0.02226931 0.020528035 0.004348952 -0.002601134 0.022549048 0.015236962
0.03594556 -0.010290501 0.02507822 -0.014293131 0.035936765 -0.008080834 0.026569707 0.006169685

gcn2.lin.weight f4 [32, 32]
00000000: e28c e03d c9b2 ce3a 016c b4bd eb96 16be
00000010: 7516 a53d bef9 ab3b 9675 96bd 89c7 a63d
00000020: 3bbe e1bd 1111 a5b9 38d2 873b 2a1b 2b3e
00000030: 1625 b8bd 6e10 b339 15f8 9cbd 95d3 4abe
00000040: 13c8 a03b e807 01bd 45e1 5c3e 9d5f a7bd
00000050: 1cbd c13c 5195 9bbd adca 03ba 2953 9cbd
00000060: 2f9e 2abe c3e5 68bb 2657 093d e21d 753c
00000070: ab69 93bc 26af 2ebd 1594 fa3a 55e0 56be
00000080: a5f7 813e ee8b 1dbe 4578 523d 301c 04be
00000090: 2c57 033d 0f62 16bd a195 acbd 62da 71be
000000a0: cbcb 25be aca7 59bd 69b9 893d 943e 603e
000000b0: dc36 9b3e 739b 4c3d f795 b13e 3126 01be
000000c0: 091d 903c add1 a6bd f894 4abe 29e8 383d
000000d0: 61f0 a83b deab 8c3a a865 cbbd 7ab0 873e
000000e0: 6067 a3bd a95c 943e 1867 0fbc d24a d13d
000000f0: 03ff 3ebe e2ca c0bd caca 0f3e 132c 1f3e
00000100: 12c3 4fbe 285c 52be c01a 353e 95a3 8c3d
00000110: 4a77 5cbd e705 d539 f14c 13be c58c 7f3e
00000120: 26dc 1b3e d732 8f3d 9d66 0b3e e384 f73a
00000130: d43b 813e 03f7 54be 2866 74bc a4eb 29bd
00000140: cb7f 20b9 5f5b f8bd d11b 553e 191f 533d
00000150: 9ada 6d3e 6044 6fbe 24fb 1ebe d380 e23d
00000160: 98d1 ed3d 6249 6a3e 6ae3 4a3e 80dd 8ebd
00000170: 7053 a03d 63b4 c63d b04e 583e f1c4 bf3d
00000180: 8e4c b03d 91f5 5cbe a64b 803e 64ff 00be
00000190: 329e bdbc d8b8 54ba 8a7f 5a3d 348c e13d
000001a0: 77d7 403e dc33 8cbd 8158 fdbd 5adb 8f3e
000001b0: 6aa5 28be 66a8 6cbe 7fea 923e dbee 94bd
000001c0: e202 a4bd 29af 5f3e a06d 333e 177d 253e
000001d0: 8856 19be 445d 823d d9d1 12be 7074 3bbe
000001e0: 2624 1f3e 5e49 353e 8214 7bbd fe9f 07be
000001f0: 8a9a 6f3c be76 363e a3e1 573d 0ef5 443b
00000200: 4d4f 9fbb 8915 073e 6110 e3bd a6fe 76bd
00000210: a4c7 6bbe 5c8b 30ba 303b 273c 7b67 6d3e
00000220: 0a97 68be 6316 66bd 30ca 18bd 087f 273d
00000230: 661d 073e 3619 97bb 964b 1e3e 762f 8e3a
00000240: 321b 913d 6c79 903e 8670 533e a1bb b7bd
00000250: afe9 47bd 5fe4 5c3e c421 7439 6fc6 8f3c
00000260: 8fc8 64be b05c 71be afa6 613e 781d 4cbe
00000270: e95d 493e d61a 13b9 9511 02be 0a0e 42bd
00000280: 5366 8d3e 13e3 8f3e 6b5a d03d ea71 213e
00000290: 2b14 23bd 7c66 8cbd 6b15 6e3e 7be4 5f3e
000002a0: 9ad4 9e3e eacc 2c3e 7dc6 333e 46fc 743e
000002b0: 0b87 633e db3e 9abc 65e5 4bbe 2e8c 4cbe
000002c0: 8b6b 2fbe 7fcd 153e dd52 083e 7595 a83d
000002d0: 4857 44be 6539 853e 15c7 f5bd 40ab 883e
000002e0: f0df c6bc 2be2 3abd f32d ee3d d0b2 cf3d
000002f0: 838a 8b3d 9232 7d3a 31c3 263e 5463 52bc
00000300: 1cd5 68be b40d 5f3e 0697 573e 3cb2 543e
00000310: f9fc b3bd 1f4e cdbd 3809 b5b9 2a9e c2bd
00000320: 94c2 383e fb7b 67bc 7efd 6abe a206 713d
00000330: 2f5a 9a3e 5680 36bc 5958 81be c643 83bc
00000340: 7e4a 073e 13e2 62bd 65da 9d3d e25f 113d
00000350: 5944 4ebb c0a7 6cbd da03 3abe 22bd 653e
00000360: 49e5 c8bc 1dab 41be 9757 ca3d ec08 313e
00000370: 0f56 f33b ec42 c33c 1136 053c 1277 0e3c
00000380: 4667 9bbe c8be e3bd cc9e 3f3e 371a 89b9
00000390: 5c34 31be 6a00 44be f586 2a3e e0b0 863e
000003a0: acca c13d 3b37 8dbd 4e00 863e d9bb 713e
000003b0: b233 6d3e 0324 0dbd 67f0 7dbe 1542 2c3e
000003c0: fd11 fc3d b445 623e 9514 1e3e 23eb 4cbd
000003d0: 2570 1ebe 366a 3abe fa91 233e 9ebf 663e
000003e0: 7cd4 2dbe b817 5c3d 3314 d2bb 4dce 6d3e
000003f0: 8a6a 853e 65a5 90bd 3f8e 7c3e 7004 4e3d
0.10964371 0.0015769835 -0.088096626 -0.14706008 0.08060924 0.0052482774 -0.073466465 0.08143527
-0.11022612 -0.00031483968 0.004144933 0.16709581 -0.089914486 0.00034153782 -0.076645054 -0.19807275
0.004906663 -0.03150168 0.21570309 -0.08172534 0.023649745 -0.07596839 -0.00050274545 -0.07633049
-0.16661905 -0.003553734 0.033530377 0.014960738 -0.017994722 -0.042647503 0.0019117618 -0.20984013
0.2538425 -0.1538541 0.05138423 -0.12901378 0.032065555 -0.03671461 -0.08426977 -0.23618463
-0.16191022 -0.05313842 0.06724817 0.21898872 0.30315292 0.049952935 0.34684727 -0.12612225
0.01759197 -0.08145461 -0.1978339 0.04514328 0.0051556085 0.0010732373 -0.09931499 0.26501828
-0.079787016 0.28976944 -0.008752607 0.10219349 -0.18651967 -0.09413697 0.14042202 0.15544157
-0.20289257 -0.20542967 0.17685986 0.06867138 -0.0538247 0.00040630923 -0.1438482 0.24956043
0.15220699 0.06992119 0.13613363 0.0018884208 0.25240958 -0.20797352 -0.014916934 -0.04148449
-0.00015306396 -0.12126803 0.20811392 0.05154333 0.23227921 -0.23365927 -0.1552549 0.110597275
0.116122425 0.22879556 0.19813314 -0.069758415 0.078284144 0.09702375 0.21123767 0.093637355
0.08608352 -0.21578051 0.25057715 -0.12597424 -0.023146722 -0.0008114702 0.053344287 0.1101307
0.18832193 -0.06845829 -0.123703964 0.2809704 -0.1646935 -0.23111114 0.2869453 -0.072721206
-0.08008362 0.21844162 0.17522287 0.16160999 -0.14974415 0.06365445 -0.14337863 -0.18306136
0.15541133 0.17703769 -0.061298855 -0.13244626 0.014624247 0.17818734 0.05270542 0.003005329
-0.0048617483 0.13191809 -0.110871084 -0.060301445 -0.23025376 -0.00067346334 0.0102069825 0.23184006
-0.22713867 -0.056173693 -0.037302196 0.04089263 0.13194808 -0.0046111597 0.15458521 0.0010847885
0.07085265 0.28217638 0.20648393 -0.08971334 -0.048806842 0.21571492 0.00023282232 0.017550675
-0.22342132 -0.23570514 0.22036241 -0.19933116 0.1966473 -0.0001402901 -0.1270202 -0.04737667
0.2761713 0.2810293 0.10173496 0.15766111 -0.039814156 -0.06855485 0.23250358 0.21864502
0.31021577 0.16875044 0.17556186 0.2392436 0.22219484 -0.0188288 -0.19911726 -0.1997535
-0.17130868 0.14629172 0.1331286 0.08231632 -0.1917392 0.2602035 -0.120008625 0.26693153
-0.024276704 -0.045625847 0.11629858 0.10141528 0.068135284 0.00096587196 0.16285397 -0.0128410645
-0.22737545 0.21782571 0.21053705 0.20771116 -0.08788485 -0.10024666 -0.0003452988 -0.09502824
0.18042976 -0.01412868 -0.22948262 0.058844216 0.3014693 -0.011138996 -0.25262716 -0.016023528
0.1321201 -0.055391382 0.07707671 0.03549183 -0.0031473844 -0.057777166 -0.18165532 0.2243543
-0.024523394 -0.18912931 0.09879988 0.1728856 0.0074260305 0.023835622 0.008130566 0.008695381
-0.3035223 -0.11120373 0.1871292 -0.00026150208 -0.1730513 -0.19140783 0.16653045 0.2630682
0.09462485 -0.068953 0.26172107 0.23606814 0.23164251 -0.03445817 -0.24798737 0.16822083
0.123081185 0.22096902 0.15437539 -0.05002893 -0.15472467 -0.18204579 0.15973654 0.22534034
-0.16975588 0.053733557 -0.0064110993 0.23223229 0.26057845 -0.070627965 0.24663638 0.0502972

fc1.weight f4 [16, 32]
00000000: 41a2 a0bd f532 8d3d 3829 dfbd 58de c8bd
00000010: fd46 cc3b 90df 9c3d d263 2f3e f909 a2bd
00000020: 2c7b 84bb c8a0 453e 1ae8 443e 1a00 35bd
00000030: b4e8 973d b18c 7d3c 1e61 443e 309b a13c
00000040: a1e6 9f3d f3cb 12bb 75aa 033d 1100 5b3d
00000050: d326 07bd e745 0a3e ea9f 113d 2cdf d9bd
00000060: 1d0e 833d 3e5d cf3d 7e0c 0a3e 5808 163d
00000070: 6400 083e 8f57 023e acc7 2e3e fc1c 863c
00000080: 6782 a9bd 1bfa a6bb d9dc e6bc 7595 cdbd
00000090: b141 1f3e 7d6e 0cbe fef8 a039 c1b3 623d
000000a0: d7e7 aabd eb22 5d3d e2b4 0dbd 5d6b c33c
000000b0: 1291 cfbb 81d5 f03c e7a5 303e 35ee da3d
000000c0: de60 07bc 9288 023e 2ad2 d83d f737 a03d
000000d0: 6bd0 3c3d 19c1 f8bc f9ec ec3d c9ae 3f3e
000000e0: 1085 b3bd 6383 dfbd 5a86 d83d 52e8 653d
000000f0: c3eb 7bbd 747c 4e3c 1c48 623d e364 73bd
00000100: 5286 d93c 9248 b23d cb10 ef3c 985f d43c
00000110: 8c29 c93d 02b7 ddbd 2488 efbd 8302 e63d
00000120: 1ff3 f3bd 0355 f6bd db02 09be c0e6 a1bd
00000130: 596c cdbd 6374 01bd c29a ce3d c524 f43c
00000140: 060a d73d be5b 3ebc 61c2 a4bd 15e5 cf3d
00000150: 4ddb 3cbd 7079 45bd b428 b0bd 0fea 59bc
00000160: 3e86 8bbd 8587 ca3d 9240 c0bc c0da ce3d
00000170: bd69 d03d cd8c 983d 0297 98bd f56b df3d
00000180: 8fdd ebbc 0239 f2bd 0fe6 f4bc 69a6 14be
00000190: 3e6b c0bd f209 f63d 38c2 4bbd 8885 f83c
000001a0: 69a0 91bd ccfb c43c d53f 56be 7c63 07bd
000001b0: 9f83 d8bd da50 123e 2241 a63d b195 cdbd
000001c0: a515 953d 8554 5cbc 5c20 78bd a365 fc3d
000001d0: 4408 33be f751 cebd 3b5a c8bd dc98 62bc
000001e0: 6f4a 4abe 823c fe3d 4b62 f63c 6514 df3d
000001f0: 0827 ae3d dd52 cabd 5072 923c ec51 9f3d
00000200: fe03 53b9 29a2 453e e2ee d0bb 1cc5 543d
00000210: b0ba 9eb9 2638 0f3e 7fc1 3c3e 5f52 9b3d
00000220: c4de 58bc 54c5 e13d b991 8d3d 44dd 583d
00000230: edce ee3c 42d0 96bd 7333 1c3d df64 353d
00000240: 4335 2c3e 62e1 423d 23e7 493d 688f 9dbd
00000250: 82c2 fcbc 2b75 c5bd 7f12 053e 0b6c ddbd
00000260: 4745 b63d 046d 4bbd e1c2 3e3d 1571 cfbb
00000270: 3c3b 283e 5c61 e5bd 4bdd 4fbc a0c2 333d
00000280: 5f2c ce3c a734 e3bd f29f d73d 8d43 d93d
00000290: 3369 d1bd 0cb2 b5bd 2518 673d f1e0 b1bd
000002a0: 8ffb 053d b962 1cbe 61ff 8f3d 6366 aa3d
000002b0: 0e7a 54bc d943 ed3d 6b5e e6bd 7313 d43d
000002c0: d893 08be 9fca 26be bd3d 873a 60d4 ba3c
000002d0: 8793 9dbb 6bba f13d 868f 22be 9b12 19be
000002e0: 2ad4 88bd 58aa b4bd 1061 15be 0cb7 b33d
000002f0: 6492 6ebd 238a adbc 148e 613d 428a 1a3b
00000300: d427 9e39 4887 723c 2498 22bd 8387 76bd
00000310: 046d d23d e810 0b3e 1a77 2d3d 6d92 a63a
00000320: 2dfb 403c b31f c6bd c710 ad3d 2481 fbbc
00000330: 8a56 36bb 63ac 71bd f86e 99bd 4d89 063e
00000340: 8c75 0f3e a3eb 63bd 5454 a43d ceed ccbd
00000350: 2472 8c3c f020 c43d d20f cabd 167a 50bd
00000360: 839c ebbc df35 69bc b429 733d 0e33 59bc
00000370: df66 2bbd 3334 0fbd 6d2c e03c 338e d53d
00000380: af15 db3c 9ba6 7b3c 7f5f 57bc 3333 b43b
00000390: 55f5 1fbe 2ab6 b5bd 50b8 23be ccea fcbd
000003a0: eba7 3bbe e586 a7bd 193c bfbb 5e46 6e3d
000003b0: f8c9 30be ae57 403d 8bf8 de3d d141 c83d
000003c0: 6d2f 93bd 27bf f53d 3c47 30bd c701 1cbe
000003d0: 6e10 41bc bfae d83c ed06 3ebe dab4 2fbe
000003e0: 1b96 26be dd9c 8d3a 4158 f03d 5130 e0bd
000003f0: f663 36be 08bc 203d 3eb3 a83d 54a4 c63a
-0.078434475 0.06894485 -0.10896534 -0.09808034 0.0062340484 0.07659829 0.17127922 -0.079120584
-0.0040430035 0.19299614 0.19229165 -0.04418955 0.074174315 0.015475438 0.19177672 0.01972732
0.07807661 -0.0022399395 0.032144982 0.05346686 -0.03299601 0.13503228 0.035552897 -0.1063827
0.06399176 0.101252064 0.13481328 0.03662905 0.13281399 0.12728713 0.17068356 0.016371243
-0.082768254 -0.005095733 -0.02818148 -0.10038272 0.15552403 -0.13714023 0.00030703092 0.055347208
-0.08345001 0.05398838 -0.03459633 0.023854906 -0.0063344324 0.029398682 0.17250787 0.10689966
-0.008262841 0.1274741 0.105869606 0.078231744 0.0460972 -0.030365514 0.115686364 0.18719019
-0.08765614 -0.10913732 0.105725005 0.05612976 -0.061504137 0.012602914 0.05524455 -0.059422385
0.026553307 0.08705248 0.029182812 0.025924489 0.098223776 -0.108259216 -0.11695889 0.11230948
-0.11911606 -0.120279334 -0.13379996 -0.0790534 -0.10030431 -0.031605136 0.100881115 0.02980269
0.10499959 -0.011618553 -0.08044887 0.10151116 -0.04610758 -0.048211515 -0.086015135 -0.013300433
-0.06812714 0.098891295 -0.02346829 0.10100317 0.10176418 0.074487306 -0.074506775 0.10909263
-0.02879217 -0.118272796 -0.029894857 -0.14516605 -0.09395455 0.12013616 -0.04974577 0.03033711
-0.07110674 0.024045847 -0.20922787 -0.03305386 -0.1057198 0.14288655 0.08117892 -0.10038317
0.07279519 -0.013447885 -0.060577735 0.12324073 -0.17483622 -0.10074227 -0.09782835 -0.01383039
-0.19754957 0.12413885 0.030076167 0.10892562 0.08503538 -0.09879086 0.017876774 0.07779297
-0.00020124015 0.1930014 -0.0063761333 0.05194579 -0.000302752 0.13986263 0.18433188 0.075840704
-0.013236705 0.110239655 0.0691256 0.05294539 0.029151404 -0.07363941 0.038135003 0.04428565
0.16817193 0.047578223 0.049292695 -0.07693368 -0.030854467 -0.09641489 0.12995337 -0.10811623
0.08899932 -0.049664512 0.04657257 -0.006330619 0.16428846 -0.112002105 -0.012687038 0.04388678
0.025167642 -0.11094027 0.10528554 0.106085874 -0.10225143 -0.0887185 0.05641951 -0.08685482
0.032710608 -0.15272035 0.070311315 0.0832031 -0.012968553 0.115852065 -0.112484775 0.10355272
-0.13337648 -0.16288231 0.0010318082 0.022806346 -0.0048088464 0.118031345 -0.15875062 -0.14948504
-0.06681092 -0.08821553 -0.14587808 0.08775148 -0.058245078 -0.021184033 0.055067137 0.0023580943
0.00030165783 0.014802761 -0.039695874 -0.060187828 0.10274699 0.13580668 0.042349912 0.0012708433
0.011778635 -0.09674015 0.08450466 -0.030701227 -0.0027822577 -0.05900229 -0.07491869 0.13138314
0.14009684 -0.055644643 0.08023897 -0.10006295 0.01714427 0.09576595 -0.09866299 -0.05089768
-0.028761154 -0.014234035 0.059365943 -0.013256801 -0.041846152 -0.03496189 0.027364934 0.10427513
0.026743738 0.015359546 -0.013145327 0.0054992675 -0.1562093 -0.08872636 -0.15988278 -0.123494714
-0.18325774 -0.08180026 -0.0058360216 0.058172576 -0.17264545 0.046958618 0.108872496 0.097781785
-0.0718678 0.1199935 -0.043036684 -0.15235053 -0.011783702 0.026450513 -0.1855733 -0.17158833
-0.16268198 0.0010804195 0.11735583 -0.109467156 -0.1781157 0.03924182 0.08237313 0.0015155175

fc1.bias f4 [16]
00000000: a1f4 b43d 2f56 a2bc fdf6 efbd caae 3cbd
00000010: 43c3 61bd 8d16 243d a8a6 f6bd 4a7b 873d
00000020: 1796 0abc 761d f13d 53e5 cfbd d860 043e
00000030: 11e1 b4bd a5da 153e 5f4e 3e3e aab4 e9bd
0.08835722 -0.019816486 -0.11717031 -0.04606513 -0.055117857 0.04006057 -0.12043506 0.066153124
-0.008458636 0.11773197 -0.10151162 0.12927568 -0.088319905 0.14634188 0.18584584 -0.11411412

fc2.weight f4 [6, 16]
00000000: 6486 aebd 39f8 21be 1c3e 12be e774 94bc
00000010: 5092 e5bd 6b5f 1bbe 520d 063e 8693 043e
00000020: 6167 a63d c90b 7f3e bb8d cb3d 77e6 4fbe
00000030: 8193 113d 3f22 623e 8590 25bd 6b6b 2b3d
00000040: 323f ebbc f594 a93d 4366 673d 8d42 a43c
00000050: 146b c43c 470a 7b3d e92a bebd 4d5f 933d
00000060: ba14 003b 92d7 29bd d691 0a3e 1dff 22be
00000070: 4d33 3fbd 0b09 2fbe c361 1bbe 2ff3 5a3e
00000080: 4285 07be ac50 24be 0637 aa3a 3dc4 323e
00000090: 1229 5fbe 6170 85bd 9611 a63d d77c ccbd
000000a0: e393 643d be81 5cbd 5da8 c2bb 04ef 593d
000000b0: 0eb1 46bc 6e03 dd3d 0182 bbbd 0d56 963d
000000c0: 9e6a 443d 4823 f1bd 79ed 2dbe 4382 0fbd
000000d0: cc97 c4bd bd32 7b3c 3dd0 da3c 40ba 343e
000000e0: e59b 653e 4550 6fbe 96d4 c03a ca94 0bbe
000000f0: f583 cdbd af2e 56be 01a5 30be 2ae4 a1bd
00000100: cc2e 8d3e 27df 3c3e 0e1f 1dbe 303a 34be
00000110: 46c0 27be 1a53 12be 5bc8 733d 8f6e 9d3d
00000120: 6bbc 38be 455b a8bc 555f 1c3e 4e06 05be
00000130: 7b28 3e3e 62fb 0a3d 0af2 633e 828e 093e
00000140: ef50 853e 5260 d93d f6fd 2b3e a180 c23d
00000150: 9f97 f23d c995 1abe 84e1 4c3e cb65 55be
00000160: 5e21 4fbe 312a 483e 5c0e 1cbd 7678 b0bd
00000170: 2c50 513e 142b 293e 5024 2f3d f433 473e
-0.08521727 -0.15817346 -0.14281505 -0.01812215 -0.112095475 -0.15173118 0.13091019 0.129469
0.08125187 0.2490684 0.09939142 -0.20302759 0.03554106 0.22083376 -0.040421028 0.04185049
-0.028716657 0.082803644 0.05649401 0.020051265 0.02397684 0.061289098 -0.09285528 0.071959116
0.0019543604 -0.04146535 0.13532194 -0.1591763 -0.046679784 -0.17093293 -0.15174012 0.2138183
-0.13234428 -0.16046399 0.0012986369 0.17457671 -0.21793011 -0.06515575 0.08108823 -0.09984749
0.0558051 -0.05383467 -0.0059404806 0.05320646 -0.012127174 0.1079167 -0.09155656 0.07340632
0.04795324 -0.117743075 -0.1698512 -0.035036337 -0.095992655 0.015331921 0.026710624 0.17649174
0.2242275 -0.23370464 0.0014711793 -0.13630977 -0.100349344 -0.20916246 -0.17250444 -0.07904847
0.27574766 0.18444501 -0.15343878 -0.17600322 -0.1638194 -0.14289513 0.059517246 0.07687103
-0.18040626 -0.020551333 0.15270741 -0.12990686 0.1857013 0.033931144 0.222603 0.13433269
0.2603831 0.10614075 0.16796097 0.0949719 0.11845326 -0.15096201 0.20007902 -0.20839612
-0.20227572 0.19547345 -0.03809963 -0.08616726 0.2044074 0.16520339 0.04275924 0.19453412

fc2.bias f4 [6]
00000000: 42e2 58bc c1a7 eb3d abfd 2a3e 9ebb 3f3e
00000010: 005d 3fbe 24e0 59be
-0.013237538 0.11506606 0.16698329 0.18723914 -0.1868782 -0.21276909
