outputs/models/model_capital.pth (torch, 117714 bytes, 11 tensors)

gcn1.bias f4 [32]
0.0012997107 -0.07593986 0.0021422813 0.13968469 0.1294584 0.075713925 0.13568792 0.0106105525
0.17434895 0.053134166 0.20468317 0.16569918 -0.011420705 0.09567831 -0.010678176 0.15908056
0.0019356096 -0.104176335 0.13699554 0.10997808 0.1616268 0.101359524 0.140227 0.14973457
0.14113544 -0.02235477 -0.005677945 0.11990346 0.10029496 -0.11556113 -0.0047908486 -0.030901924
00000000: 0e5b aa3a 5b86 9bbd 8465 0c3b 8109 0f3e
00000010: be90 043e e70f 9b3d c6f1 0a3e e2d7 2d3c
00000020: 8888 323e 36a3 593d 7798 513e 0cad 293e
00000030: e91d 3bbc fdf2 c33d 84f3 2ebc 04e6 223e
00000040: 48b4 fd3a 675a d5bd 8f48 0c3e 303c e13d
00000050: 7f81 253e 9595 cf3d ab97 0f3e 0554 193e
00000060: cf85 103e 5a21 b7bc 0e0e babb f28f f53d
00000070: 7267 cd3d 50ab ecbd 8dfc 9cbb 0826 fdbc

gcn1.lin.weight f4 [32, 1]
-0.4021948 0.093338445 -0.42579606 0.30047283 0.2538738 -0.6407598 0.13067093 -0.39113754
-0.2399643 -0.59703517 -0.52042794 0.20263188 -0.0055079274 0.36379126 -0.0022368256 0.060807195
-0.48033446 0.29911417 0.118290275 0.29534125 0.04062199 -0.86202806 0.3757702 -0.78306305
-0.2606493 -0.02568628 -0.22728123 0.34510815 0.25218382 0.21448328 -0.17400399 0.006884778
00000000: 7aec cdbe 3a28 bf3d f101 dabe 93d7 993e
00000010: bffb 813e d608 24bf 9ace 053e 2e43 c8be
00000020: 34b9 75be 4cd7 18bf c43a 05bf bb7e 4f3e
00000030: d87b b4bb d942 ba3e b597 12bb f710 793d
00000040: 66ee f5be 7e25 993e 2c42 f23d f836 973e
00000050: 3e63 263d dfad 5cbf f464 c03e d276 48bf
00000060: d373 85be 096c d2bc 69bc 68be 04b2 b03e
00000070: 3d1e 813e 81a1 5b3e 1a2e 32be b499 e13b

gcn2.bias f4 [32]
0.03196359 0.012758255 0.018682688 0.033606853 0.050256994 6.457047e-26 0.01064411 -0.0025435197
-0.023298612 0.023215394 -0.029832188 0.08022034 -0.03868077 -0.0059705754 0.03770223 -7.820621e-05
-0.0087356055 0.029911116 -0.017667402 0.055083882 0.029384183 -0.032334734 0.016131483 0.005648868
-0.010897169 -0.010064528 0.038539506 0.0032539428 0.054139372 -0.024527302 -0.009587449 -0.0026265795
00000000: 41ec 023d 0008 513c 700c 993c 57a7 093d
00000010: 47da 4d3d 66de 9f15 a264 2e3c 2eb1 26bb
00000020: bbdc bebc 362e be3c a262 f4bc 904a a43d
00000030: ba6f 1ebd d1a4 c3bb a76d 1a3d a402 a4b8
00000040: c91f 0fbc 2808 f53c 3abb 90bc a39f 613d
00000050: 19b7 f03c 6d71 04bd 2c26 843c 241a b93b
00000060: 0a8a 32bc b1e5 24bc 9adb 1d3d 1a40 553b
00000070: 3fc1 5d3d 7bed c8bc ad14 1dbc b122 2cbb

gcn2.lin.weight f4 [32, 32]
0.08682047 0.007973751 -0.1816979 -0.069718085 0.29538256 0.08671914 -0.016715711 0.256306
-0.33950305 0.117178075 -0.0053380844 0.27141568 3.7161465e-27 0.05557149 -5.0959085e-24 0.17906693
0.12119326 0.28203747 -0.13749565 -0.041877925 -0.27758121 -0.21087642 -0.09020813 0.09340094
-0.12975152 0.005278848 -0.06569106 -0.04417511 -0.2451654 0.14212486 0.13841964 5.1169406e-09
-0.7027783 -0.23967485 -1.0944642 -0.02365381 -0.17731841 -0.67963374 0.091657065 -0.5952059
-0.23922609 -0.8423651 -0.39608234 0.26471803 -2.1483442e-21 -0.08577325 1.2448011e-31 0.11046354
-0.5718827 0.085533716 0.2002759 0.013055356 -0.18308647 -0.87508035 0.15580417 -0.6128944
-0.47809738 -1.5093821e-05 -0.4959962 0.18378162 -0.1321282 0.27606466 -0.20324476 -0.035480846
0.0819237 0.0828308 -0.057885356 -0.19787055 -0.2975143 -0.033322275 0.2383448 0.1577468
-0.00933 0.02145936 -0.10179174 0.2836738 -5.926336e-35 0.07287126 -7.89986e-20 -0.041054685
0.2829933 -0.09830706 0.0061130784 0.028202744 -0.07591369 -0.085636154 -0.07350807 -0.08853275
-0.23734634 1.2774874e-09 0.13683333 0.13497546 -0.08039686 0.11775417 0.18109468 -8.8021795e-12
-0.63554114 -0.3248596 -0.77072924 0.27342716 0.099834256 -0.24959868 0.2914795 -0.63881904
-0.009014223 -0.5177681 -0.014486636 0.05460062 2.5010077e-34 -0.2768697 -5.5776987e-33 0.30829802
-0.6895792 -0.17550272 0.33191448 -0.012294955 0.282345 -0.5224839 0.03352844 -0.41192037
0.14807102 1.5369647e-19 -0.79192257 -0.063873984 -0.1308069 -0.05576386 -0.54668427 0.001120695
0.0010026941 -0.039417207 0.19154282 -0.08005802 0.3110345 -0.04085727 0.22925733 -0.22174871
-0.16597584 -0.13544106 -0.09561313 -0.27583474 -2.8670243e-07 -0.21720473 -5.338984e-19 -0.29850152
-0.043087196 -0.04925252 -0.01712821 0.027461812 0.11927457 0.16577078 -0.10047761 0.05290963
-0.11827992 0.0020017286 0.24199352 0.07334342 0.11393137 0.28690386 0.02790527 -5.3756844e-15
-1.90491e-36 1.6987656e-21 -8.825569e-12 5.532734e-26 3.1638117e-26 -1.4433261e-09 9.496393e-26 -1.3675955e-12
-1.3690137e-21 1.9437675e-31 -1.7543661e-10 -1.6668207e-21 8.372526e-30 -6.978553e-16 -1.2878569e-10 -3.156251e-09
-2.5103216e-35 2.4189834e-27 1.7529564e-27 3.7755468e-26 -1.3793718e-11 -1.1557794e-12 -2.2913347e-11 -2.2096038e-35
1.3084685e-26 2.0086468e-36 -1.294749e-26 -8.491684e-33 -3.2930157e-26 1.9143183e-26 -3.1896636e-24 3.7262375e-09
0.060799785 -0.37399712 -0.27561355 0.15011038 0.2795555 -0.2287689 0.30599755 -0.085590124
0.30387715 0.14133279 0.14212996 -0.014118058 6.270345e-10 0.20772867 3.7949523e-31 0.11485329
-0.033843134 -0.056897335 0.0021867787 0.21278438 0.17242204 0.23702998 -0.18085192 -0.22142296
-0.05256783 6.302548e-06 -0.2567336 0.16996592 0.25014016 -0.15604416 -0.07470228 -0.09028996
0.082076356 0.14406799 0.09531449 -0.3192637 -0.2983547 0.07872545 -0.2606205 -0.3405825
0.18817317 0.19964403 -0.38034168 0.106246784 -5.4352824e-08 0.112960234 -8.982847e-23 0.008620536
-0.282196 0.044153742 0.14956734 0.27969933 -0.069868 0.13816306 -0.07634316 -0.03095966
0.25385302 -7.595994e-05 -0.26141584 0.27705246 -0.25597855 -0.029835226 -0.025357604 -0.00014272722
00000000: eece b13d 56a4 023c 040f 3abe 5bc8 8ebd
00000010: 623c 973e ce99 b13d 63ef 88bc 8a3a 833e
00000020: 58d3 adbe 0ffb ef3d 19eb aebb fff6 8a3e
00000030: 3436 9313 ee9e 633d 6f23 c598 525d 373e
00000040: 2c34 f83d 3767 903e a9cb 0cbe 3088 2bbd
00000050: 201f 8ebe fdef 57be 0abf b8bd fe48 bf3d
00000060: 95dd 04be 30fa ac3b 0989 86bd f6f0 34bd
00000070: a30c 7bbe 2e89 113e e1bd 0d3e 16d1 af31
00000080: 47e9 33bf 536d 75be 6717 8cbf a3c5 c1bc
00000090: f592 35be 7afc 2dbf b3b6 bb3d 6a5f 18bf
000000a0: aff7 74be 3da5 57bf 4ecb cabe 1f89 873e
000000b0: 0553 229d e3a9 afbd 9d95 210c b53a e23d
000000c0: e866 12bf 4d2c af3d 2015 4d3e 22e6 553c
000000d0: 057b 3bbe 4405 60bf 218b 1f3e a6e6 1cbf
000000e0: 2ec9 f4be 783b 7db7 37f3 fdbe 4031 3c3e
000000f0: 9d4c 07be 5958 8d3e 651f 50be 5d54 11bd
00000100: 9dc7 a73d 32a3 a93d 3219 6dbd 949e 4abe
00000110: cb53 98be f07c 08bd a910 743e 6188 213e
00000120: dbdc 18bc 8acb af3c 3078 d0bd b13d 913e
00000130: 8e8c 9d86 873d 953d b987 ba9f f528 28bd
00000140: 7fe4 903e 3655 c9bd 3850 c83b 7109 e73c
00000150: a378 9bbd 0262 afbd 668b 96bd a950 b5bd
00000160: eb0a 73be 9893 af30 091e 0c3e 0237 0a3e
00000170: 1ca7 a4bd 1929 f13d e270 393e 7ed9 1aad
00000180: d3b2 22bf ff53 a6be 834e 45bf a5fe 8b3e
00000190: e775 cc3d cc96 7fbe cd3c 953e a589 23bf
000001a0: 64b0 13bc 738c 04bf 5b59 6dbc e6a4 5f3d
000001b0: 7138 a607 dec1 8dbe 44b0 e789 3dd9 9d3e
000001c0: 4388 30bf fcb6 33be b2f0 a93e c770 49bc
000001d0: 868f 903e 81c1 05bf 1e55 093d 3ae7 d2be
000001e0: ee9f 173e e873 3520 70bb 4abf 5dd0 82bd
000001f0: 3ef2 05be a568 64bd 80f3 0bbf 49e4 923a
00000200: d56c 833a f073 21bd cd23 443e 76f5 a3bd
00000210: ea3f 9f3e f459 27bd 6fc2 6a3e 1812 63be
00000220: 92f5 29be 10b1 0abe d1d0 c3bd 363a 8dbe
00000230: 15ec 99b4 eb6a 5ebe 3994 1da1 31d5 98be
00000240: 337c 30bd 03bd 49bd 7650 8cbc 98f7 e03c
00000250: 3a46 f43d d1bf 293e 35c7 cdbd c5b7 583d
00000260: be3c f2bd 6f2f 033b 26cd 773e 1335 963d
00000270: da54 e93d 10e5 923e 9899 e43c f0ad c1a7
00000280: 440d 2284 e85a 001d d442 1bad defb 8815
00000290: 14aa 1c15 865e c6b0 8b1e eb15 d278 c0ab
000002a0: 27e1 ce9c c150 7c0c 04e5 40af 01e2 fb9c
000002b0: a4d0 290f a224 49a6 f399 0daf 5be5 58b1
000002c0: ba78 0586 d0a6 3f13 2ee2 0a13 bef4 3a15
000002d0: 62a9 72ad 57a9 a2ab 458c c9ad 23f7 ea85
000002e0: 9e95 8114 74e0 2a04 c939 8094 895d 308a
000002f0: ef0f 2395 bc95 bd14 ccc9 7698 5508 8031
00000300: 3209 793d 8d7c bfbe 381d 8dbe 89b6 193e
00000310: e621 8f3e 6542 6abe b6ab 9c3e e049 afbd
00000320: c995 9b3e 8bb9 103e 848a 113e 6d4f 67bc
00000330: a15b 2c30 d3b6 543e 764e f60c 3438 eb3d
00000340: 199f 0abd 2e0d 69bd 0f50 0f3b 26e4 593e
00000350: 678f 303e fdb7 723e 3f31 39be b3bc 62be
00000360: 5d51 57bd 7a7a d336 9672 83be 8c0b 2e3e
00000370: 5f12 803e 0aca 1fbe 82fd 98bd f1e9 b8bd
00000380: a617 a83d 8f86 133e 3e34 c33d 8876 a3be
00000390: f2c1 98be cf3a a13d 0d70 85be d460 aebe
000003a0: 78b0 403e 7c6f 4c3e 25bc c2be ea97 d93d
000003b0: 9071 69b3 b257 e73d 2131 d99a 263d 0d3c
000003c0: fe7b 90be 8eda 343d 2e28 193e c034 8f3e
000003d0: f416 8fbd 9e7a 0d3e cd59 9cbd 1d9f fdbc
000003e0: 06f9 813e af4c 9fb8 4cd8 85be d2d9 8d3e
000003f0: 9f0f 83be 0169 f4bc c0ba cfbc 0ca9 15b9

lstm.weight_ih_l0 f4 [256, 32]
-0.056106806 0.051570464 -0.07320072 0.08032659 -0.09076975 -1.1480478e-24 -0.025466716 -0.028813181
-0.12306117 -0.07403097 -0.06774031 -0.022370595 -0.07360589 -0.13541786 -0.0784606 0.052697323
-0.031767953 -0.06782073 -0.08184577 -0.09413688 -0.053993 -0.063482694 -0.08517224 -0.04619604
0.019681597 -0.07001286 0.0077234833 0.070510685 -0.07687453 0.13293265 0.053883597 6.4289646e-28
-0.08860935 0.049967207 -0.04613299 0.05465381 -0.049376927 2.7372272e-26 -0.015073167 -0.037360705
-0.055269912 -0.043501567 -0.033259615 -0.025893299 0.004888634 -0.0066430643 -0.02931436 0.1064978
0.020702397 -0.029975565 -0.02735311 -0.0470911 -0.04377714 0.008934119 -0.03851925 0.009625137
0.16420296 0.038724422 0.06754228 0.105683245 -0.029932184 0.02901414 0.042110633 -1.6318229e-28
-0.090959825 0.032449733 -0.030868342 0.044793922 -0.041280154 4.3165692e-26 -0.0021055858 -0.03291538
-0.025124807 -0.023244528 -0.095554724 -0.025009621 -0.0585164 -0.04092278 -0.06060902 -0.05878247
-0.048204307 -0.02347746 -0.082291335 -0.030943811 -0.036709275 0.015329339 -0.033425704 0.013684968
0.017944481 -0.008818265 0.09883597 0.10494915 -0.05807664 0.027929801 -0.040199906 3.0731872e-29
-0.182905 0.15652484 -0.07546729 0.1550804 -0.1369133 3.5416147e-25 0.033622056 -0.10540057
-0.14318244 -0.09998911 -0.086213656 -0.048880845 -0.1031656 -0.113401875 -0.10013857 -0.066525154
-0.10834511 -0.06835834 -0.108604684 -0.08699846 -0.09978725 0.13286199 -0.1364457 0.118296295
-0.033121027 -0.039348364 0.18252082 -0.043641105 -0.15113701 0.074420795 0.047449835 -4.6972844e-28
-0.017739784 0.063583456 -0.014069852 0.09654768 -0.023927078 6.381155e-26 0.03523668 -0.018638272
-0.015956732 -0.011427247 0.09907465 -0.00608468 -0.0169909 -0.01983987 0.0011153924 0.05148472
-0.004013053 -0.014028296 -0.03367264 -0.02113034 -0.027676016 0.053027105 -0.018912842 0.11853538
0.0024490894 0.057765774 0.014992354 0.08751435 -0.0295614 -0.0335711 -0.006582708 9.7637306e-29
-0.2181538 -0.0015838932 -0.09923898 0.14682432 -0.12014903 -7.009286e-25 0.08351559 -0.011881123
-0.15084873 -0.047938894 -0.08591856 -0.022370718 0.028446814 -0.18139279 -0.14860849 0.050293386
0.024063392 -0.06999394 -0.09035557 -0.101259984 -0.09917761 -0.008484408 -0.046458807 0.11375068
0.11371758 0.12546135 0.07889953 -0.0030462975 -0.01771343 0.045706604 0.079150386 1.2388298e-28
0.007675442 0.09334664 -0.0024847768 0.1493673 0.0010064524 1.5978739e-25 0.07038629 -0.01569606
0.009847954 0.002733451 -0.0125757605 -0.018279688 -0.10833815 -0.1111296 0.026284797 -0.005067122
-0.06765719 0.005599876 0.032894965 0.005247698 -0.007343399 0.1184185 -0.01063948 0.103159375
0.1485644 -0.003958658 0.13268939 0.1325539 0.013575069 0.1316206 0.111495435 -1.4146177e-29
-0.08778235 0.098799676 -0.020362128 0.02100835 -0.042402066 7.2543156e-26 -0.05213872 -0.028050737
-0.04717749 -0.021828054 0.02289747 -0.023992576 -0.024513472 -0.06231336 -0.02132028 -0.017258743
-0.11293462 -0.020127598 -0.059312962 -0.030845163 -0.03058427 0.029021716 -0.022022033 0.10715084
0.05399145 0.057862457 0.077923 0.028989086 -0.041091084 0.11773123 0.10210065 -2.5344687e-29
00000000: 40d0 65bd 8d3b 533d 42ea 95bd 4482 a43d
00000010: 7ee5 b9bd dca6 b197 939f d0bc 9f09 ecbc
00000020: 7f07 fcbd 8d9d 97bd 6fbb 8abd 8a42 b7bc
00000030: afbe 96bd fbaa 0abe f3af a0bd 26d9 573d
00000040: 1d1f 02bd 98e5 8abd c19e a7bd d6ca c0bd
00000050: c427 5dbd 3703 82bd c96e aebd 0f38 3dbd
00000060: 4d3b a13c e762 8fbd 4615 fd3b e867 903d
00000070: 6570 9dbd 7f1f 083e 0cb5 5c3d f5bd 4b12
00000080: d278 b5bd 6aaa 4c3d f2f5 3cbd acdc 5f3d
00000090: 763f 4abd 7a8a 0715 72f5 76bc 8a07 19bd
000000a0: b462 62bd b32e 32bd 3c3b 08bd 2f1e d4bc
000000b0: d630 a03b 10ae d9bb ab24 f0bc 851b da3d
000000c0: 1398 a93c 518f f5bc a113 e0bc 99e2 40bd
000000d0: a94f 33bd 6960 123c 5cc6 1dbd c0b2 1d3c
000000e0: d224 283e 809d 1e3d 9b53 8a3d 7570 d83d
000000f0: 5734 f5bc 10af ed3c 337c 2c3d aedb 4e91
00000100: 2549 babd 03ea 043d 9bdf fcbc d579 373d
00000110: 6115 29bd 04bf 5515 defd 09bb 47d2 06bd
00000120: 8ad2 cdbc 4f6b bebc 32b2 c3bd fae0 ccbc
00000130: e5ae 6fbd a59e 27bd 2a41 78bd e3c5 70bd
00000140: e171 45bd cd53 c0bc 5c88 a8bd e07d fdbc
00000150: 775c 16bd e827 7b3c 64e9 08bd eb36 603c
00000160: 4e00 933c 7c7a 10bc 836a ca3d 94ef d63d
00000170: c5e1 6dbd 0acd e43c a8a8 24bd 40d4 1b10
00000180: 734b 3bbe 0c48 203e 988e 9abd 65cd 1e3e
00000190: 0033 0cbe 2037 db16 48b7 093d 41dc d7bd
000001a0: 6b9e 12be 17c7 ccbd c990 b0bd 4837 48bd
000001b0: 7c48 d3bd 3e3f e8bd 7315 cdbd 573e 88bd
000001c0: 0be4 ddbd 75ff 8bbd 226c debd 402c b2bd
000001d0: 425d ccbd f90c 083e 6cb8 0bbe 5445 f23d
000001e0: eaa9 07bd c02b 21bd bde6 3a3e 04c1 32bd
000001f0: a9c3 1abe ee69 983d c25a 423d e6dc 1492
00000200: 0653 91bc 0b38 823d 3d85 66bc caba c53d
00000210: b802 c4bc 60fd 9d15 5654 103d 4aaf 98bc
00000220: b1b7 82bc 5939 3bbc a6e7 ca3d ff61 c7bb
00000230: 8030 8bbc 3987 a2bc 5c32 923a a4e1 523d
00000240: ee7f 83bb f0d6 65bc 52ec 09bd 8919 adbc
00000250: d0b8 e2bc f332 593d 1bef 9abc adc2 f23d
00000260: e780 203b ce9b 6c3d 7ea2 753c b93a b33d
00000270: c02a f2bc da81 09bd c2b3 d7bb 3c8a f710
00000280: b663 5fbe a39a cfba ce3d cbbd 1d59 163e
00000290: b210 f6bd 49ed 5897 390a ab3d 0ba9 42bc
000002a0: 1778 1abe 935b 44bd 12f6 afbd cc42 b7bc
000002b0: 4b09 e93c 08bf 39be d32c 18be 7000 4e3d
000002c0: 9720 c53c fc58 8fbd 570c b9bd 6561 cfbd
000002d0: a11d cbbd 3002 0bbc 974b 3ebd 1ef6 e83d
000002e0: c3e4 e83d f178 003e 1496 a13d 64a4 47bb
000002f0: c11b 91bc d936 3b3d 9919 a23d 530a 1d11
00000300: 4682 fb3b 862c bf3d a3d7 22bb bef3 183e
00000310: f0ea 833a a5ce 4516 b026 903d 0695 80bc
00000320: 5059 213c b323 333b 900a 4ebc 49bf 95bc
00000330: 64e0 ddbd ea97 e3bd 3753 d73c 1a0a a6bb
00000340: da8f 8abd 2a7f b73b dfbc 063d e2f4 ab3b
00000350: e5a0 f0bb 6685 f23d 3751 2ebc 3945 d33d
00000360: 4421 183e a1b7 81bb badf 073e 36bc 073e
00000370: f769 5e3c 8dc7 063e b857 e43d 9375 8f8f
00000380: 3cc7 b3bd 7c57 ca3d 7ace a6bc b419 ac3c
00000390: caad 2dbd b09b b315 698f 55bd a9ca e5bc
000003a0: 2f3d 41bd bfd0 b2bc 7a93 bb3c 148c c4bc
000003b0: 7ad0 c8bc 4b3c 7fbd dea7 aebc 3562 8dbc
000003c0: 444a e7bd a2e2 a4bc 26f2 72bd ffae fcbc
000003d0: dd8b fabc f3be ed3c 8d67 b4bc e671 db3d
000003e0: 2426 5d3d 2f01 6d3d 1896 9f3d 857a ed3c
000003f0: 204f 28bd 121d f13d 251a d13d 4983 0090

lstm.weight_hh_l0 f4 [256, 64]
-0.08127351 -0.04192826 -0.072856314 -0.003284571 -0.06112146 0.0786204 0.0529209 -0.023312086
-0.05911636 0.0066989087 -0.05139168 -0.07805659 -0.033357102 0.036397133 -0.03327156 0.09008155
-0.05936354 0.09043812 0.0858336 -0.06938044 0.024324995 0.040502414 0.0056328843 -0.07490359
-0.0066273413 -0.024856197 0.069424964 0.018356906 0.012855249 0.016208079 0.08333782 0.11262953
0.049293775 -0.058984872 -0.01604729 -0.05266854 -0.007225932 0.0050533987 -0.06837417 0.05849238
-0.01512019 0.07072677 -0.03334707 -0.078034654 -0.06664475 -0.049502905 0.04036219 -0.026805013
-0.026980838 0.0031996847 -0.09633821 0.0042516524 -0.008382377 0.012389026 -0.039365284 -0.07365733
0.017534992 0.041254155 -0.0067529683 -0.0059360107 0.050065983 -0.034576204 0.090079464 0.016535725
-0.058980837 -0.047882624 0.015437787 0.11348848 -0.009289749 -0.06318126 -0.011440092 0.038776383
-0.046685025 0.019754311 0.061050057 -0.0804162 -0.029010339 0.10083339 -0.09218412 0.010615639
-0.049562763 -0.024989294 -0.03197397 0.023685442 -0.05121706 0.015761701 -0.11195397 0.07710778
-0.054352615 -0.055688616 -0.017653598 -0.07171269 -0.04132199 -0.03276098 -0.010444673 0.034006048
0.0108370995 0.102664076 0.005971069 0.03168871 -0.0028967944 -0.13921806 0.12757632 -0.030187245
-0.0057344744 0.02159199 0.06002817 -0.074172266 -0.015002684 -0.10382475 -0.03674917 -0.018400162
-0.006047282 0.031429306 0.13731332 0.056159526 0.05048639 -0.052573558 0.037977956 0.08914267
0.012360846 0.06911687 -0.0034340518 -0.03854184 0.08202757 0.07689619 -0.0052620247 -0.006415327
-0.047093123 0.026925387 0.044631254 0.10366868 -0.04618275 -0.032573763 0.09272733 0.07188016
-0.09785458 -0.015303469 -0.028563078 -0.08151538 -0.025204021 0.115884386 -0.03863475 -0.0003580792
-0.09692384 0.08660175 0.042750727 0.079567075 0.0288589 0.08824714 0.07159326 -0.037328657
0.03882739 -0.044361223 -0.03667409 -0.027031977 -0.028552542 -0.038122784 -0.013278547 0.032820124
0.027447581 0.036665346 0.025381338 0.011839944 0.07511176 -0.04824614 -0.07039593 -0.002125073
-4.7767302e-05 -0.06785029 0.050236207 -0.07172912 -0.023501705 0.043378104 0.021450073 -0.045131214
-0.013399446 -0.06806097 0.09315681 -0.0027452 -0.048406534 0.025443967 -0.09137679 0.06749316
0.009462161 0.076992266 -0.0008039981 -0.036764193 0.048819322 0.08888389 -0.10146843 0.020689387
-0.08983379 0.062338002 -0.04000656 -0.0025302607 -0.0099067455 -0.036035255 -0.006299636 -0.083618395
-0.04943415 0.039126705 0.09884131 0.036822446 0.0010325818 0.12165405 0.07071949 0.06908125
-0.059875153 0.12805048 0.09425323 0.03261839 0.039820977 0.08168404 -0.011439898 -0.08711935
-0.090609446 -0.05583518 -0.107388265 -0.035506707 0.0065467497 0.04497602 0.13026635 0.1185706
0.07584852 -0.07564612 -0.08565576 -0.11377498 0.13665415 0.07338537 -0.09781266 0.047325
0.027104767 0.122441776 0.006486473 -0.06774216 0.036215786 -0.111618966 -0.0045155897 -0.081272855
0.04800944 -0.0479557 0.089894705 0.045504827 0.12512538 0.08886645 -0.086219 -0.06451378
0.00020052999 0.15660197 -0.08442871 -0.101827614 -0.08436936 -0.008492176 0.009862981 0.026960291
00000000: ba72 a6bd f8bc 2bbd b135 95bd f541 57bb
00000010: 7f5a 7abd bb03 a13d 96c3 583d fdf8 bebc
00000020: ff23 72bd 8582 db3b 1580 52bd 22dc 9fbd
00000030: 75a1 08bd 2915 153d c247 08bd ad7c b83d
00000040: 2f27 73bd 9f37 b93d 87c9 af3d 5517 8ebd
00000050: 3645 c73c dce5 253d 0f94 b83b 0e67 99bd
00000060: 2b2a d9bb 399f cbbc ad2e 8e3d 3961 963c
00000070: d39e 523c cec6 843c 05ad aa3d 50aa e63d
00000080: 45e8 493d 1f9a 71bd 9b75 83bc f8ba 57bd
00000090: 83c7 ecbb fb96 a53b c207 8cbd b595 6f3d
000000a0: acba 77bc 32d9 903d f096 08bd a2d0 9fbd
000000b0: 0b7d 88bd 8fc3 4abd d352 253d 3096 dbbc
000000c0: eb06 ddbc cdb1 513b f84c c5bd 7251 8b3b
000000d0: 3d56 09bc 57fb 4a3c 7e3d 21bd a7d9 96bd
000000e0: 8ba5 8f3c 1efa 283d 0148 ddbb de82 c2bb
000000f0: fd11 4d3d c79f 0dbd 957b b83d ee75 873c
00000100: e495 71bd 9220 44bd c6ee 7c3c a66c e83d
00000110: 0834 18bc 2d65 81bd 396f 3bbc fcd3 1e3d
00000120: cc38 3fbd cbd3 a13c a00f 7a3d 40b1 a4bd
00000130: 17a7 edbc bd81 ce3d 07cb bcbd 38ed 2d3c
00000140: 5302 4bbd 59b6 ccbc 23f7 02bd f907 c23c
00000150: fbc8 51bd af1e 813c 1f48 e5bd afea 9d3d
00000160: d9a0 5ebd bf19 64bd 479e 90bc 1ade 92bd
00000170: 3f41 29bd 6130 06bd 2220 2bbc ed49 0b3d
00000180: 178e 313c 8b41 d23d f5a8 c33b 05cc 013d
00000190: 25d8 3dbb 2e8f 0ebe 5ea3 023e 3e4b f7bc
000001a0: 42e8 bbbb afe1 b03c 19e0 753d a1e7 97bd
000001b0: d1cd 75bc 12a2 d4bd 4c86 16bd f0bb 96bc
000001c0: 4728 c6bb 04bc 003d dd9b 0c3e 8807 663d
000001d0: d1ca 4e3d 5f57 57bd c68e 1b3d 6f90 b63d
000001e0: 2585 4a3c 258d 8d3d d40d 61bb 0cde 1dbd
000001f0: 12fe a73d c07b 9d3d 106d acbb aa37 d2bb
00000200: b8e4 40bd a192 dc3c 43cf 363d 3f50 d43d
00000210: 202a 3dbd 116c 05bd d4e7 bd3d e835 933d
00000220: fb67 c8bd 67bb 7abc 1efd e9bc 89f1 a6bd
00000230: aa78 cebc cb54 ed3d 793f 1ebd 94bc bbb9
00000240: 0280 c6bd 425c b13d 631b 2f3d 10f4 a23d
00000250: 8069 ec3c ebba b43d 7d9f 923d efe5 18bd
00000260: 7809 1f3d 1db4 35bd 9237 16bd 2a72 ddbc
00000270: 05e7 e9bc a326 1cbd 438e 59bc 656e 063d
00000280: c0d9 e03c 672e 163d 86ec cf3c 53fc 413c
00000290: 32d4 993d bf9d 45bd be2b 90bd cf44 0bbb
000002a0: c059 48b8 18f5 8abd 7bc4 4d3d b8e6 92bd
000002b0: a686 c0bc 3dad 313d 10b8 af3c 82db 38bd
000002c0: 5a89 5bbc 8d63 8bbd ffc8 be3d d0e8 33bb
000002d0: ee45 46bd de6f d03c c123 bbbd db39 8a3d
000002e0: 2e07 1b3c 1fae 9d3d 66c3 52ba 0d96 16bd
000002f0: c5f6 473d c208 b63d aece cfbd ca7c a93c
00000300: c7fa b7bd 2256 7f3d ebdd 23bd bbd2 25bb
00000310: e74f 22bc b499 13bd 2d6d cebb 1f40 abbd
00000320: 777b 4abd 5343 203d 506d ca3d 22d3 163d
00000330: b257 873a c225 f93d 61d5 903d 787a 8d3d
00000340: a63f 75bd aa1f 033e d607 c13d dc9a 053d
00000350: 521b 233d f649 a73d 696e 3bbc a16b b2bd
00000360: 7291 b9bd 6eb3 64bd 61ee dbbd 7b6f 11bd
00000370: 1e86 d63b c638 383d 8b64 053e 25d5 f23d
00000380: 7856 9b3d 5aec 9abd 496c afbd db02 e9bd
00000390: 11ef 0b3e 124b 963d 0152 c8bd dcd7 413d
000003a0: d10a de3c c1c2 fa3d 7b8c d43b 67bc 8abd
000003b0: 0157 143d 7c98 e4bd 83f7 93bb 6272 a6bd
000003c0: 8ca5 443d 326d 44bd b71a b83d 4563 3a3d
000003d0: de20 003e 9dff b53d 9693 b0bd cd1f 84bd
000003e0: 5c45 5239 445c 203e f6e8 acbd ff8a d0bd
000003f0: d8c9 acbd c522 0bbc 5798 213c d4db dc3c

lstm.bias_ih_l0 f4 [256]
0.010818299 -0.102650605 0.06759964 -0.022910647 -0.07269221 0.13695407 -0.07344507 0.0038066455
0.12297828 -0.033622462 0.14725967 -0.10205842 -0.040930666 0.037709273 0.017445441 0.04756497
0.10908567 -0.1021097 -0.052138645 0.042582735 -0.06542077 -0.042445086 0.13292468 -0.056820173
-0.037867863 -0.03361236 0.083073005 0.041678067 0.021888958 0.015499655 -0.021185862 0.12352462
0.006482013 0.04492496 0.08333424 0.08157562 0.03410354 0.07685504 -0.107647724 -0.0561018
-0.07855012 -0.0024515323 0.011053733 -0.020803835 0.064937726 0.10880773 -0.07875083 -0.01129164
-0.03764305 0.061633587 -0.0032787237 0.045899957 -0.08334783 -0.02777853 0.064358056 0.005094369
0.06540255 -0.05603494 0.03942313 0.046306618 -0.009308688 -0.00592187 0.032105874 -0.07277718
0.15973136 0.096815705 0.058691215 0.08954065 0.017346691 -0.031834166 0.04494195 -0.06063961
-0.079224154 0.06509018 0.07608169 0.010000664 -0.13328089 0.08936172 -0.046396893 0.015359632
-0.05025916 0.007602611 -0.08885162 -0.06227022 0.1056517 0.082241535 0.10397784 -0.0710337
-0.07855221 0.012850222 0.0618276 -0.087325916 0.08639218 0.026699888 0.13616605 0.099999346
0.07420889 -0.040409718 -0.011982838 -0.0099461805 0.10082108 -0.05392301 0.13448526 -0.0902271
0.116657905 0.015270754 0.020854147 0.108144395 -0.08315256 0.03068202 0.0060597416 0.122137256
-0.0060230074 -0.056893334 0.0832748 0.27986613 0.075125664 0.06663701 0.039628398 0.028869243
0.108856805 0.16611697 -0.06439525 -0.008120221 -0.08191177 0.10111767 0.1407269 0.09694177
0.13704035 0.061315957 -0.057474144 -0.037526593 -0.022801207 -0.014390285 -0.053636655 -0.063948736
0.05253572 -0.026283236 0.06325795 -0.06913113 -0.03938869 -0.0074530425 0.08664116 0.07001173
-0.012583859 0.05384384 0.023840426 -0.09352662 -0.049920704 -0.100019366 0.11411176 0.09545462
-0.057917185 0.05593755 0.06556674 0.08661498 0.112900876 -0.0076500066 0.08988834 0.0935479
0.034542475 0.004609221 -0.049569875 -0.032002665 -0.08410422 0.10029198 -0.038402837 -0.06881178
0.02312145 0.053499803 0.060303893 0.03840376 -0.0016011061 0.019221334 0.10712165 0.013246432
0.051755164 -0.0789711 -0.025230186 0.12376704 0.019448385 0.102670476 0.053996086 0.08167682
-0.033178806 -0.108614475 0.07656674 -0.021475762 0.09001646 0.039564095 0.05055944 0.025335569
-0.056344308 -0.01710817 -0.032144032 0.031120572 -0.048972197 -0.086075775 0.09661185 0.052779693
0.0991298 0.097821124 0.040005077 -0.039829597 0.085371524 0.1011303 -0.039143495 0.06211465
0.0091859065 0.01295804 0.091807604 0.075479075 -0.010127777 -0.045386374 0.12723054 0.03524183
-0.11451104 0.10266278 -0.06894616 -0.073303044 0.010164742 -0.019767042 0.02288247 0.08302777
0.06892688 0.04764597 -0.029347332 -0.099337004 0.010987493 0.051050287 0.03004868 0.0011614009
0.112164125 -0.031224908 0.13445024 0.093984954 0.09546985 0.11743033 -0.027053915 0.11276258
-0.070623726 0.04227314 0.02669315 0.053823337 -0.07985216 0.051679205 -0.016414369 0.12802908
0.08317451 0.13602006 -0.09379715 0.08566363 0.050242595 -0.0061993077 -0.014345549 -0.03623763
00000000: 3c3f 313c 7b3a d2bd ae71 8a3d 1caf bbbc
00000010: a7df 94bd b03d 0c3e 5e6a 96bd ea78 793b
00000020: 09dc fb3d b5b7 09bd 3dcb 163e 0104 d1bd
00000030: eaa6 27bd 0a75 1a3d bee9 8e3c 7cd3 423d
00000040: 4f68 df3d e41e d1bd 558f 55bd 3c6b 2e3d
00000050: 53fb 85bd e6da 2dbd 681d 083e 45bc 68bd
00000060: 551b 1bbd 1dad 09bd 2e22 aa3d 9fb6 2a3d
00000070: 7950 b33c 44f2 7d3c f98d adbc 7afa fc3d
00000080: 1167 d43b 3c03 383d 24ab aa3d 1e11 a73d
00000090: 27b0 0b3d 2d66 9d3d 6976 dcbd 00cb 65bd
000000a0: e3de a0bd e3a9 20bb b71a 353c ce6c aabc
000000b0: 12fe 843d 96d6 de3d 1d48 a1bd 9200 39bc
000000c0: 992f 1abd 8073 7c3d dbdf 56bb 9801 3c3d
000000d0: 44b2 aabd cd8f e3bc 28ce 833d aaee a63b
000000e0: c6f1 853d e584 65bd 267a 213d 02ac 3d3d
000000f0: 7883 18bc 3f0c c2bb 7381 033d 340c 95bd
00000100: 9e90 233e 5047 c63d 3366 703d 1761 b73d
00000110: a61a 8e3c 8b64 02bd 0d15 383d 3d61 78bd
00000120: 4640 a2bd 004e 853d b8d0 9b3d d3d9 233c
00000130: c97a 08be 4703 b73d ab0a 3ebd f7a6 7b3c
00000140: 8ddc 4dbd 531f f93b d7f7 b5bd 0f0f 7fbd
00000150: eb5f d83d 406e a83d 55f2 d43d 1e7a 91bd
00000160: fbdf a0bd bd89 523c f03e 7d3d eed7 b2bd
00000170: 62ee b03d b9b9 da3c 1d6f 0b3e 75cc cc3d
00000180: d5fa 973d a984 25bd aa53 44bc 4ef5 22bc
00000190: 487b ce3d 60de 5cbd 81b6 093e fcc8 b8bd
000001a0: 57ea ee3d 2f32 7a3c 51d6 aa3c cf7a dd3d
000001b0: e44b aabd dc58 fb3c cc90 c63b 1923 fa3d
000001c0: a65c c5bb fc08 69bd fa8b aa3d 9d4a 8f3e
000001d0: 7cdb 993d fc78 883d 6351 223d 317f ec3c
000001e0: 51f0 de3d 911a 2a3e a8e1 83bd ad0a 05bc
000001f0: 5cc1 a7bd c816 cf3d b61a 103e 6889 c63d
00000200: 4e54 0c3e 7126 7b3d 026a 6bbd 7cb5 19bd
00000210: 99c9 babc 3bc5 6bbc 1cb2 5bbd 8ef7 82bd
00000220: b22f 573d f14f d7bc 628d 813d 9f94 8dbd
00000230: 0956 21bd a738 f4bb ec70 b13d 4f62 8f3d
00000240: 882c 4ebc 5c8b 5c3d ff4c c33c e28a bfbd
00000250: a779 4cbd f4d6 ccbd 6db3 e93d b67d c33d
00000260: 923a 6dbd c61e 653d db47 863d 3263 b13d
00000270: 9338 e73d e8ac fabb 6117 b83d 0b96 bf3d
00000280: 697c 0d3d f308 973b c809 4bbd 3a15 03bd
00000290: d53e acbd e265 cd3d 4b4c 1dbd 31ed 8cbd
000002a0: 3269 bd3c 9c22 5b3d 3701 773d 434d 1d3d
000002b0: 35dc d1ba 0f76 9d3c 9862 db3d 9007 593c
000002c0: 39fd 533d 9abb a1bd 89af cebc 9379 fd3d
000002d0: 3852 9f3c e644 d23d 002b 5d3d 2d46 a73d
000002e0: 80e6 07bd 4471 debd 06cf 9c3d f0ed afbc
000002f0: 8d5a b83d f60d 223d 6a17 4f3d 8a8c cf3c
00000300: 4ac9 66bd 6f26 8cbc 76a9 03bd 92f0 fe3c
00000310: 1297 48bd 7f48 b0bd 6fdc c53d 852f 583d
00000320: 9104 cb3d 7156 c83d 5ddc 233d 5c24 23bd
00000330: 44d7 ae3d 671d cf3d ee54 20bd ee6b 7e3d
00000340: 7c80 163c f64d 543c a005 bc3d c694 9a3d
00000350: faee 25bc 10e7 39bd b948 023e bd59 103d
00000360: c484 eabd dd40 d23d a533 8dbd e81f 96bd
00000370: 058a 263c 7eee a1bc 0574 bb3c 770a aa3d
00000380: 8929 8d3d 6c28 433d d169 f0bc 3371 cbbd
00000390: e304 343c 1b1a 513d a628 f63c 263a 983a
000003a0: 4eb6 e53d 61cb ffbc 53ad 093e 2f7b c03d
000003b0: b285 c33d 507f f03d 2ca0 ddbc 11f0 e63d
000003c0: 2ca3 90bd 9a26 2d3d 98ab da3c dc75 5c3d
000003d0: 8789 a3bd 93ad 533d 6d77 86bc 0e1a 033e
000003e0: 6657 aa3d d848 0b3e b818 c0bd 6a70 af3d
000003f0: 2ecb 4d3d 9023 cbbb 9809 6bbc e96d 14bd

lstm.bias_hh_l0 f4 [256]
0.081656046 0.1102075 -0.040095255 0.11191553 -0.05670293 -0.004444577 -0.014354395 0.056943227
-0.010131053 0.050792918 0.012858557 0.06115726 -0.027322214 0.0019528975 0.059202343 -0.019503925
-0.033955526 0.012819619 -0.113111846 -0.0829741 -0.03555451 -0.010968674 -0.07706076 0.09090712
0.06925494 0.043650746 0.1393731 0.10254917 0.03385251 0.027163018 -0.02130447 -0.082922064
-0.025189122 0.008488873 -0.11444884 -0.031972352 0.08089428 0.101400316 -0.06933108 0.03665413
0.06930835 0.08850331 0.09464231 -0.066373244 0.052004017 -0.035840493 -0.07914816 -0.03929415
0.072312355 -0.097401 0.11746704 0.040265393 0.0943524 -0.036435205 0.009768552 0.08828513
0.11629323 -0.06071536 -0.14037915 -0.004361871 0.104300395 -0.07563787 0.039829172 -0.06543002
0.03250151 -0.012628169 -0.03309432 -0.023320409 -0.037982207 0.024189182 0.047810625 -0.10706614
0.062343784 0.11267397 0.12709619 0.03127284 -0.077984445 0.16728523 -0.009302434 0.018349115
-0.019722497 0.039011728 0.0976659 0.08937594 0.06339359 -0.06947299 -0.026717648 0.10025163
-0.06986645 0.1420986 -0.047799528 0.0058358447 0.007518973 -0.032849938 0.24679221 0.10162236
0.025619445 -0.041983776 -0.044510137 0.06869837 -0.008421959 -0.09220987 -0.051300496 0.11638094
-0.013236683 0.16464639 0.06626365 -0.00072302367 -0.0066495547 0.10968408 -0.0446389 0.090626664
-0.08100446 0.0853693 0.09952018 0.28046042 0.0677071 -0.05803613 0.060862347 0.0038064003
0.1783929 -0.036304273 0.05483034 0.07635962 -0.105167925 0.0097722905 0.116911456 0.008640377
-0.07368396 -0.11731485 -0.0010383249 0.053248197 0.0136227915 0.059077162 0.0701271 -0.076710686
0.005676302 0.016624982 -0.007955886 0.080514506 -0.082983956 -0.062878 0.02025529 -0.03823686
-0.10956716 -0.029635899 -0.032916404 -0.13170207 0.044477668 0.025268504 -0.008694568 -0.040183973
-0.08446638 0.05119768 0.040889066 0.06743917 0.06583189 -0.08120562 0.007289201 -0.11768735
0.031430904 -0.06647685 0.063826814 -0.07226693 0.06283744 0.024280686 0.090765916 -0.013161042
0.05088241 -0.06855438 -0.10764514 0.04753526 0.08772222 -0.013487823 -0.047695693 -0.02421195
0.11231267 -0.014341418 -0.098961964 0.010233181 0.030179275 0.090555124 -0.08433952 -0.06707083
0.08653712 0.02057906 -0.019347282 0.034755085 -0.14107849 0.04753226 0.10437432 -0.0045094993
-0.047001377 0.07876991 -0.05094164 0.11830681 -0.035044722 0.14183381 -0.0030622638 0.019785348
0.034255948 -0.022386802 0.10789915 0.12475023 -0.10976034 0.07771338 0.078877665 -0.009309713
0.028649623 -0.0610791 -0.10647704 -0.08803112 0.023567067 0.027522689 0.10985737 0.0788779
0.074981675 -0.07951277 0.07457748 0.045613073 0.07543439 0.04534455 0.04202405 -0.05242168
0.068065695 0.08378209 0.089873314 0.09737923 0.11357979 0.07359917 0.13379946 -0.07289004
-0.021968892 -0.03643269 0.09808092 0.03267437 -0.039382678 0.09845332 0.00390746 -0.10333837
0.10942824 0.06560813 0.016390817 0.039474923 -0.034652937 -0.06939224 -0.0030059207 -0.05313344
0.05619821 0.07726783 0.030128904 0.041867778 0.05100761 -0.033098575 -0.039323084 -0.084817834
00000000: 493b a73d 78b4 e13d ec3a 24bd f833 e53d
00000010: 5541 68bd d0a3 91bb b22e 6bbc 4d3d 693d
00000020: b7fc 25bc 3c0c 503d b2ac 523c 0980 7a3d
00000030: d6d2 dfbc 5ef8 ff3a 287e 723d b2c6 9fbc
00000040: f314 0bbd 6109 523c 2fa7 e7bd 53ee a9bd
00000050: 9ba1 11bd f4b5 33bc 08d2 9dbd 832d ba3d
00000060: 89d5 8d3d 20cb 323d d2b7 0e3e 4d05 d23d
00000070: eea8 0a3d fa84 de3c b686 aebc 0bd3 a9bd
00000080: 6b59 cebc ea14 0b3c 2764 eabd 71f5 02bd
00000090: e6ab a53d f8aa cf3d 74fd 8dbd a422 163d
000000a0: 89f1 8d3d 3941 b53d d4d3 c13d b2ee 87bd
000000b0: 2a02 553d 7bcd 12bd 6e18 a2bd e7f2 20bd
000000c0: 8018 943d 2d7a c7bd 8f92 f03d 53ed 243d
000000d0: d53b c13d 153d 15bd 470c 203c d6ce b43d
000000e0: 252b ee3d abb0 78bd 8dbf 0fbe 07ee 8ebb
000000f0: 729b d53d 07e8 9abd ea23 233d 2d00 86bd
00000100: 4e20 053d 61e6 4ebc e98d 07bd 710a bfbc
00000110: 3b93 1bbd 6428 c63c 13d5 433d 7e45 dbbd
00000120: 325c 7f3d 9cc1 e63d 8125 023e f317 003d
00000130: 4fb6 9fbd d24c 2b3e 3c69 18bc e250 963c
00000140: 1391 a1bc c3ca 1f3d 0f05 c83d bc0a b73d
00000150: 80d4 813d db47 8ebd f8de dabc ba50 cd3d
00000160: 2416 8fbd 4c82 113e 70c9 43bd 9d3a bf3b
00000170: b861 f63b a88d 06bd 19b7 7c3e 621f d03d
00000180: dfdf d13c 2ef7 2bbd 4350 36bd bbb1 8c3d
00000190: 42fc 09bc 87d8 bcbd 7820 52bd 2159 ee3d
000001a0: acde 58bc 1099 283e 3db5 873d 4c89 3dba
000001b0: 82e4 d9bb 0ca2 e03d 47d7 36bd 799a b93d
000001c0: abe5 a5bd 19d6 ae3d 3cd1 cb3d 8298 8f3e
000001d0: 05aa 8a3d 4bb7 6dbd cc4a 793d cd74 793b
000001e0: a1ac 363e cab3 14bd c795 603d 6f62 9c3d
000001f0: 4862 d7bd f51b 203c 466f ef3d 5e90 0d3c
00000200: 9ee7 96bd c542 f0bd 6718 88ba c81a 5a3d
00000210: 2132 5f3c e5fa 713d cc9e 8f3d 7e1a 9dbd
00000220: 4600 ba3b 1d31 883c 6859 02bc cae4 a43d
00000230: 7ef3 a9bd 2ec6 80bd 6cee a53c 419e 1cbd
00000240: bf64 e0bd fcc6 f2bc 5ad3 06bd e8dc 06be
00000250: 372e 363d e5ff ce3c a973 0ebc f397 24bd
00000260: b6fc acbd a9b4 513d 4b7b 273d 8c1d 8a3d
00000270: dfd2 863d 224f a6bd 40da ee3b 1106 f1bd
00000280: b1bd 003d 0425 88bd a2b7 823d af00 94bd
00000290: eab0 803d 4ae8 c63c 7be3 b93d 69a1 57bc
000002a0: 136a 503d 3d66 8cbd 0e75 dcbd 55b4 423d
000002b0: b5a7 b33d 08fc 5cbc 8f5c 43bd 2458 c6bc
000002c0: 2f04 e63d 44f8 6abc 92ac cabd 12a9 273c
000002d0: 873a f73c f774 b93d 33ba acbd 6e5c 89bd
000002e0: 603a b13d 6b95 a83c 317e 9ebc 595b 0e3d
000002f0: e176 10be 30b1 423d 34c2 d53d 6cc4 93bb
00000300: 8484 40bd 1e52 a13d 2ea8 50bd d74a f23d
00000310: 0e8b 0fbd e23c 113e 43b0 48bb e214 a23c
00000320: f74f 0c3d 8764 b7bc 3bfa dc3d 0c7d ff3d
00000330: 07ca e0bd 3128 9f3d 9d8a a13d c487 18bc
00000340: 9db2 ea3c 142e 7abd a210 dabd a949 b4bd
00000350: b90f c13c 4377 e13c e7fc e03d bd8a a13d
00000360: fe8f 993d 97d7 a2bd 14bc 983d c6d4 3a3d
00000370: 587d 9a3d 35bb 393d 6921 2c3d 1eb8 56bd
00000380: 0766 8b3d f295 ab3d 800f b83d c36e c73d
00000390: 859c e83d 29bb 963d ba02 093e 6047 95bd
000003a0: 1bf8 b3bc 723a 15bd a6de c83d 8fd5 053d
000003b0: bb4f 21bd e5a1 c93d 260a 803b 11a3 d3bd
000003c0: ea1b e03d 8e5d 863d 0946 863c 75b0 213d
000003d0: 3df0 0dbd 851d 8ebd fbfe 44bb 73a2 59bd
000003e0: 1830 663d 993e 9e3d e4d0 f63c 8c7d 2b3d
000003f0: 5bed 503d 5f92 07bd 3e11 21bd f9b4 adbd

head.0.weight f4 [32, 64]
0.0021158385 0.10598176 0.013854765 -0.014550022 0.09702287 0.123782836 -0.08598589 0.13249297
0.14179151 -0.07260543 0.0260967 0.13227691 0.011475015 -0.1354697 0.0306974 -0.08745205
0.16320297 -0.1356113 0.04992657 0.08787249 -0.05129323 -0.032914124 -0.025514001 -0.07334718
-0.030788006 -0.07202408 0.010818154 -0.04698167 -0.0085031185 -0.042945378 -0.12390568 -0.07974397
0.021907587 0.057358805 0.036245305 0.036491744 -0.10677901 0.0580871 -0.10878553 0.15743554
-0.010749761 -0.13752526 -0.15007803 0.022298861 0.13102975 0.23383218 -0.06496079 -0.061392233
-0.015758097 0.16766183 -0.05938298 -0.050109234 -0.002433619 -0.0023999806 0.027985724 0.045669507
-0.1547668 0.08622983 -0.12021529 0.10815217 -0.097189724 0.012166334 -0.054983508 -0.05799476
-0.07889918 -0.18700327 -0.15135449 0.014901035 -0.13531326 -0.17370175 0.045919545 -0.19374247
0.02784911 0.12999469 0.013015994 0.022717668 0.043743413 0.16976029 -0.13251485 0.06145668
-0.19481978 0.18783167 -0.1660326 0.1244255 -0.1854812 0.16797012 -0.031409204 -0.035424877
-0.023909165 -0.1271024 -0.11261765 -0.16454165 -0.039082233 -0.053572893 -0.033517756 0.15691504
-0.025975151 0.10618436 0.15337007 -0.04219267 0.05304798 -0.1986166 0.12832363 -0.11370239
-0.031084076 0.010605832 0.10226601 -0.047957763 -0.005623537 -0.021263013 -0.1230284 0.03203001
0.0056450553 -0.10990746 0.18673284 -0.13637857 0.032865286 -0.1040205 -0.05535621 0.054967675
-0.031254362 0.13220543 0.10997211 -0.17741323 0.06454037 0.08569989 -0.208585 0.11794619
0.09908624 0.05503164 -0.057133425 -0.012227897 0.024529567 -0.007160766 -0.042772926 0.03174694
0.0075077103 -0.06490445 -0.0011149147 0.11322318 0.08559138 -0.13470879 0.014818565 -0.027668817
0.15102723 -0.067250095 0.10486597 0.004176109 -0.085220866 -0.037553754 0.13595182 0.049653985
-0.066728495 0.11596521 0.053768303 0.03525765 -0.08476052 -0.026066849 -0.058302734 -0.007043399
-0.05420009 -0.085574254 -0.08416736 0.005676497 -0.032517284 0.08835274 0.040293284 0.071951896
0.019018926 -0.051078044 -0.01951332 0.06927369 0.07868249 0.14038435 -0.0057754084 0.08702264
0.05684467 0.05248955 -0.08866604 -0.048493806 -0.035264667 0.08590821 0.035707455 -0.04369795
-0.11744912 -0.021334559 -0.032995004 0.07839422 -0.120274186 0.016203744 0.042294733 -0.09286058
-0.15103081 -0.08227192 -0.17330605 0.11649276 -0.15296438 -0.13502619 0.12471104 -0.0017618544
-0.14684233 0.16738816 0.16302799 -0.15349041 -0.12115391 0.1597052 -0.019810418 0.094181016
-0.13233986 0.06485532 -0.03081044 0.029590163 -0.12579997 0.17920454 -0.09131311 0.061665002
-0.1036386 -0.022898257 -0.17453341 -0.14348894 0.07384074 0.05443984 0.012135255 0.023240237
0.07253635 0.17475128 0.07156835 -0.033975497 -0.0027251127 -0.1316968 0.0505919 -0.05959727
0.020556629 -0.0029633462 -0.016486108 -0.18278114 0.020053849 -0.12663314 -0.046101302 -0.07917454
0.10544916 -0.13003652 0.014550123 -0.06410086 0.0049547222 -0.17179348 -0.030089913 0.07245565
-0.10815555 0.08683106 0.10609692 -0.0582818 0.15719405 0.06824189 -0.016556263 -0.016970918
00000000: e1a9 0a3b f70c d93d 19ff 623c 3763 6ebc
00000010: edb3 c63d db81 fd3d 5f19 b0bd 3dac 073e
00000020: cb31 113e 28b2 94bd bfc8 d53c 9973 073e
00000030: b401 3c3c 92b8 0abe 1d79 fb3c 0f1a b3bd
00000040: ae1e 273e b0dd 0abe ce7f 4c3d 7ef6 b33d
00000050: da18 52bd f6d0 06bd bd02 d1bc 0c37 96bd
00000060: 2137 fcbc 5c81 93bd a03e 313c da6f 40bd
00000070: aa50 0bbc 7ee7 2fbd 43c2 fdbd ce50 a3bd
00000080: 8a77 b33c 11f1 6a3d f575 143d 5e78 153d
00000090: f4ae dabd bdec 6d3d f3ca debd c836 213e
000000a0: c41f 30bc 6cd3 0cbe 0eae 19be 1aac b63c
000000b0: aa2c 063e b471 6f3e 2a0a 85bd 6c76 7bbd
000000c0: 2017 81bc 8baf 2b3e 913b 73bd 573f 4dbd
000000d0: 5a7d 1fbb fe48 1dbb 5142 e53c f30f 3b3d
000000e0: 307b 1ebe 4499 b03d 6f33 f6bd e37e dd3d
000000f0: 680b c7bd 4e55 473c 6336 61bd ea8b 6dbd
00000100: e595 a1bd c97d 3fbe acfc 1abe 7923 743c
00000110: 8f8f 0abe dfde 31be 2216 3c3d 6d64 46be
00000120: d123 e43c 541d 053e 0941 553c 671a ba3c
00000130: 4b2c 333d a4d5 2d3e f9b1 07be 00ba 7b3d
00000140: d67e 47be f256 403e 7304 2abe ccd2 fe3d
00000150: c9ee 3dbe 5c00 2c3e f0a6 00bd ad19 11bd
00000160: 27dd c3bc 2227 02be 15a4 e6bd 9b7d 28be
00000170: b114 20bd 406f 5bbd ea49 09bd 56ae 203e
00000180: d7c9 d4bc 3077 d93d 0b0d 1d3e 39d2 2cbd
00000190: d748 593d 2662 4bbe 4567 033e ccdc e8bd
000001a0: 08a4 febc 15c4 2d3c d870 d13d 5c6f 44bd
000001b0: a645 b8bb c52f aebc 50f6 fbbd e631 033d
000001c0: 28fa b83b 2a17 e1bd e536 3f3e d3a6 0bbe
000001d0: c09d 063d b308 d5bd 31bd 62bd c925 613d
000001e0: 9304 00bd dc60 073e 0f39 e13d d0ab 35be
000001f0: be2d 843d 6d83 af3d 4e97 55be c68d f13d
00000200: baed ca3d db68 613d bd04 6abd 8457 48bc
00000210: 3bf2 c83c dca4 eabb aa32 2fbd 1409 023d
00000220: 3d03 f63b a0ec 84bd 5422 92ba 8ee1 e73d
00000230: 894a af3d 1af1 09be 91c9 723c b7a9 e2bc
00000240: e2a6 1a3e 6bba 89bd f8c3 d63d bed7 883b
00000250: 4788 aebd f7d1 19bd f436 0b3e fa61 4b3d
00000260: f3a8 88bd 2b7f ed3d 273c 5c3d 536a 103d
00000270: ec96 adbd 258a d5bc d9ce 6ebd 50cc e6bb
00000280: ea00 5ebd 8e41 afbd f05f acbd e801 ba3b
00000290: d830 05bd 48f2 b43d 920a 253d 845b 933d
000002a0: 94cd 9b3c 3637 51bd 66da 9fbc 5ddf 8d3d
000002b0: 4924 a13d eac0 0f3e a33f bdbb ed38 b23d
000002c0: f5d5 683d 48ff 563d 8a96 b5bd 71a1 46bd
000002d0: af71 10bd a5f0 af3d fb41 123d 9ffc 32bd
000002e0: 2a89 f0bd d0c5 aebc c525 07bd 268d a03d
000002f0: 5052 f6bd b7bd 843c 3e3d 2d3d b02d bebd
00000300: d2a7 1abe 2e7e a8bd 2477 31be c293 ee3d
00000310: b2a2 1cbe 4e44 0abe 8068 ff3d 06ee e6ba
00000320: d65d 16be cd67 2b3e cff0 263e 972c 1dbe
00000330: 8b1f f8bd c389 233e 7549 a2bc fae1 c03d
00000340: 1a84 07be ded2 843d 2d66 fcbc 1267 f23c
00000350: b5d1 00be 6581 373e 5e02 bbbd 7194 7c3d
00000360: 7940 d4bd 2095 bbbc e3b8 32be c4ee 12be
00000370: d039 973d 4ffc 5e3d f3d2 463c 4f62 be3c
00000380: f08d 943d 00f2 323e 6d92 923d e429 0bbd
00000390: ce97 32bb 87db 06be 7439 4f3d 441c 74bd
000003a0: 6066 a83c b334 42bb e00d 87bc fb2a 3bbe
000003b0: f847 a43c 1eac 01be b8d4 3cbd 4326 a2bd
000003c0: bbf5 d73d 4b28 05be a463 6e3c 5047 83bd
000003d0: 395b a23b a1ea 2fbe 1f7f f6bc a163 943d
000003e0: a880 ddbd 7cd4 b13d 5849 d93d e6b8 6ebd
000003f0: 7af7 203e 67c2 8b3d 00a1 87bc 9806 8bbc

head.0.bias f4 [32]
0.094383754 0.10344934 -0.0075070225 0.022137087 -0.05808085 -0.00040737414 -0.0109560825 0.010018326
-0.00051968667 -2.003975e-11 -0.01067788 0.09092752 -0.018239468 0.06472447 -0.0338052 0.04325223
0.012878701 0.06281903 0.112557344 -0.0056604054 0.03964401 -0.014012517 0.04289297 0.036961958
0.058193475 -0.02481159 0.059998665 -0.009821464 0.049579147 0.01591552 0.07985878 0.019398974
00000000: 454c c13d 3fdd d33d 78fd f5bb d658 b53c
00000010: 2fe6 6dbd d594 d5b9 2481 33bc e823 243c
00000020: 953b 08ba 8145 b0ad 46f2 2ebc 3538 ba3d
00000030: f06a 95bc 438e 843d 5277 0abd 4029 313d
00000040: 3001 533c 43a7 803d 7784 e63d ec7a b9bb
00000050: c261 223d c294 65bc 8ab0 2f3d 6c65 173d
00000060: 485c 6e3d ad41 cbbc 29c1 753d 35ea 20bc
00000070: 8113 4b3d 4461 823c 008d a33d 99ea 9e3c

head.3.weight f4 [1, 32]
-0.11646543 0.089906245 -0.12873939 0.13610871 -0.007864273 0.0036893187 -1.9512303e-05 -0.116627745
0.10981164 -1.8890804e-36 0.203594 -0.08333548 0.15025035 0.11279051 -0.0032485283 0.11009542
-0.10257909 -0.16085935 0.08981791 1.8102245e-27 -0.1528584 0.1699288 -0.14166127 0.14774978
0.11228106 0.15778384 -0.12359474 -0.12259144 0.21121754 -0.15613157 0.19775318 0.12001511
00000000: 6d85 eebd c420 b83d 42d4 03be 1560 0b3e
00000010: 27d9 00bc 7fc8 713b 5aae a3b7 87da eebd
00000020: ede4 e03d 87b4 2084 f27a 503e cbab aabd
00000030: 3adb 193e b6fe e63d 43e5 54bb b579 e13d
00000040: fc14 d2bd 50b8 24be 74f2 b73d b76b 0f13
00000050: ea86 1cbe d101 2e3e a70f 11be b84b 173e
00000060: 9df3 e53d 1692 213e 3d1f fdbd 3911 fbbd
00000070: 6949 583e f4e0 1fbe cf7f 4a3e 7bca f53d
