outputs/models/model_cvp.pth (torch, 36195 bytes, 12 tensors)

lstm.weight_ih_l0 f4 [128, 6]
0.08310785 -4.6145643e-09 1.0598784e-06 -0.0043970305 -0.0009845167 0.07841925 0.047192838 1.433016e-05
-6.934134e-07 -0.00923541 -0.013300722 0.023925785 0.07609052 0.0001548095 0.009204643 -0.014369697
7.5776874e-10 -0.007998722 -0.076071285 -0.0046852008 1.3553684e-07 3.2763886e-08 -3.1630538e-08 0.035318784
0.089386575 -8.936779e-08 2.9305555e-08 -0.015212348 -0.017582046 0.041106377 0.16757533 7.981201e-10
-2.807815e-06 -6.9947674e-08 -0.00052457326 0.12594192 -0.0073675914 -0.005985445 -0.004703478 0.010452732
-0.00028612773 0.0037607092 -0.019730613 1.8998391e-07 -0.0011766793 5.277647e-06 -2.6407648e-05 0.0050342237
-0.120164126 7.546401e-08 2.3627385e-06 -0.014192521 -2.465529e-07 0.03362781 0.029588697 -5.149626e-08
0.0047598733 -0.011163037 3.2230667e-09 0.09393087 -0.02311164 0.0007797508 0.0030065507 4.3704024e-08
0.0004352401 -0.03882583 -0.048157886 0.00022007873 0.01478845 -0.0068143 0.002441172 0.00048622713
0.05683941 -0.0046709473 0.016904622 -1.1428873e-06 1.9917369e-08 0.057970468 -0.07545699 -1.7291356e-07
2.8834359e-07 0.012228102 3.428555e-08 0.049538177 0.009954259 7.907643e-08 1.0327193e-07 -0.0005480099
-0.0122192465 -0.0007893114 0.013099971 -0.00043163085 2.136751e-06 7.1176935e-08 -0.0062321476 -0.00500155
0.050722823 -1.7400279e-07 -0.00046907662 0.01612515 -3.024897e-06 -0.03022059 -0.10399436 0.016505115
9.926e-08 2.8331687e-07 -0.00091982994 -0.10825815 -0.037130695 0.007605809 1.4038656e-08 -9.599503e-08
-5.7349006e-09 -0.04615295 -0.026470479 1.2277844e-06 1.5694612e-09 -1.6831791e-07 -4.864745e-08 -0.007228533
-0.002698386 -6.668202e-08 1.136258e-07 -6.0967142e-09 -6.4635185e-07 -0.035987966 -0.040005136 0.00047552644
-0.00010636542 -3.1099916e-08 1.2121623e-08 -0.045428306 0.05968894 1.3554577e-06 0.0035737571 0.016894089
-7.151466e-08 -0.050085876 0.015636377 -0.018832868 -3.8738553e-06 0.00016607133 -2.8226893e-06 -0.006622524
0.011409012 -6.709601e-05 -0.01643915 7.3692235e-07 1.5619424e-08 0.01282332 0.004547715 0.016776672
-0.0071018008 -1.5541661e-09 -0.015248853 -0.038341947 -0.060498245 -6.254959e-08 -4.2615245e-08 8.3722145e-05
0.0009097437 -0.031889774 -0.04304816 -3.2440134e-06 -1.509827e-08 -0.0038141059 0.004233265 0.062500544
0.00047238075 1.9649683e-08 0.003201364 -3.494035e-08 -5.0952747e-07 0.046731357 0.0015914139 1.18309536e-07
-3.485251e-06 1.26323e-06 1.3720171e-06 -0.0026320142 0.056368798 -5.250477e-07 -0.0014237865 0.0049389806
-1.6836008e-08 -0.00088299235 -0.01413414 -0.019105397 1.2710902e-06 0.002277306 0.0035439392 -0.017330712
-0.026715966 -3.825127e-09 -0.00040810314 3.9397167e-07 2.9036283e-07 -0.058083385 0.00665136 -3.6877316e-06
-6.9738658e-06 -1.2618443e-06 -0.010728703 0.015156111 0.034635827 3.2002458e-07 4.789337e-07 -6.499119e-08
1.4367644e-07 0.03699038 0.00027618624 0.01898508 0.00041842833 -1.1204947e-06 -0.006057386 0.048017748
-0.019996757 -0.007051012 -0.0001792006 4.715526e-07 0.009609354 -0.028691478 0.13207036 -1.117997e-07
-5.1531483e-06 8.910994e-07 -7.967073e-08 0.101785846 -0.04150788 4.439302e-08 -1.265547e-06 0.019434026
-1.2309287e-09 -0.03647647 7.317231e-05 -9.696526e-05 0.0002774008 -0.01883381 1.1484021e-06 -0.0053473995
0.024910508 0.010512043 0.016196031 6.951978e-06 1.9422612e-07 -0.04306179 -0.034204092 0.00013020045
-0.012861315 1.3269732e-06 0.012469464 0.09259721 -0.01657538 5.319456e-07 4.5239557e-07 -5.2528964e-07
00000000: 7334 aa3d 238e 9eb1 2541 8e35 f714 90bb
00000010: e60a 81ba 469a a03d 474d 413d 926b 7037
00000020: 0223 3ab5 1e50 17bc 46eb 59bc 0200 c43c
00000030: 59d5 9b3d 5c54 2239 12cf 163c e16e 6bbc
00000040: 3c4b 5030 120d 03bc 43cb 9bbd 5086 99bb
00000050: 1588 1134 46b8 0c33 25da 07b3 6eaa 103d
00000060: 4f10 b73d 76ea bfb3 99bb fb32 363d 79bc
00000070: 3908 90bc 295f 283d de98 2b3e b662 5b30
00000080: e56d 3cb6 2436 96b3 8483 09ba ebf6 003e
00000090: d66b f1bb 8d21 c4bb a21f 9abb f041 2b3c
000000a0: 6a03 96b9 3b76 763b 18a2 a1bc 61fe 4b34
000000b0: ce3a 9aba a416 b136 fe85 ddb7 21f6 a43b
000000c0: 9c18 f6bd c70e a233 8a8f 1e36 bf87 68bc
000000d0: f95d 84b4 51bd 093d ff63 f23c bd2c 5db3
000000e0: b6f8 9b3b 2ce5 36bc ca7c 5d31 d45e c03d
000000f0: 9f54 bdbc 3168 4c3a 8d09 453b 15b5 3b33
00000100: f030 e439 d507 1fbd 3441 45bd efc4 6639
00000110: 414b 723c 7e4a dfbb 12fc 1f3b 4dec fe39
00000120: 71d0 683d bf0e 99bb 907b 8a3c 4f65 99b5
00000130: c216 ab32 7172 6d3d 3289 9abd 1eaa 39b4
00000140: a4cd 9a34 6158 483c 5c41 1333 8be8 4a3d
00000150: 3017 233c bad0 a933 58c6 dd33 52a8 0fba
00000160: 3c33 48bc cbe9 4eba 43a1 563c 834c e2b9
00000170: 1a65 0f36 efd9 9833 0b37 ccbb 0be4 a3bb
00000180: bcc2 4f3d 86d5 3ab4 66ee f5b9 e418 843c
00000190: 56ff 4ab6 2c91 f7bc fffa d4bd bc35 873c
000001a0: c328 d533 c61a 9834 be20 71ba 73b6 ddbd
000001b0: 5b16 18bd 263a f93b a92e 7132 d325 ceb3
000001c0: b80c c5b1 e00a 3dbd 9ed8 d8bc 5aca a435
000001d0: 82b4 d730 e0ba 34b4 70f0 50b3 54dd ecbb
000001e0: 68d7 30bb d432 8fb3 7202 f433 447b d1b1
000001f0: f680 2db5 1e68 13bd 6ddc 23bd 1450 f939
00000200: 8010 dfb8 b892 05b3 763f 5032 0813 3abd
00000210: 647c 743d 2ced b535 b235 6a3b 7965 8a3c
00000220: 9a93 99b3 d926 4dbd dc17 803c 6347 9abc
00000230: 2afc 81b6 6f23 2e39 6f6d 3db6 c201 d9bb
00000240: ddec 3a3c e5b5 8cb8 65ab 86bc ebd0 4535
00000250: 7a2b 8632 e718 523c 0005 953b 3b6f 893c
00000260: 39b6 e8bb 5c9a d5b0 53d6 79bc 720c 1dbd
00000270: 02cd 77bd 0053 86b3 f507 37b3 fc93 af38
00000280: de7b 6e3a da9e 02bd 4453 30bd bab3 59b6
00000290: 72b1 81b2 14f6 79bb 33b7 8a3b 4900 803d
000002a0: dfa9 f739 1cca a832 facd 513b 5211 16b3
000002b0: 76c6 08b5 6169 3f3d fd96 d03a 5b11 fe33
000002c0: 28e4 69b6 418c a935 2626 b835 df7d 2cbb
000002d0: f8e2 663d 01f1 0cb5 599e baba 2cd7 a13b
000002e0: c69e 90b2 9d78 67ba e192 67bc ec82 9cbc
000002f0: 549a aa35 db3e 153b 6f41 683b 23f9 8dbc
00000300: 71db dabc 2c6e 83b1 adf6 d5b9 0e83 d334
00000310: 2ae3 9b34 d8e8 6dbd a7f3 d93b bf7a 77b6
00000320: 0d01 eab6 a45c a9b5 71c7 2fbc 5651 783c
00000330: 4cde 0d3d d8cf ab34 1390 0035 4991 8bb3
00000340: 7b45 1a34 3a83 173d 17cd 9039 9986 9b3c
00000350: 8060 db39 e863 96b5 097d c6bb 42ae 443d
00000360: 3dd0 a3bc 2d0c e7bb cbe7 3bb9 b229 fd34
00000370: 8d70 1d3c 640a ebbc 743d 073e 8916 f0b3
00000380: 35e9 acb6 e233 6f35 7217 abb3 1975 d03d
00000390: 2b04 2abd a4aa 3e33 dddb a9b5 1b34 9f3c
000003a0: 742d a9b0 5a68 15bd 1674 9938 d459 cbb8
000003b0: 1b70 9139 5d49 9abc cc22 9a35 3d39 afbb
000003c0: 1f11 cc3c b43a 2c3c 8aad 843c 0945 e936
000003d0: 788c 5034 8f61 30bd 9719 0cbd 6b86 0839
000003e0: 44b8 52bc 741a b235 b94c 4c3c 9ba3 bd3d
000003f0: 17c9 87bc 06cb 0e35 c6e0 f234 a101 0db5

lstm.weight_hh_l0 f4 [128, 32]
0.03702606 -0.00010665024 -9.2280905e-05 -0.03507723 -0.009665311 -0.01539876 -0.007575614 0.00054507836
-0.024392365 -0.003966192 0.042592153 -5.2916206e-05 0.013113314 0.019598829 0.03969496 -0.047641825
-0.025244545 -0.00021671253 -0.00885668 -0.016667757 4.899918e-05 0.001663275 0.00018980364 0.0008783931
-0.020128181 4.3851646e-06 0.009654638 0.00034704624 0.0014239899 4.388438e-05 0.010523737 -0.0015599028
-0.0017094649 -0.00410835 -0.018315181 -0.029599015 0.02035933 0.005266747 -0.00010900057 -0.00010808195
-5.9675305e-05 -0.00018044644 -0.006916396 0.0028956705 -0.0052768285 -0.004391165 -0.0023290336 0.0017583895
0.00018982563 0.0051814932 -0.0011464619 -0.011003995 2.3895682e-05 0.00038283598 0.006963465 4.486482e-05
8.575075e-05 -3.245175e-05 0.0043373452 0.030757425 9.652111e-05 -0.0024456095 -0.00014260956 0.0022479915
0.0013231878 -0.004840447 0.0148755 -0.005505897 0.018133722 -0.02026752 0.008081267 7.681137e-06
-1.1736018e-05 0.0013691142 0.050465655 1.1205637e-05 2.139111e-05 2.0400577e-05 -0.0038783532 0.0029370037
-1.6393898e-05 -0.0033718864 -0.008171026 0.0068456014 -2.3296027e-06 -1.33658505e-05 -2.1888673e-06 0.009100151
1.3498369e-05 4.1972207e-06 -0.0019629889 -0.008978162 4.5923607e-06 0.0006974528 0.00065616757 6.9076173e-06
0.033799022 -0.0013189899 -0.0013255975 -0.051617097 -0.016269188 0.009599956 0.013741478 -0.0005896677
-0.0013257911 -0.0006599598 0.098616086 0.0013751279 3.6301033e-06 -0.0011436229 0.07388398 0.0006328612
0.018472854 4.7955284e-05 0.0061778533 -0.012097112 -0.0012152831 -0.0033775303 -0.00067878555 -0.026314419
0.0030509906 -2.010599e-05 0.0004741083 0.033357605 -0.0032734307 0.043226734 -0.0061606085 -0.0035741874
0.006474692 0.014448533 0.00018195783 -0.0004795371 0.009991994 -0.011363039 -0.0020870583 -0.014304268
-0.0039912807 0.00025885052 -0.0012638104 3.919992e-05 -0.0024447558 3.9888473e-05 0.0051605003 -5.7149073e-06
-4.2663054e-05 0.00014733282 -0.002842339 0.008170314 0.004933301 -0.009098101 0.012719561 0.021489365
-0.024844864 0.004829795 -0.00972656 -0.0003941276 -0.0062941266 0.013513639 0.00024367712 -0.0005765764
-0.07918997 0.01014014 -0.017911045 -0.059490606 -0.00045704562 -0.017934583 -0.04877384 -0.038960673
0.0001769806 0.021616856 -0.010002952 0.020043775 1.9041752e-05 -0.012361712 -0.0026557208 -0.040426273
0.010294074 0.013715485 -0.0008151197 0.050281875 -2.145194e-06 -0.0019139424 2.0690852e-05 0.00042973802
0.01531692 -0.004000297 0.011302322 -0.004742026 -0.00080526294 0.017165381 -0.00014884844 -0.033966135
-0.065008536 0.022998033 0.00073600037 0.03757944 -0.0014267847 0.002468513 0.069109544 0.030777812
0.0014473489 -0.03371674 0.045968834 0.0018166673 -0.004304538 0.0019511011 0.08356978 -0.045370117
-0.02378166 -0.005267125 -0.0064983177 0.002545493 -9.2673756e-05 -0.024424503 -0.0034335053 -0.025102984
-0.0035714023 -0.0034219061 0.0029288875 -0.010407785 0.008699833 -0.055707753 -0.0072958656 0.010025147
0.023094853 -0.00045428865 -3.7073833e-06 -0.0017344238 9.862569e-05 -0.010828303 0.001209296 0.012127598
-0.0001825803 -0.009469633 -0.0032163905 -0.00015576107 0.001920005 -0.000421892 -0.012998968 -0.00021692381
0.00043423072 -0.0010108054 0.011447921 0.0011144594 5.4907585e-05 0.00064537255 -0.00011772503 0.00012951426
0.0004760804 -3.8176608e-05 0.00011119972 0.0006035364 0.0058978368 0.0012976447 -0.0014717524 -8.797335e-05
00000000: a3a8 173d 69a9 dfb8 ef86 c1b8 24ad 0fbd
00000010: 415b 1ebc 154b 7cbc db3c f8bb 97e3 0e3a
00000020: 7fd2 c7bc d4f6 81bb 1c75 2e3d 58f2 5db8
00000030: 3ad9 563c b98d a03c 2f97 223d 1324 43bd
00000040: a6cd cebc 543d 63b9 9c1b 11bc d28a 88bc
00000050: 7884 4d38 3f02 da3a 0706 4739 f743 663a
00000060: dbe3 a4bc 4724 9336 7d2e 1e3c c2f3 b539
00000070: 2ca5 ba3a 7f10 3838 c16b 2c3c a775 ccba
00000080: 2010 e0ba 569f 86bb b809 96bc a279 f2bc
00000090: 9cc8 a63c ad94 ac3b 3c97 e4b8 0eaa e2b8
000000a0: df4b 7ab8 3936 3db9 efa2 e2bb 4ac5 3d3b
000000b0: 3fe9 acbb c3e3 8fbb b3a2 18bb c379 e63a
000000c0: ee0b 4739 84c9 a93b e144 96ba 1a4a 34bc
000000d0: 9673 c837 60b7 c839 c72d e43b 3c2d 3c38
000000e0: 15d5 b338 cd1c 08b8 4a20 8e3b fff6 fb3c
000000f0: 606b ca38 8546 20bb 7689 15b9 0a53 133b
00000100: d16e ad3a 9d9c 9ebb 5fb8 733c d06a b4bb
00000110: 2c8d 943c 1208 a6bc 4a67 043c 3bde 0037
00000120: d0e5 44b7 d973 b33a 13b5 4e3d d8ff 3b37
00000130: 0f71 b337 e821 ab37 f82b 7ebb bf7a 403b
00000140: a185 89b7 defa 5cbb c4df 05bc 1151 e03b
00000150: 4556 1cb6 e43d 60b7 74e4 12b6 cd18 153c
00000160: 0e77 6237 dad5 8c36 7da5 00bb 2419 13bc
00000170: 1418 9a36 44d5 363a a902 2c3a fbc7 e736
00000180: d870 0a3d f5e1 acba acbf adba 736c 53bd
00000190: f646 85bc 2249 1d3c f023 613c ee93 1aba
000001a0: 2bc6 adba 2701 2dba 3bf7 c93d a33d b43a
000001b0: b39c 7336 9ee5 95ba 7c50 973d 99e6 253a
000001c0: 6254 973c 9823 4938 976f ca3b f732 46bc
000001d0: 224a 9fba 8e59 5dbb 87f0 31ba 5691 d7bc
000001e0: 21f3 473b 49a9 a8b7 bd91 f839 fca1 083d
000001f0: 0e87 56bb 840e 313d eede c9bb ea3c 6abb
00000200: a729 d43b 8ab9 6c3c efcb 3e39 616a fbb9
00000210: 76b5 233c 0a2c 3abc 07c7 08bb 735c 6abc
00000220: 4ac9 82bb 54b6 8739 71a6 a5ba 986a 2438
00000230: 3238 20bb ec4d 2738 6a19 a93b aec2 bfb6
00000240: 1bf1 32b8 5a7d 1a39 8946 3abb c8dc 053c
00000250: 87a7 a13b 3410 15bc b565 503c 770a b03c
00000260: 7587 cbbc 4243 9e3b 265c 1fbc e9a2 ceb9
00000270: f63e cebb 4f68 5d3c 9483 7f39 6325 17ba
00000280: 5a2e a2bd d422 263c 2fba 92bc 6cac 73bd
00000290: a09f efb9 8ceb 92bc 14c7 47bd 3a95 1fbd
000002a0: de93 3939 d515 b13c 6ce3 23bc d832 a43c
000002b0: dabb 9f37 c788 4abc 9a0b 2ebb 0596 25bd
000002c0: 7aa8 283c eab6 603c c2ad 55ba 5ef4 4d3d
000002d0: 27f6 0fb6 40dd faba 4491 ad37 764e e139
000002e0: d2f3 7a3c ec14 83bb 602d 393c ff62 9bbb
000002f0: 4818 53ba 6a9e 8c3c 3314 1cb9 1320 0bbd
00000300: 3223 85bd 5f66 bc3c 26f0 403a e6ec 193d
00000310: f302 bbba c7c6 213b 4e89 8d3d c021 fc3c
00000320: f8b4 bd3a 901a 0abd d149 3c3d 3d1d ee3a
00000330: 150d 8dbb 17bc ff3a a226 ab3d 04d6 39bd
00000340: c1d1 c2bc d997 acbb d7ef d4bb 49d2 263b
00000350: d859 c2b8 e515 c8bc a904 61bb c6a4 cdbc
00000360: 300e 6abb 0f42 60bb 94f2 3f3b 6a85 2abc
00000370: bf89 0e3c d02d 64bd 2812 efbb 8440 243c
00000380: 6b31 bd3c 972d eeb9 5ccc 78b6 9b55 e3ba
00000390: 44d5 ce38 3269 31bc 3e81 9e3a d5b2 463c
000003a0: 0773 3fb9 8526 1bbc 14ca 52bb cb53 23b9
000003b0: ada8 fb3a 6331 ddb9 a0f9 54bc 0b76 63b9
000003c0: 76a9 e339 007d 84ba 1090 3b3c 0d13 923a
000003d0: 924c 6638 382e 293a 25e3 f6b8 38ce 0739
000003e0: 6e9a f939 d21f 20b8 e533 e938 a436 1e3a
000003f0: a442 c13b bb15 aa3a d1e7 c0ba 557e b8b8

lstm.bias_ih_l0 f4 [128]
0.004882331 0.10318278 0.009185679 -0.0007818556 0.009023683 -0.047564764 -0.030042829 -0.086333185
0.043759923 0.0005294352 0.16107503 0.08058673 0.0013263144 0.082191184 -0.11889762 0.0102684805
0.07414351 0.035476636 0.11970395 0.06648472 -0.0132312495 -0.0075430484 0.059221633 0.0011057366
0.07145245 0.015425369 -0.028084313 -0.06649405 0.0013267114 -0.058090568 -0.003908756 0.034400646
-0.08736714 -0.13307324 -0.013612825 -0.12097403 0.012197895 -0.02497326 0.06664906 -0.012343261
-0.04345344 -0.0030962618 0.18935923 0.08632783 0.0011590106 0.08806156 0.18351373 -0.13507654
-0.023557771 -0.05927365 -0.12670444 0.010992203 0.0068519944 0.052525945 0.016526408 -0.07176308
-0.04449202 0.000653245 0.023173532 0.12709096 0.0060034525 -0.15898597 0.09569266 -0.043981235
0.14508826 -0.04741004 -0.019588565 -0.16078684 -0.030131023 0.060243547 0.11978787 0.08437005
-0.0859754 -0.16485555 0.15052462 -0.15295294 0.120157585 -0.00789167 0.08451178 -0.18666045
-0.03460909 -0.03707972 0.09653893 0.08427928 -0.13412808 0.06196556 -0.10243703 0.03997487
-0.075544156 -0.058343742 -0.0026857988 -0.081309 0.120520964 0.13378792 0.06324194 -0.12568226
-0.007880563 -0.024661005 0.076595075 0.06657575 -0.0032111062 0.033280283 -0.07368648 0.06755673
0.043395057 0.06444224 0.04468087 -0.01046778 -0.045709237 0.04143438 -0.022760184 -0.11134595
-0.050331064 0.010701601 -0.00392396 0.08779428 -0.02833383 0.0014204215 -0.03689932 0.02175854
0.043379616 -0.1138487 -0.01117921 0.08080014 0.000542634 0.08077296 -0.12245042 -0.035400137
00000000: f6fb 9f3b 7e51 d33d 887f 163c 71f5 4cba
00000010: 12d8 133c 45d3 42bd 611c f6bc 74cf b0bd
00000020: 9b3d 333d cbc9 0a3a daf0 243e a80a a53d
00000030: bad7 ad3a da53 a83d 9880 f3bd 213d 283c
00000040: 8dd8 973d f34f 113d 5827 f53d 2429 883d
00000050: e2c7 58bc ad2b f7bb 6292 723d 5dee 903a
00000060: a955 923d b0ba 7c3c 1311 e6bc 082e 88bd
00000070: 0ce5 ad3a 60f0 6dbd 0615 80bb b1e7 0c3d
00000080: 8bed b2bd 5a44 08be 5408 5fbc 3bc1 f7bd
00000090: aed9 473c b994 ccbc 4d7f 883d 643b 4abc
000000a0: 3cfc 31bd a7ea 4abb 63e7 413e a5cc b03d
000000b0: f1e9 973a 9f59 b43d 06eb 3b3e 8151 0abe
000000c0: 3afc c0bc edc8 72bd cfbe 01be a418 343c
000000d0: b286 e03b 7225 573d 6462 873c 86f8 92bd
000000e0: 443d 36bd 883e 2b3a 6bd6 bd3c 2224 023e
000000f0: 9cb8 c43b 38cd 22be 83fa c33d ab25 34bd
00000100: 0492 143e 0831 42bd 3378 a0bc 4ea5 24be
00000110: 56d5 f6bc f0c1 763d 5853 f53d 34ca ac3d
00000120: df13 b0bd e5cf 28be 2023 1a3e b29f 1cbe
00000130: 2e15 f63d 104c 01bc 8314 ad3d eb23 3fbe
00000140: 43c2 0dbd e8e0 17bd 34b6 c53d 9d9a ac3d
00000150: df58 09be 99cf 7d3d 81ca d1bd b0bc 233d
00000160: e5b6 9abd d9f9 6ebd 3a04 30bb 5585 a6bd
00000170: b2d3 f63d b3ff 083e fe84 813d dab2 00be
00000180: 7a1d 01bc e005 cabc e1dd 9c3d de58 883d
00000190: 6c71 52bb e850 083d f0e8 96bd 2f5b 8a3d
000001a0: 04bf 313d 4bfa 833d 4a03 373d 0d81 2bbc
000001b0: 9c39 3bbd 19b7 293d 9173 babc 5809 e4bd
000001c0: f227 4ebd c555 2f3c 9094 80bb 7dcd b33d
000001d0: 591c e8bc 702d ba3a be23 17bd f73e b23c
000001e0: d3ae 313d 8229 e9bd 0129 37bc 8b7a a53d
000001f0: 8d3f 0e3a 4b6c a53d 49c7 fabd bcff 10bd

lstm.bias_hh_l0 f4 [128]
0.041107852 0.063099414 0.008032547 0.08409463 -0.090777256 -0.113722146 -0.089095466 -0.03559627
0.081966415 -0.15258273 -0.028405245 0.06909841 0.039004486 0.041195348 0.13341086 0.00019805935
0.1008508 -0.04414818 -0.1280798 -0.15377323 -0.0337348 0.0213857 -0.031509325 -0.02991678
0.05400804 -0.048644774 0.039791357 0.07904558 -0.007991879 -0.07702888 0.13920537 -0.01805952
0.0123259835 -0.11779291 -0.11588531 0.12646906 -0.03690903 0.11430654 -0.08167229 0.084360026
0.038172346 0.085961476 0.15925285 0.050577268 -0.040393688 -0.0335363 0.07644191 0.06538272
0.0054227356 0.028229412 0.0389034 0.009498451 -0.023523461 0.08137653 -0.061178897 0.05153642
-0.03578806 -0.0076180343 -0.0154994875 -0.0347674 -0.017747495 -0.127402 0.045896757 -0.022836568
0.12775941 -0.047214955 -0.00016375023 -0.061799932 0.07596339 0.094269335 0.05575734 -0.17004484
0.0341765 -0.14198238 0.19365439 0.05552494 -0.12528329 -0.06152085 0.17634791 -0.13728228
0.12543744 0.08690182 -0.076110065 0.1264524 0.15833077 0.040248815 0.11411667 -0.011694713
0.14340732 -0.046939615 0.05732404 0.16017064 -0.026442505 0.08499981 -0.09288247 0.08725229
0.014879225 0.082397155 0.097021475 0.109406754 -0.009049046 0.103973985 -0.009744728 -0.09916884
-0.08360223 -0.14924997 -0.022285491 0.008345053 -0.026605014 -0.06805695 -0.14396568 -0.022398021
-0.10315403 -0.007526129 0.045617387 0.06134992 -0.010080672 -0.11137902 -0.07057063 -0.026470182
-0.11030241 -0.03931411 -0.03703147 0.0025497025 0.0035818983 0.08773916 0.0049567204 -0.04891476
00000000: b560 283d 443a 813d f29a 033c ce39 ac3d
00000010: 6de9 b9bd 28e7 e8bd af77 b6bd 65cd 11bd
00000020: 02de a73d a63e 1cbe 1eb2 e8bc 7883 8d3d
00000030: 2bc3 1f3d 74bc 283d db9c 083e 27ae 4f39
00000040: dd8a ce3d b9d4 34bd 5a27 03be bb76 1dbe
00000050: 802d 0abd 1031 af3c ec0f 01bd 0914 f5bc
00000060: 8937 5d3d be3f 47bd 43fc 223d a6e2 a13d
00000070: 5ff0 02bc 51c1 9dbd da8b 0e3e 8ff1 93bc
00000080: ecf2 493c 693d f1bd 4755 edbd 1b81 013e
00000090: ec2d 17bd 8c19 ea3d cd43 a7bd f3c4 ac3d
000000a0: 9b5a 1c3d 920c b03d 2e13 233e 1c2a 4f3d
000000b0: da73 25bd 5c5d 09bd 938d 9c3d 60e7 853d
000000c0: 34b1 b13b 5e41 e73c 2c59 1f3d 649f 1b3c
000000d0: 46b4 c0bc bda8 a63d b996 7abd da17 533d
000000e0: 8096 12bd b4a0 f9bb 90f1 7dbc 4368 0ebd
000000f0: 3263 91bc ab75 02be 3dfe 3b3d c113 bbbc
00000100: 5dd3 023e 7864 41bd 5eb4 2bb9 ed21 7dbd
00000110: b292 9b3d 4810 c13d cf61 643d 3c20 2ebe
00000120: a8fc 0b3d d463 11be 564d 463e 1f6e 633d
00000130: 434a 00be 49fd 7bbd 8c94 343e ba93 0cbe
00000140: ac72 003e 95f9 b13d 98df 9bbd bd7c 013e
00000150: 7621 223e f1db 243d 00b6 e93d 2e9b 3fbc
00000160: 5ed9 123e c143 40bd 9dcc 6a3d c603 243e
00000170: f49d d8bc 6114 ae3d 2a39 bebd 54b1 b23d
00000180: fec7 733c d7bf a83d 32b3 c63d a610 e03d
00000190: 7342 14bc 50f0 d43d 5aa8 1fbc 0819 cbbd
000001a0: a537 abbd fcd4 18be 1090 b6bc b0b9 083c
000001b0: c2f2 d9bc 7161 8bbd bd6b 13be 0e7c b7bc
000001c0: 6c42 d3bd bf9d f6bb 4cd9 3a3d 0e4a 7b3d
000001d0: 6729 25bc af1a e4bd 5687 90bd ffd7 d8bc
000001e0: 3be6 e1bd d507 21bd 50ae 17bd e918 273b
000001f0: 48be 6a3b 97b0 b33d fc6b a23b d85a 48bd

gcn1.bias f4 [32]
-0.015170741 -0.018386263 0.020420149 3.6093366e-05 0.0 -0.019579709 0.027485317 0.042574923
-0.014726156 -0.010522306 0.03419184 0.0056397365 0.0 0.13906519 0.039197475 -0.0106814625
-0.02223032 -0.014773381 0.09232767 0.046899613 -0.015050761 -0.015868396 -0.015200112 0.012111032
0.017597223 -0.01587975 -0.01746009 -4.338734e-09 0.019470911 -0.009812431 0.0 0.028374273
00000000: b38e 78bc ca9e 96bc 2848 a73c f562 1738
00000010: 0000 0000 a065 a0bc e328 e13c 0b63 2e3d
00000020: fa45 71bc c065 2cbc be0c 0c3d 8acd b83b
00000030: 0000 0000 1b67 0e3e 888d 203d 4d01 2fbc
00000040: 5c1c b6bc 0d0c 72bc 4a16 bd3d cf19 403d
00000050: 7897 76bc 70fe 81bc e409 79bc 5a6d 463c
00000060: 0d28 903c 4016 82bc 7608 8fbc e813 95b1
00000070: 7681 9f3c 52c4 20bc 0000 0000 2a71 e83c

gcn1.lin.weight f4 [32, 32]
0.055178653 0.042810913 -0.13877489 0.05816729 0.17335343 0.26902232 0.25933287 -0.034908637
0.10296579 -0.24555849 0.18761727 -0.055285536 0.030081574 0.26083097 -0.07420326 0.061750703
-0.15629975 -0.08697087 0.2125643 0.15757951 -0.111933246 -0.098421454 -0.01612799 0.23692411
0.003433717 -0.1897877 -0.14958897 0.19357552 0.015546647 0.21359089 0.03823054 -0.23767865
-0.15910845 -0.019270852 0.02288475 -0.098622754 0.07502583 -0.113621205 -0.16814864 0.02961789
-0.023060948 0.12621064 0.0045831488 0.047622744 0.06124686 0.07309717 0.112873614 0.17686924
0.018235821 -0.1026111 -0.006268677 0.14240815 0.002224129 -0.05266761 0.003006433 -0.007817064
-0.08884013 0.028883118 -0.005621958 0.18872887 0.11267317 0.086532734 -0.055499554 0.061359297
0.0052449303 -0.12132543 -0.09398422 -0.013860672 -0.0738308 -0.14620072 0.2524799 0.19724251
-0.15151905 -0.18706378 0.049829394 -0.00437937 -0.026184637 -0.046050943 0.30790877 -0.17592598
0.005341104 0.22368084 0.20829096 0.23786683 0.040373627 0.04949348 -0.19809988 -0.18943661
-0.09240081 0.15831709 0.18319747 -0.19316983 -0.22617696 -0.25993168 -0.27734077 -0.124438114
7.0473598e-06 -0.049560085 -0.011407775 0.07123292 0.025415903 -0.07715962 4.7831436e-06 2.1744092e-06
1.3404222e-05 -0.060349416 0.007911342 -0.060468584 0.0015098384 0.03746058 -0.08655276 0.0069861296
0.014969698 0.008189879 -4.9562016e-07 -0.094012685 -0.0002104156 -0.08914032 -0.0045044804 0.09488576
-0.009955133 0.071289495 -2.1561157e-06 -5.6322415e-06 -0.01990692 -2.294807e-06 0.020543287 -1.5095812e-07
-0.053157732 0.02034574 -0.09416673 2.560358e-06 -0.06441225 0.07902627 -0.05911737 -4.4823406e-07
0.021093955 -0.03541142 -0.0033126958 0.09605869 0.095316075 -0.02186029 -0.0993201 -0.064481184
0.0019383072 -0.006690827 0.02292023 -0.029246077 -4.174545e-07 -1.0853619e-05 -0.011876386 -0.04774093
-0.0010892254 6.509886e-06 -0.094247855 -0.06344589 -2.7800104e-07 -0.00021598474 -0.000102577374 0.06690514
0.077711895 -0.15702167 -0.14728303 0.25277296 -0.10902458 -0.024574997 0.12843974 0.21304558
0.06477308 -0.15688545 -0.109027 0.0770308 -0.05962417 -0.10195365 -0.163978 0.20415147
-0.103850186 0.014904727 0.17114444 0.031124271 0.07651445 0.18438514 0.0317331 0.15415281
-0.05628837 -0.03408102 0.18321984 0.19047986 0.06328681 0.0476404 0.092106715 -0.06283383
-0.12257761 0.13367587 0.11858025 0.11319409 0.23265034 -0.1606437 0.16893768 -0.09504532
-0.11590188 -0.24437736 0.14441086 0.114715755 -0.11712706 -0.15341452 0.26618877 -0.011776712
-0.06011757 -0.17500642 -0.23264833 0.060699698 0.083162546 -0.14268948 -0.154667 0.19964267
0.013367225 -0.17526421 -0.15536155 0.18515714 0.05659951 -0.1497071 0.032268114 0.0714142
0.16331056 -0.055013377 0.10769493 -0.23059991 0.05803934 0.03728394 -0.050442982 -0.1046561
-0.09789623 -0.23730749 0.124533124 0.11771588 -0.08756549 0.029596368 -0.1335338 0.14732483
0.16783114 -0.09090078 -0.024140866 0.05948488 0.006137051 0.09004782 0.027996866 -0.06488215
-0.04532126 -0.010311734 0.012779946 -0.13561831 0.11023621 -0.14059962 -0.06867769 0.009695802
00000000: 0303 623d 7f5a 2f3d 011b 0ebe d340 6e3d
00000010: 9083 313e 4bbd 893e 47c7 843e 5cfc 0ebd
00000020: badf d23d af73 7bbe be1e 403e 1673 62bd
00000030: a26d f63c a38b 853e e1f7 97bd 4eee 7c3d
00000040: 0b0d 20be c91d b2bd 75aa 593e 865c 213e
00000050: 423d e5bd 3091 c9bd d91e 84bc 3c9c 723e
00000060: 3608 613b b557 42be da2d 19be a938 463e
00000070: 5db7 7e3c 92b7 5a3e a097 1c3d 0862 73be
00000080: 53ed 22be e8dd 9dbc cd78 bb3c bafa c9bd
00000090: 24a7 993d 3cb2 e8bd 282f 2cbe 38a1 f23c
000000a0: 50ea bcbc 5d3d 013e 3d2e 963b 1110 433d
000000b0: fddd 7a3d f8b3 953d 482a e73d 361d 353e
000000c0: 4a63 953c c525 d2bd 7969 cdbb 71d3 113e
000000d0: b1c2 113b feb9 57bd 9307 453b 2513 00bc
000000e0: d0f1 b5bd 4a9c ec3c 6738 b8bb 2442 413e
000000f0: 31c1 e63d 1338 b13d 8053 63bd e353 7b3d
00000100: aadd ab3b 7879 f8bd cc7a c0bd df17 63bc
00000110: 9a34 97bd a4b5 15be 0c45 813e f1f9 493e
00000120: cf27 1bbe a68d 3fbe e819 4c3d d180 8fbb
00000130: 2a81 d6bc ea9f 3cbd 38a6 9d3e f125 34be
00000140: 6e04 af3b 970c 653e 3a4a 553e 5d93 733e
00000150: d15e 253d adb9 4a3d b2da 4abe acfb 41be
00000160: a33c bdbd e01d 223e 1e98 3b3e 50ce 45be
00000170: ef9a 67be c415 85be 9cff 8dbe 69d9 febd
00000180: 5c78 ec36 84ff 4abd ade7 3abc 91e2 913d
00000190: 0335 d03c dd05 9ebd e47e a036 11ec 1136
000001a0: b2e2 6037 f330 77bd 939e 013c e8ad 77bd
000001b0: c5e5 c53a 4470 193d 9342 b1bd e7eb e43b
000001c0: 7743 753c d82e 063c c20a 05b5 b989 c0bd
000001d0: 02a3 5cb9 338f b6bd 529a 93bb 7753 c23d
000001e0: db1a 23bc 3a00 923d c9b1 10b6 96fc bcb6
000001f0: d613 a3bc 7c00 1ab6 654a a83c 0d17 22b4
00000200: ecbb 59bd 1cac a63c 7dda c0bd 9ed2 2b36
00000210: 92ea 83bd 86d8 a13d 0e25 72bd d2a4 f0b4
00000220: 3bcd ac3c 910b 11bd d019 59bb 6bba c43d
00000230: 1335 c33d 5a14 b3bc 5668 cbbd b60e 84bd
00000240: cc0e fe3a ba3e dbbb 35c3 bb3c 7895 efbc
00000250: 821e e0b4 f017 36b7 2c95 42bc fe8b 43bd
00000260: 57c4 8eba 7f6f da36 0505 c1bd ebef 81bd
00000270: 2c40 95b4 f679 62b9 cf1e d7b8 9005 893d
00000280: 6a27 9f3d 4aca 20be 5dd1 16be 756b 813e
00000290: 4748 dfbd 8151 c9bc b585 033e 9f28 5a3e
000002a0: c0a7 843d 94a6 20be 8c49 dfbd 53c2 9d3d
000002b0: 7938 74bd 13cd d0bd d9e9 27be 150d 513e
000002c0: 68af d4bd f532 743c 7d40 2f3e 54f8 fe3c
000002d0: 9cb3 9c3d 75cf 3c3e 91fa 013d 3cda 1d3e
000002e0: a28e 66bd 8a98 0bbd fb9d 3b3e 270d 433e
000002f0: 849c 813d 9422 433d 72a2 bc3d 06af 80bd
00000300: f809 fbbd 54e2 083e 34da f23d 4ed2 e73d
00000310: e43b 6e3e c87f 24be 00fe 2c3e 1fa7 c2bd
00000320: f75d edbd 0f3e 7abe 71e0 133e 18f0 ea3d
00000330: 50e0 efbd b218 1dbe e549 883e 1cf3 40bc
00000340: d73d 76bd e234 33be 5d3b 6ebe 3fa0 783d
00000350: 2051 aa3d 311d 12be 0761 1ebe 216f 4c3e
00000360: 3502 5b3c 7678 33be 1917 1fbe d599 3d3e
00000370: e3d4 673d d14c 19be 922b 043d 9c41 923d
00000380: e23a 273e b555 61bd 298f dc3d 6222 6cbe
00000390: a9ba 6d3d 0bb7 183d 4d9d 4ebd f055 d6bd
000003a0: d27d c8bd bc00 73be 390b ff3d 0615 f13d
000003b0: 8955 b3bd 1574 f23c 16bd 08be 52dc 163e
000003c0: eddb 2b3e 302a babd 11c3 c5bc 6ba6 733d
000003d0: 5119 c93b fe6a b83d af59 e53c efe0 84bd
000003e0: c9a2 39bd 8cf2 28bc fb62 513c 87df 0abe
000003f0: 86c3 e13d 59f9 0fbe e4a6 8cbd 24db 1e3c

gcn2.bias f4 [32]
-0.023538116 -0.014236423 0.08901954 -0.01633273 -0.02138688 -0.02535388 -0.012328097 0.045906853
0.045429908 0.039928697 0.034083527 0.009382959 -0.023134174 0.045735847 0.04461195 0.0044884216
-0.011358708 -0.02700043 -0.0031261728 -0.018823322 -0.03017209 0.16271569 -0.021857375 -0.022310393
-0.029828358 0.0022072138 -0.013592174 0.028044531 0.04698406 0.048586007 0.020458778 0.053275652
00000000: 02d3 c0bc e33f 69bc e04f b63d 38cc 85bc
00000010: 8a33 afbc f1b2 cfbc c9fb 49bc d308 3c3d
00000020: b614 3a3d 468c 233d 2b9b 0b3d fcba 193c
00000030: e183 bdbc 8355 3b3d 05bb 363d 9c13 933b
00000040: e019 3abc 0130 ddbc 7ae0 4cbb 5e33 9abc
00000050: 752b f7bc f19e 263e 3d0e b3bc 49c4 b6bc
00000060: 9a5a f4bc e7a6 103b b6b1 5ebc a5bd e53c
00000070: 5c72 403d 1f02 473d 2b99 a73c 9237 5a3d

gcn2.lin.weight f4 [32, 32]
0.2513995 0.06297493 0.2016814 0.018674029 0.008181842 0.25327238 -0.21654521 -0.19356823
0.0047056708 -0.18426204 -0.2641321 -0.04765743 -0.00090713537 6.398554e-05 -0.00020268666 -0.018821782
-0.03409009 0.16795868 0.0031149238 -0.009014265 -0.026768005 0.104689434 -0.06715062 0.21225362
-0.14802921 -2.854937e-06 0.27621138 0.00040683826 -0.016174985 0.18330488 -0.029167734 0.06179188
-0.013156356 -0.021544132 -0.07281662 -4.734028e-07 0.028061744 -0.20269121 -0.12535761 0.107289225
-0.0025730631 0.103353605 -0.14772625 0.08421877 -0.1027281 0.10750334 -0.14091413 -0.06841079
-0.03984241 0.12857676 -0.07441915 -0.12504609 0.08973666 -0.11636165 0.0017313816 0.2573463
0.20487933 -0.02975736 0.14088541 0.09820769 -4.719479e-05 0.030894015 0.008283372 -0.021393934
-0.08895947 -0.003953636 -0.061512537 -0.0008851066 -4.7719354e-08 5.9918675e-05 0.24459583 0.10488227
-0.058756113 -0.18518789 0.29843393 0.09187789 -4.159957e-08 0.08776664 0.025450844 0.06881396
-0.00027043035 -0.04403538 -0.09796743 0.17762573 6.337642e-05 -1.8094308e-07 -0.027526416 -0.1495653
0.081354566 0.0018260025 0.0033378925 0.10212964 0.0001616495 -0.09296042 0.10157751 0.0072252266
0.042515818 -0.055205937 -0.07502189 -0.0040180255 -0.0001842427 -0.12866928 -0.019697482 0.09191528
0.00867657 0.015817204 -0.13793804 0.18590441 -0.0001446004 -0.047457024 0.010573351 -0.0004550486
-0.053361952 -0.15388122 -0.0066202437 -0.004333983 0.16586453 0.008019852 0.07532002 -0.05456647
0.024168393 -0.0037227878 -0.0012879297 0.006728096 -0.03308255 0.102148905 -1.3646044e-06 0.04916921
-0.15129961 -0.06667963 0.15523575 -5.43963e-06 5.320575e-07 0.10270088 0.017929941 -0.10273032
-0.008729334 -0.0024464324 0.16494055 0.005049722 -0.09374378 -0.00148633 -0.031799458 0.021273462
-0.04034815 -0.17291434 -0.006441107 -0.023190534 -0.11922283 0.15723039 -0.023048382 -0.23067123
-0.02600212 -8.422057e-05 0.18826199 -1.9328903e-07 -6.3607455e-05 0.23446396 -0.0884113 -0.07932293
0.21907926 -6.0364796e-06 -0.096442536 -0.009589694 0.0040287497 -0.2677101 0.08359344 0.16413838
-0.0022964906 0.18545063 -0.1210483 -0.050998535 0.05281496 -0.0016711237 -0.015346251 0.0008862452
-0.032575145 -0.010494446 -0.0015775629 -0.041831687 0.036167562 0.12287612 0.0063861967 -0.084110014
-0.26104972 -0.07743582 -0.25330934 -0.012095337 -0.02158536 -0.13754456 0.0040286453 -0.0034812768
0.06880462 -0.005050748 0.10913104 -0.0047811107 -0.06507981 0.18743208 0.0040038247 0.08795843
-0.08581562 -0.13796136 -0.100120634 0.0015276351 0.0039241323 -0.0902529 -0.10809595 0.04858092
-0.057364114 -0.17215137 0.008758171 0.067922145 0.053409386 0.0015476925 0.033422828 0.0027733024
-0.07382455 -3.754e-06 0.1512383 0.10387337 8.94749e-06 -0.15192805 0.0004822544 4.2241987e-05
-0.003292335 -0.11113045 0.14892606 3.04758e-06 -0.004044078 -0.115348674 -0.07901858 0.040422365
-0.042143825 0.32315263 0.33775592 -0.09041273 0.07478176 0.030173602 0.1272922 1.4336816e-06
0.0018513369 -0.19951665 0.04439984 0.15521581 -0.19517939 0.012138792 -0.091510445 -0.10107318
0.08686525 -0.048078112 0.18547487 -0.021479111 0.04335964 0.112687744 5.384453e-08 0.0081031285
00000000: 6fb7 803e 00f9 803d 9285 4e3e 47fa 983c
00000010: 220d 063c ebac 813e 07be 5dbe c036 46be
00000020: 0732 9a3b 30af 3cbe 533c 87be 7034 43bd
00000030: d3cc 6dba fa2f 8638 4988 54b9 2330 9abc
00000040: 0da2 0bbd 5cfd 2b3e c023 4c3b 91b0 13bc
00000050: 9348 dbbc 6a67 d63d 4486 89bd 0359 593e
00000060: f894 17be 7297 3fb6 946b 8d3e e84c d539
00000070: 6781 84bc 46b4 3b3e 2cf1 eebc 7b19 7d3d
00000080: c28d 57bc 527d b0bc e120 95bd fc27 feb4
00000090: bee1 e53c 498e 4fbe bf5d 00be 74ba db3d
000000a0: d6a0 28bb 0eab d33d 8d45 17be e47a ac3d
000000b0: 1c63 d2bd b62a dc3d cb4b 10be f51a 8cbd
000000c0: cb31 23bd a0a9 033e 1169 98bd 150c 00be
000000d0: dbc7 b73d 044f eebd 87ef e23a e5c2 833e
000000e0: e3cb 513e b5c5 f3bc 4444 103e 1d21 c93d
000000f0: 05f3 45b8 7215 fd3c fbb6 073c 5542 afbc
00000100: 6230 b6bd 818d 81bb 92f4 7bbd 8006 68ba
00000110: fcf3 4cb3 3051 7b38 5477 7a3e 84cc d63d
00000120: 40aa 70bd e5a1 3dbe 55cc 983e 7a2a bc3d
00000130: 36ab 32b3 ffbe b33d 4a7e d03c 55ee 8c3d
00000140: 8cc8 8db9 715e 34bd 26a3 c8bd 85e3 353e
00000150: f5e8 8438 4149 42b4 147f e1bc a527 19be
00000160: 399d a63d 7a56 ef3a 8bc0 5a3b 5829 d13d
00000170: 7580 2939 0862 bebd df07 d03d 98c1 ec3b
00000180: 1125 2e3d 9f1f 62bd 14a5 99bd a4a9 83bb
00000190: 4631 41b9 e1c1 03be 9d5c a1bc 143e bc3d
000001a0: 2c28 0e3c 1593 813c a13f 0dbe ba5d 3e3e
000001b0: e09f 17b9 4c62 42bd d93b 2d3c 9793 eeb9
000001c0: 1092 5abd 0a93 1dbe a1ee d8bb 1604 8ebb
000001d0: 64d8 293e b365 033c 6241 9a3d 1781 5fbd
000001e0: cbfc c53c 04fa 73bb c0cf a8ba 5c77 dc3b
000001f0: 9181 07bd 7233 d13d 7327 b7b5 a765 493d
00000200: 49ee 1abe 548f 88bd 1ff6 1e3e 1186 b6b6
00000210: b7d2 0e35 d754 d23d d0e1 923c 4664 d2bd
00000220: 7b05 0fbc 5354 20bb 2de6 283e 2378 a53b
00000230: bdfc bfbd f5d0 c2ba 2640 02bd af45 ae3c
00000240: 1a44 25bd 7510 31be ec0f d3bb 13fa bdbc
00000250: 192b f4bd 0101 213e f6cf bcbc 1435 6cbe
00000260: 6602 d5bc 939f b0b8 c0c7 403e e28a 4fb4
00000270: fe64 85b8 5217 703e fc10 b5bd 0f74 a2bd
00000280: 5056 603e f78c cab6 aa83 c5bd 181e 1dbc
00000290: 9a03 843b 4c11 89be 0a33 ab3d e413 283e
000002a0: b880 16bb c5e6 3d3e 2ce8 f7bd d7e3 50bd
000002b0: 8054 583d 9b09 dbba d86e 7bbc e952 683a
000002c0: 846d 05bd e6f0 2bbc 3ac6 ceba b457 2bbd
000002d0: 7024 143d 7aa6 fb3d 4d43 d13b df41 acbd
000002e0: 4fa8 85be ac96 9ebd c3b1 81be 852b 46bc
000002f0: c8d3 b0bc 7bd8 0cbe ba02 843b 2226 64bb
00000300: 70e9 8c3d bf80 a5bb 1880 df3d ddaa 9cbb
00000310: 9048 85bd 32ee 3f3e 8432 833b 8d23 b43d
00000320: 1ac0 afbd be45 0dbe 0c0c cdbd ee3a c83a
00000330: 0296 803b 83d6 b8bd 6961 ddbd c9fc 463d
00000340: a2f6 6abd 7348 30be 6f7e 0f3c c41a 8b3d
00000350: cdc3 5a3d f1db ca3a 60e6 083d 4bc0 353b
00000360: 5331 97bd 3bed 7bb6 37de 1a3e 90bb d43d
00000370: 2d1d 1637 0793 1bbe 17d7 fc39 fd2c 3138
00000380: 37c4 57bb 5d98 e3bd 1380 183e 0785 4c36
00000390: 2f84 84bb ed3b ecbd 7ed4 a1bd ec91 253d
000003a0: 019f 2cbd 4374 a53e 58ee ac3e 4f2a b9bd
000003b0: 2e27 993d a12e f73c e358 023e ed6c c035
000003c0: 8fa8 f23a 184e 4cbe 9bdc 353d e5f0 1e3e
000003d0: 1bdd 47be c9e1 463c d469 bbbd 75ff cebd
000003e0: 68e6 b13d 8eed 44bd 20ed 3d3e f6f4 afbc
000003f0: e199 313d d5c8 e63d b042 6733 fcc2 043c

fc1.weight f4 [16, 32]
0.010302837 -5.0976035e-07 5.601355e-07 8.7935035e-08 -7.030672e-08 -0.0011621764 -0.0009182759 -0.0010407983
-0.0017853433 -0.0072516208 0.024921613 -1.4416109e-08 2.876144e-07 -0.013433178 0.0014209152 0.014473401
-0.013839416 0.005306019 6.4216e-07 0.016974619 -4.3940076e-06 4.3901647e-07 -7.2934455e-08 -1.2452402e-07
0.01258106 -0.008584251 0.0062821456 -0.006341324 0.0109413965 -0.0012870972 0.025936915 -2.0502966e-08
-0.08694865 -0.06241704 -0.018429123 0.028281663 0.0032017129 0.020326046 -0.036013715 0.10906389
0.027322708 -0.07324743 0.11680962 -0.011172174 0.06456222 0.035139505 0.10281745 0.07757932
0.0072559663 -0.10226277 -0.0008634252 -0.03912222 0.053626277 -0.01782856 0.0019551518 0.03668139
-0.083512284 0.014251949 -2.0691778e-07 0.082909405 0.0020740544 -0.022750853 0.08495999 -0.021379797
-0.0655959 0.06172934 -0.14601193 -0.06936407 0.06690757 0.05054757 -0.10346789 -0.123025715
-0.17554359 -0.09125423 -0.15673539 -2.3262578e-06 -0.11517856 -0.015984971 -0.12925361 -0.049138322
-0.040005155 -0.103485875 -9.989909e-05 -0.14423606 0.11094642 -0.10963003 -0.0026654566 0.107550524
0.02306338 0.0013554313 -0.027518857 -0.05469409 0.06117429 -0.06953455 -0.013628495 -0.17202397
-0.11038859 -0.10757275 0.03221917 -0.049827732 0.108337425 0.010811466 -0.058118295 -0.13775806
-0.013015465 0.030215753 0.056239855 -0.0042386604 0.021326676 0.10723489 0.12830096 -0.090643875
0.10719318 0.1239542 -0.00019767828 0.1305612 0.111145265 0.0015737893 0.09895982 -0.030611804
-0.004670787 -5.2079788e-05 -0.0054098503 0.08169654 -0.03786054 -0.122442365 -0.18274836 0.0909105
-0.10677644 0.18252678 -0.01679724 -0.091607444 0.029189391 -0.13802685 0.11493753 -0.02038589
0.088741444 0.076873094 0.1555282 0.0070686904 -0.10594245 -0.086046904 0.089690804 0.1352975
-0.08514474 -0.058293264 -0.010488197 -0.13599473 -0.035463773 0.049775597 -0.080358274 0.09712233
-0.13294294 0.0002585967 -0.06614711 0.15480204 -0.01832174 -0.082629815 0.16090572 -0.0067854254
-0.012391596 0.011218371 0.0066129123 3.8279208e-07 -1.935504e-06 1.16839615e-07 -8.735455e-07 0.05415604
-0.016849933 -0.07905477 0.052435935 0.0138024455 2.2275567e-06 -0.014796498 -0.023497166 -0.015807519
0.0038934315 -0.029340655 1.7579669e-05 -0.0042795176 0.00013218891 5.8202924e-05 0.0049781594 0.0141641265
0.0051892786 -0.011191644 0.015894601 -0.08206773 0.009272534 0.08245925 0.05864569 0.016342407
-0.12107054 0.08953477 -0.14100698 -0.07808548 0.13259095 0.006448085 -0.056544498 -0.12440123
-0.061577983 -0.13132355 0.07689943 -0.009006621 0.0041210256 -0.20174459 -0.01474868 0.04913163
0.04990294 -0.16248332 0.012866583 0.09503315 -0.09508562 -0.09574452 -0.1428558 -0.07229952
-0.006845741 0.0004968986 0.047127187 -0.18788368 -0.17410053 0.088388324 0.11062511 -0.09571781
0.05307693 0.15040407 0.005672036 0.06550074 0.096508786 -0.14813411 0.14637282 -0.16279846
-0.015649594 0.054311983 -0.11964718 0.021099642 -0.10852798 0.014454605 -0.11485877 0.05599675
0.08637678 -0.13957572 -2.2258198e-05 -0.17453814 -0.14242736 -0.009542628 0.07202945 -0.027818458
-0.067156 -6.143755e-06 0.010111297 0.03699562 0.058321092 -0.15863217 -0.08337754 -0.14530495
00000000: 3bcd 283c 77d6 08b5 385c 1635 ccd6 bc33
00000010: 87fb 96b3 2b54 98ba 74b8 70ba 656b 88ba
00000020: 2e02 eaba 019f edbb 6928 cc3c b8aa 77b2
00000030: 6c69 9a34 d516 5cbc 013e ba3a d821 6d3c
00000040: b8be 62bc 1dde ad3b e660 2c35 5b0e 8b3c
00000050: 3d70 93b6 f7b1 eb34 24a0 9cb3 e7b4 05b4
00000060: ca20 4e3c f5a4 0cbc 75da cd3b e2ca cfbb
00000070: 8b43 333c d1b3 a8ba a779 d43c 801e b0b2
00000080: 2212 b2bd 03a9 7fbd acf8 96bc f2ae e73c
00000090: d4d3 513b cf82 a63c 1e83 13bd e45c df3d
000000a0: dfd3 df3c c002 96bd e239 ef3d 7e0b 37bc
000000b0: 3239 843d 71ee 0f3d f591 d23d e8e1 9e3d
000000c0: 75c3 ed3b 256f d1bd 7c57 62ba 9f3e 20bd
000000d0: 3aa7 5b3d 330d 92bc 0122 003b 3a3f 163d
000000e0: 7d08 abbd 0281 693c 202d 5eb4 68cc a93d
000000f0: dcec 073b ff5f babc 81ff ad3d af24 afbc
00000100: 2557 86bd e8d7 7c3d 2784 15be c00e 8ebd
00000110: d606 893d f80a 4f3d f9e6 d3bd e8f4 fbbd
00000120: b3c1 33be 7fe3 babd 3e7f 20be ce1c 1cb6
00000130: bde2 ebbd eaf2 82bc 0f5b 04be 4445 49bd
00000140: 72dc 23bd 67f0 d3bd ea80 d1b8 9eb2 13be
00000150: e037 e33d b685 e0bd f1ae 2ebb 7343 dc3d
00000160: 6aef bc3c baa8 b13a 3a6f e1bc e906 60bd
00000170: e491 7a3d 2168 8ebd 0d4a 5fbc 0d27 30be
00000180: 6a13 e2bd 1a4f dcbd 40f8 033d 2a18 4cbd
00000190: 03e0 dd3d 9322 313c 730d 6ebd 7310 0dbe
000001a0: d13e 55bc 0787 f73c c35b 663d 76e4 8abb
000001b0: 48b5 ae3c f79d db3d 5461 033e 7fa3 b9bd
000001c0: 1988 db3d b3db fd3d dc47 4fb9 d6b1 053e
000001d0: 21a0 e33d 9b47 ce3a 72ab ca3d 9bc5 fabc
000001e0: 670d 99bb 3f70 5ab8 1d45 b1bb 8450 a73d
000001f0: a713 1bbd 10c3 fabd 6322 3bbe 492f ba3d
00000200: 9bad dabd 4de8 3a3e 5e9a 89bc af9c bbbd
00000210: 971e ef3c e956 0dbe 5e64 eb3d 4f00 a7bc
00000220: 13be b53d a46f 9d3d c942 1f3e 79a0 e73b
00000230: 5bf8 d8bd 5c39 b0bd d0af b73d 6e8b 0a3e
00000240: 5e60 aebd ebc4 6ebd b0d6 2bbc 3442 0bbe
00000250: 7642 11bd 7fe1 4b3d e192 a4bd 12e8 c63d
00000260: 3222 08be 4394 8739 2378 87bd 6d84 1e3e
00000270: 7917 96bc d239 a9bd 78c4 243e 4658 debb
00000280: 1f06 4bbc 42cd 373c 21b1 d83b 8b82 cd34
00000290: b5e3 01b6 42e9 fa33 977d 6ab5 b9d2 5d3d
000002a0: df08 8abc 78e7 a1bd 10c7 563d a723 623c
000002b0: 227d 1536 036d 72bc 217d c0bc c57e 81bc
000002c0: f128 7f3b d05b f0bc 0d78 9337 323b 8cbb
000002d0: 319c 0a39 ea1e 7438 d41f a33b a710 683c
000002e0: d30a aa3b 285d 37bc 6535 823c 2013 a8bd
000002f0: d4eb 173c 65e0 a83d 7736 703d 83e0 853c
00000300: d5f3 f7bd 015e b73d 2264 10be 48eb 9fbd
00000310: ecc5 073e 754a d33b 349b 67bd 12c6 febd
00000320: 3239 7cbd ae79 06be 737d 9d3d 8290 13bc
00000330: ab09 873b 2296 4ebe 73a4 71bc 403e 493d
00000340: 0667 4c3d 0762 26be 5cce 523c bda0 c23d
00000350: 40bc c2bd b415 c4bd ca48 12be c511 94bd
00000360: 3d52 e0bb 4d42 023a 7008 413d 9464 40be
00000370: 6947 32be f004 b53d 6b8f e23d b307 c4bd
00000380: 3267 593d 8603 1a3e 7ddc b93b 4125 863d
00000390: 66a6 c53d 78b0 17be c2e2 153e a4b4 26be
000003a0: 9433 80bc 3e76 5e3d 9509 f5bd 28d9 ac3c
000003b0: eb43 debd 02d3 6c3c 133b ebbd d95c 653d
000003c0: 4fe6 b03d f0ec 0ebe 1eb7 bab7 20ba 32be
000003d0: 7ad8 11be af58 1cbc 2d84 933d 89e3 e3bc
000003e0: 1689 89bd 7426 ceb6 daa9 253c b888 173d
000003f0: 19e2 6e3d 7970 22be d8c1 aabd d2ca 14be

fc1.bias f4 [16]
-0.056750968 0.21251598 0.13098198 0.12930797 0.073844515 -0.10001219 0.053399127 0.00060711143
0.12740296 0.06350879 0.15748619 -0.0014652121 0.027040543 -0.008125232 -0.102632426 0.19783792
00000000: b473 68bd ca9d 593e 2420 063e 4f69 043e
00000010: cb3b 973d 31d3 ccbd 0bb9 5a3d 8f26 1f3a
00000020: ec75 023e e610 823d 0f44 213e 5c0c c0ba
00000030: 2184 dd3c b11f 05bc f330 d2bd 0696 4a3e

fc2.weight f4 [6, 16]
-0.00014454524 -0.001973297 -0.05621436 0.061858233 0.024916386 0.06169424 6.158245e-08 2.407529e-07
-1.2944777e-08 0.00018248442 -0.038196273 0.0061407923 0.002231837 0.052108068 0.008255634 0.0004913566
-0.053562373 -0.04864799 0.054358553 0.04888661 -0.25146127 -0.07281618 0.16901618 0.10725594
-0.36178365 0.1982153 -0.22417259 -2.158039e-05 0.033151623 -1.2039711e-06 0.29971156 -0.20275994
-0.027162664 0.025040036 -0.0018010702 -2.2013833e-07 7.7511515e-07 -0.022734273 -0.024539765 8.798385e-08
-0.0076106917 0.0026086771 -0.048576754 0.051666636 -4.5811375e-06 7.526435e-08 -4.4351953e-09 7.5613485e-08
0.00035240978 -0.010916978 1.5847936e-08 3.0226022e-06 0.009374948 0.00012381372 0.005998522 -0.046950947
-0.016928274 -0.036513757 -3.4579224e-07 -0.036804155 0.0055683577 0.042677194 0.05297029 -5.4268576e-06
0.038225066 0.014933174 0.0031341033 6.4757805e-06 0.03851611 -2.0349715e-05 2.610387e-07 0.012670448
0.033578493 0.010491031 -0.02038179 -3.5186147e-09 -0.0016183245 -4.0827845e-06 -0.005893966 -1.6228359e-08
-0.03783229 1.1369546e-06 -0.012266335 0.0026078539 -2.8645923e-07 0.005716412 -0.027471958 -3.4306478e-09
9.340108e-07 0.033187162 9.946726e-07 0.026621506 3.8716676e-06 0.004217188 -6.3006564e-06 -0.0069509577
00000000: 1191 17b9 6e52 01bb 0741 66bd 0f5f 7d3d
00000010: 731d cc3c 19b3 7c3d 4f3f 8433 d440 8134
00000020: bb63 5eb2 4a59 3f39 b273 1cbd b338 c93b
00000030: 0344 123b 456f 553d a442 073c 62ce 003a
00000040: 3864 5bbd 1d43 47bd 13a7 5e3d 533d 483d
00000050: 88bf 80be a620 95bd 9412 2d3e 01a9 db3d
00000060: b53b b9be f4f8 4a3e 808d 65be 8907 b5b7
00000070: ffc9 073d 2298 a1b5 cb73 993e 4da0 4fbe
00000080: 3c84 debc c320 cd3c e311 ecba 2a5f 6cb4
00000090: 8211 5035 3a3d babc 9e07 c9bc a2f1 bc33
000000a0: 1c63 f9bb 57f6 2a3b 6bf8 46bd 65a0 533d
000000b0: acb7 99b6 04a1 a133 6464 98b1 f460 a233
000000c0: a4c3 b839 20dd 32bc fb21 8832 e9d7 4a36
000000d0: 6299 193c fed3 0139 408f c43b a34f 40bd
000000e0: 2aad 8abc 738f 15bd 53a5 b9b4 f4bf 16bd
000000f0: c576 b63b 48ce 2e3d 60f7 583d 5a18 b6b6
00000100: e391 1c3d 45aa 743c 8765 4d3b 884a d936
00000110: 12c3 1d3d aeb4 aab7 e324 8c34 b697 4f3c
00000120: 9a89 093d 93e2 2b3c b6f7 a6bc 20cc 71b1
00000130: f61d d4ba dafe 88b6 2c22 c1bb 8a66 8bb2
00000140: 08f6 1abd 7699 9835 bdf8 48bc 87e8 2a3b
00000150: a8ca 99b4 bd50 bb3b df0c e1bc 98c0 6bb1
00000160: bcb8 7a35 43ef 073d b180 8535 5815 da3c
00000170: 5fe9 8136 5630 8a3b 3a6a d3b6 dcc4 e3bb

fc2.bias f4 [6]
-0.003087 0.17706208 -3.6874012e-06 0.06422371 -0.002352398 -0.000467643
00000000: 444f 4abb c34f 353e 1275 77b6 b887 833d
00000010: b02a 1abb fb2d f5b9
