outputs/models/model_interior.pth (torch, 36375 bytes, 12 tensors)

lstm.weight_ih_l0 f4 [128, 6]
-0.09656269 0.081790306 0.025397204 -0.006462862 -0.05018722 -0.12556967 0.043764554 0.06729801
0.11629994 -0.08389958 -0.02903788 0.15244547 -0.07312594 -0.097383246 0.0454035 -0.001976507
-0.08333654 0.0003023007 0.02102812 -0.083298445 0.061124954 0.09768651 -0.0297283 0.06233077
-0.09592063 0.047062382 -0.00035470657 0.016270341 -0.05549592 0.052076563 0.056986786 0.00096379453
0.108834684 0.0014037328 0.046764683 -0.036341276 -0.036104128 -0.11088922 0.0069706356 0.0678882
-0.09430579 -0.13340037 0.007783425 0.10474135 0.00292049 -0.11567367 0.01884831 0.14542595
-0.022667462 -0.024654465 -0.08904506 0.00094874366 -5.885988e-06 -0.14451672 -0.05393083 -0.010677228
-0.10568865 -0.01807149 -0.110184506 -0.060453318 -0.037392125 -0.00017729658 0.1020422 0.0004000921
-0.000565185 -0.02586954 0.10087846 0.04662752 -0.037524212 -0.04294344 0.0077205906 0.010175081
0.0093848435 -0.040635735 0.076642945 0.07461209 0.0007984184 -0.07842252 -0.009468922 0.08161328
0.009338929 -0.08048688 0.049229518 0.07964319 0.039274488 0.023311593 -0.036038544 -0.096026525
0.02672417 -0.08181521 0.11058391 0.02703901 -0.0002278838 -0.09833782 -0.030481547 -0.015613674
-0.06182058 0.023749845 -0.00043230387 0.025304299 0.10033182 0.10367965 0.06382701 0.02077179
-0.102754995 0.10182988 -0.060004316 -0.12195212 0.039207947 -0.004292689 0.064894184 -0.09382803
-0.078570895 -0.09628448 0.050731458 -0.0006709736 0.0046562217 -0.03546696 0.00063291116 0.032703783
0.023651207 0.0011141843 0.06733955 -0.11417899 -0.04224136 -0.11728151 0.053843297 -0.066414915
0.011760269 0.0014060498 0.059740886 0.060596336 -0.0025468678 0.00044498296 0.08312552 0.06347542
0.11556992 0.07017093 0.10130291 -0.00891529 0.10655537 -0.009558359 -0.0005986227 -0.10769312
0.11580361 -0.09220734 0.10157634 0.0005721424 0.00010864999 -0.112804554 0.11856297 -0.011264271
0.0011027904 0.027978892 0.04501296 -0.11226276 0.017128076 0.0044152774 0.06542529 0.042185117
0.08788107 0.053231053 0.008851453 0.0057206866 0.023510873 0.00058142014 0.0769617 0.0457954
0.11855528 0.0674529 0.07314891 -0.00033770877 0.08924181 0.0774917 -0.041899666 -0.014091631
-0.0011720032 -0.0032704363 0.0024468761 -0.050350048 -0.10450146 0.0066018305 -0.0012373421 0.08040261
-0.0033262528 0.058649227 0.12105851 -0.032565523 -0.04774519 -0.05637946 -0.00012268906 0.09065003
-0.023442546 0.0103555815 0.0024409343 0.018660406 -0.006808304 0.022848384 -0.070035376 -0.07354892
-0.00087704964 0.03175475 0.10435443 -0.13645081 0.06981467 0.0014961557 0.04099318 0.09686381
-0.098632224 -0.038319644 0.039391 0.088427514 -0.00010339885 0.025969252 0.1120285 0.113577336
-0.036661796 0.043704063 0.061020654 -0.0545673 0.0014288375 -0.012833508 0.07147555 0.0023941926
-0.03651236 0.008366186 0.09019515 0.108925246 0.103438765 0.0044000843 -0.017247338 -0.017427774
-0.107428856 0.1013079 -0.051484536 0.03575919 -0.022971919 -0.006421527 0.07408886 -0.09960229
0.13349493 -0.009166688 -0.0006026344 0.035708558 0.11626191 -0.084091336 0.05976821 0.08831441
0.06303447 0.09617292 0.04088096 -0.015583801 -0.0073285485 0.00035867747 0.009889978 0.081348725
00000000: a9c2 c5bd ad81 a73d cc0d d03c 6ac6 d3bb
00000010: 1d91 4dbd 5695 00be 7642 333d 8ad3 893d
00000020: aa2e ee3d 8bd3 abbd d9e0 edbc aa1a 1c3e
00000030: 0ec3 95bd de70 c7bd 05f9 393d 4988 01bb
00000040: 59ac aabd 1d7e 9e39 2a43 ac3c 6098 aabd
00000050: 295e 7a3d dd0f c83d c488 f3bc 8d4e 7f3d
00000060: 0972 c4bd 7cc4 403d e9f7 b9b9 6149 853c
00000070: b14f 63bd 3c4e 553d fa6a 693d 28a7 7c3a
00000080: b8e4 de3d 75fd b73a 538c 3f3d 97da 14bd
00000090: ece1 13bd e319 e3bd ee69 e43b f808 8b3d
000000a0: 6523 c1bd 1b9a 08be 1a0c ff3b a282 d63d
000000b0: b165 3f3b 51e6 ecbd c567 9a3c 8aea 143e
000000c0: 1db1 b9bc 29f8 c9bc 425d b6bd 1cb5 783a
000000d0: 4080 c5b6 31fc 13be 93e6 5cbd 8aef 2ebc
000000e0: 4a73 d8bd a90a 94bc 6aa8 e1bd e69d 77bd
000000f0: 7c28 19bd b0e8 39b9 80fb d03d 74c3 d139
00000100: ec28 14ba 5cec d3bc 5e99 ce3d 80fc 3e3d
00000110: fdb2 19bd 76e5 2fbd 02fd fc3b 62b5 263c
00000120: e3c2 193c a871 26bd faf6 9c3d 39ce 983d
00000130: f44c 513a fc9b a0bd 8a23 1bbc dd24 a73d
00000140: 4f02 193c 4ed6 a4bd e4a4 493d f81b a33d
00000150: 49de 203d f4f7 be3c 279d 13bd 8ea9 c4bd
00000160: a6ec da3c bc8e a7bd d179 e23d ea80 dd3c
00000170: 17f4 6eb9 5765 c9bd 70b4 f9bc 7fd0 7fbc
00000180: 9437 7dbd 098f c23c d8a6 e2b9 f64a cf3c
00000190: c57a cd3d ff55 d43d bcb7 823d 9a29 aa3c
000001a0: 3671 d2bd 2f8c d03d 16c7 75bd 08c2 f9bd
000001b0: 8398 203d afa9 8cbb 3ee7 843d e928 c0bd
000001c0: c7e9 a0bd cc30 c5bd cacb 4f3d 47e4 2fba
000001d0: 3893 983b ce45 11bd f3e9 253a 67f4 053d
000001e0: 2dc0 c13c d209 923a 51e9 893d add6 e9bd
000001f0: 4705 2dbd 4a31 f0bd ca8a 5c3d 8b04 88bd
00000200: 25ae 403c 344b b83a dcb2 743d dd33 783d
00000210: 5ae9 26bb 9a4c e939 b63d aa3d 67ff 813d
00000220: ecaf ec3d c7b5 8f3d e677 cf3d 7011 12bc
00000230: b439 da3d aa9a 1cbc e4ec 1cba 368e dcbd
00000240: 712a ed3d 34d7 bcbd 4207 d03d d4fb 153a
00000250: 05db e338 1306 e7bd 24d1 f23d c78d 38bc
00000260: 818b 903a fd33 e53c 825f 383d 05ea e5bd
00000270: 2e50 8c3c 08ae 903b b2fd 853d 4dca 2c3d
00000280: fefa b33d ce08 5a3d af05 113c 9974 bb3b
00000290: e099 c03c 726a 183a 199e 9d3d f593 3b3d
000002a0: 1ccd f23d bf24 8a3d 19cf 953d 810e b1b9
000002b0: 69c4 b63d f8b3 9e3d fc9e 2bbd 96e0 66bc
000002c0: e79d 99ba d154 56bb c55b 203b da3b 4ebd
000002d0: dd04 d6bd 2b54 d83b 502e a2ba 20aa a43d
000002e0: 43fd 59bb 2c3a 703d 86ed f73d 6d63 05bd
000002f0: 7690 43bd 26ee 66bd 18a6 00b9 b9a6 b93d
00000300: 950a c0bc 75aa 293c 15f8 1f3b b5dd 983c
00000310: 3218 dfbb 892c bb3c b56e 8fbd d1a0 96bd
00000320: cee9 65ba 4511 023d c7b7 d53d c3b9 0bbe
00000330: fefa 8e3d a81a c43a 77e8 273d 8960 c63d
00000340: b1ff c9bd 0ff5 1cbd 7558 213d 7c19 b53d
00000350: d6d7 d8b8 78bd d43c 336f e53d 3c9b e83d
00000360: ae2a 16bd 0803 333d cbf0 793d f681 5fbd
00000370: d547 bb3a a243 52bc c661 923d e3e7 1c3b
00000380: fc8d 15bd 5412 093c 3cb8 b83d 3314 df3d
00000390: b4d7 d33d 952e 903b 4a4a 8dbc b1c4 8ebc
000003a0: a903 dcbd 847a cf3d 73e1 52bd 3a78 123d
000003b0: 9b2f bcbc ac6b d2bb e6bb 973d 49fc cbbd
000003c0: e5b2 083e e02f 16bc 1cfa 1dba 2343 123d
000003d0: b91a ee3d 1438 acbd 83cf 743d 2fde b43d
000003e0: 3718 813d 4ff6 c43d cb72 273d 3353 7fbc
000003f0: 5224 f0bb e00c bc39 9309 223c 299a a63d

lstm.weight_hh_l0 f4 [128, 32]
-0.067241445 0.054173853 0.04356491 0.0130627435 0.0108622955 -0.020748295 -0.043543175 0.08231426
-0.06520799 0.090025455 -0.06809252 0.0016398942 -0.037324406 0.0011521031 -0.06426933 0.0153689
0.08053288 -0.025646158 0.045194153 0.025261099 0.048790265 -0.09835124 -0.043961883 0.08880961
0.00026149632 -0.0015406691 0.018306538 0.01918528 -0.026900103 0.03306292 0.0056348266 0.0013861513
-0.07146448 -0.12824346 -0.07597371 -0.01037585 -0.058968622 -0.081672035 -0.030846028 -0.019929422
0.08543843 -0.10829785 -0.07643761 0.032994587 -0.11607009 0.0058981427 0.09564965 0.13170524
-0.12703986 0.020659678 -0.10471165 0.10352233 0.07577066 0.010714109 -0.010931161 -0.10787754
-0.013124531 0.00808393 0.085239634 0.09404813 0.042531975 -0.029230177 0.08073099 0.018558748
-0.008231165 0.08937463 -0.004590296 -0.06914222 -0.07140865 0.007724925 -0.08552314 0.008506587
-0.022976436 0.0083125895 0.08231641 0.014205492 0.06711874 -0.10645694 -0.08904235 0.02611647
-0.008510641 0.0012658155 -0.016324107 0.010706119 0.045377735 0.113985136 0.012848474 0.043917064
-0.07838889 0.078861974 0.08335746 -0.003977733 0.08935319 -0.057810605 0.0062158047 -0.09917918
0.026785184 -0.07989695 0.033446934 0.07282622 -0.009782097 -0.11520005 -0.03304014 -0.0019247347
0.092900634 -0.002388341 0.008969027 0.088218495 -0.022396462 -0.08058776 -0.049751967 0.046706636
-0.024169981 0.045525923 0.0144523755 -0.053299353 0.027087249 -0.032314938 0.06033632 -0.0042371843
0.02230887 0.1021333 -0.050042555 0.008327205 0.0762335 -0.11645635 -0.017052738 0.103100315
0.109097235 -0.046706486 -0.0006905142 0.0015355968 0.036750495 -0.099271365 0.007822351 0.09255372
-0.058584895 -0.072548576 -0.07088591 -0.005626565 0.0060102176 -0.109729625 0.0056534614 -0.034226064
-0.036994323 -0.07665216 0.11284203 -0.062077623 0.0027614303 0.0030976334 -0.0037010093 -0.004696646
-0.0043524574 -0.08336217 0.026575716 -0.07867799 0.0039819917 -0.078466065 -0.007191816 -0.002300689
0.05506716 0.11280314 0.08011958 -0.0037505073 -0.07628379 -0.07433026 0.12382916 -0.0010337919
0.06798069 0.011191745 -0.009010949 -0.11314046 0.08331145 -0.06452318 -0.09185095 0.026062544
-0.02069372 0.121012926 0.1136649 0.06091902 -0.012010107 -0.004656853 -0.07471647 -0.019810237
0.030310618 0.02949546 0.07982607 0.051765744 0.10254635 0.056924883 0.054477766 -0.00274182
-0.037073474 0.06552509 -0.09825471 0.099997394 0.0029023085 -0.07636907 -0.039664336 0.03596533
0.09989946 0.081781246 0.093895026 0.049793348 -0.042650167 0.074246526 0.0049327435 -0.07460261
-0.002130167 0.004515411 0.098737836 0.085339904 -0.04541304 0.050769974 0.09352308 -0.114574276
-0.05329414 0.05068021 0.046919722 0.022347672 -0.032303594 -0.00940987 -0.05462691 -0.0013328841
0.05283781 -0.027308255 4.3989905e-05 -0.0947431 0.032056533 0.07297814 -0.066914216 0.047396585
0.05237241 -0.03041668 0.039662436 -0.02010003 0.001553209 -0.009629068 0.051749244 -0.0011712256
0.037496034 0.009458893 0.06395038 -0.0067076515 -0.086507306 0.03817963 0.010605483 0.01302224
-0.00032150798 0.06959926 0.051453233 -0.09667581 -0.07070272 -0.0024810464 -0.11393958 0.027345026
00000000: e2b5 89bd 67e5 5d3d 1e71 323d 1e05 563c
00000010: c5f7 313c 54f8 a9bc 545a 32bd 6194 a83d
00000020: c48b 85bd 445f b83d 1774 8bbd b8f1 d63a
00000030: 7ae1 18bd 2a02 973a a39f 83bd d7cd 7b3c
00000040: 6cee a43d e417 d2bc 811d 393d 5df0 ce3c
00000050: 4dd8 473d 606c c9bd 6011 34bd d0e1 b53d
00000060: 7119 8939 47f0 c9ba 98f7 953c 732a 9d3c
00000070: 9b5d dcbc fc6c 073d 5aa4 b83b 85af b53a
00000080: f85b 92bd 4152 03be 1b98 9bbd 78ff 29bc
00000090: 1589 71bd ab43 a7bd cfb0 fcbc 0743 a3bc
000000a0: 58fa ae3d 43cb ddbd 528b 9cbd 5525 073d
000000b0: 28b6 edbd 3545 c13b f7e3 c33d bddd 063e
000000c0: bd16 02be 7c3e a93c 1073 d6bd 8403 d43d
000000d0: a62d 9b3d 3b8a 2f3c 9d18 33bc e6ee dcbd
000000e0: 4608 57bc 7672 043c 1e92 ae3d 4e9c c03d
000000f0: 0236 2e3d 2074 efbc 4a56 a53d 8408 983c
00000100: 02dc 06bc 0c0a b73d 326a 96bb 709a 8dbd
00000110: b33e 92bd 5e21 fd3b c226 afbd 365f 0b3c
00000120: 1439 bcbc 8731 083c 8295 a83d 27be 683c
00000130: 8d75 893d 1906 dabd d65b b6bd 35f2 d53c
00000140: 3770 0bbc b8e9 a53a 22ba 85bc b868 2f3c
00000150: 01de 393d 0a71 e93d 6882 523c 61e2 333d
00000160: 5b8a a0bd 6382 a13d 51b7 aa3d a557 82bb
00000170: cefe b63d d0ca 6cbd f3ad cb3b 741e cbbd
00000180: 9a6c db3c 03a1 a3bd a7ff 083d ea25 953d
00000190: 1745 20bc 01ee ebbd 1955 07bd 6147 fcba
000001a0: b042 be3d b685 1cbb d3f2 123c e6ab b43d
000001b0: c978 b7bc 320b a5bd b8c8 4bbd 754f 3f3d
000001c0: 2000 c6bc 6479 3a3d a8c9 6c3c 6c50 5abd
000001d0: 14e6 dd3c ab5c 04bd 3823 773d 14d8 8abb
000001e0: 17c1 b63c 432b d13d 6cf9 4cbd d46e 083c
000001f0: 4f20 9c3d ab80 eebd 2fb2 8bbc 4226 d33d
00000200: 5f6e df3d 4d4f 3fbd a003 35ba 1446 c93a
00000210: b087 163d c94e cbbd 5129 003c ce8c bd3d
00000220: b7f6 6fbd 5994 94bd a22c 91bd 0c5f b8bb
00000230: 5cf1 c43b edb9 e0bd ac40 b93b a130 0cbd
00000240: 5c87 17bd cffb 9cbd b919 e73d 1b45 7ebd
00000250: 1df9 343b aa01 4b3b a28c 72bb 52e6 99bb
00000260: 0f9f 8ebb c9b9 aabd 51b5 d93c ed21 a1bd
00000270: 5e7b 823b d1b2 a0bd 53a9 ebbb 28c7 16bb
00000280: 1a8e 613d 5505 e73d bc15 a43d 12cb 75bb
00000290: ad3a 9cbd 773a 98bd 259a fd3d 4d80 87ba
000002a0: 7639 8b3d 955d 373c a9a2 13bc 2fb6 e7bd
000002b0: 329f aa3d bb24 84bd 5a1c bcbd 1e81 d53c
000002c0: e085 a9bc a0d5 f73d 25c9 e83d 3986 793d
000002d0: 0ac6 44bc 8498 98bb f304 99bd 1449 a2bc
000002e0: f94d f83c 77a0 f13c da7b a33d 5108 543d
000002f0: d203 d23d 112a 693d 1424 5f3d 1bb0 33bb
00000300: 5bda 17bd 0532 863d c439 c9bd 6fcb cc3d
00000310: a834 3e3b 6367 9cbd 1277 22bd 6250 133d
00000320: 1798 cc3d ed7c a73d 094c c03d 1cf4 4b3d
00000330: f1b1 2ebd 900e 983d daa2 a13b 41c9 98bd
00000340: 469a 0bbb 03f6 933b 1037 ca3d b0c6 ae3d
00000350: 0603 3abd 2df4 4f3d 0789 bf3d eba5 eabd
00000360: f54a 5abd 0d96 4f3d e52e 403d 7712 b73c
00000370: c650 04bd db2b 1abc 77c0 5fbd 2bb4 aeba
00000380: 766c 583d 90b5 dfbc cd81 3838 ac08 c2bd
00000390: b64d 033d 9075 953d 520a 89bd ec22 423d
000003a0: 7484 563d 672c f9bc 1475 223d d1a8 a4bc
000003b0: 0c95 cb3a 3dc3 1dbc 04f7 533d cf83 99ba
000003c0: 7195 193d 79f9 1a3c 6bf8 823d dccb dbbb
000003d0: be2a b1bd 3e62 1c3d 9fc2 2d3c 3c5b 553c
000003e0: 1290 a8b9 0f8a 8e3d a0c0 523d f8fd c5bd
000003f0: 96cc 90bd 0d99 22bb 2859 e9bd ad02 e03c

lstm.bias_ih_l0 f4 [128]
0.08816774 0.15800935 -0.1281754 0.07763389 0.06362626 -0.020701585 -0.061662164 -0.059910797
0.11968195 -0.059635606 -0.11730721 -0.1042061 -0.031447124 0.13001129 -0.094346374 0.09729369
0.03435174 -0.14786029 0.061599903 0.08647964 0.11561596 -0.014254077 0.05885744 0.014195016
0.07778684 0.110174134 -0.035632275 0.050855193 0.110429026 -0.053795926 -0.08921239 -0.0342719
0.087223455 0.13373731 -0.027799822 0.09658367 -0.061313257 -0.010681812 -0.048567027 -0.031462952
0.04808233 -0.01485812 0.01743309 -0.0006627912 -0.06741118 0.020850876 -0.08343648 0.0391824
0.06707325 -0.13458635 0.030632576 -0.13468905 0.026181268 0.04582869 0.0086603705 0.15101309
0.067499846 0.022043874 -0.105259195 0.10955977 0.11541279 -0.04457261 -0.003188263 -0.11058601
-0.16336472 0.04112563 0.026874304 0.052935965 -0.09618233 -0.17680046 -0.06519695 -0.07044725
0.14092638 -0.07499466 0.011642023 -0.027137691 -0.053697076 -0.047036868 -0.10728669 -0.03741699
0.12527663 -0.071424246 0.10894231 0.13892089 0.00883209 0.012738945 0.005594251 -0.024514118
0.031533528 0.13957657 0.11693905 0.13499567 -0.1865915 -0.11398027 -0.1118174 -0.049160175
0.14931369 0.17805418 0.041205227 0.09599674 0.008640051 -0.05619663 0.13871148 0.09064469
0.07995822 -0.04044317 0.075056635 0.06697549 -0.07819928 -0.060161524 0.043225065 0.03441683
-0.023371683 0.039894722 0.0036775519 0.16673979 0.12094048 -0.08365559 0.03251076 0.15240417
0.09767024 0.024460517 -0.030313198 -0.11766343 -0.051710445 0.11020676 0.07837544 0.0065778857
00000000: 4a91 b43d 34cd 213e 6940 03be 84fe 9e3d
00000010: 7c4e 823d 5f96 a9bc 7791 7cbd 0665 75bd
00000020: cf1b f53d 7744 74bd c33e f0bd 026a d5bd
00000030: b3ce 00bd ae21 053e ac38 c1bd ea41 c73d
00000040: 69b4 0c3d b068 17be 2e50 7c3d 3d1c b13d
00000050: 0fc8 ec3d ef89 69bc 8014 713d 3692 683c
00000060: b54e 9f3d faa2 e13d 26f3 11bd 894d 503d
00000070: 9d28 e23d 1e59 5cbd fcb4 b6bd b160 0cbd
00000080: 36a2 b23d 6ff2 083e 74bc e3bc a9cd c53d
00000090: 9c23 7bbd c402 2fbc 38ee 46bd 4cdf 00bd
000000a0: faf1 443d 796f 73bc d7cf 8e3c 2abf 2dba
000000b0: df0e 8abd 75cf aa3c bfe0 aabd b97d 203d
000000c0: b35d 893d 01d1 09be 2bf1 fa3c edeb 09be
000000d0: 197a d63c ddb6 3b3d 3ae4 0d3c 2da3 1a3e
000000e0: 5c3d 8a3d 5b95 b43c 2292 d7bd df60 e03d
000000f0: 8a5d ec3d c591 36bd 2df2 50bb eb7a e2bd
00000100: 1549 27be 5973 283d 8027 dc3c 62d3 583d
00000110: 3efb c4bd 2e0b 35be fb85 85bd a646 90bd
00000120: 014f 103e cd96 99bd 2fbe 3e3c dd4f debc
00000130: 77f1 5bbd bba9 40bd 20b9 dbbd 8f42 19bd
00000140: 8448 003e e046 92bd 251d df3d 4741 0e3e
00000150: 78b4 103c 02b7 503c fb4f b73b d5d1 c8bc
00000160: 4d29 013d 29ed 0e3e be7d ef3d 4e3c 0a3e
00000170: d811 3fbe 7d6e e9bd 8500 e5bd 2e5c 49bd
00000180: b0e5 183e d653 363e d0c6 283d f099 c43d
00000190: 008f 0d3c 702e 66bd 620a 0e3e eca3 b93d
000001a0: 23c1 a33d bda7 25bd 4bb7 993d 722a 893d
000001b0: f226 a0bd ee6b 76bd c40c 313d a9f8 0c3d
000001c0: f975 bfbc a668 233d 1503 713b d6bd 2a3e
000001d0: a4af f73d 9f53 abbd 012a 053d d70f 1c3e
000001e0: 5607 c83d 6c61 c83c 6253 f8bc 86f9 f0bd
000001f0: 55ce 53bd 15b4 e13d 4d83 a03d 4e8b d73b

lstm.bias_hh_l0 f4 [128]
0.07586926 -0.08339082 0.07330865 0.088420644 -0.12205951 0.08301496 -0.14338064 -0.1186648
0.13347274 0.009869893 -0.06508924 -0.038480815 -0.12299216 0.042953745 0.12022546 0.0020940946
-0.1187972 -0.15936437 0.046983894 0.15271196 0.10163204 -0.12505035 0.03626336 -0.05155998
0.11460943 0.07002036 0.12360509 0.1059115 0.017528316 -0.008588329 -0.076445885 -0.10402889
-0.07281895 0.18432532 -0.07270725 0.09762941 -0.057334222 -0.10615598 -0.024387857 -0.025114268
-0.019654397 -0.057297595 0.116007 -0.09816598 0.15829006 0.11627025 -0.037013557 0.1492419
-0.015322987 -0.037918296 -0.10394961 0.020760156 0.0058361376 0.03672733 -0.105475895 -0.14087442
0.09859548 0.11434898 0.04030512 -0.024677513 0.10725831 -0.07985945 0.13810773 0.016030455
-0.037440356 0.18286663 0.1042271 0.1607918 0.054907095 0.039413195 -0.055327773 -0.11059575
0.03522697 -0.015447909 0.019963078 -0.16579878 -0.12411155 0.061122417 -0.07743881 -0.103052475
0.16479169 -0.08985281 0.14462367 0.14773883 -0.0799817 -0.120757766 0.11397574 0.026597472
0.011514447 -0.05820396 -0.1316381 0.050725754 0.06379869 0.15969762 -0.11497003 0.058976118
-0.05354345 0.018743927 -0.033554498 -0.097086474 0.00708617 -0.009494217 0.036358606 -0.06483206
0.01916156 -0.12824371 0.11328188 0.027451083 0.15484777 0.12836762 0.06153096 -0.1279845
0.027493017 -0.09822937 -0.11148455 -0.011728909 0.025551978 -0.06946064 -0.022609549 0.14171039
0.030671593 -0.12128026 0.0019981018 -0.13258514 0.082535 0.089583375 0.081530474 -0.11660663
00000000: 5861 9b3d cec8 aabd d822 963d e215 b53d
00000010: 56fa f9bd bf03 aa3d 60d2 12be 8806 f3bd
00000020: 14ad 083e 55b5 213c 824d 85bd 0f9e 1dbd
00000030: 50e3 fbbd 44f0 2f3d c438 f63d 143d 093b
00000040: f24b f3bd 6a30 23be 2f72 403d 8660 1c3e
00000050: 7624 d03d 330d 00be e488 143d 8f30 53bd
00000060: 59b8 ea3d d666 8f3d aa24 fd3d 21e8 d83d
00000070: 8b97 8f3c 10b6 0cbc a98f 9cbd 190d d5bd
00000080: 1a22 95bd c7bf 3c3e 8ae7 94bd eef1 c73d
00000090: 4ad7 6abd 4e68 d9bd 0bc9 c7bc 70bc cdbc
000000a0: 4202 a1bc e2b0 6abd 1495 ed3d 3f0b c9bd
000000b0: ca16 223e 191f ee3d 879b 17bd ded2 183e
000000c0: 440d 7bbc 3750 1bbd 88e3 d4bd 3411 aa3c
000000d0: 123d bf3b 666f 163d bf03 d8bd 6241 10be
000000e0: 6dec c93d cc2f ea3d fb16 253d 7f28 cabc
000000f0: 3faa db3d 5a8d a3bd 1d6c 0d3e 4d52 833c
00000100: 0f5b 19bd 6441 3b3e 0575 d53d 9ba6 243e
00000110: 43e6 603d bb6f 213d 609f 62bd 0680 e2bd
00000120: 284a 103d 3a19 7dbc 9c89 a33c 28c7 29be
00000130: 322e febd 805b 7a3d 3d98 9ebd 2d0d d3bd
00000140: 27bf 283e c004 b8bd 3a18 143e d948 173e
00000150: 72cd a3bd d94f f7bd 1d6c e93d f1e2 d93c
00000160: 17a7 3c3c 4767 6ebd 23cc 06be cfc5 4f3d
00000170: e3a8 823d c687 233e 6875 ebbd f190 713d
00000180: 6050 5bbd dd8c 993c 7170 09bd 46d5 c6bd
00000190: 1a33 e83b a28d 1bbc c3ec 143d acc6 84bd
000001a0: b4f8 9c3c 5252 03be 5500 e83d 18e1 e03c
000001b0: 6a90 1e3e cd72 033e e307 7c3d 5e0e 03be
000001c0: 0939 e13c 7b2c c9bd 0352 e4bd 9c2a 40bc
000001d0: 6252 d13c 6141 8ebd a937 b9bc 871c 113e
000001e0: fe42 fb3c c961 f8bd 96f2 023b 66c4 07be
000001f0: 1c08 a93d 7d77 b73d 73f9 a63d 75cf eebd

gcn1.bias f4 [32]
0.0 -0.0049125245 -0.006239875 0.064489484 -0.023512872 -0.02725416 0.0 -0.021904998
0.014423076 -0.015451523 0.0 0.018818144 0.0067895153 0.011996716 -0.046037648 0.0067682834
0.018643219 -0.014508823 0.01587987 -0.005070032 0.0 -0.0006468942 -0.0016782068 0.013043098
0.035752 0.017733933 0.0035620818 -0.012402734 0.015434066 -0.024807207 0.01295075 0.009359784
00000000: 0000 0000 3ef9 a0bb de77 ccbb 1013 843d
00000010: 119e c0bc 1e44 dfbc 0000 0000 1c72 b3bc
00000020: c44e 6c3c 6228 7dbc 0000 0000 8228 9a3c
00000030: 957a de3b e08d 443c f991 3cbd 7ac8 dd3b
00000040: aab9 983c 6ab6 6dbc 8016 823c 8322 a6bb
00000050: 0000 0000 5694 29ba 47f7 dbba b8b2 553c
00000060: b070 123d c146 913c d171 693b d634 4bbc
00000070: 2adf 7c3c 7c38 cbbc 622f 543c c859 193c

gcn1.lin.weight f4 [32, 32]
0.045812957 -0.0021868404 0.00010569542 -0.13471599 0.07251154 0.07051077 -0.00061857223 -0.12836578
0.00035170035 0.11566391 -0.09903432 0.025809392 0.0826878 -0.17741199 -0.001163861 0.07206758
-0.11677213 -0.04414929 0.03734331 -0.17514557 -0.09867692 -0.24282794 -0.03238659 -0.023107864
0.0014039946 -0.027236404 0.0560537 0.21673508 -0.004097581 0.13172337 0.1677987 0.17531866
0.11346305 0.21067622 0.29334915 -0.048678283 -0.08368928 -0.01268569 0.23067471 -0.2523002
0.22848171 0.15671727 -0.16280718 0.2546313 -0.23452571 0.15133075 -0.23178278 -0.025334308
-0.18320367 -0.27259728 -0.116721146 0.045530442 -0.16105029 -0.27882496 -0.097159244 -0.1992938
0.22372624 0.21755412 0.068625465 0.08186808 -0.05760431 -0.015990151 -0.23243563 -0.0032029746
0.0007018963 -0.040406723 0.00011021015 -0.106583565 0.03533055 -0.048555665 0.21343464 0.037535615
0.06690132 -0.02087578 0.00607706 0.0020780414 0.0357854 -0.09676388 -0.02438429 0.19524018
0.069791906 0.11096347 -0.0037962245 0.089259975 -0.1857746 -0.21731271 -0.0038656818 -0.074115194
0.0956616 -0.21299267 -0.01191268 -0.18487816 -0.19174655 -0.14971796 0.12764199 -0.15740684
0.1778678 -0.22620818 0.0038839015 0.00077846134 -0.122773744 -0.08703359 -0.14866334 0.23316194
-0.019508196 0.17844833 -0.023717634 0.23252478 -0.12238098 0.16894703 -0.0022109621 -0.21160385
-0.025570061 -0.17581667 0.14514515 -0.07714749 -0.19563906 0.1874564 0.028185114 -0.18665135
-0.16628239 -0.06455371 -0.10225799 -0.09534638 -0.11299766 0.1330916 -0.069067135 0.004146987
0.121838 -0.16201329 0.22803742 -0.11010599 0.027185105 0.00563051 0.05424979 0.06900427
-0.19801332 0.041472554 -0.0888911 -0.18374795 -0.0007516625 0.08416899 0.052261394 0.026697908
-0.08160378 -0.03295809 0.06592818 -0.011606384 0.21834736 0.19704333 0.19825259 0.005197136
-0.011993862 -0.05798293 -0.054887682 -0.14395241 -0.113568425 0.15258186 0.016656075 -0.21264479
0.30443344 0.20944338 0.20018509 -0.25965253 -0.1993037 0.16515873 -0.24593845 0.18603581
-0.15700962 0.035131358 0.08398417 -0.24070321 -0.07238164 -0.17727424 -0.14109881 -0.08555044
-0.0804087 0.1798142 0.10411499 0.1462084 -0.17578554 -0.16123539 0.087611355 -0.08559365
0.088718645 -0.19978209 0.18479235 0.21581575 0.019885419 -0.076107234 0.20087034 0.13528621
0.17677781 -0.12636833 0.02588332 -0.1076027 0.124597386 -0.07498694 -0.09752316 0.0013974503
-0.0081834 0.0006344068 0.1769507 -0.04069629 -2.8426515e-05 0.10530072 -0.22132125 0.09694064
-0.123822995 0.018795278 -0.00061089545 -0.05725745 -0.056849323 -0.026927441 -0.07127536 -4.4570017e-05
0.00013589278 0.00022293253 -2.3086075e-05 -0.13062912 0.242503 -0.19632903 -0.16214849 -0.110350005
-0.21314327 -0.17519544 -0.04876547 0.07748196 -0.030574737 0.2401658 0.20722207 0.028930007
0.110302754 -0.1277579 -0.08717072 -0.00018689221 0.001571089 -0.2396567 0.07536342 -0.101323605
-0.11546068 -0.17654656 0.004555353 -0.00965751 -0.09528413 0.21434698 -0.14769723 -0.09611047
-0.20969413 -0.16895615 0.15288448 0.01681227 -0.045289647 -0.2130113 -0.052866492 -0.04459806
00000000: 5ea6 3b3d 1851 0fbb cca8 dd38 fdf2 09be
00000010: ee80 943d f367 903d ae27 22ba 5272 03be
00000020: 6c64 b839 33e1 ec3d 81d2 cabd 386e d33c
00000030: 3958 a93d 7dab 35be b28c 98ba 2b98 933d
00000040: 3a26 efbd e3d5 34bd 4cf5 183d 5c59 33be
00000050: 2017 cabd e3a7 78be cda7 04bd b44c bdbc
00000060: 3e06 b83a e11e dfbc 9198 653d cdef 5d3e
00000070: 0045 86bb 7ee2 063e 6cd3 2b3e bc86 333e
00000080: 515f e83d 82bb 573e dc31 963e e162 47bd
00000090: 4965 abbd a4d7 4fbc fe35 6c3e 7e2d 81be
000000a0: 1cf7 693e 7e7a 203e edb6 26be 095f 823e
000000b0: 8227 70be 73f6 1a3e 7758 6dbe e589 cfbc
000000c0: be99 3bbe df91 8bbe 7f0b efbd 217e 3a3d
000000d0: 5eea 24be 25c2 8ebe 6dfb c6bd ad13 4cbe
000000e0: 7e18 653e 82c6 5e3e 828b 8c3d 74aa a73d
000000f0: 7ff2 6bbd c7fd 82bc 9b03 6ebe ffe8 51bb
00000100: 77ff 373a 8581 25bd a020 e738 7c48 dabd
00000110: c4b6 103d 4ee2 46bd 9c8e 5a3e f2be 193d
00000120: 8f03 893d af03 abbc 1322 c73b c02f 083b
00000130: b693 123d 242c c6bd 90c1 c7bc 0bed 473e
00000140: 0fef 8e3d d140 e33d 14ca 78bb efcd b63d
00000150: b23b 3ebe 3987 5ebe 6157 7dbb b5c9 97bd
00000160: 3bea c33d c01a 5abe 672d 43bc b350 3dbe
00000170: 3559 44be aa4f 19be 95b4 023e 422f 21be
00000180: fa22 363e 1ea3 67be 0e89 7e3b a811 4c3a
00000190: cd70 fbbd ab3e b2bd 343b 18be 01c2 6e3e
000001a0: a7cf 9fbc 29bb 363e 7c4b c2bc fa1a 6e3e
000001b0: e1a2 fabd 7300 2d3e cae5 10bb aeae 58be
000001c0: 4e78 d1bc 4909 34be eea0 143e 81ff 9dbd
000001d0: 9b55 48be 92f4 3f3e 78e4 e63c 8821 3fbe
000001e0: ee45 2abe bc34 84bd a36c d1bd f644 c3bd
000001f0: 516b e7bd 2a49 083e 1273 8dbd 73e3 873b
00000200: 3486 f93d d0e6 25be a482 693e 407f e1bd
00000210: 4cb3 de3c 2480 b83b 0735 5e3d 1c52 8d3d
00000220: 01c4 4abe 20df 293d 890c b6bd 6c28 3cbe
00000230: 370b 45ba cb60 ac3d 0b10 563d 92b5 da3c
00000240: e21f a7bd 10ff 06bd 5b05 873d b428 3ebc
00000250: 7396 5f3e bac5 493e ba02 4b3e bd4c aa3b
00000260: e781 44bc 827f 6dbd e8d1 60bd 4368 13be
00000270: 9096 e8bd 6b3e 1c3e 5272 883c 8ebf 59be
00000280: b3de 9b3e 5378 563e 52fd 4c3e 2df1 84be
00000290: 4516 4cbe 5f1f 293e 4ad7 7bbe 2c80 3e3e
000002a0: 21c7 20be e6e5 0f3d e4ff ab3d e77a 76be
000002b0: d33c 94bd 6187 35be 357c 10be 1235 afbd
000002c0: 51ad a4bd 3721 383e 3d3a d53d a8b7 153e
000002d0: 2001 34be e41a 25be 956d b33d b94b afbd
000002e0: 1fb2 b53d ad93 4cbe 353a 3d3e cefe 5c3e
000002f0: bfe6 a23c 1cde 9bbd f4b0 4d3e 7888 0a3e
00000300: 3e05 353e b366 01be 4209 d43c ce5e dcbd
00000310: ea2c ff3d c192 99bd 39ba c7bd a72a b73a
00000320: ab13 06bc 524e 263a 9032 353e 27b1 26bd
00000330: 7a75 eeb7 e7a7 d73d 0aa2 62be d088 c63d
00000340: e996 fdbd 8ef8 993c 8024 20ba ca86 6abd
00000350: d6da 68bd f096 dcbc d1f8 91bd b1f0 3ab8
00000360: 717e 0e39 ffc2 6939 f8a8 c1b7 a4c3 05be
00000370: b552 783e 7a0a 49be 410a 26be 2fff e1bd
00000380: 3b42 5abe 6f66 33be 4dbe 47bd ddae 9e3d
00000390: df77 fabc 06ee 753e 0632 543e 9ffe ec3c
000003a0: 69e6 e13d f8d2 02be 9086 b2bd 7ff8 43b9
000003b0: 00ed cd3a 9168 75be 2358 9a3d c082 cfbd
000003c0: a676 ecbd 9fc8 34be 1245 953b 883a 1ebc
000003d0: 5324 c3bd c67d 5b3e f13d 17be 91d5 c4bd
000003e0: 0fba 56be d702 2dbe c08d 1c3e e3b9 893c
000003f0: a381 39bd a21f 5abe 898a 58bd 75ac 36bd

gcn2.bias f4 [32]
-0.0052614715 -0.02330772 0.00014808122 -0.019610928 0.024672588 0.048108403 0.027149608 0.013748353
0.0070210714 -0.024465598 -0.0017352488 -0.010428738 -0.012918668 0.020309698 0.035690103 0.019610574
0.032399595 -0.0014498839 0.018003384 0.029929249 0.025868753 0.013538767 0.029125916 -0.010526004
-0.01605256 0.026971495 -0.027536146 -0.012639343 -0.017777247 -0.01974763 0.02602106 0.020655382
00000000: 6c68 acbb d5ef bebc 4046 1b39 19a7 a0bc
00000010: 2b1e ca3c 510d 453d db68 de3c c640 613c
00000020: 0411 e63b 146c c8bc 4a71 e3ba 4cdd 2abc
00000030: d2a8 53bc 8660 a63c c92f 123d 5ba6 a03c
00000040: 70b5 043d 080a beba d57b 933c 2f2e f53c
00000050: b5ea d33c b4d1 5d3c 7999 ee3c 4375 2cbc
00000060: a980 83bc 53f3 dc3c 7c93 e1bc 3f15 4fbc
00000070: 97a1 91bc c8c5 a1bc 1e2a d53c 7a35 a93c

gcn2.lin.weight f4 [32, 32]
-0.067361064 0.19273898 -0.1994205 0.041748412 -0.0006335608 -0.23755081 -0.19172029 -0.105049916
-0.1862726 0.00401434 0.0013260747 0.051998165 0.24605855 -0.13380687 -0.122523695 -0.009193541
-0.06514315 0.07957215 -0.14909004 0.0007238536 0.020562539 -0.10398401 -0.031419896 -0.22536106
-0.19740267 0.055993322 -0.14711614 0.19088323 6.947565e-05 -0.040812507 -0.19155267 -0.1964289
0.010889114 0.010284104 0.19642228 -0.018214619 -0.09185816 0.11790475 -0.058272153 0.16629802
0.07133107 0.23428246 -0.04541107 0.048452247 -0.21707276 0.23210302 -0.10639198 -0.043879077
0.17143415 0.04601394 -0.090634964 0.24526303 0.24058324 0.015332977 -0.0035275752 -0.16563214
-0.1542482 0.04815024 0.0005555536 0.07990189 0.1035001 -0.23610748 0.23335233 -0.10994161
-0.13422838 0.05948153 -0.18822715 0.07446266 0.10385182 -0.06925513 -0.18398787 0.008027757
0.050317805 -0.041172788 -0.08842 -0.042361405 -0.005868157 -0.053085897 0.17298506 0.045367755
-0.061269812 -0.24426167 0.1815385 -0.070648015 0.10839406 -0.083085254 -0.10451143 -0.2144101
-0.18128912 0.16546036 -0.087651335 0.027353061 -0.13692282 -0.15146106 0.16311967 0.11397533
0.029343037 0.18769012 0.03202974 -0.118042275 -0.16682626 0.000793471 -0.042902216 -0.0025364603
0.1309226 0.06390005 0.110324 -0.17184068 0.044277396 -0.13321243 0.0054616 0.24553898
0.19024794 0.09425652 -0.1992862 -0.06594687 -0.1246695 0.19496614 -0.15335053 0.11310942
0.24356599 0.013217863 -0.08821023 -0.23480931 0.040211115 0.12390845 -0.2194138 -0.2647642
-0.043503672 0.16749728 -0.15678255 -0.04782669 -0.0046067433 -0.17383137 0.00047287717 0.06339792
0.15636481 0.0095937485 -0.019515805 -0.2019693 0.122364186 0.20746596 0.020960275 0.23725834
0.024429765 -0.07764741 0.24049175 -0.13760778 0.04150061 -0.15565123 -0.060892012 0.011058476
-0.2559235 0.20905459 -0.16039705 -0.13775072 -0.1316174 0.006168898 0.20945348 -0.15201375
0.04489282 0.2646559 0.0012297161 -0.1178838 -0.15757582 -0.21234144 -0.002670134 0.11995032
0.13763605 0.2056447 0.0015126679 -0.12064638 -0.058238357 -0.075765155 -0.17487101 0.15025549
0.12634203 0.17958322 0.31716508 -0.10476726 -0.024649424 -0.20017113 -0.25180998 -0.1854618
0.25095436 -0.04236326 0.1454224 -0.11256227 -0.019672794 0.0048606335 0.08905141 -0.14926057
0.1030353 0.29960084 0.0013476189 0.002765238 0.0058315755 -0.15065911 0.20561121 0.15288317
-0.12818696 -0.008506484 -0.22548525 -0.13969377 0.048697285 -0.1751953 -0.012951083 0.12918967
0.20373052 0.0070096673 0.20919923 0.12214978 0.06596504 0.037506707 -0.2308573 0.16933723
-0.06627669 -0.17568904 0.07978608 -0.18025406 0.2877687 -0.17065379 0.053583927 -0.040018726
0.00021443106 0.2711802 0.10741378 -0.15493453 0.046735566 -0.0706382 -0.07395053 0.11027761
0.23438987 0.029762104 -0.23277459 0.038004417 0.19516179 -0.10087694 0.13689777 -0.1762723
0.25665888 -0.0077630766 -0.22474477 -0.015044827 0.00076331274 -0.14215358 0.20251267 0.14554904
-0.16972105 0.07053949 0.2591364 -0.00016387654 0.104323976 -0.108480215 -0.04057579 0.24343058
00000000: 99f4 89bd 5e5d 453e e334 4cbe 6200 2b3d
00000010: 8c15 26ba 8540 73be 5352 44be 6924 d7bd
00000020: 3fbe 3ebe ba8a 833b afcf ad3a 07fc 543d
00000030: c6f6 7b3e ab04 09be b4ed fabd 81a0 16bc
00000040: c669 85bd b9f6 a23d 0fab 18be fec0 3d3a
00000050: c572 a83c 92f5 d4bd 26b2 00bd 0dc5 66be
00000060: ed23 4abe 4159 653d 9da5 16be e576 433e
00000070: 75b3 9138 042b 27bd 6226 44be a824 49be
00000080: 4168 323c a97e 283c ec22 493e d336 95bc
00000090: 2220 bcbd 0c78 f13d c8ae 6ebd 074a 2a3e
000000a0: 0616 923d bee7 6f3e f500 3abd dd75 463d
000000b0: 5248 5ebe 6aac 6d3e 0ae4 d9bd 8cba 33bd
000000c0: 6f8c 2f3e 1d79 3c3d d39e b9bd 3b26 7b3e
000000d0: 745b 763e 2b37 7b3c e42e 67bb 799b 29be
000000e0: 3df3 1dbe 3039 453d 92a2 113a 9aa3 a33d
000000f0: dcf7 d33d 29c6 71be eaf3 6e3e 1129 e1bd
00000100: 2a73 09be e8a2 733d 9ebe 40be e17f 983d
00000110: 43b0 d43d a2d5 8dbd 5167 3cbe da86 033c
00000120: 0b1a 4e3d cca4 28bd 8c15 b5bd 2783 2dbd
00000130: ab49 c0bb 9970 59bd ff22 313e 8ad3 393d
00000140: 0ef6 7abd bb1f 7abe 3be5 393e e8af 90bd
00000150: b4fd dd3d 9a28 aabd 170a d6bd 528e 5bbe
00000160: dba3 39be 716e 293e 8b82 b3bd 8713 e03c
00000170: 7f35 0cbe 9c18 1bbe d808 273e e66b e93d
00000180: cf60 f03c d731 403e 9e31 033d 26c0 f1bd
00000190: 81d4 2abe f000 503a 3cba 2fbd be3a 26bb
000001a0: 9310 063e 08de 823d 8df1 e13d 01f7 2fbe
000001b0: 375c 353d d768 08be 39f7 b23b 926e 7b3e
000001c0: 5bd0 423e 9009 c13d ae11 4cbe 270f 87bd
000001d0: b952 ffbd 34a5 473e ec07 1dbe e9a5 e73d
000001e0: 5d69 793e bc8f 583c 91a7 b4bd da71 70be
000001f0: 69b4 243d b7c3 fd3d 03ae 60be 2c8f 87be
00000200: e830 32bd 6884 2b3e 9b8b 20be ebe5 43bd
00000210: 2af4 96bb da00 32be 80ec f739 c5d6 813d
00000220: 191e 203e 192f 1d3c 9cdf 9fbc 0ad1 4ebe
00000230: 139a fa3d f571 543e e2b4 ab3c daf3 723e
00000240: ee20 c83c 9b05 9fbd 7843 763e 0ee9 0cbe
00000250: 8bfc 293d 0963 1fbe e769 79bd 9c2e 353c
00000260: 6808 83be 6812 563e 203f 24be 860e 0dbe
00000270: b6c6 06be 7824 ca3b f97a 563e 7ea9 1bbe
00000280: 89e1 373d fa80 873e 6d2e a13a 106d f1bd
00000290: 8e5b 21be 0970 59be 6afd 2ebb 83a8 f53d
000002a0: 77f0 0c3e 8694 523e b644 c63a 7315 f7bd
000002b0: 588b 6ebd c32a 9bbd 6311 33be 93dc 193e
000002c0: ce5f 013e aae4 373e 7663 a23e 3890 d6bd
000002d0: 97ed c9bc a9f9 4cbe 3ded 80be b3e9 3dbe
000002e0: 177d 803e 1985 2dbd 9ce9 143e 0c87 e6bd
000002f0: d728 a1bc f345 9f3b 9660 b63d c3d7 18be
00000300: 2c04 d33d 4865 993e 96a2 b03a ff38 353b
00000310: cd16 bf3b 6246 1abe bf8b 523e 688d 1c3e
00000320: 7143 03be c85e 0bbc 9be5 66be e20b 0fbe
00000330: ce76 473d 6666 33be c730 54bc 4c4a 043e
00000340: bc9e 503e 5ab1 e53b 5338 563e aa29 fa3d
00000350: ae18 873d a2a0 193d db65 6cbe bd66 2d3e
00000360: 13bc 87bd d4e7 33be e266 a33d 8594 38be
00000370: 6b56 933e debf 2ebe d27a 5b3d adea 23bd
00000380: e6d8 6039 22d8 8a3e c2fb db3d 28a7 1ebe
00000390: cb6d 3f3d c3aa 90bd 6073 97bd 3ad9 e13d
000003a0: e603 703e a8cf f33c 765c 6ebe 85aa 1b3d
000003b0: 7ed8 473e 9298 cebd ee2e 0c3e ba80 34be
000003c0: cb68 833e 6861 febb 7e23 66be 947e 76bc
000003d0: 0d19 483a b590 11be 7b5f 4f3e cf0a 153e
000003e0: 5bcb 2dbe 0277 903d 87ad 843e 46d6 2bb9
000003f0: cfa7 d53d e02a debd cd32 26bd de45 793e

fc1.weight f4 [16, 32]
-0.06683513 0.036110405 0.13115169 -0.0009902294 0.0010858455 0.016324 0.0069237743 0.0065357466
0.13353738 -0.021721972 -0.09458354 -0.05707781 -0.013160088 0.058599666 0.010551551 0.114436544
0.155268 0.0034245148 -0.09214953 0.16143918 0.09785351 0.009348973 -0.09228347 -0.030964304
-0.023536216 -0.059376888 0.16880298 0.08371669 0.053035915 0.12923622 0.14209366 -0.022925694
0.07915715 0.08197064 -0.01019452 0.008090514 0.08128782 -0.028419312 -0.0971162 -0.06549128
0.10770717 -0.0036701863 -0.0005151002 0.12329496 0.015634304 -0.047117077 0.014105015 -0.14810818
0.0060289153 -0.057528928 0.076869406 0.13166538 0.035821144 0.1375904 -0.0027274098 0.061860185
0.061809756 -0.037722696 0.07554586 -0.09328327 0.14984934 -0.008783264 0.039563023 -0.1486314
0.09133162 0.068928756 -0.037568446 0.023604723 0.02634729 0.0712192 -0.042458758 -0.013492511
0.053701527 -0.048679568 0.00015220064 0.08309413 -0.048165984 0.07731094 -0.07455185 -0.004432879
-0.07145933 -0.045698013 -0.049931757 0.00028238478 -0.004994313 -0.0012797869 -0.003136034 0.055412065
0.0021081117 -0.07187635 -0.088407904 -0.010564501 0.08937678 -0.019644842 -0.09535969 0.03605907
-0.04215651 0.00043957494 -0.00011420192 -0.1019092 -0.042034496 0.000117440424 -0.07304724 0.04041962
-0.004502629 -0.0014155906 0.00039048048 0.017995728 -0.09141904 -0.109500736 0.051227707 -0.0015268573
-0.0005220441 -0.037162803 0.0070517533 -0.047351282 -0.00016628184 -0.09080114 -0.11165808 0.10614226
-4.1395935e-05 -0.085293226 -0.042928766 0.007489159 0.0011679902 -0.09068347 0.0019477684 0.007683635
-0.06163456 -0.029466402 0.10704153 0.06043058 -0.034663226 0.16456261 0.031388056 -0.0411439
0.15771674 -0.052690756 0.076326564 -0.07264316 0.060200695 -0.05038671 0.0634489 0.07652693
0.15370744 0.018048102 0.13997485 -0.11220068 0.012599522 0.010865829 0.07895219 -0.001136044
0.0064044595 0.05879061 -0.07873365 0.054163143 0.06842596 -0.021214986 0.0947429 0.088816926
-0.06139795 -0.0014200727 -0.041710872 0.113851 -0.048092436 0.00063053746 0.0761651 0.035272755
-0.10899757 -0.0073476313 -0.022438353 -0.02574837 -0.0013245487 -0.020776633 0.0003587025 0.0779864
-0.011137653 0.109762244 -0.023786334 0.020364933 -0.11224601 -0.012193889 -0.00019234556 0.014969407
-0.062259305 -0.020177096 -0.018787518 9.729145e-05 0.0001187984 0.0012043582 -0.04308464 -0.10643087
0.061173253 -0.10785122 -0.011217358 -0.00080898503 -0.015902488 -0.0045161163 -0.06303609 -0.029579803
0.10573108 0.035528615 0.01794149 0.060487527 0.00023436046 -0.09020911 -0.00017635901 -0.02562707
0.12172073 1.8362625e-05 0.008450805 -0.0052260505 -0.080039404 -0.09005328 0.097224765 0.017656907
-0.0007587495 -0.06604288 -0.10675432 -0.082537204 0.07726971 -0.082748346 0.06099713 -0.07124627
-0.06485765 -0.06705157 0.035584353 -0.14783622 0.18218665 0.067017704 0.1855882 0.14961794
0.11072664 -0.10452412 -0.008244479 0.14181964 -0.010019761 0.07949075 -0.03486195 -0.036456857
0.12215822 -0.072444834 0.07215468 0.2030244 0.117040835 -0.03216365 0.101199605 0.12505527
0.015883531 0.0967906 -0.098672 -0.047926202 -0.14801891 -0.1382146 0.13445558 0.027474139
00000000: dbe0 88bd 81e8 133d a14c 063e 96ca 81ba
00000010: ee52 8e3a e9b9 853c d4e0 e23b d129 d63b
00000020: 06be 083e 47f2 b1bc 04b5 c1bd 6cca 69bd
00000030: 699d 57bc 3406 703d 6ae0 2c3c b55d ea3d
00000040: 93fe 1e3e d36d 603b e5b8 bcbd 5050 253e
00000050: 6c67 c83d 6f2c 193c 1eff bcbd daa8 fdbc
00000060: 06cf c0bc 2e35 73bd b0da 2c3e a873 ab3d
00000070: 303c 593d 8056 043e 0081 113e aace bbbc
00000080: 251d a23d 39e0 a73d ea06 27bc 138e 043c
00000090: 3b7a a63d 9ecf e8bc dce4 c6bd 4b20 86bd
000000a0: 9495 dc3d 8287 70bb ca07 07ba 1182 fc3d
000000b0: 8313 803c d6fd 40bd b918 673c aca9 17be
000000c0: 358e c53b 74a3 6bbd b56d 9d3d 4ad3 063e
000000d0: 31b9 123d 7fe4 0c3e 58be 32bb 1b61 7d3d
000000e0: 3a2c 7d3d 1d83 1abd cab7 9a3d 4d0b bfbd
000000f0: 1b72 193e aee7 0fbc d60c 223d d432 18be
00000100: 130c bb3d 852a 8d3d 5fe1 19bd b15e c13c
00000110: 46d6 d73c 5fdb 913d 3ce9 2dbd b10f 5dbc
00000120: 22f6 5b3d 3a64 47bd 0c98 1f39 412d aa3d
00000130: b249 45bd 3355 9e3d a4ae 98bd af41 91bb
00000140: 4559 92bd d72d 3bbd 3e85 4cbd 0b0d 9439
00000150: 56a7 a3bb 86be a7ba eb85 4dbb c3f7 623d
00000160: 3f28 0a3b e833 93bd 340f b5bd bb16 2dbc
00000170: 2c0b b73d 38ee a0bc f14b c3bd adb2 133d
00000180: 4eac 2cbd c076 e639 b07f efb8 c5b5 d0bd
00000190: 5d2c 2cbd 594a f638 cb99 95bd 0b8f 253d
000001a0: ca8a 93bb 578b b9ba 67b9 cc39 c76b 933c
000001b0: e839 bbbd ec41 e0bd 25d4 513d d420 c8ba
000001c0: c9d9 08ba 0638 18bd 6512 e73b 6bf3 41bd
000001d0: f15b 2eb9 f3f5 b9bd feac e4bd 1d61 d93d
000001e0: 8ca0 2db8 37ae aebd 13d6 2fbd 9e67 f53b
000001f0: 3f17 993a 41b8 b9bd 434c ff3a 01c7 fb3b
00000200: 8574 7cbd 8663 f1bc 9738 db3d 0e86 773d
00000210: 07fb 0dbd 1a83 283e c390 003d 8286 28bd
00000220: 7f80 213e 43d2 57bd 1a51 9c3d f0c5 94bd
00000230: 0195 763d 4b62 4ebd 7ff1 813d 27ba 9c3d
00000240: 7c65 1d3e 9dd9 933c 9155 0f3e 78c9 e5bd
00000250: 3a6e 4e3c 9706 323c b0b1 a13d 50e7 94ba
00000260: 80dc d13b 6cce 703d 1c3f a1bd 2cda 5d3d
00000270: e922 8c3d 0dcb adbc 9108 c23d a6e5 b53d
00000280: 6b7c 7bbd bc21 baba 05d9 2abd b72a e93d
00000290: 93fc 44bd a74a 253a 73fc 9b3d 2a7a 103d
000002a0: 1e3a dfbd 66c4 f0bb a3d0 b7bc 3fee d2bc
000002b0: 7b9c adba c233 aabc 3c10 bc39 55b7 9f3d
000002c0: b47a 36bc 07cb e03d 8fdb c2bc 5cd4 a63c
000002d0: 3ce1 e5bd e1c8 47bc 5eb0 49b9 3e42 753c
000002e0: 9d03 7fbd 704a a5bc 48e8 99bc f308 cc38
000002f0: 6823 f938 8edb 9d3a 8579 30bd 6ef8 d9bd
00000300: ce90 7a3d 1ae1 dcbd 02c9 37bc 1112 54ba
00000310: ef45 82bc eefb 93bb 1119 81bd 5851 f2bc
00000320: 8989 d83d 7486 113d 08fa 923c c5c1 773d
00000330: a8be 7539 8ebf b8bd 03ed 38b9 dcef d1bc
00000340: b848 f93d 7009 9a37 3f75 0a3c 4a3f abbb
00000350: b3eb a3bd db6d b8bd c71d c73d 38a5 903c
00000360: d1e6 46ba 7d41 87bd 02a2 dabd 4409 a9bd
00000370: 953f 9e3d f777 a9bd 20d8 793d 90e9 91bd
00000380: 16d4 84bd 5552 89bd e6c0 113d 6162 17be
00000390: 238f 3a3e 9440 893d d50a 3e3e 7235 193e
000003a0: a6c4 e23d be10 d6bd da13 07bc 2b39 113e
000003b0: ec29 24bc 0ccc a23d 67cb 0ebd c953 15bd
000003c0: 172e fa3d f55d 94bd d5c5 933d a1e5 4f3e
000003d0: 1bb3 ef3d 08be 03bd bd41 cf3d 7d0e 003e
000003e0: 2e1e 823c 263a c63d 8c14 cabd 444e 44bd
000003f0: 4592 17be 2188 0dbe b9ae 093e 7211 e13c

fc1.bias f4 [16]
-0.011510367 0.084234715 -0.049674377 -0.047348287 -0.014049532 -0.0748221 -0.08565515 0.04762955
-0.08774597 0.08155079 0.102175556 -0.057222728 0.12733746 -0.0006757797 0.06443758 0.07623808
00000000: fa95 3cbc 4083 ac3d 5c77 4bbd 47f0 41bd
00000010: 0230 66bc 543c 99bd f86b afbd 3417 433d
00000020: 29b4 b3bd 1a04 a73d 6b41 d13d 6162 6abd
00000030: c064 023e cf26 31ba daf7 833d b622 9c3d

fc2.weight f4 [6, 16]
-0.05676847 -0.10305272 -0.024060713 -0.052751523 0.05752246 -0.0019088243 -0.09128901 -0.035807583
0.107959114 -0.22530867 0.22016309 0.07253871 0.17240594 0.18403292 0.088481225 -0.18218899
-0.20154633 -0.06910539 0.073876195 0.0006526551 0.11838971 0.1671057 0.031799674 0.21736538
0.0023092364 0.08664506 -0.10376147 0.06347056 0.12839276 0.016636135 -0.07418551 0.08091095
-0.18080802 0.25515854 -0.09968306 -0.00011822574 0.13728236 0.02239619 -0.11621618 0.11380345
-0.075382516 -0.026418485 0.25384745 0.027357677 -0.041406088 0.05607089 -0.004291914 -0.111054726
-0.2711115 0.00935591 -0.17546344 -0.069333784 -0.09250224 0.008463405 0.13522173 -0.016894072
-0.18319705 0.039228387 -0.014343581 -0.09238377 0.15073979 0.111866094 0.19803795 0.13788079
0.012213604 0.040592838 -0.1013166 0.034223966 -0.16769803 0.00015041098 -0.03362941 -0.18528926
-0.0016238242 0.218788 0.02118148 -0.15979436 -0.01474485 -0.15090472 0.13301395 -0.2712562
-0.16740933 0.17982982 0.15518712 -0.0018292244 -0.058535647 0.024318635 -0.1264345 -0.25565636
0.0016648095 -0.1119283 0.203275 0.105271675 -0.112758264 0.023191014 0.056543835 -0.14302862
00000000: 0e86 68bd 4e0d d3bd f91a c5bc fb11 58bd
00000010: ac9c 6b3d 8431 faba bcf5 babd f9aa 12bd
00000020: ab19 dd3d 51b7 66be 6f72 613e 2d8f 943d
00000030: 2f8b 303e 2073 3c3e a535 b53d c08f 3abe
00000040: 2962 4ebe 2087 8dbd 674c 973d f116 2b3a
00000050: 4e76 f23d c21d 2b3e 6040 023d 0895 5e3e
00000060: 8f56 173b f772 b13d e580 d4bd dafc 813d
00000070: 6479 033e 8148 883c 93ee 97bd a4b4 a53d
00000080: bd25 39be 24a4 823e a226 ccbd f6ef f7b8
00000090: bf93 0c3e 3778 b73c c002 eebd c811 e93d
000000a0: 2662 9abd 946b d8bc 4bf8 813e 351d e03c
000000b0: 6e99 29bd 97aa 653d 2fa3 8cbb a970 e3bd
000000c0: 20cf 8abe 8849 193c b0ac 33be dffe 8dbd
000000d0: d071 bdbd 18aa 0a3c 9177 0a3e 7065 8abc
000000e0: 0298 3bbe f2ad 203d 5701 6bbc b433 bdbd
000000f0: 885b 1a3e 0d1a e53d 76ca 4a3e 9f30 0d3e
00000100: 911b 483c ad44 263d 147f cfbd 6e2e 0c3d
00000110: 08b9 2bbe a4b7 1d39 febe 09bd 78bc 3dbe
00000120: 80d6 d4ba f609 603e c884 ad3c 22a1 23be
00000130: 6294 71bc c486 1abe cf34 083e 18e2 8abe
00000140: 5a6d 2bbe 4f25 383e 5fe9 1e3e 96c2 efba
00000150: 13c3 6fbd e037 c73c 0c78 01be 64e5 82be
00000160: bd35 da3a aa3a e5bd 5227 503e ad98 d73d
00000170: ceed e6bd 15fb bd3c 829a 673d 1876 12be

fc2.bias f4 [6]
0.011560804 -0.052200258 -0.04484061 0.055961154 0.09267139 0.08205972
00000000: 8769 3d3c f0cf 55bd caaa 37bd 8637 653d
00000010: 7fca bd3d ed0e a83d
