outputs/models/model_capital.pth (torch, 28517 bytes, 9 tensors)

lstm.weight_ih_l0 f4 [128, 1]
00000000: 4813 32be ef2e fc3c a57e 7fbd a37a b7bc
00000010: 6f26 f33d 351b 9a3d bda5 2c3c 3e3e e3bc
00000020: 9a8f 6e3e 377e 753d f476 79bd 5d88 bdbb
00000030: 6bbc 2cbe d001 41be 7f43 393d 489b 32be
00000040: bc81 583e 3473 72bd d2eb bb3d d0e0 793e
00000050: 2b65 373e b38a be3b 7a7a cdbd 60ec 16be
00000060: a5ab 1ebe 98a6 063e d986 813d 5f1c 32bd
00000070: 1cce ec3d cd7d 163e d8dc c9bd 04b2 b53d
00000080: 6641 193d 7426 7d3c 12bb c33d 8c80 893d
00000090: b4d1 ab3d e210 213d 55d0 3e3d 59b5 32bc
000000a0: 3037 cf3e 352f 843d a2f7 983d 0c59 823d
000000b0: 55d1 d93c 881b 913e 4458 33bd b01a 6dbd
000000c0: fb54 b33e a396 7fbe 2ad7 bb3d ca0f b93e
000000d0: 5a79 09be ff33 5e3d 84b3 ce3d e181 98bd
000000e0: 4c40 41bc f5aa ee3d 53a6 473d c0b2 6fbd
000000f0: c68d bb3d 6d75 083e 02a7 d8bd dbd5 093d
00000100: bec0 3ebe 02a5 5f3e 2031 80be 4343 82be
00000110: 6eed f8bd 9d9c eebd 301f 9abd 38fe 493c
00000120: c321 2c3e fa14 8bbe 4bf4 abbd 66cc 06be
00000130: 2911 d0bd 5c2b 293d ce7a 1f3e f680 843e
00000140: 6513 1fbe b9a8 6f3e cdf7 963e 6471 1dbe
00000150: 59ef 4c3e 4139 123e 2854 24be b252 133e
00000160: cdc0 05be d458 06be 70c7 57be 56fd fabb
00000170: 51fe 5bbe 8da9 603e 6e49 2fbe 9703 0bbe
00000180: 77f3 0a3d b7f4 263c 6537 64bd 8705 67bb
00000190: 7628 d23d 63f8 d43d d777 163d b1e4 70bd
000001a0: 52ca bd3e 5735 03be 67ab 633d 6592 64bc
000001b0: c78d d3bd 2c34 c43d a774 55bd 6a13 27bd
000001c0: e0cb 873e df3e 22be ed7a 2abe d520 6b3e
000001d0: 7a2b 38bd 1aaf 623d 2c73 a6bd 457e f5bd
000001e0: 4889 c73d df59 40bd ae5e d83d 8a6a 7cbd
000001f0: 1a50 66be 1b18 f83d 2f04 76bd 8cd7 d33d
-0.17390168 0.030784098 -0.062376637 -0.022397345 0.11872565 0.075247206 0.010537562 -0.02773964
0.23296967 0.05993482 -0.06090446 -0.005784078 -0.16868751 -0.18848348 0.045230385 -0.17442048
0.2114324 -0.059191898 0.091758385 0.24402165 0.17909686 0.005814874 -0.10033126 -0.14738607
-0.15495165 0.13149488 0.06324548 -0.043484088 0.1156275 0.14696427 -0.09856576 0.088718444
0.037415884 0.0154510625 0.09557165 0.067139715 0.08389607 0.03932274 0.0465854 -0.010907494
0.40471792 0.064543165 0.07469107 0.063646406 0.026589075 0.28341317 -0.04378535 -0.05788678
0.35025772 -0.24959807 0.09171899 0.3614486 -0.13425198 0.054248806 0.10092834 -0.074466474
-0.011795115 0.11653701 0.048742604 -0.05852008 0.091579005 0.13326044 -0.10578729 0.033651214
-0.18628213 0.21840289 -0.2503748 -0.25441942 -0.12154661 -0.11650965 -0.0752548 0.012328677
0.16809754 -0.2716444 -0.083962046 -0.1316391 -0.10159523 0.041301116 0.1557419 0.2587964
-0.15534742 0.23404206 0.29485932 -0.15375286 0.20013179 0.14279653 -0.16047728 0.14387015
-0.13061829 -0.13119823 -0.21072173 -0.0076595945 -0.21483733 0.21939678 -0.17117855 -0.13575588
0.033923592 0.0101901805 -0.05571689 -0.0035251097 0.102616236 0.103989385 0.036735382 -0.058811847
0.3706842 -0.12813316 0.055583384 -0.013950919 -0.10329776 0.095802635 -0.0521132 -0.04079
0.26522732 -0.15844296 -0.16648455 0.22961743 -0.044963337 0.05534277 -0.08127436 -0.119869746
0.09742981 -0.046960708 0.10564934 -0.06162504 -0.22491494 0.12113973 -0.060062584 0.10343847

lstm.weight_hh_l0 f4 [128, 32]
00000000: 6b1d 8f3b 7b48 d1bc b855 bcbb e42c a53a
00000010: 12a6 5a3c 103e 3e3c 11b2 093b 0cf9 b6bb
00000020: 279e 0fbd 5610 f43b 5adc bfbb 6274 60ba
00000030: 74ba a13a e6b7 993c 64c3 33bc 23cc 03bc
00000040: 8beb e53c 5147 dfbc 4a74 29bc 40b3 f73c
00000050: 2df2 c1bc 8c16 3fbc e157 ceba 3d61 84bc
00000060: 47e8 af3c 4c9e f93b 5000 973c 0c31 c73b
00000070: af1c 963b 82da 85bc be06 773c b701 c2b9
00000080: 8d1d 2f3a 4782 84bc ac36 87bc 3faf 80bc
00000090: f7d2 31bc 8cc9 973a dce1 8cb8 2666 99bc
000000a0: 750b c03c 613c 46bc 2c66 073b 5196 c3bc
000000b0: 9e9e a2bb 4d48 f33b a82a 6839 c875 a5ba
000000c0: e104 a5bc 4e28 c6bb 9754 c23c bd07 9ebc
000000d0: 1e71 3fbc 95a3 3e3b a3b0 a2bb 84fa a9bb
000000e0: 48f2 8b3b 4ce1 efbc 11cd 12bc 38bc 183a
000000f0: 016b d2bc 0513 bd3c 049c 2a3c 5539 36bb
00000100: 86c0 d839 2aa6 8bbc 914e afbb 6ae7 9b3a
00000110: 7a42 0b3c 7b04 843b 666e a8ba 07a6 8bbb
00000120: b6d5 06bd 270e c53b 6c43 4abc d55f d83a
00000130: a4af 183b fad1 9d3c 2065 a2bb 0a77 b2bb
00000140: 4132 a33c bdc2 bfbc 695d 1fbc a6e0 b73c
00000150: 5ddb 2abc 6332 fcba fd5d ddba a97f 83bc
00000160: 9196 8d3c 5234 0fbb 6998 d23b d5af ac3b
00000170: 67d4 693c 3acb 03bb de68 2a3c 5baf 6bbc
00000180: 2e84 eabb 9e6e abbc a492 bcbc 13a0 09bd
00000190: 1e3e a33c bd51 783c 7615 8b3b 35e1 c23b
000001a0: 4d44 81bd 70dd 10bc a18c cabc ead7 00bd
000001b0: 60a5 d6bb 9290 f73c 59ee 3f3b d755 863c
000001c0: 6307 ec3c b855 29bc 77e2 103c 5dce 263d
000001d0: 8ecf 64bc 6f70 d93b 1ba8 11bc cb36 d43b
000001e0: ea14 633c b50f 48bc 33ec 2ebb 445f fe3a
000001f0: 0d4c 273c 3575 763c 3651 df3b 15d9 e2bc
00000200: 1170 85bb c3a0 a83c 3537 5939 3ec4 28bc
00000210: 17b0 36bc 1996 1bbc 95f4 baba f7b9 a83b
00000220: c5bb 053d 6420 92bc 07f4 013b 2a2f 81bb
00000230: 0447 e2bb 2e08 25bb f973 643c 49e3 a73b
00000240: 23e0 f2bc a172 c33c 628a 353c 4373 e6bc
00000250: bc85 ad3c 5a10 773c df1f b3bb c064 c33c
00000260: 97bd c2bc d6a6 babb eaee babc 57f7 d8bb
00000270: c91d 6dbc 2644 b93c 6bef 82bc ee88 bcbb
00000280: 0c5f efba e52b c43b a86c aabb 5942 15bc
00000290: 9e69 e0bb d679 c5bb b09e 81bb cb1c 82bb
000002a0: eec4 413c 8e58 16bc b3c0 9db9 1024 b9bb
000002b0: 25ed 1dbb 2fff 723a 30a8 aa3b 2cc7 d43a
000002c0: 3ae7 5fbc 59fb d13b 14da 2b3c 5ac8 4abc
000002d0: 54f9 ce3b bcad c93b fe7e 4cbb 300d b63b
000002e0: c251 e0bb 197d 5abb 7e0d 2dbc ab8a 79b9
000002f0: 0b9c dabb 4413 793c ea10 28bb 2977 9bbb
00000300: 742c b63a ce80 4bbb bd69 de3b 4cd8 c7ba
00000310: 3a86 213b 1453 8f3b d985 2b3b babc 963a
00000320: 4307 203b ae6a 8f3a 1b54 823b b3ba 52ba
00000330: 4660 563a 85e2 3abb d650 e0b9 1397 f3ba
00000340: 40e8 7abb b580 a73b ab84 50ba 35e8 5cbb
00000350: 3ac2 c33b 8905 82ba df17 703b 98f9 833b
00000360: 0d2b d7bb f24a ecbb c2f9 c0ba 5fd8 95ba
00000370: 855a b93b 3adc 8e38 70b0 833a 527c 373b
00000380: 75a9 c138 ca08 9c3c 225e e2bb 60bf f9b7
00000390: e5bc 5ebc 8f98 69bc c902 6abc 5751 a8bb
000003a0: 387c a6ba 1b72 f93a 33b4 04bc 6885 9fbb
000003b0: 6025 233c 9810 0ebc 0b05 eb3b 19aa dc3a
000003c0: 1dc1 c2bb 5a24 8bbb 2605 4c3c 4643 24bc
000003d0: 6da9 473c 7bcf 2c3c 0650 81bb 218d 5bbc
000003e0: 3c06 363c 7380 2b3c bf77 62bc 2e8c 433c
000003f0: f2b1 a83b 9b82 d03c e4f8 55bb 4f2c 86bc
0.0043675206 -0.025547257 -0.005747523 0.001260188 0.013345258 0.011611477 0.0021010677 -0.005583888
-0.035062935 0.0074482365 -0.0058551254 -0.0008562264 0.0012338893 0.018764447 -0.010971878 -0.008044275
0.028066417 -0.027255686 -0.010342667 0.03023684 -0.023675049 -0.01166309 -0.0015742743 -0.016159648
0.021473063 0.0076177474 0.018432766 0.006078845 0.004581056 -0.016339544 0.015077291 -0.0003700384
0.00066801236 -0.016175402 -0.016505562 -0.015708564 -0.010853521 0.0011580451 -6.71779e-05 -0.018725466
0.023442963 -0.012099356 0.0020660264 -0.023875387 -0.0049627563 0.0074243904 0.00022141135 -0.0012623603
-0.020143928 -0.006047285 0.023721976 -0.0192908 -0.011684684 0.0029089202 -0.0049649044 -0.0051873345
0.0042708255 -0.029282235 -0.008960024 0.00058263866 -0.025685789 0.023080358 0.010413174 -0.0027805169
0.00041342172 -0.017047007 -0.005349942 0.0011894528 0.008499736 0.0040288544 -0.0012850284 -0.0042617354
-0.032918654 0.00601365 -0.012345176 0.0016508052 0.002329805 0.019265164 -0.0049559027 -0.0054463195
0.019921424 -0.023408288 -0.009726861 0.022445988 -0.010428277 -0.0019241091 -0.0016888973 -0.016052084
0.01728371 -0.0021851254 0.00642686 0.0052699842 0.014271832 -0.0020110146 0.010400979 -0.01438507
-0.0071568703 -0.02092677 -0.023019142 -0.033599924 0.01992708 0.015156207 0.0042445017 0.005947257
-0.063118555 -0.008841857 -0.02472526 -0.03145591 -0.006550476 0.030220304 0.0029286353 0.016398354
0.028812116 -0.010335378 0.008843056 0.040724147 -0.0139655005 0.0066357176 -0.008890177 0.0064762584
0.013859967 -0.012210776 -0.0026691079 0.0019407053 0.010211003 0.015042593 0.006815101 -0.027691403
-0.0040721972 0.02058447 0.00020715299 -0.010300694 -0.0111503815 -0.009496235 -0.0014263565 0.005149122
0.032649774 -0.01783771 0.001982929 -0.00394239 -0.0069054384 -0.0025181877 0.013943666 0.00512353
-0.029647892 0.02385837 0.011080356 -0.028131133 0.021181934 0.015079582 -0.005466446 0.023851752
-0.023772044 -0.005696158 -0.022819001 -0.006621282 -0.014472433 0.022615504 -0.015983304 -0.005753628
-0.0018262579 0.005986678 -0.005200941 -0.009110057 -0.006848528 -0.006026487 -0.0039556846 -0.0039707175
0.011826737 -0.0091763865 -0.00030088946 -0.005650051 -0.0024097648 0.00092695927 0.005208038 0.0016233674
-0.013665969 0.006408137 0.010489006 -0.012376869 0.0063163433 0.006154744 -0.0031203623 0.0055557713
-0.006845684 -0.0033338724 -0.010562299 -0.00023798148 -0.006671434 0.015202347 -0.0025644847 -0.0047444296
0.0013898746 -0.0031052115 0.0067875073 -0.0015246957 0.0024646656 0.0043739174 0.0026172309 0.0011500337
0.002441839 0.0010941827 0.0039773113 -0.00080386846 0.0008177798 -0.0028516364 -0.00042784837 -0.0018584452
-0.0038285404 0.0051117786 -0.00079543394 -0.0033707742 0.0059740813 -0.0009919862 0.0036635322 0.0040275566
-0.0065664113 -0.0072110826 -0.0014722871 -0.0011432281 0.0056565427 6.812108e-05 0.0010047089 0.0027997685
9.234521e-05 0.01904716 -0.006908194 -2.9772229e-05 -0.013594841 -0.014257564 -0.014282891 -0.0051366496
-0.0012701815 0.0019031198 -0.0080996035 -0.004868198 0.009957641 -0.008670948 0.007172232 0.0016835361
-0.005943431 -0.004246277 0.012452399 -0.010025805 0.01218639 0.010547514 -0.003946307 -0.013400347
0.011109885 0.010467636 -0.013822495 0.011935277 0.005148166 0.025452903 -0.003264957 -0.01637855

lstm.bias_ih_l0 f4 [128]
00000000: ecd1 783d 44b5 d53d 0de5 11bd d91b 09bd
00000010: 3e2d 2abc b968 98bd c37d 0bbd d985 e63d
00000020: e68f a73d d3d5 7e3e 0f82 aabc 9e74 f7bc
00000030: bec1 243e b133 8f3d 14fb 3abd 5068 abbd
00000040: 594a 593d 3593 253e f292 293c 00e7 503d
00000050: ee48 063e e7a8 b63d ea1d ccbc 7895 883e
00000060: 01a3 063e 5e2a dbbb 3340 933d 08fd 32bd
00000070: b843 3c3e a4e8 c13d 35b7 063e 9c0e 5f3c
00000080: 8cbb 2cbc 4e0f 2abd 3404 de3c 9b95 0dbd
00000090: ba26 69bd 35d4 c83c 4a4e 813d 5d0a 40bd
000000a0: 7f65 933e b287 293e 5064 e33c dfa1 a8bd
000000b0: 1d44 c53d 4daf 4b3e 9b8d 513d c200 f93d
000000c0: b113 c63c 73ad a23d 9d69 5d3d 4942 b13c
000000d0: 61a7 e9bd 621e dc3b 1a75 a83d e6dd 983d
000000e0: 680a 053e c97f 8bbc d559 6b3d 7d3d 0f3e
000000f0: 5e69 15bd 77c5 2c3d 76e5 973d e30d 87bd
00000100: 19df 403d 68d6 40be 4cbd 8cbd abf3 d2bc
00000110: dfe4 943d fca6 9b3d e69a 29bd 0c90 02be
00000120: 7276 e03d cbbd e03d f051 af3c d363 80bd
00000130: 470c 6e3d d88e 233e ce84 9fbc 4c27 f53d
00000140: 8660 e1bd ed40 ea3d 117a 6bbc c1af bdbd
00000150: 776e 69bd 9958 babd 0f4e 003e 32c0 24be
00000160: 064b 703d de19 29be 175b 633d a9ba c13d
00000170: bb46 dfbd 5ed9 abbd 1716 1c3e 7d4a a5bd
00000180: b76c 8c3d ee21 ca3d f2a1 cd3d f1bc 113e
00000190: 01ff b1bd 54bd b8bd dbb3 933d c089 ae3d
000001a0: 52c5 433e d362 f33d 13c6 f8bb f61d e93d
000001b0: 6674 6e3d e0da 183e 10d2 683c aeb0 043e
000001c0: 2383 cf3d 1ea0 503e b6a7 89bd b2d2 dc3d
000001d0: 5c3e cd3d a635 d43d 6a2a 0b3d b6ca 4a3e
000001e0: cef8 503e 8254 e0bd f5a3 3b3d 522a 983d
000001f0: 84df b7bc 6f51 063e 9943 f13b 0f2f 413d
0.060747072 0.10434964 -0.03561883 -0.033473823 -0.010386763 -0.07441849 -0.034055483 0.11255998
0.08181743 0.24886255 -0.02081397 -0.030206975 0.16089532 0.06992281 -0.045649603 -0.083695054
0.05304942 0.16169436 0.010349976 0.05100155 0.13113758 0.08918934 -0.024916608 0.26676536
0.13148119 -0.0066884 0.071899794 -0.04369834 0.18385208 0.09468201 0.13155825 0.013614323
-0.010542762 -0.041518502 0.027101614 -0.034566503 -0.0569217 0.02451525 0.063137606 -0.046884883
0.28788373 0.1655567 0.027757794 -0.082339995 0.09632132 0.1989109 0.051160436 0.12158348
0.024179311 0.07943239 0.0540558 0.021638053 -0.11408878 0.006717489 0.0822546 0.07464199
0.12992251 -0.017028706 0.057458717 0.139883 -0.03647744 0.042180505 0.07416813 -0.065944456
0.047087763 -0.1883179 -0.06872043 -0.025750956 0.07270216 0.07600209 -0.04140749 -0.12750262
0.10960092 0.109737 0.021401376 -0.0626904 0.058117177 0.1597246 -0.019472506 0.11970386
-0.110047385 0.11438165 -0.014372365 -0.09262038 -0.056990113 -0.0909893 0.12529777 -0.16088942
0.058665298 -0.16513774 0.055506792 0.09459431 -0.10902163 -0.08391069 0.15242802 -0.08070848
0.06856673 0.09869753 0.10040654 0.14232232 -0.08691216 -0.090204865 0.07212039 0.085223675
0.1911824 0.118840836 -0.0075919717 0.11382668 0.058216475 0.14927244 0.014210239 0.12958023
0.10132434 0.2037358 -0.067214414 0.107823744 0.1002166 0.10361795 0.033975996 0.1980389
0.20407411 -0.109536186 0.04581066 0.07429947 -0.022445448 0.13117002 0.0073627946 0.04716402

lstm.bias_hh_l0 f4 [128]
00000000: 6d4e 5fbd 0135 8e3d 995e 25bd 234d 51bd
00000010: 843a 313d 7233 843d 6283 9fbd da29 b83c
00000020: cf0b 953d 4a22 583e 9dfb 303d a743 7d3d
00000030: bfd1 443c d761 2a3e 2315 1b3c 62c3 80bd
00000040: e986 c93d f8db e13d 7436 953d 4c3d cb3d
00000050: 24f1 573d 33f9 7fba 8cc6 bc3c 5af2 613d
00000060: 794b bb3d f993 c83d 0c05 823c 8ee1 473d
00000070: 98b1 2f3e aa7d 9a3d b544 903d ab7a 703c
00000080: c715 773d 59c2 9dbc 4a80 ed39 e8a4 2a3e
00000090: da2a e5bb ce22 1d3d b18b 263d 3ac8 94bd
000000a0: e49f 9c3e 77f8 b2ba d7f0 1abc 580a 9f3d
000000b0: d8fd 7a3c 95b2 343e d47a 05bd 19a4 323d
000000c0: 8db0 b13d 012c b6bc bc47 1bbd 71f2 973d
000000d0: f3c0 3cbc e605 22bc 4391 3e3d 496b 9d3e
000000e0: f108 753e 15cd 6f3d 9de9 49ba 1759 da3d
000000f0: cc45 af3d bb7a 103d 7340 9d3d f425 8abd
00000100: b800 efbd 2aba aebd 618c ddbd c2a4 31be
00000110: fa40 333d 222d 043e 1cdc e03d 4996 c4bd
00000120: a10f cbbd a6df fbbd 24f4 9fbd 295f 19be
00000130: 21ca bdbd 36d1 eabd 46cc 06bd f8b2 13bc
00000140: 778d b73d bd8e 17be 672b ad3d 7126 263e
00000150: 6e38 a9bd b912 3d3d abcb b0bd 8c7e c43d
00000160: 938e 8abc b3ad 22be e7f2 e9bc 6497 adbd
00000170: f8b6 e0bd 0c63 da3d bc9c 21bd 5535 c53a
00000180: e0b3 1abc 0998 cd3d cdb1 ac3d 06f9 53bd
00000190: 6756 b8bd 3a16 d43b e516 b6bd f0c4 fcbd
000001a0: 7aa3 a63d 7aa0 563c 9c81 ea3c 7cb9 a73d
000001b0: 1e42 1f3e ae4e ca3d 71dd b13d c62a 1dbd
000001c0: 22b7 8fbc 732e 463e e7cd f73d e037 b73d
000001d0: bf52 63bc 9663 033b 2b36 323d 7d8b 2a3e
000001e0: 50bf e4bb 0f71 83bc 43c4 fb3d b634 ed3d
000001f0: 0cab 1a3d d24f e53d 8ad5 b73d a1ed 31bd
-0.054518152 0.069437034 -0.04037342 -0.051098954 0.043268695 0.06455125 -0.07788731 0.022480894
0.07277643 0.2110683 0.043208707 0.061832096 0.012012898 0.16638885 0.009465489 -0.06287266
0.09840185 0.11028284 0.07285777 0.09923801 0.052720204 -0.00097646116 0.023043893 0.055162765
0.09145255 0.097938485 0.015871547 0.04879909 0.1715759 0.075435 0.07044355 0.014677684
0.060323503 -0.019257711 0.00045299745 0.16664469 -0.0069936337 0.03836327 0.040660564 -0.07264753
0.30590737 -0.001365437 -0.009456835 0.07765645 0.01531931 0.17646249 -0.03258784 0.043613527
0.086762525 -0.02223778 -0.037910208 0.07419289 -0.011520612 -0.009889102 0.04652525 0.30745915
0.23929192 0.05854519 -0.00077023526 0.10661524 0.085582346 0.035273295 0.07678308 -0.0674552
-0.11670059 -0.08531602 -0.10817791 -0.17348006 0.04376314 0.12907842 0.109794825 -0.09598977
-0.0991509 -0.12298517 -0.07810238 -0.14977707 -0.09267069 -0.11465685 -0.032909654 -0.009014837
0.08962529 -0.14800544 0.08455544 0.16225602 -0.08262716 0.046160433 -0.086325966 0.095944494
-0.016913688 -0.15886573 -0.028558208 -0.08476141 -0.109723985 0.10663423 -0.039456114 0.0015045801
-0.0094423 0.10038764 0.0843235 -0.05175116 -0.09000855 0.006472376 -0.088910855 -0.1234225
0.081366494 0.013099784 0.028626256 0.08189675 0.15552565 0.09878288 0.08684815 -0.03837087
-0.01754338 0.19353656 0.1209982 0.08946204 -0.013874709 0.0020048372 0.04350869 0.16654773
-0.006980814 -0.016045121 0.12293293 0.115823194 0.03776078 0.11196865 0.08976276 -0.04343951

gcn.bias f4 [32]
00000000: fdc4 adbc f8de d13c bb07 14bd c9f8 f3bb
00000010: 2a42 3abd a152 673c 7b0b 9cbb 616b 8dbc
00000020: f44f d3bc f685 a4bc 3937 f7bc f044 9836
00000030: 8348 c5bc 8f15 bcbc 9afd 09bd 0017 49bb
00000040: df48 f1bb 5c14 03bc 6bf5 133b f567 9dbc
00000050: 2453 9abc 5f93 103d c551 5ebd 1c14 0abc
00000060: 181d ccbb 843d 21bb 5f25 0cbc 804e c8bc
00000070: 578c 21bd 5e4a a5bc 46b0 5abb a357 c53c
-0.021212095 0.025619015 -0.036140185 -0.007445429 -0.045473255 0.014118821 -0.0047621108 -0.017263116
-0.02579496 -0.020083409 -0.0301777 4.5379784e-06 -0.024082428 -0.022959499 -0.03368912 -0.0030683875
-0.0073634232 -0.0080004595 0.00225767 -0.01921461 -0.018838473 0.035296794 -0.0542772 -0.008427646
-0.006229054 -0.0024603317 -0.008553832 -0.024451494 -0.03944048 -0.020177063 -0.0033369227 0.02408964

gcn.lin.weight f4 [32, 32]
00000000: 57d6 dabd f52a 02bd 48fe d23d 7a1b 0e3e
00000010: e86e a7bd f5dc 3a3e d179 39be af15 ed3d
00000020: bf93 463d cd4f de3d 152f 2cbe 2c54 1ebe
00000030: fdea 803e 7a26 bfbc 7809 b13d f6fd 543d
00000040: fcbb b4bc 4ffb 06bd 7fb4 9b3d 912a 9a3d
00000050: 28a7 0c3c eb6f a2bc 115a fabc cefc 19be
00000060: 835d 053e cd2b bf3d df52 513d 9873 24be
00000070: e05a 863e bb51 44bd 9083 80bd 9dc5 8ebd
00000080: 6a17 39bd 2e91 253e ebb7 2abd b24f 0b3d
00000090: 40c1 81bc e218 98bd 2675 493a ef95 673c
000000a0: 23c8 bf3d b482 f73c b7f2 17bd 3779 ebbc
000000b0: c0a5 b33c ad00 443c 8d55 9d3d 5b4e ef3c
000000c0: 5bf7 87bd 3c8a f8bb d00b a9bd 6a9a 0bbc
000000d0: c5c4 353e 5168 3e3d eaaf 8d3b 4e38 723c
000000e0: d964 d1bd be37 473d 9ecf c5bb de4e 5fbc
000000f0: 1b8b e93d 14a8 193b 8753 7dbd e35a 8bbd
00000100: b63b f8bc e238 803b c2a3 e4bd 2e34 10be
00000110: 1a4a 01be 0f2f a9bb 5e94 d43d 6d51 d83b
00000120: 305f c5bd 1da5 5dbe b01d 513d 9eb3 31be
00000130: cdb8 d0bb 8c9d 303d 5dfe 95bd 4f06 393e
00000140: d504 963c fd2b d73d 3f45 ce3d fadc cc3c
00000150: dcf9 173d c851 2d3c a1d6 a8bd bec3 a23d
00000160: 4249 02bd 0b10 0d3e a6c4 e7bd 8093 d8bd
00000170: 6121 013e 5fee 083e 4c76 af3d 3fef 513d
00000180: aeb0 483d b6ba e73b 8b84 ce3d d9a5 f83d
00000190: b66a 19bb 55ba bbbc db43 97bd 6a50 febb
000001a0: c19b a3bd 370a 8d3d 2d35 fcbc 86b3 bc3d
000001b0: 5ae9 f53c 034b 36bd d996 b3bd 1bad 4dbd
000001c0: 8a65 8f3d be77 45bd e595 a5bd 832c 423d
000001d0: 09fe d13b 9a45 febc ee23 1d3d 93ff 523c
000001e0: fee4 e93d 4a8e c23d f9bf 213d 0fab 673d
000001f0: 02c7 143e 27f4 01bd 20b1 ee3d d270 7ebc
00000200: 94d0 93bc 4563 1e3e f513 06bc b0e9 303c
00000210: b4be 6abd a449 89bd 8e17 c2bc 01f3 173d
00000220: b19c 7c3d c232 0a3d 6dfd 20bc c1d4 fb3b
00000230: 972b 943b f79e c939 fd70 3f3d ba59 df3b
00000240: 91be 26bd a7f1 313c 1522 7cbc 9331 89bd
00000250: b215 263e 8585 423d 9091 94bc e550 fc3b
00000260: 39fa 83bc aeb7 bc3c 4962 3cbd 56cb 03bb
00000270: 49f1 103d d524 4a3d f698 0abd 539a 6abd
00000280: dab9 35be 5534 44bd 15dd 953c fbea 1d3d
00000290: d589 353d 2eda eabd 07ab 153e bb4a e4bc
000002a0: c977 f0bc 50f9 90be e6fe 2fbe 0cae 78be
000002b0: 6f22 a63d f104 23be a7e3 ad3c 54ef 1e3e
000002c0: f116 e4bc dfac 293e 64b0 adbd d168 0a3e
000002d0: 5c89 213e e7ee e13d 9513 65bd e345 263e
000002e0: 2aaa 34be 2a57 3e3c ad71 3abe ea12 763d
000002f0: ce77 f7bd 5332 1d3e 0e1d f9bc 7ffa 1e3e
00000300: 8060 c5a7 612d 7833 b075 dca3 0e7a 1bb6
00000310: 579e 3eb7 d4a3 43ad d85a 0ca9 f435 c1b3
00000320: e124 df22 0527 da37 7b47 4f31 1151 9733
00000330: 6189 b834 69c2 0c37 474b 6fba a59b bc38
00000340: 238c 8334 a2d7 3f34 f3a7 24a4 62ea c9b6
00000350: 4a9a 1ab9 b1ec b035 c3e5 9e39 7c26 b136
00000360: dbed 87b6 7a40 3133 6dd9 36b4 1b2e 962f
00000370: 59ed a220 dd7d 9737 78bc 9eb6 6e15 003a
00000380: e809 89b9 b5a6 053d deab b8bc dc60 9ebc
00000390: 03ad 2abd 9533 ce3c da21 99bb a18b 1d3d
000003a0: 00c6 e13c 17ef 7c3d cb39 3fbc 6636 3cbd
000003b0: 2ee2 7c3b 80ce fa3c 24e2 12bc ee62 b8bd
000003c0: b0f0 d4b7 b74e 1a3d a7d6 ee3a 56eb f7bc
000003d0: a1ef 2e3d 1803 43bb b65f f3bb b0aa 803d
000003e0: 3ae8 083d 9625 3bbd 88ab fbbb 4c7f ca3c
000003f0: 8ffc 7e3d b76b b23c 45fa 35bb db0a 00bd
-0.10685413 -0.03177925 0.103024065 0.13877669 -0.081754506 0.18248351 -0.18112876 0.115764014
0.048480745 0.108550645 -0.16814835 -0.15461797 0.25179282 -0.023333777 0.08644384 0.05200001
-0.022062294 -0.03295451 0.07602786 0.0752765 0.008584775 -0.019828757 -0.030560525 -0.15037844
0.13023953 0.09334526 0.051104423 -0.1605972 0.26241207 -0.047929507 -0.062750936 -0.069712855
-0.045188345 0.16168663 -0.041679304 0.03401155 -0.01583922 -0.07426621 0.0007684998 0.014134868
0.09364345 0.030213691 -0.037096705 -0.028744323 0.021929622 0.011963052 0.07682333 0.029212167
-0.06638976 -0.007584838 -0.08254206 -0.008520702 0.17750843 0.046486203 0.004323949 0.014783932
-0.10224313 0.048637144 -0.006036713 -0.013629643 0.114034854 0.002344613 -0.061847236 -0.06804445
-0.03030191 0.003913031 -0.11164047 -0.14082405 -0.12625924 -0.0051630805 0.10379861 0.0066015036
-0.09637296 -0.21645017 0.051053703 -0.17353675 -0.006369686 0.043119 -0.073239066 0.18068813
0.018312851 0.10506437 0.100718014 0.025007714 0.03710352 0.01057858 -0.08244062 0.07947491
-0.031808145 0.13775651 -0.113168046 -0.105750084 0.1261039 0.13372181 0.08567485 0.051253553
0.04899662 0.007071818 0.10083874 0.12141008 -0.0023409552 -0.022915998 -0.07385989 -0.007761051
-0.07988692 0.06886714 -0.030787075 0.09213929 0.030018497 -0.04450513 -0.08769006 -0.050213914
0.07001789 -0.0482099 -0.08085231 0.04740573 0.006408457 -0.031039048 0.038364343 0.012878316
0.1142063 0.09499796 0.03948972 0.05655962 0.1452904 -0.031726982 0.11654878 -0.015529828
-0.018043794 0.15467556 -0.008183469 0.010797903 -0.057310775 -0.06703499 -0.023692872 0.03709698
0.06167287 0.033739813 -0.009826046 0.0076852744 0.004521798 0.00038456146 0.046738613 0.006816116
-0.040709082 0.010860837 -0.015388985 -0.06698909 0.16219214 0.047490615 -0.018135816 0.007700073
-0.016110526 0.023036804 -0.04599217 -0.0020110211 0.035386357 0.049351532 -0.03383728 -0.05727608
-0.17746678 -0.04790147 0.018293897 0.038554173 0.0443209 -0.11467396 0.14616023 -0.027867666
-0.029353993 -0.2831521 -0.1718708 -0.24285144 0.081120364 -0.15919854 0.021226717 0.15520984
-0.02784297 0.16569851 -0.084809095 0.13516547 0.15775055 0.11031895 -0.055926878 0.16237597
-0.17643037 0.011617461 -0.18207426 0.06007663 -0.12083398 0.15351228 -0.030409362 0.15525244
-5.478311e-15 5.778327e-08 -2.390229e-17 -2.3167845e-06 -1.1361749e-05 -1.1120844e-11 -3.116504e-14 -8.997077e-08
6.048332e-18 2.6005795e-05 3.0163096e-09 7.046231e-08 3.4372627e-07 8.389915e-06 -0.00091283437 8.9935296e-05
2.4502614e-07 1.7866708e-07 -3.570409e-17 -6.0175526e-06 -0.00014744062 1.3181908e-06 0.00030307294 5.2794912e-06
-4.0510035e-06 4.1269665e-08 -1.702917e-07 2.73176e-10 2.760093e-19 1.8059212e-05 -4.7307076e-06 0.0004886006
-0.00026138057 0.032629687 -0.02254289 -0.019333296 -0.041668903 0.02517108 -0.004673225 0.03846324
0.027560234 0.06175145 -0.011671494 -0.045950316 0.0038586962 0.030616045 -0.008965049 -0.09003244
-2.5384448e-05 0.037672725 0.001822193 -0.030263584 0.042708997 -0.0029756483 -0.007427181 0.06282556
0.033424594 -0.04569014 -0.00768036 0.024718903 0.062252577 0.021779878 -0.002776758 -0.031260353

fc1.weight f4 [16, 32]
00000000: 1bca 40bd 9543 16bc 7281 2a3d 0961 45bd
00000010: c322 6cbc a2b0 643d 54e3 052a 37b9 69bc
00000020: d062 24bd 38b0 aabd f9a1 9cbc 5387 0cbb
00000030: cd8e b8bc 219d 223e 9ba8 3bbc b535 00be
00000040: 7141 c8bc af72 b4ba 0fc7 37bd cf07 90bc
00000050: 917c cc3c 7ea2 ad3c d741 02bd 738c 07be
00000060: 4c5a 19b8 e051 d4bd cdf7 c33d fd49 44bd
00000070: 3402 f0bc 0c9f 98bc 1df4 3d3d 46d8 e1bb
00000080: 4aeb 472c cd6e ff3b f08a 123d aca0 43ac
00000090: ac56 1a3c 8e34 b8bc 69e7 9928 ee8a 42bc
000000a0: 8bf3 1aa0 3d85 c03d 6bea 953b b283 ba3b
000000b0: 50b8 9bbc ddd7 99bd 089e 9d3b 82ad fabd
000000c0: e0e1 72bd 83c9 9eaf fc64 81bd 8ae8 84bb
000000d0: d5d1 0e38 e043 153a f195 893d f53b ac3d
000000e0: 5faa 9cb8 2a67 a1bd 29d9 813d 796c f51d
000000f0: 2164 071e 30c1 193c 05e1 283e 28e7 ba3b
00000100: f43a b9bd 1ecf bebd f8cb 873c 7f29 c2bd
00000110: b563 b3bd 63b7 fa3d 0c3e f624 f847 e8bc
00000120: d1d2 cfbd 0f8d 8c3d 69e5 93bd 9986 d8bd
00000130: 8a1e dfbd b177 bb3c ca47 4ebd addc 0c3e
00000140: 5c38 d7bc 06ee 8abd c826 04bd 45c2 0abe
00000150: 82bd cf3c 3117 13be f8f6 e93d 9afa ba3d
00000160: db58 2bb9 ac5e 203e e653 f83d 5838 bbbd
00000170: 3be1 b5bb d0e6 fbbd 3087 393e a849 ccbd
00000180: ba60 c6b6 6fc9 62bd 1253 e3bc e42f e032
00000190: 38e3 19bd ee1f fe3d 2b1b 99a4 23da 59bc
000001a0: 9b83 84b7 4729 eabd 51ab d7bc 7395 57bd
000001b0: 1762 20bd 0ea4 133e 8176 d6bc d396 f83d
000001c0: eb07 dfbd e9e1 883a 0eae eabd 2608 4fbd
000001d0: 1329 29bd 7074 55bd 7b1e b4bd 7f13 8dbc
000001e0: 15c3 9db8 17ab 843d 334c 1dbc ee1c d39d
000001f0: 5d2d c63a 371c 3abd f32d 053c 22fb 61bd
00000200: 4ce9 003d e76d 8fbc 0115 0dbd c5db 223d
00000210: 9840 41bc a115 56bd d5b8 0f21 8c9c 81ba
00000220: 54f5 dd3c c41c 64bd 6741 bd3c 6888 8bbc
00000230: 77fd e8bb c8fa dcbd e752 23bb 49aa 13bd
00000240: d380 17bc 9efc ff3c 8637 44bd ae73 76bc
00000250: 8144 183c 3fee ef3b 4101 6b3d 6b17 82bd
00000260: 9468 a933 4def 49bd b7ba fbbd 8ab4 203d
00000270: 9d7d afbc d565 b8ba 0314 81bd a800 a4bc
00000280: c554 d83d 81f1 60bc 8597 b0bd d191 923d
00000290: f57c f7bc 572c d8bd 6f0d 152f 1b79 75bb
000002a0: 78eb 653c f9eb 32be e08e 41bd e138 c4bc
000002b0: 3aaa e6bc 0c48 1fbe 4a3a abbc 02fa 40bd
000002c0: 42dc c4bc 838a 8b3c 0943 b0bd 5b56 66bb
000002d0: b8f8 873d aaaf 41bd 01f9 523c 54f7 5abd
000002e0: 0dc3 f2b1 be52 93bd 3eb3 82bd 4047 9d3d
000002f0: 0f8c b33d fc95 81bc 0c59 a5bd af2e 9fbc
00000300: d4a5 253e ed3a 363c 350a dfbd a6d4 853d
00000310: 1c54 c4bc 9804 bbbd 9885 9035 0f5f 1cba
00000320: 6f09 153e a6f5 c7bd 0030 01be 1bd1 afbc
00000330: 5ed4 aabc af70 6dbd 2440 41bc efb8 1abe
00000340: 90ea f8bc 4f20 ba3d 42cc 09be f358 87ba
00000350: 2d80 593d 83f8 a9bc 1c15 8f3c 74fb 23be
00000360: 03a6 2c35 f2e9 3fbd 322f 0b3d 51a0 a03d
00000370: 832b 623d a8f5 0bba 20af c7bc 5e41 05bb
00000380: d51e d2bc 8b49 65bd f4c2 0dbd f9b1 b4bc
00000390: 11a7 39bd 5f1a 5ebe ca98 15b0 83c0 5dbc
000003a0: 01a7 b4bc c691 df3c aef0 08bd d004 3abd
000003b0: 2ad2 12bd ed19 093e 0cb1 ecbc ef9c 72bd
000003c0: 558e 303e b44a 8dbc 7003 e9bb fddd 63bd
000003d0: ebcc 5cbc a07b 9cbc 8237 223e a481 db3d
000003e0: a994 52b8 ee13 3cbe f66d c0bd 5240 9fbc
000003f0: dc48 a9bc d851 09bd 4a80 a43d 6a21 33bd
-0.047067743 -0.009171386 0.041627355 -0.048188243 -0.014412585 0.055832513 1.1891643e-13 -0.01426535
-0.040133297 -0.08334392 -0.019120203 -0.0021442964 -0.02252903 0.15880252 -0.011453773 -0.12520488
-0.024445267 -0.0013767089 -0.04486757 -0.017581848 0.024961742 0.021195646 -0.03180107 -0.13237171
-3.6562138e-05 -0.10367179 0.095687486 -0.047922123 -0.029297926 -0.018630527 0.046375383 -0.006892237
2.8410213e-12 0.007795191 0.035777032 -2.7800358e-12 0.009420078 -0.022485998 1.708677e-14 -0.011873944
-1.3124889e-19 0.09400413 0.004575064 0.005691969 -0.019008785 -0.07511876 0.0048100986 -0.12240125
-0.059297442 -2.8883215e-10 -0.06318089 -0.004056041 3.405086e-05 0.0005694013 0.06718052 0.084098734
-7.470394e-05 -0.07881005 0.06340248 6.496312e-21 7.167547e-21 0.009384438 0.16492088 0.0057038255
-0.090444475 -0.09316848 0.016576752 -0.09480571 -0.08759252 0.122420095 1.06790605e-16 -0.02835463
-0.10147632 0.06862842 -0.07221491 -0.105725475 -0.10894497 0.022884222 -0.050361432 0.13756056
-0.026271991 -0.067836806 -0.032263547 -0.1355067 0.025358919 -0.14364316 0.11424059 0.0912983
-0.00016340932 0.15661114 0.12125377 -0.09141606 -0.005550531 -0.12299883 0.18117976 -0.09974986
-5.9121203e-06 -0.055367883 -0.027749572 2.609881e-08 -0.03757021 0.12408434 -6.63992e-17 -0.013296637
-1.579691e-05 -0.11433654 -0.026326807 -0.05263276 -0.039156046 0.1441805 -0.026179554 0.121381424
-0.10890182 0.0010443303 -0.114589795 -0.05054488 -0.041298937 -0.052112997 -0.08794876 -0.01722121
-7.52268e-05 0.06477945 -0.009600687 -5.5881148e-21 0.001511972 -0.045437064 0.008128631 -0.05517114
0.03147249 -0.01750846 -0.03444386 0.03976037 -0.0117951855 -0.05226672 4.869491e-19 -0.0009888574
0.02709452 -0.055691496 0.023102475 -0.017032817 -0.0071102935 -0.1079002 -0.002492124 -0.03605107
-0.009247023 0.031248387 -0.047904514 -0.015042229 0.009293676 0.0073221023 0.057374243 -0.06352123
7.8886984e-08 -0.04930048 -0.122914724 0.039234675 -0.021422202 -0.0014068434 -0.06302645 -0.020019844
0.105630435 -0.013729454 -0.0862265 0.071567185 -0.030210951 -0.10555332 1.3556244e-10 -0.0037456218
0.014033191 -0.17472829 -0.047255397 -0.023952903 -0.028157342 -0.15554827 -0.020901818 -0.047113426
-0.024030808 0.017033821 -0.08606536 -0.0035146687 0.06639236 -0.047286667 0.01287675 -0.053458527
-7.0653017e-09 -0.07193516 -0.06381844 0.076796055 0.087669484 -0.015818588 -0.08073625 -0.01943144
0.1617654 0.011122447 -0.10890619 0.065347 -0.023965888 -0.091317356 1.0767717e-06 -0.00059650926
0.1455438 -0.097636506 -0.12615967 -0.021462014 -0.020853218 -0.05796879 -0.0117950775 -0.15109609
-0.030385286 0.090881936 -0.13456824 -0.0010326192 0.053100754 -0.020748382 0.01746612 -0.1601389
6.431657e-07 -0.046853967 0.033980556 0.07843078 0.055217277 -0.0005339035 -0.024375498 -0.0020333151
-0.025649467 -0.05597834 -0.03460975 -0.02205752 -0.045325343 -0.21689747 -5.442301e-10 -0.013534668
-0.02205229 0.02729119 -0.033432655 -0.045414746 -0.03584496 0.13388796 -0.028893016 -0.059231695
0.17241795 -0.017247535 -0.0071110055 -0.055631626 -0.013476591 -0.019101918 0.15841487 0.10718086
-5.0206352e-05 -0.18366978 -0.093959734 -0.01943985 -0.020664625 -0.033525318 0.08032282 -0.043733038

fc1.bias f4 [16]
00000000: 668d ca3d 6c48 6ebd 9750 fc3c 07ac c8bb
00000010: bc64 5c3d 6380 da3d 2a3b c13d b1f5 bd3a
00000020: 2d6d dc3d e40c 99bd b941 d2bc c342 84bd
00000030: 6adf 453e 8fb9 15b5 1c28 1f3d 945b ad3d
0.09890251 -0.058174536 0.030800147 -0.006124023 0.053807005 0.10669019 0.09435113 0.0014492777
0.10763011 -0.07473162 -0.025666105 -0.06458046 0.19323507 -5.577685e-07 0.03885661 0.08464733

fc2.weight f4 [1, 16]
00000000: 2308 433d 01ae e43d e00a 3b3e a53b e03d
00000010: c223 46bd 7d4f d8bd 5f8c 44be 4b60 f83d
00000020: f07c 7a3e 7784 5cbe 7569 413e b679 09be
00000030: cf3b 343e eb4f 1f33 8430 68be 9533 903e
0.04761518 0.11166001 0.18265867 0.10948876 -0.048373945 -0.10562036 -0.19194172 0.121277414
0.24461722 -0.21534906 0.18887885 -0.13425335 0.1760094 3.7092757e-08 -0.22674757 0.28164354
