outputs/models/model_rmf.pth (torch, 28453 bytes, 9 tensors)

lstm.weight_ih_l0 f4 [128, 1]
0	0xbd3da4fa	-0.046299912
1	0x3d104f13	0.03523166
2	0xbce9e9cd	-0.028553868
3	0x3e1e5597	0.15462337
4	0x3e0a3ba5	0.13499315
5	0x3da25cc0	0.07927847
6	0x3ebe4fd6	0.37170285
7	0xbdf0b988	-0.11754137
8	0x3c825c7d	0.015913242
9	0x3e118c5a	0.14213696
10	0x3e699912	0.22812298
11	0xbdb2df2b	-0.08733972
12	0x3d7462af	0.059664425
13	0x3e2a96ff	0.16659163
14	0xbe18b2e9	-0.14911999
15	0x3db522ec	0.088445514
16	0x3ea2677a	0.3171957
17	0x3c84577c	0.016154997
18	0xbd7a67be	-0.061134093
19	0x3e362ec7	0.17791282
20	0x3e43bfed	0.19116183
21	0x3e49b00d	0.19696064
22	0x3e01d677	0.12679468
23	0x3e6ddf1f	0.23229645
24	0xbd30101c	-0.042984113
25	0x3df4145a	0.11917944
26	0x3e325753	0.17416124
27	0x3e702da8	0.23454916
28	0x3de02de2	0.109462515
29	0x3bdeb3ee	0.0067963516
30	0x3da1bdd2	0.078975335
31	0x3d4e8177	0.050416436
32	0xbec44b5f	-0.38338754
33	0xbe0796f5	-0.1324118
34	0xbecafad3	-0.3964449
35	0x3d2b7eb0	0.041868865
36	0xbe329ea2	-0.17443326
37	0xbd93b8ff	-0.072130196
38	0xbeac3e85	-0.3364145
39	0xbd39d7ef	-0.045371946
40	0xbcfc7bed	-0.030820811
41	0xb8f69a02	-0.0001175888
42	0xbecc1d3d	-0.39866057
43	0xbb97e79d	-0.0046357648
44	0xbc224877	-0.009904972
45	0xbc8c8278	-0.017152056
46	0xbe812baa	-0.25228626
47	0x3d9aec6e	0.07564627
48	0xbe8f713d	-0.2801608
49	0xbdca28a2	-0.09871031
50	0x3dc0960e	0.09403621
51	0xbe7eb1a8	-0.24872458
52	0xbe153744	-0.14571863
53	0x3df822e0	0.12116027
54	0xbd3a173a	-0.045432307
55	0xbe931581	-0.28727344
56	0xbe0724f1	-0.13197686
57	0x3d9ae828	0.075638115
58	0x3e0ab4cb	0.1354553
59	0xbd55b07d	-0.052170265
60	0xbe3cb96e	-0.18430111
61	0x3e8d12b6	0.27553338
62	0xbe8621c6	-0.26197642
63	0xbea8056a	-0.3281663
64	0x391f6570	0.0001520121
65	0xbe0736cb	-0.13204496
66	0x3c8e1d52	0.017347965
67	0xbc8cc079	-0.017181622
68	0x3b53acdf	0.0032299084
69	0xbd88457e	-0.066538796
70	0x3d2e01b5	0.042482097
71	0x3eb01eb5	0.34398428
72	0x3dc081fb	0.09399792
73	0x3bdcad0b	0.0067344955
74	0x3d2e1834	0.04250355
75	0xbed9d57c	-0.42545688
76	0xbe1f65dd	-0.15566202
77	0xbd5fbbe1	-0.054622535
78	0x3de336c9	0.11094434
79	0x3e587cbe	0.21141335
80	0x3cd692f3	0.026193118
81	0xbd362d12	-0.044476576
82	0xbeb21659	-0.34782675
83	0x3e27df0e	0.16393682
84	0xbdaaaf01	-0.083341606
85	0xbda6b04a	-0.08139093
86	0xbd11fabe	-0.035639517
87	0x3d7d9b1e	0.06191551
88	0xbeba82f0	-0.36428022
89	0x3e064951	0.13113905
90	0xbeb84ca5	-0.35995975
91	0xbe28c99c	-0.16483158
92	0xbec353e4	-0.3814994
93	0x3ecd366b	0.4008058
94	0x3be63e27	0.007026452
95	0x3e19ffd5	0.15038998
96	0xbd007e67	-0.031370547
97	0xbd96834b	-0.07349261
98	0xbdf1003c	-0.11767623
99	0x3ed35cbb	0.41281685
100	0x3d9bbeda	0.076047614
101	0x3e89929c	0.26869667
102	0x3e58bc97	0.21165691
103	0x3e6798ef	0.22616933
104	0xbd4a2e32	-0.04936046
105	0x3d9cb842	0.07652332
106	0x3da3c520	0.07996583
107	0xbe2475d1	-0.16060568
108	0xbd8c557f	-0.068522446
109	0x3d8cd211	0.068760045
110	0x3e2d9186	0.16950044
111	0xbd24514a	-0.040116586
112	0x3e8ea10c	0.27857244
113	0x3da85b7e	0.08220576
114	0xbddc712f	-0.107637756
115	0x3e4cc01f	0.19995163
116	0x3cc0601c	0.023483329
117	0x3e6c9abf	0.23105906
118	0x3cbc60ed	0.022995437
119	0x3e66802a	0.22509828
120	0xbdfa4a03	-0.12221148
121	0x3ea0871d	0.31353083
122	0xbd9fa561	-0.077952154
123	0x3e890651	0.26762632
124	0xbe401633	-0.18758468
125	0x3e833918	0.25629497
126	0xbcecb0c2	-0.028892878
127	0xbcfef871	-0.031124325

lstm.weight_hh_l0 f4 [128, 32]
0	0xbe085f2b	-0.13317554
1	0xbddc2b73	-0.10750475
2	0x3e0e6b46	0.13908109
3	0x3e567e4e	0.20946619
4	0x3d2f4021	0.042785767
5	0x3e219e54	0.15783054
6	0xbd061f99	-0.032744978
7	0x3e0c95af	0.13728975
8	0x3e0688a0	0.13138056
9	0xbd88d0e2	-0.06680466
10	0xbcbb0a42	-0.02283204
11	0xbd502cac	-0.050823852
12	0x3e1bd6ba	0.1521863
13	0xbcba27ba	-0.022724021
14	0x3e098c6c	0.13432473
15	0xbd74e43f	-0.059787985
16	0x3b6051a1	0.0034228342
17	0xbe024f65	-0.12725599
18	0x3dc6815d	0.09692643
19	0xbd92a309	-0.07160003
20	0x3d5507cf	0.0520094
21	0xbc542fbe	-0.012950836
22	0x3dc6edb8	0.0971331
23	0xbbcab9a0	-0.006186679
24	0xbe09f057	-0.13470589
25	0xbe3dd449	-0.18538012
26	0x3d60c05c	0.05487095
27	0x3e30eee4	0.1727863
28	0xbc6535b5	-0.013989856
29	0xbcd6e1ae	-0.02623066
30	0xbc2957d4	-0.010335881
31	0x3d1f1419	0.038837526
32	0xbceb4092	-0.028717313
33	0xbdab10ea	-0.083528355
34	0x3d979160	0.07400775
35	0x3d652693	0.05594499
36	0x3cfe2972	0.031025622
37	0x3d346d72	0.044049688
38	0xbdc07664	-0.09397581
39	0x3de61e3b	0.11236235
40	0x3da72e33	0.08163109
41	0xbd05d835	-0.032676894
42	0x3c1c3b35	0.0095356
43	0xbda2a1ea	-0.07941039
44	0x3d212f63	0.039351832
45	0xbcdf2a55	-0.027241865
46	0x3d288f25	0.04115214
47	0x3c795277	0.015217415
48	0x3cbe5aa3	0.023236578
49	0xbd8c1a96	-0.06841008
50	0xbd154531	-0.03644294
51	0x3c7ccc0a	0.015429506
52	0xbc83f7af	-0.016109316
53	0xbd958714	-0.07301155
54	0x3cfaf914	0.030636348
55	0xbd4d8eec	-0.05018513
56	0xbdd40778	-0.10352987
57	0xbd1d2a13	-0.038370203
58	0xbd3ae949	-0.045632634
59	0x3d1faa76	0.038980924
60	0xbd3f3224	-0.046678677
61	0x3dac44a6	0.08411531
62	0xbd268997	-0.04065856
63	0xbbd5a08a	-0.006519382
64	0x3ca9615f	0.020676313
65	0xbd968986	-0.07350449
66	0x3d11711b	0.035508256
67	0x3d7369ff	0.059427258
68	0x3d737d6e	0.05944579
69	0x3d4ae9c7	0.049539354
70	0x3ccf4ef1	0.025306197
71	0x3daa510c	0.0831624
72	0x3d77ddc5	0.06051423
73	0xbcfb7954	-0.030697502
74	0x3d4f0aa4	0.050547257
75	0xbd209d12	-0.039212294
76	0x3c945d49	0.018110888
77	0x3bd38a58	0.006455701
78	0x3d1d1e39	0.0383589
79	0x3aeb6935	0.0017960431
80	0x3d851071	0.064972766
81	0xbd499fa3	-0.049224507
82	0xbc1742f9	-0.009232276
83	0x3ce007e8	0.02734752
84	0xbc0a7a23	-0.008451971
85	0xbd081d9b	-0.03323136
86	0x3d01c186	0.0316787
87	0x3ce2dc0e	0.02769282
88	0xbd9631a9	-0.07333691
89	0xbd2db6a8	-0.042410523
90	0xbc92bd6f	-0.017912595
91	0x3cc86ae0	0.024465024
92	0xbd45d0b4	-0.048294738
93	0x3d8be59e	0.068309054
94	0xbd7c766c	-0.061636373
95	0x3cb484ed	0.02203604
96	0xbb68b87b	-0.003551035
97	0xbd64c41b	-0.055851083
98	0x3da8962a	0.082317665
99	0x3d4ba6d7	0.049719658
100	0x3cb04755	0.021518389
101	0x3d87b93e	0.06627129
102	0xbcf8bded	-0.030364001
103	0x3d91722a	0.07101853
104	0x3d88ad8a	0.06673725
105	0xbce3698c	-0.02776029
106	0x3cfa136a	0.030526835
107	0xbd4d45f7	-0.05011555
108	0x3d3940af	0.045227703
109	0xbbbe6eed	-0.005811563
110	0x3d82a8fc	0.063798875
111	0xbc94c62b	-0.0181609
112	0x3cd7d4ab	0.026346525
113	0xbd38503f	-0.044998404
114	0xba6c0cb5	-0.0009004579
115	0xbd6493a1	-0.055804852
116	0x3c95d806	0.018291485
117	0xbbba76b3	-0.0056904196
118	0x3d21359a	0.03935776
119	0x3b8da284	0.004322352
120	0xbdac5180	-0.084139824
121	0xbd7ec930	-0.062203586
122	0xbc2e6652	-0.010644512
123	0x3d669aab	0.056299847
124	0xbd12d0c5	-0.03584363
125	0x3d2aa975	0.041665513
126	0xbcd65c41	-0.026167037
127	0x3d16efa4	0.036849633
128	0xbd92823c	-0.071537465
129	0xbd9702dd	-0.07373593
130	0x3daca494	0.08429828
131	0x3e2c914f	0.16852306
132	0x3d108730	0.035285175
133	0x3deb3c2f	0.114860885
134	0xbd75f066	-0.060043715
135	0x3de41193	0.111361645
136	0x3dac4725	0.08412007
137	0xbd365f0b	-0.044524234
138	0xbc07ece4	-0.008296225
139	0xbd243146	-0.040086053
140	0x3de8864c	0.1135374
141	0xbba5f456	-0.0050645275
142	0x3dba13f3	0.09085836
143	0xbd57c107	-0.05267432
144	0x3c99b5f7	0.018763525
145	0xbdb9e47d	-0.09076784
146	0x3d873138	0.066011846
147	0xbd705c58	-0.058681816
148	0x3d02a821	0.03189862
149	0xbcac41c7	-0.021027459
150	0x3d96f75e	0.073714
151	0xbcdb490c	-0.02676823
152	0xbdc033ed	-0.09384904
153	0xbe19fe10	-0.15038323
154	0x3d39b651	0.045339886
155	0x3e083adf	0.13303708
156	0xbc6e0108	-0.014526613
157	0xbc0fe38a	-0.008782277
158	0xbb97f8e4	-0.0046378244
159	0x3c650325	0.0139778005
160	0x3bc5708e	0.0060253805
161	0xbd50371e	-0.050833814
162	0x3d8533f0	0.06504047
163	0x3d85c6e2	0.065320745
164	0x3cc89cac	0.02448877
165	0x3d7e0434	0.062015727
166	0xbcb8ef17	-0.022574944
167	0x3d41907a	0.047256924
168	0x3d43a0c0	0.047760725
169	0xbcb210a5	-0.021736452
170	0x3d15551a	0.036458112
171	0xbca41164	-0.020027824
172	0x3d56d5c5	0.05244996
173	0x3c4eb4e9	0.0126163745
174	0x3d51b773	0.05120034
175	0xbcdfca05	-0.02731801
176	0x3d30a6e3	0.043127906
177	0xbd2cc82c	-0.042183086
178	0x3cc503db	0.02404969
179	0xbd620329	-0.055178795
180	0x3b1d6f3f	0.0024022607
181	0x3ca76d54	0.020437874
182	0x3d2fb517	0.04289731
183	0x3c52f8f2	0.012876736
184	0xbd70d40c	-0.058795974
185	0xbd8781c6	-0.06616549
186	0x3ca8b100	0.020592213
187	0x3d70bd96	0.058774553
188	0xbc906ac4	-0.017629035
189	0xbc2a6c81	-0.010401846
190	0xbce3d9bd	-0.027813787
191	0x3cba4ed0	0.022742659
192	0xbd43c810	-0.047798216
193	0xbcc86b34	-0.024465181
194	0x3d9fe5cd	0.07807503
195	0x3c81d80b	0.015850088
196	0x3b1ba65d	0.0023750283
197	0x3df0e881	0.117630966
198	0xbea31c52	-0.31857544
199	0x3d13a601	0.036046986
200	0x3d878b27	0.06618338
201	0xbd1bfbdf	-0.038082
202	0xbdcf827a	-0.10132308
203	0xbc285e03	-0.01027632
204	0x3de94d3e	0.11391686
205	0x3c9e0146	0.019287717
206	0x3d28eb68	0.041240126
207	0xbde501b3	-0.11181965
208	0xbd32c4fa	-0.043644883
209	0xbd4d764c	-0.050161645
210	0x3d479c87	0.04873326
211	0xbe5ce91f	-0.21573304
212	0x3d81757a	0.06321235
213	0x3cc62e5a	0.024192024
214	0x3dac743a	0.08420606
215	0xbe249c82	-0.16075328
216	0xbd378224	-0.044801846
217	0xbe018d08	-0.12651455
218	0x3d829b7f	0.06377315
219	0x3e27b4c1	0.16377546
220	0x3d77ce04	0.060499206
221	0xbd2c74fa	-0.042103745
222	0xbc9733b8	-0.018457279
223	0xbd8aa2a3	-0.06769302
224	0x3caeeced	0.02135321
225	0xbd829fc8	-0.06378132
226	0x3ce86fc7	0.028373612
227	0xbb66e604	-0.0035232315
228	0x3d1b7e05	0.03796198
229	0xbb2ec9bc	-0.0026670536
230	0xbdb8405a	-0.08996649
231	0x3d73949f	0.059467908
232	0x3d32e9fa	0.04368017
233	0xbc9656b0	-0.018351883
234	0x3a5b90fa	0.000837579
235	0xbd6508e6	-0.05591669
236	0x3c5eddef	0.013602718
237	0xbbcce6dc	-0.0062531065
238	0xbc6f5ffe	-0.014610289
239	0x3ba8ab47	0.005147371
240	0xbb98fa33	-0.004668498
241	0xbd075a04	-0.03304483
242	0xbd25f629	-0.04051796
243	0x3d32108a	0.043472804
244	0xbc609acc	-0.013708781
245	0xbda7b1e4	-0.08188227
246	0x3c00dd7c	0.007865306
247	0xbd852d78	-0.06502813
248	0xbd8c2854	-0.068436295
249	0x3a9839ab	0.0011613866
250	0xbcb7e46c	-0.022447787
251	0x3a149a2f	0.0005668727
252	0xbca38d31	-0.019964786
253	0x3d97e59e	0.07416843
254	0xbd84f5df	-0.06492209
255	0xbd416c3e	-0.04722237

lstm.bias_ih_l0 f4 [128]
0	0x3ea3dc53	0.32004032
1	0x3e113416	0.14180025
2	0x3e434b1f	0.19071625
3	0x3e4e73eb	0.20161407
4	0x3e46e762	0.19424203
5	0x3e4e9b67	0.20176469
6	0x3e9c8536	0.30570382
7	0x3e074b81	0.13212396
8	0x3d2fafbf	0.042892214
9	0xbd48ed37	-0.04905435
10	0x3e6fe840	0.2342844
11	0x3e5f5372	0.21809176
12	0x3e2fc287	0.1716405
13	0x3e20db22	0.15708593
14	0x3e31fc3b	0.17381375
15	0x3de475f7	0.111553125
16	0x3e4cb318	0.19990194
17	0xbc5d1182	-0.013492944
18	0x3e51669a	0.20449296
19	0x3e5f24e1	0.21791412
20	0x3d8ae5bc	0.067820996
21	0x3e4dfd0e	0.20116064
22	0x3d2b0f3d	0.04176258
23	0x3e65cea4	0.22442108
24	0x3e1e61a8	0.1546694
25	0x3ddf353d	0.10898826
26	0x3e3910b4	0.18072778
27	0x3e1b77df	0.15182446
28	0x3e9e3459	0.30899313
29	0x3e634bdf	0.22196911
30	0x3e7af773	0.24508457
31	0x3e9c7643	0.30558977
32	0xbdaf696a	-0.08565028
33	0x3e63c171	0.22241761
34	0x3d7eb920	0.062188268
35	0x3c94ed9e	0.018179711
36	0x3cc24334	0.023713686
37	0xbbd1adb3	-0.0063988804
38	0x3a85c1d3	0.0010204859
39	0x3b942b0c	0.004521733
40	0x3ca9686d	0.020679677
41	0xbd6eeedc	-0.058333263
42	0x3c649334	0.013951112
43	0x3d95d92c	0.07316813
44	0x3dd371fd	0.10324476
45	0xbcede1af	-0.029038278
46	0xbdbaeb68	-0.091269314
47	0xbd40f5c1	-0.04710937
48	0xbac80d2f	-0.0015262718
49	0x3c55e749	0.013055631
50	0x3b3d6c7d	0.0028903775
51	0xbd26d06b	-0.040726107
52	0xbc2371ab	-0.009975831
53	0x3e01e137	0.12683569
54	0x3b55b64c	0.0032609878
55	0xbdcb2bd4	-0.09920469
56	0x3e1e0dee	0.15435001
57	0x3c43e51d	0.01195648
58	0xbcf96adb	-0.03044646
59	0x3d9faa5d	0.07796166
60	0xbcdc9830	-0.026928037
61	0x3dcf34f1	0.1011752
62	0x3d07c1e7	0.033143904
63	0xbda1a5f5	-0.07892982
64	0xbd3a5c68	-0.04549828
65	0x3dd00b7c	0.101584405
66	0x3d6e8da2	0.05824054
67	0x3d8a51aa	0.067538574
68	0x3d5d754d	0.054066945
69	0x3e03bbd5	0.12864621
70	0x3ba8b45f	0.005148455
71	0x3de2042f	0.11035954
72	0x3d8e097f	0.06935405
73	0xbdd1e16e	-0.102480754
74	0xbdafb200	-0.08578873
75	0x3dd36f02	0.103239074
76	0x3d1a35b3	0.037648868
77	0xbda45a1d	-0.08025
78	0x3c9baece	0.019004252
79	0xbcfc07d3	-0.03076545
80	0x3dcbe8fc	0.099565476
81	0xbdf9776d	-0.12180982
82	0xbd2b1ba5	-0.04177441
83	0xbca906c1	-0.020633103
84	0x3e15137e	0.14558217
85	0xbbf36b53	-0.0074285655
86	0x3d4083a5	0.047000546
87	0xbe12dff6	-0.14343247
88	0x3d512fc5	0.051070947
89	0xbdc949f9	-0.09828562
90	0xbc862f48	-0.016379967
91	0x3e1182dc	0.14210075
92	0x3dd3631f	0.1032164
93	0xbd95a9bc	-0.07307765
94	0x3c78676d	0.015161377
95	0x3d832f92	0.06405558
96	0x3e8b8c77	0.27255604
97	0x3d9fda0c	0.07805261
98	0x3e371e9a	0.17882767
99	0x3cebfc21	0.028806748
100	0x3e499902	0.19687274
101	0x3ceccc5c	0.02890604
102	0x3e9f8b80	0.31161118
103	0x3e059926	0.13046703
104	0x3d938839	0.07203717
105	0xbc1862da	-0.009300912
106	0x3e8f6611	0.28007558
107	0x3e4ec38c	0.20191783
108	0x3e2b0db3	0.16704445
109	0x3e5a2ed7	0.2130693
110	0x3e009012	0.12554958
111	0x3c48a667	0.012246705
112	0x3e386f32	0.18011168
113	0x3d71d75d	0.059043277
114	0x3e5eac42	0.21745399
115	0x3e74371f	0.23849152
116	0x3df91af5	0.12163345
117	0x3e7d1c9b	0.24717943
118	0x3d964e4c	0.07339153
119	0x3ed5e41e	0.41775602
120	0x3e282163	0.16418986
121	0x3d878b9a	0.06618424
122	0x3e8347fb	0.25640854
123	0x3dc1744c	0.0944601
124	0x3e43b925	0.19113596
125	0x3e334883	0.1750813
126	0x3ea80968	0.32819676
127	0x3e9b5b4e	0.30343097

lstm.bias_hh_l0 f4 [128]
0	0x3ea025ff	0.3127899
1	0x3da0f955	0.07860056
2	0x3e12b557	0.14326988
3	0x3e21d0bb	0.1580228
4	0x3e5a7bde	0.21336314
5	0x3e1084ff	0.14113234
6	0x3ecbdc77	0.3981664
7	0x3e3405f0	0.1758039
8	0x3d3f5830	0.04671496
9	0x3c0328b9	0.0080053145
10	0x3e729f31	0.23693539
11	0x3e5a4a33	0.21317367
12	0x3dfe77cb	0.124251924
13	0x3def66ab	0.11689504
14	0x3e06d17d	0.13165851
15	0x3d639a26	0.05556693
16	0x3e543936	0.20724949
17	0x3cc18329	0.023622112
18	0x3e4caec9	0.1998855
19	0x3e1e446d	0.1545579
20	0x3d9a62d1	0.07538379
21	0x3e4cd4f6	0.20003113
22	0x3e03deb6	0.12877926
23	0x3e6ff03d	0.23431487
24	0x3e3d1777	0.18465982
25	0x3daf7447	0.085671
26	0x3e5b5a4a	0.21421161
27	0x3d3d8a0f	0.04627424
28	0x3e963107	0.2933428
29	0x3e58a6ea	0.21157423
30	0x3e805ab5	0.25069204
31	0x3e9ce259	0.3064144
32	0xbd136052	-0.03598053
33	0x3e571266	0.21003112
34	0x3b2adb97	0.0026070827
35	0x3cccb342	0.02498782
36	0xbde159e4	-0.110034734
37	0xbda33214	-0.07968536
38	0x3cc3d691	0.023906024
39	0x3dd0bb6c	0.10191998
40	0xba41341d	-0.0007370131
41	0xbc49c5db	-0.012315239
42	0x3bc613b2	0.0060448283
43	0x3d85c125	0.0653098
44	0x3da86441	0.08222247
45	0x3b658e42	0.003502742
46	0xbd8a63b6	-0.067572996
47	0xbc694b83	-0.014239195
48	0xbd018651	-0.031622235
49	0x3d471800	0.048606873
50	0x3dc5115c	0.09622452
51	0xbd774d57	-0.06037649
52	0x3d9d072d	0.07667384
53	0x3d5e181a	0.054222204
54	0xbd0916b5	-0.03346892
55	0xbbf5aae9	-0.0074971807
56	0x3dd57f1c	0.10424635
57	0x3b7550dc	0.003743223
58	0x3ce38812	0.027774844
59	0x3c5be197	0.013420484
60	0x3d6115fd	0.05495261
61	0x3e1e2185	0.15442474
62	0xbcec08b1	-0.028812738
63	0xbd97baa8	-0.07408649
64	0x3b186a41	0.0023256692
65	0xbd95766c	-0.07297978
66	0x3dbbaaa7	0.09163409
67	0x3d8ab77b	0.06773277
68	0xbd6570d8	-0.05601582
69	0x3df40779	0.11915488
70	0xbdffa202	-0.124820724
71	0xbd87c4f8	-0.06629366
72	0x3dfe9a0b	0.12431725
73	0xbbc3ee11	-0.0059793075
74	0xbca57492	-0.020197187
75	0xbd9dc9be	-0.07704495
76	0x3d890f75	0.06692401
77	0xbbcc068d	-0.006226367
78	0x3df52e6d	0.11971746
79	0xbd91ad17	-0.071130924
80	0xbde18435	-0.110115446
81	0x3d7950ca	0.060868062
82	0x3dcc9972	0.09990205
83	0xbe1836bc	-0.1486463
84	0x3c10c98e	0.008837117
85	0x3c99a578	0.01875566
86	0xbbb462c6	-0.005504939
87	0x3d6bcb33	0.057566833
88	0xbdafefa3	-0.08590629
89	0xbdfea9c8	-0.12434727
90	0xb9117730	-0.00013872678
91	0x3de04bda	0.109519675
92	0x3cba109f	0.022713004
93	0x3d996c00	0.074913025
94	0xbd01e116	-0.0317088
95	0xbca85987	-0.020550502
96	0x3e93abb5	0.2884194
97	0x3de32a63	0.11092069
98	0x3e51996c	0.20468682
99	0x3d5b460c	0.0535336
100	0x3e3f9ff3	0.1871336
101	0x3e334e46	0.17510328
102	0x3ea505ff	0.32231137
103	0x3cdcd61e	0.026957568
104	0x3db2befe	0.08727835
105	0x3d077eaa	0.03307978
106	0x3e85ca51	0.26130918
107	0x3e4a3db0	0.19750094
108	0x3e279f36	0.16369328
109	0x3e464652	0.19362763
110	0x3e3b3352	0.18281296
111	0x3e497502	0.19673541
112	0x3e3a871c	0.18215603
113	0x3e0854bc	0.13313574
114	0x3e1fa8e1	0.15591766
115	0x3e731af5	0.23740752
116	0x3d08c5f8	0.033391923
117	0x3e3ef4c4	0.18648058
118	0x3da095ca	0.0784107
119	0x3ea5a685	0.32353607
120	0x3e2cda7e	0.16880223
121	0x3dc5f7f7	0.09666436
122	0x3e97227c	0.29518497
123	0x3e1bf773	0.15231113
124	0x3e743140	0.23846912
125	0x3e6a9976	0.22910103
126	0x3eac3f37	0.3364198
127	0x3e673b5d	0.22581239

gcn.bias f4 [32]
0	0xbd59dd7f	-0.05318975
1	0xbc435262	-0.011921497
2	0xbc32120f	-0.010868563
3	0xbcb9265b	-0.022601297
4	0xbc225f21	-0.009910376
5	0xbc945988	-0.018109098
6	0xbc579b18	-0.013159536
7	0xbbf70b4c	-0.0075391885
8	0x3caad6c5	0.020854363
9	0xbd17c8a7	-0.03705659
10	0x3c812e10	0.015769035
11	0xbd47b4aa	-0.04875628
12	0x3d3d83b0	0.046268165
13	0x3cefbd7c	0.029265158
14	0xbd006cc1	-0.031353716
15	0xbcd54c90	-0.026037484
16	0xbbd04c45	-0.0063567483
17	0x3ca67abe	0.0203222
18	0x3d60e767	0.054908182
19	0xbc359411	-0.011082665
20	0xbca8f9bd	-0.020626897
21	0x3c680767	0.014161921
22	0xbc41b7c4	-0.011823598
23	0x3c88924d	0.016671324
24	0xbc47f719	-0.012204909
25	0x3cc65286	0.024209272
26	0xbbd403c5	-0.006470176
27	0xbd897e2a	-0.06713517
28	0xbd51b180	-0.051194668
29	0x3da57027	0.08078032
30	0x3cbf6c51	0.023367079
31	0xbbaa0114	-0.005188117

gcn.lin.weight f4 [32, 32]
0	0x3bc76870	0.006085448
1	0xbdbe8322	-0.09302355
2	0x3c869503	0.016428476
3	0x3d849418	0.06473559
4	0x3d65a215	0.056062777
5	0x3d25ff77	0.040526833
6	0x3dcb8ab8	0.09938568
7	0x3d916c47	0.071007304
8	0x3c240149	0.010010072
9	0xbcd33396	-0.025781434
10	0x3e09e139	0.13464822
11	0xbd2fbcff	-0.04290485
12	0x3c2c1715	0.01050355
13	0x3d984410	0.07434857
14	0x3c606531	0.013696001
15	0xbcdfa814	-0.027301826
16	0x3e02bc02	0.12767032
17	0xbd39f99a	-0.045404054
18	0xbc58fee5	-0.013244365
19	0xbbaba102	-0.0052376995
20	0xbd8bbb0a	-0.06822784
21	0x3db3e0bf	0.08783101
22	0x3d0691da	0.03285394
23	0x3da94236	0.08264582
24	0xbd83f41b	-0.06443044
25	0xbd4cc1fb	-0.04998968
26	0xbbdab3bb	-0.0066742576
27	0x3c1d1e06	0.009589678
28	0xbddde090	-0.108338475
29	0x3a7ad337	0.00095682166
30	0xbca41193	-0.020027911
31	0x3ce515a8	0.027964428
32	0x3cbb5ca5	0.022871325
33	0xbdcc8614	-0.09986511
34	0x3d66a492	0.05630929
35	0x3dcff44c	0.10154018
36	0x3d95712e	0.07296978
37	0x3e318b42	0.17338279
38	0x3e841982	0.2580071
39	0x3e54c368	0.20777667
40	0x3e2b8372	0.16749361
41	0x3d24a1af	0.040193256
42	0x3d4a26e7	0.049353506
43	0x3cb130ae	0.021629658
44	0xbdf8d4d7	-0.12149971
45	0xbd75da9d	-0.06002294
46	0xbd2f4da5	-0.042798657
47	0x3dbde928	0.09272987
48	0x3df7232a	0.12067254
49	0xbd8a8c40	-0.06765032
50	0xbd0856ec	-0.03328602
51	0xbbf174d3	-0.007368663
52	0x3cf0a934	0.029377557
53	0xba15babb	-0.0005711724
54	0x3dd267a7	0.10273676
55	0xbd289e2c	-0.04116647
56	0x3d1ebeb6	0.038756095
57	0xbe68fd10	-0.22752786
58	0xbd8f21ad	-0.06988845
59	0x3c369cde	0.0111457985
60	0xbdb54a8b	-0.088521086
61	0xbdc6c49d	-0.0970547
62	0xbc9ec339	-0.019380199
63	0xbb9f2dd5	-0.0048577585
64	0x3e16840c	0.1469881
65	0x3d92341c	0.07138845
66	0xbe033620	-0.12813616
67	0x3d1282e6	0.035769366
68	0x3d6b6c3d	0.05747627
69	0x3cc60350	0.024171501
70	0xbd547d0b	-0.051877063
71	0xbd698f31	-0.057021324
72	0xbc40b92e	-0.0117629
73	0x3d3a0a1d	0.0454198
74	0xbc015392	-0.00789346
75	0x3da64c34	0.08120003
76	0xba2b904e	-0.00065446354
77	0x3d4f3a20	0.05059254
78	0xbcfe1522	-0.031015936
79	0xbd901a03	-0.07036211
80	0x3cc0b9fc	0.023526184
81	0x3d885139	0.06656117
82	0x3d82d3b5	0.06388036
83	0xbc5400cc	-0.012939643
84	0x3d2d5c14	0.04232414
85	0xbc055ee3	-0.008140299
86	0x3d8f76f4	0.070051104
87	0xbd447019	-0.047958467
88	0x3da4037d	0.08008478
89	0xbdac294e	-0.08406316
90	0x3d54ac89	0.051922355
91	0xbdc00fcd	-0.09378014
92	0x3e1bfd12	0.15233257
93	0xbd2b3af9	-0.041804288
94	0xbdc349f2	-0.09535588
95	0xbe006581	-0.1253872
96	0x3e0450f3	0.12921505
97	0x3c4d7c86	0.012541896
98	0xbd9e39bd	-0.077258565
99	0xbd0fa6dc	-0.03507124
100	0x3d23dada	0.040003635
101	0xba132f7f	-0.00056146824
102	0x3ca71e66	0.020400237
103	0xbd28a217	-0.041170206
104	0xbded8392	-0.11597361
105	0x3da322e9	0.07965643
106	0x3ddb8af0	0.107198596
107	0x3d185e1d	0.03719913
108	0x3d769a0a	0.060205497
109	0x3dab89f8	0.08375925
110	0xbdeaaf67	-0.114592366
111	0xbd0ad418	-0.033893675
112	0xbd39d13c	-0.045365557
113	0xbdacaa72	-0.08430947
114	0x3dcc0768	0.0996235
115	0x3d8a224d	0.067448236
116	0xbd8b0b00	-0.067892075
117	0x3e02b09c	0.12762684
118	0xbc5e810c	-0.013580572
119	0x3d79eaa3	0.061014783
120	0x3d823523	0.06357791
121	0xbe067abb	-0.13132755
122	0xbc591389	-0.013249286
123	0xbdcd8ada	-0.100362495
124	0x3e17c246	0.14820203
125	0xbd576129	-0.052582894
126	0xbd7de19c	-0.061982736
127	0xbc14f748	-0.00909216
128	0xbd0ca136	-0.03433343
129	0x3b2fadda	0.0026806504
130	0x3e20b1f3	0.15692882
131	0xbdf3178a	-0.11869724
132	0xbe0583c2	-0.13038543
133	0xbe239cd6	-0.15977797
134	0xbc2a8a6f	-0.010408982
135	0x3cc85234	0.02445326
136	0x3ca2f839	0.019893752
137	0xbbb15b94	-0.0054125283
138	0xbc2d0584	-0.010560397
139	0xbd607247	-0.054796483
140	0xbd875dbf	-0.066096775
141	0xbddb9af9	-0.10722918
142	0x3d1553fe	0.036457054
143	0x3c6cdaf5	0.0144565
144	0xbd7ff6e5	-0.062491316
145	0x3c81a337	0.015824897
146	0xbdb2762b	-0.08713945
147	0x3c926096	0.017868321
148	0xbd75414c	-0.059876725
149	0xbd7723e6	-0.06033697
150	0xbc1e071b	-0.009645249
151	0x3d576d14	0.05259426
152	0xbd353ccb	-0.04424743
153	0xbc760b3c	-0.015017327
154	0xbdf602c7	-0.120122485
155	0xbc6d6f46	-0.014491862
156	0xbd83f89b	-0.06443902
157	0x3d31067a	0.043219067
158	0x3dc00539	0.09375996
159	0x3d8a10f2	0.06741513
160	0xbda4809f	-0.08032345
161	0x3d141978	0.0361571
162	0xbdf7d26e	-0.12100683
163	0x3e94d5eb	0.29069456
164	0x3dabb7ee	0.08384691
165	0xbe25f161	-0.1620536
166	0x3e932329	0.28737763
167	0x3de13488	0.10996348
168	0xbe093459	-0.13398875
169	0xbd59f9be	-0.05321669
170	0x3d0dac72	0.034588285
171	0xbce9b3b2	-0.028528068
172	0x3e0d1fc5	0.1378165
173	0x3d206026	0.039154194
174	0xbc331f1d	-0.010932711
175	0xbd0bd9db	-0.03414331
176	0x3e4ea8da	0.201816
177	0xbe599a4a	-0.21250263
178	0x3d97d20d	0.07413111
179	0xbd81a782	-0.06330778
180	0xbd3b48e7	-0.045723822
181	0xbd700d05	-0.058606166
182	0xbbef3416	-0.0072999103
183	0x3ea02310	0.3127675
184	0xbdf516d7	-0.11967247
185	0x3d2c5291	0.04207093
186	0x3de342a5	0.11096696
187	0x3dd1d6f5	0.10246078
188	0xbe14793e	-0.14499375
189	0x3d6d8f3d	0.05799793
190	0x399d556b	0.00030009015
191	0x3e12d6bd	0.14339729
192	0x3bc97a0e	0.0061485833
193	0x3c4731be	0.012157856
194	0x3cb74382	0.022371057
195	0xbcb9ff6d	-0.022704804
196	0x3d2902aa	0.041262306
197	0xbd1aabe0	-0.03776157
198	0xbdde8b38	-0.108663976
199	0xbd2ca643	-0.042150747
200	0xbdb1ebd6	-0.0868756
201	0xbc01c0a6	-0.007919466
202	0xbdadc7c4	-0.08485368
203	0xbc73d856	-0.0148831215
204	0x3dafd58d	0.085856535
205	0xbbcdc7a5	-0.006279903
206	0xbdfc1a01	-0.12309647
207	0xbd049550	-0.032368958
208	0xbd8bc92f	-0.06825482
209	0xbd8ffe83	-0.07030966
210	0xbd72a53f	-0.059239622
211	0xbc2014b5	-0.009770562
212	0x3d98e3c8	0.07465321
213	0xbd664023	-0.05621351
214	0xbc5bd319	-0.013417029
215	0xbda2f0ab	-0.0795606
216	0xbbc68bdb	-0.0060591525
217	0xbdab3634	-0.08359948
218	0xbd0ac813	-0.033882212
219	0x3b3298d0	0.0027251728
220	0x3dc7ea1c	0.0976145
221	0x3cf84fc1	0.030311467
222	0xbd947891	-0.07249559
223	0xbde0d074	-0.10977259
224	0x3d52d37b	0.051471215
225	0xbbb22fee	-0.0054378426
226	0xbdbf04c5	-0.093270816
227	0x3da3579b	0.07975694
228	0xbc8fd754	-0.017558731
229	0xbcbb298f	-0.022846965
230	0x3dee51b8	0.1163668
231	0x3e540616	0.20705447
232	0x3e02e659	0.12783183
233	0x3dfd6d04	0.12374309
234	0x3d2684a1	0.04065383
235	0x3afbda24	0.0019214791
236	0x3dafd159	0.08584852
237	0xbd2a57c5	-0.04158761
238	0x3e203c26	0.15647945
239	0x3d06b723	0.032889497
240	0x3cbc194b	0.02296128
241	0xbdc8a29f	-0.097966425
242	0xbe0ddfe3	-0.13854937
243	0xbd959240	-0.073032856
244	0x3c488d25	0.012240683
245	0x3e1ac653	0.15114717
246	0x3e493b53	0.19651537
247	0x3e33d3cb	0.17561261
248	0x3c15d1be	0.009144245
249	0xbe102091	-0.14074923
250	0xbdccc1f6	-0.099979326
251	0x3e82434b	0.25441965
252	0xbe129062	-0.1431289
253	0xbd86432e	-0.06555782
254	0x3cfebce3	0.031095928
255	0xbda0740f	-0.078346364

fc1.weight f4 [16, 32]
0	0xbd903986	-0.07042222
1	0x3cfcdbf8	0.030866608
2	0x3dc02358	0.09381741
3	0x3d91e5d9	0.07123918
4	0x3d811b84	0.06304076
5	0x39a227e4	0.0003092877
6	0x3c51e8aa	0.012811819
7	0xbc112195	-0.008858104
8	0xbc3ebc70	-0.011641607
9	0x3c92ecb6	0.017935138
10	0x3d2424a9	0.040074024
11	0x3d8a70c3	0.06759789
12	0x3c8ffc02	0.017576221
13	0x3d96a22f	0.07355153
14	0x3c6de01e	0.014518766
15	0x3d9e8e1d	0.0774195
16	0x3c944751	0.018100413
17	0xbc41860c	-0.011811744
18	0x3d761564	0.060078993
19	0xbb06330c	-0.0020477204
20	0x3cf783b4	0.030214168
21	0xbc9b1e2d	-0.018935287
22	0x3d2bc5ec	0.0419368
23	0x3ca8f099	0.020622538
24	0x3d87215e	0.06598161
25	0x3d8f4da9	0.069972344
26	0x3bae114a	0.0053121196
27	0x3aa6e7c2	0.0012733864
28	0x3ce4a299	0.027909564
29	0xbc05229c	-0.008125927
30	0x3dbd5e21	0.09246469
31	0x3da391c1	0.07986785
32	0x3dc784f2	0.09742154
33	0x3c17f155	0.009273847
34	0xbbbca6aa	-0.0057571726
35	0xbd76227f	-0.06009149
36	0xbde92f98	-0.11386031
37	0x3e596523	0.21229987
38	0xbdcb0409	-0.09912879
39	0x3e440c6c	0.19145364
40	0x3d569000	0.052383423
41	0x3d102fce	0.03520184
42	0x3c6aff7c	0.014343139
43	0x3e3239bc	0.17404836
44	0xbddc0e2d	-0.10744891
45	0x3d4bfc77	0.049801316
46	0x3d84c99d	0.06483767
47	0xbd80deff	-0.06292533
48	0xbd5d0e5b	-0.05396877
49	0x3d15b7f3	0.03655238
50	0xbdd669df	-0.10469412
51	0xbd8ca205	-0.0686684
52	0xbcbca17c	-0.02302622
53	0xbd62a417	-0.05533227
54	0x3da11d85	0.078669585
55	0x3bfb4b46	0.0076688854
56	0xbd8b3f0f	-0.06799137
57	0x3d8a9d84	0.06768325
58	0xbdd4d110	-0.10391438
59	0x3d7b1844	0.06130244
60	0x3e42ce76	0.19024071
61	0xbdf9c7b3	-0.12196293
62	0x3de4b219	0.11166782
63	0x3e09c6b5	0.13454707
64	0x3dd32db7	0.10311454
65	0x3dfa87b8	0.122329175
66	0xbd96c8f6	-0.07362549
67	0x3ca77c4d	0.020445013
68	0xbddc032d	-0.10742793
69	0x3e4edcb7	0.20201384
70	0x3d1eb5e4	0.038747683
71	0x3cc72184	0.024307974
72	0x3d2baa94	0.041910723
73	0x3dc5ad54	0.096522
74	0x3d9fca8b	0.07802304
75	0x3dee54a1	0.116372354
76	0xbe0f55b3	-0.13997535
77	0x3d654420	0.055973172
78	0x3d1e53a8	0.038654
79	0x3de6ac8f	0.11263382
80	0xbd2b2a4a	-0.041788377
81	0x3d4251ee	0.047441415
82	0xbe079bdc	-0.1324305
83	0xbd7ca6fb	-0.061682682
84	0x3da2376e	0.079207286
85	0xbdcd40f8	-0.100221574
86	0x3dfde026	0.123962685
87	0x3e33771f	0.1752591
88	0xbdb97c74	-0.09056941
89	0xbd43c425	-0.04779448
90	0x3c931ffd	0.01795959
91	0x3e16ee2b	0.14739291
92	0x3e0085a2	0.12550977
93	0xbe24da3f	-0.1609888
94	0xbd79973c	-0.060935244
95	0x3e221670	0.15828872
96	0xba37fe31	-0.00070187735
97	0xbd0d1ca8	-0.034451157
98	0x3b1addaf	0.002363067
99	0x3cae1cd0	0.021253973
100	0x321304d7	8.557627e-09
101	0xba520d36	-0.0008012833
102	0xb7f1c8a7	-2.8822875e-05
103	0x3bd2a967	0.0064288857
104	0xbc61afe8	-0.0137748495
105	0xbd219c12	-0.03945548
106	0xbd4b0088	-0.049561054
107	0xbab9be1b	-0.0014171036
108	0xa95ac9dd	-4.8580812e-14
109	0x3a79afe1	0.0009524804
110	0x3c0044f8	0.007828943
111	0xbd40c96c	-0.04706709
112	0xb73e0c7f	-1.1327792e-05
113	0xbc1fc404	-0.009751324
114	0x3c7d1a02	0.015448095
115	0x37b5fba4	2.169406e-05
116	0x3db8cbdf	0.0902326
117	0x345bc115	2.0466207e-07
118	0xbc45bc7b	-0.012068863
119	0xb8967655	-7.1745984e-05
120	0x3a4b0405	0.00077444344
121	0x39c27b95	0.0003709464
122	0x386241a1	5.394372e-05
123	0xbd76f5a9	-0.060292874
124	0xbcb43ce2	-0.022001687
125	0x28bd2c91	2.1002543e-14
126	0x3bf5143d	0.007479219
127	0x3d3300fc	0.04370211
128	0x3dc447f2	0.09584035
129	0xbc9e46e2	-0.019320909
130	0xbd1dc71a	-0.038519956
131	0x3cf6cef0	0.030127972
132	0xbdf3e89b	-0.119096
133	0x3e44a13b	0.1920213
134	0xbd18def9	-0.03732202
135	0x3d8c856d	0.068613864
136	0x3cea5779	0.028606163
137	0x3e372888	0.17886555
138	0xbb77c56c	-0.0037806882
139	0x3e439b47	0.19102202
140	0xbdaf2a93	-0.08553042
141	0x3d3df5ea	0.0463771
142	0x3dadc647	0.08485084
143	0x3e5821e0	0.21106672
144	0xbd401c27	-0.04690185
145	0x3ce0aad4	0.027425207
146	0xba9b11e2	-0.0011830891
147	0xbdcc93a2	-0.09989096
148	0x3ba49b49	0.0050233942
149	0xbdd9997e	-0.106249794
150	0xbcbb0cdb	-0.022833278
151	0xbcb86ffb	-0.022514334
152	0xbd28f063	-0.041244876
153	0x3e1dd761	0.15414192
154	0xbd85fb11	-0.06542028
155	0x3e44e2f4	0.19227201
156	0x3e42aedd	0.19012018
157	0xbe08e86c	-0.13369912
158	0x3c975540	0.018473268
159	0x3d186f15	0.03721531
160	0xbcaa8d3d	-0.0208193
161	0xbe1c6635	-0.15273364
162	0xbc7d7866	-0.0154706
163	0xbd2b556d	-0.041829515
164	0xbd604860	-0.054756522
165	0xbcb3994b	-0.021923682
166	0xbcd06a6a	-0.025441367
167	0xbdf6a2a6	-0.120427415
168	0xbd1af878	-0.037834615
169	0xbcafc504	-0.021456249
170	0xbdc376e7	-0.09544163
171	0xbc7eb142	-0.015545191
172	0x3d413c94	0.047176912
173	0xbd1616c3	-0.0366428
174	0xbd390969	-0.04517499
175	0x3da0c25e	0.078495726
176	0x3dff50a9	0.124665566
177	0xbcd61544	-0.026133187
178	0xbd03f84b	-0.032219213
179	0x3d092f3a	0.033492304
180	0x3da0bae0	0.078481436
181	0x3be04a4c	0.0068447944
182	0xbd9fe916	-0.078081295
183	0xbde582ed	-0.11206613
184	0x3dd0bef0	0.101926684
185	0xbdf25908	-0.118333876
186	0x3c8df7f3	0.017330145
187	0x3b117819	0.0022196828
188	0xbd272088	-0.04080251
189	0x3d218469	0.039432917
190	0x3d083e9f	0.033262845
191	0xbd9ec1f9	-0.07751841
192	0xa71a0555	-2.1374684e-15
193	0x266b467f	8.1627543e-16
194	0xa8d71dc8	-2.388271e-14
195	0xa57d61e9	-2.1977425e-16
196	0xa7eae23c	-6.519333e-15
197	0xa91716f3	-3.354864e-14
198	0xa88fbfa9	-1.5959309e-14
199	0xa6f6c23e	-1.7122328e-15
200	0x272aaf66	2.3687323e-15
201	0xa8287ee7	-9.353391e-15
202	0xa8c55642	-2.1908802e-14
203	0x28e515a2	2.5433489e-14
204	0xa55cc110	-1.914737e-16
205	0xa84eb3d3	-1.147429e-14
206	0x270df3ee	1.9699915e-15
207	0x27380c65	2.5541849e-15
208	0xa7f74056	-6.8626025e-15
209	0x267e1b65	8.816108e-16
210	0xa877ed2a	-1.3762681e-14
211	0xa5f33598	-4.2190097e-16
212	0x28c06a02	2.1362256e-14
213	0x28aea49a	1.9389265e-14
214	0x2923cdd6	3.6371805e-14
215	0x28ed4305	2.634135e-14
216	0x27e5283a	6.360388e-15
217	0x27e5e8e9	6.381279e-15
218	0xa3bb6e98	-2.0321419e-17
219	0x2936e0b8	4.060703e-14
220	0x289d188a	1.7441144e-14
221	0x25fe9378	4.4161905e-16
222	0x291b6900	3.4507987e-14
223	0xa975aeb6	-5.4552466e-14
224	0xbc223cee	-0.009902222
225	0x3c946293	0.01811341
226	0xbcc250bf	-0.023720143
227	0xbc5491b4	-0.012974191
228	0x39927cde	0.00027940323
229	0x3b9b77d1	0.004744508
230	0xbb048843	-0.002022282
231	0x3d15f504	0.03661062
232	0xbc4d35a3	-0.012524995
233	0xbc650a13	-0.013979453
234	0x3cda883b	0.026676288
235	0x3c3ec30e	0.011643184
236	0xb73f36fa	-1.1397287e-05
237	0xbc2ef6ad	-0.010678929
238	0xbd380806	-0.044929527
239	0xbd6d1c4c	-0.057888314
240	0x3cb69c2e	0.02229127
241	0xbab8232e	-0.001404857
242	0xbb05b19c	-0.0020400053
243	0xba43ef8b	-0.00074743544
244	0x3c23455d	0.009965268
245	0x3a95dc2a	0.0011433412
246	0xbd2f7a98	-0.042841524
247	0xbd0d7bc0	-0.034541845
248	0x3cb3682e	0.021900263
249	0x3cde5d0c	0.027143978
250	0xbc4ec33d	-0.012619791
251	0x3d5a8837	0.05335256
252	0xbcf40983	-0.029789692
253	0xb9796576	-0.00023784288
254	0xbd55edc9	-0.052228723
255	0xbcea6d54	-0.028616585

fc1.bias f4 [16]
0	0xbdb6fcbc	-0.08934924
1	0x3dc0d2c5	0.09415201
2	0x3dd18eb2	0.10232295
3	0xbdd30872	-0.10304345
4	0x3d3ee326	0.046603344
5	0x3c844e42	0.016150597
6	0xaa8de96d	-2.5208603e-13
7	0xbda3afb3	-0.07992496
8	0x3d39447c	0.045231327
9	0xbb9ea50d	-0.004841453
10	0x3d53cd7b	0.051709633
11	0x3e01e4eb	0.12684982
12	0x3d38492b	0.044991653
13	0xbd8712f6	-0.065954134
14	0x3d33ac08	0.043865234
15	0xbc097c6e	-0.008391483

fc2.weight f4 [1, 16]
0	0xbd74918f	-0.059709128
1	0x3dfb0946	0.12257628
2	0x3e19e015	0.15026887
3	0xbd4dca1d	-0.05024158
4	0x3ddfcf91	0.10928262
5	0xbe05cb97	-0.13065945
6	0xa96a803c	-5.2069663e-14
7	0xbda0de45	-0.078548945
8	0xbb446186	-0.0029965355
9	0x3b424e64	0.0029648775
10	0xbe53e581	-0.20693018
11	0xbe1cda4c	-0.15317649
12	0x3e1b245d	0.1515059
13	0xbddc8318	-0.10767192
14	0x3db39f1e	0.087705836
15	0x3df0c928	0.117571175
