outputs/models/model_interior.pth (torch, 117730 bytes, 11 tensors)

gcn1.bias f4 [32]
0	0x3d3d9a7e	0.046289913
1	0x3dd58ac0	0.10426855
2	0x3d9fa3e0	0.077949286
3	0x3d31fcfe	0.043454163
4	0x3e0f3fea	0.13989225
5	0xbc0f0083	-0.008728149
6	0x3d834fff	0.064117424
7	0x3dd96616	0.106151745
8	0x3d1baed4	0.038008526
9	0x3d719660	0.0589813
10	0x3df4afce	0.119475946
11	0x3ddc71bf	0.10763883
12	0xbe000bbe	-0.1250448
13	0x3da4eb2d	0.08052669
14	0x3df8c32f	0.12146603
15	0x3e0240c9	0.12720026
16	0x3d93e3da	0.072211936
17	0x3da04c1e	0.07827018
18	0x3dc0b0e4	0.09408739
19	0xbd7ddbd1	-0.06197721
20	0x3daed6ff	0.08537101
21	0x3d71052f	0.058842834
22	0x3d32a57f	0.04361486
23	0x3dc1747f	0.09446048
24	0xbe1a10b1	-0.1504543
25	0x3c29472d	0.010331911
26	0x3de3c424	0.11121395
27	0x3d704fda	0.058669902
28	0x3dc073b4	0.093970686
29	0x3dd6bf71	0.10485733
30	0x3dd951fa	0.10611339
31	0x3d8f4426	0.0699542

gcn1.lin.weight f4 [32, 1]
0	0xbec4d55f	-0.3844404
1	0xbc82132e	-0.015878286
2	0x3e9d1151	0.30677274
3	0xbeba03e7	-0.36331102
4	0x3e631501	0.22175981
5	0xbab8cdc7	-0.0014099412
6	0x3e0452af	0.12922166
7	0x3e8389c6	0.2569105
8	0xbea14af5	-0.315025
9	0xbf01d6dc	-0.50718474
10	0x3e9109db	0.28327832
11	0x3d3a773a	0.04552386
12	0x3db32936	0.08748095
13	0x3e79db52	0.2440007
14	0x3e33fde8	0.17577326
15	0x3e9d379f	0.30706498
16	0xbf19e47c	-0.60114264
17	0x3ea87b48	0.32906556
18	0xbf53c745	-0.82725936
19	0x3e9894d7	0.29801056
20	0xbde0d214	-0.10977569
21	0x3eac14fc	0.3360976
22	0xbeb9d5e1	-0.3629599
23	0xbf4ba183	-0.7954332
24	0x3dfefd64	0.12450674
25	0x3eacec25	0.33773914
26	0x3de0bc2d	0.10973392
27	0x3eb1116f	0.34583613
28	0xbf4b6719	-0.7945419
29	0xbc88f3b6	-0.016717773
30	0xbc868616	-0.016421359
31	0xbf15bf15	-0.58494693

gcn2.bias f4 [32]
0	0x3b833e0a	0.0040051984
1	0x3d369cf1	0.044583265
2	0xbd13c4aa	-0.036076225
3	0x3e0708f3	0.13187008
4	0x3ab2b7ca	0.0013635096
5	0xbc219270	-0.009861574
6	0x3c0de7a5	0.008661185
7	0x3bc40a77	0.005982693
8	0x3c652f37	0.013988308
9	0x3d09fc8a	0.033688106
10	0x3e154639	0.14577569
11	0x3ce0fc38	0.027464017
12	0xbc9eef7e	-0.019401308
13	0x3b75c2c8	0.0037500132
14	0x3ca01b55	0.019544283
15	0x3b113944	0.0022159377
16	0x3c090784	0.008363608
17	0x3ab9919f	0.0014157778
18	0x3d8d862d	0.069103576
19	0xbca24ed2	-0.019812975
20	0x3b0147c8	0.0019726623
21	0xbc40d5e3	-0.011769745
22	0x3cc5e2ff	0.024156092
23	0x3cd1392f	0.025539963
24	0x3a2f6f9b	0.0006692351
25	0xbbbe464a	-0.005806719
26	0xbca7ef88	-0.02049996
27	0xbd4c980b	-0.049949687
28	0x3b9270e7	0.0044690254
29	0x3ccce4dc	0.025011472
30	0xbb954651	-0.0045555015
31	0xbcb86daa	-0.02251323

gcn2.lin.weight f4 [32, 32]
0	0xbf10e7f8	-0.56603956
1	0x3e5e5965	0.21713789
2	0xbd4004c9	-0.046879563
3	0xbed42241	-0.41432384
4	0x3e87bb2a	0.26509982
5	0xa3d7d99d	-2.340251e-17
6	0xbe3abd4c	-0.18236274
7	0x3e6791e9	0.22614254
8	0xbf1066c7	-0.56406826
9	0xbf284d9e	-0.65743434
10	0x3d8bc98e	0.06825553
11	0xbe216086	-0.15759477
12	0xbe8b9241	-0.2726002
13	0xbdb7e24d	-0.0897871
14	0xbdccb6cb	-0.099958025
15	0x3e629db9	0.22130479
16	0xbf1ff4ee	-0.6248311
17	0x3d89b77f	0.06724452
18	0xbf4a8fc5	-0.79125625
19	0x3e10d492	0.14143589
20	0x3e4cb99d	0.19992681
21	0x3c9e94fb	0.019358149
22	0xbf1344e2	-0.5752698
23	0xbf254214	-0.6455395
24	0xbde025a8	-0.10944682
25	0x3d1fa799	0.038978193
26	0x3c7e55ba	0.0155233685
27	0xbb950f8a	-0.0045489715
28	0xbf4f6131	-0.8100768
29	0x3e86a756	0.26299542
30	0x3ec6af55	0.38805643
31	0xbf340fe8	-0.7033677
32	0x3e3ac547	0.18239318
33	0x3d93631b	0.07196637
34	0xbe35f9a8	-0.17771018
35	0xbe694bd1	-0.22782828
36	0xbe316664	-0.17324215
37	0x2bfb59c9	1.7859543e-12
38	0x3c8b14ed	0.016977752
39	0x3e812178	0.25220847
40	0xbd898c9f	-0.067162745
41	0x3e3c30f9	0.18378057
42	0xbe1e2896	-0.1544517
43	0x3de5c9b0	0.112201095
44	0x3dd63a3d	0.10460327
45	0x3d18405e	0.03717076
46	0xbe1bba24	-0.15207726
47	0xbe128f65	-0.14312513
48	0xbe64545f	-0.2229781
49	0xbcf9f08b	-0.030510208
50	0x3dbfd373	0.093665026
51	0x3a4dc322	0.00078492064
52	0xbe096580	-0.13417625
53	0xbde16d66	-0.11007194
54	0xbc48d268	-0.012257196
55	0x3c65a8fc	0.01401734
56	0x3e1c623c	0.15271848
57	0x3e639fd3	0.22228937
58	0x3e350b76	0.17680153
59	0xbd6dc23e	-0.058046572
60	0xbd923e90	-0.07140839
61	0xbe513d9f	-0.20433663
62	0x3e14597a	0.14487258
63	0x3d4dc408	0.050235778
64	0x3e093c53	0.13401918
65	0xbda3b62e	-0.079937324
66	0x3c6c3aca	0.014418313
67	0xbd871a18	-0.06596774
68	0x3a5c4798	0.0008403002
69	0x8000eb7d	-8.4477e-41
70	0xbd5ddde2	-0.054166682
71	0xbd0d0cc8	-0.034436017
72	0xbc8a9efc	-0.016921513
73	0xbdcf6ade	-0.10127805
74	0x3e174ff5	0.14776595
75	0x3cea05b0	0.028567165
76	0x3e549887	0.2076131
77	0xbe35a546	-0.17738828
78	0x3ccd8b64	0.02509088
79	0xbdb508ea	-0.08839591
80	0xbde7b1cc	-0.11313209
81	0x3d4eafee	0.05046075
82	0xbd7ae69b	-0.06125508
83	0x3d9f946f	0.07791983
84	0x3d9e4cae	0.07729469
85	0x3c18d99a	0.009329224
86	0xbc464538	-0.012101464
87	0x3e06da1c	0.1316914
88	0x3e2b4173	0.16724186
89	0x3e1260c5	0.14294727
90	0x3e2e6c9a	0.17033616
91	0xbe168bdf	-0.14701794
92	0x3d27fd0f	0.04101282
93	0x3d8198ea	0.06327994
94	0xbdee449f	-0.11634182
95	0x3ccb0134	0.024780847
96	0xbd428af8	-0.047495812
97	0xbe4f7873	-0.20260791
98	0x3d8312b5	0.064000525
99	0x3d64af8e	0.055831484
100	0x3d773f29	0.06036297
101	0xa31306b3	-7.9703046e-18
102	0xbe5362d5	-0.2064317
103	0x3d7f0441	0.062259916
104	0x3d659a3b	0.05605529
105	0x3e296b4a	0.16544834
106	0x3cac55a3	0.021036929
107	0xbd36dd05	-0.044644374
108	0x3ddc4e8c	0.10757169
109	0xbe7bfaa6	-0.24607334
110	0x3d31cd46	0.043408655
111	0x3d1a9dea	0.037748255
112	0xbd8c3937	-0.0684685
113	0xbe58f763	-0.2118812
114	0xbdbda578	-0.09260076
115	0x3da86486	0.08222298
116	0x3deb2fb4	0.11483708
117	0x3e16ceb6	0.14727291
118	0x3d448f4c	0.04798822
119	0xbdd195e6	-0.10233669
120	0x3e0e311a	0.13885918
121	0xbd4fc509	-0.050725017
122	0xbdc6ebbc	-0.097129315
123	0x3be5dcda	0.007014853
124	0xbe12b90b	-0.14328401
125	0xbe8950d4	-0.2681948
126	0xbdbf0680	-0.09327412
127	0xbdf06a12	-0.11738981
128	0x3db3dd38	0.087824285
129	0xbcf11081	-0.029426815
130	0x3e06fc3c	0.13182157
131	0x3b06e8b2	0.0020585475
132	0xbe5d5482	-0.21614268
133	0x9a1a8944	-3.1957336e-23
134	0xbdbd6f24	-0.09249714
135	0x3da6c0e7	0.08142262
136	0x3cabde96	0.02098016
137	0xbcc76d20	-0.024344027
138	0x3d902306	0.0703793
139	0x3e26c036	0.1628426
140	0xbe16e329	-0.14735092
141	0xbc29b573	-0.010358202
142	0x3d26ba0e	0.04070478
143	0x3da691c3	0.081332706
144	0xbe30a5f0	-0.172508
145	0xbd85e57b	-0.065379106
146	0xbe8c37ce	-0.27386326
147	0xbe41f699	-0.18941726
148	0x3e1254e0	0.1429019
149	0x3dbf9ed6	0.093564674
150	0xbe9450ca	-0.28967887
151	0xbe47daf7	-0.19517122
152	0xba30a1eb	-0.0006737995
153	0x3dfe9771	0.12431229
154	0x3e155a67	0.14585267
155	0xbd7551ed	-0.059892584
156	0xbe6f68b3	-0.23379783
157	0x3e72290c	0.2364847
158	0xbc81f508	-0.01586391
159	0xbdd5e008	-0.10443121
160	0x3e404a71	0.18778397
161	0x3eb88142	0.36036116
162	0x3b23b1aa	0.0024977722
163	0x3da2f7a2	0.079573885
164	0x3e884d29	0.2662137
165	0xaf5a3b6e	-1.9848098e-10
166	0x3d2750f6	0.040848695
167	0x3e978f81	0.29601672
168	0xbd9ad9cc	-0.07561073
169	0x3d982f21	0.07430864
170	0x3e3dba94	0.18528205
171	0x3dc18ee7	0.094510846
172	0xbe6a49a4	-0.22879654
173	0x3c941bcb	0.018079659
174	0x3e80879a	0.25103456
175	0x3e995602	0.2994843
176	0x3e7560a4	0.23962647
177	0xbdae7d68	-0.08520013
178	0xbe91565a	-0.28386194
179	0x3ccde01c	0.025131278
180	0x3e324012	0.17407253
181	0x3e175bb6	0.14781079
182	0xbe62d1ca	-0.2215034
183	0xbdf954a9	-0.12174351
184	0x3d4bd405	0.049762744
185	0x3e375d26	0.17906627
186	0xbe81ad7a	-0.25327665
187	0x3e080c23	0.1328588
188	0xbcb95396	-0.022622865
189	0x3da15838	0.078781545
190	0xbde66700	-0.112501144
191	0x3c54dbd2	0.012991862
192	0x3e804cbb	0.2505854
193	0x3e87ce2c	0.26524484
194	0xbd9148a2	-0.07093932
195	0x3e535d0d	0.20640965
196	0x3da5c707	0.08094602
197	0x01b150c9	6.513545e-38
198	0xbd81b243	-0.06332829
199	0xbe0ed2bb	-0.13947575
200	0xbdf57d7e	-0.11986826
201	0xbe3fbb14	-0.18723708
202	0xbce99431	-0.028513046
203	0x3e5d7fa0	0.21630716
204	0xbe229ec7	-0.15880881
205	0x3d46a49c	0.048496827
206	0x3db2ba56	0.08726947
207	0x3e1644e3	0.14674716
208	0xbdabf801	-0.08396912
209	0xbe0785e3	-0.13234667
210	0x3d049cbf	0.032376047
211	0xbe53004c	-0.20605582
212	0x3e8f272c	0.27959573
213	0xbe3df843	-0.18551736
214	0x3db5de0f	0.08880245
215	0xbda89cc8	-0.08233029
216	0xbeaa3262	-0.33241564
217	0xbe34559c	-0.17610782
218	0x3cbc089c	0.022953324
219	0x3d8749e2	0.06605889
220	0x3df2826e	0.11841284
221	0x3e35eb73	0.17765598
222	0x3e34ff54	0.17675525
223	0x3e2a1243	0.16608529
224	0xbe6e4687	-0.23269092
225	0x3d48e295	0.04904421
226	0x3e4a5867	0.19760285
227	0xbca9f397	-0.020746036
228	0x3e3030f5	0.17206176
229	0x92f83f12	-1.5666548e-27
230	0x3dab6a15	0.08369843
231	0x3e1007a7	0.14065419
232	0xbeb595e6	-0.35465926
233	0xbdccf881	-0.10008336
234	0xbe81c08b	-0.2534221
235	0xbc8a7d47	-0.01690544
236	0xbdd61986	-0.10454087
237	0x3d997b5e	0.074942335
238	0x3e38b705	0.18038566
239	0xbe8e531e	-0.27797788
240	0xbe9dd0d0	-0.30823374
241	0x3c82d3b0	0.015970081
242	0xbe02bb56	-0.12766775
243	0x3e6dfb6f	0.23240446
244	0xbdc01463	-0.093788885
245	0x3e8645fd	0.26225272
246	0xbeaba249	-0.3352225
247	0xbeb8af94	-0.36071455
248	0xbbafd73e	-0.005366235
249	0xbe3c3d94	-0.18382865
250	0x3df2ac12	0.11849226
251	0xbd341e97	-0.043974485
252	0xbe166eb3	-0.14690666
253	0xbd2e8574	-0.04260774
254	0x3e491223	0.19635825
255	0xbecc42fd	-0.39894858

lstm.weight_ih_l0 f4 [256, 32]
0	0xbd21333d	-0.039355505
1	0xbc01b3ef	-0.007916435
2	0xbc90fb62	-0.017697994
3	0xbc05024e	-0.008118225
4	0xbc95830e	-0.018250968
5	0xbdf4c605	-0.11951832
6	0x3d4e8ef5	0.050429303
7	0xbd41f8ce	-0.04735642
8	0x3c2b8993	0.010469812
9	0x3ce301a6	0.027710747
10	0xbc0f75a0	-0.008756071
11	0xbc089ec4	-0.008338634
12	0xba8dcc82	-0.0010818394
13	0xbbb43de8	-0.005500544
14	0xbd64c334	-0.055850223
15	0xbdf6d6ef	-0.12052714
16	0xbcb3af7e	-0.021934267
17	0xbc55b182	-0.013042809
18	0xbc3d9b02	-0.011572601
19	0xbd153564	-0.03642787
20	0xbb54575a	-0.0032400698
21	0xbc56cad0	-0.013109878
22	0x3ced6457	0.02897851
23	0xbd04796b	-0.032342356
24	0xbda6205f	-0.08111643
25	0xbc0e7ab7	-0.00869625
26	0xbc9853bc	-0.018594615
27	0xbd2a9df6	-0.04165455
28	0xbd5e27ce	-0.05423718
29	0xbb86ac58	-0.0041099004
30	0xbd4f80fe	-0.050660126
31	0xbc3a0196	-0.011352917
32	0x3c1c001f	0.009521513
33	0xbac947c9	-0.0015356477
34	0xbc551906	-0.013006454
35	0xbc022470	-0.007943258
36	0xbb8c5399	-0.0042824266
37	0xbccbfeed	-0.024901832
38	0xbacc4f99	-0.0015587687
39	0xbbb3de3b	-0.0054891384
40	0xbb9d0d1d	-0.004792823
41	0xbc017415	-0.007901211
42	0xbaafa81b	-0.001340154
43	0xbbbd16b7	-0.00577053
44	0xbc5074fa	-0.012723202
45	0xbb3522c1	-0.0027639123
46	0xbcd1ebec	-0.025625192
47	0xbd0ef86b	-0.03490488
48	0x3bb66280	0.0055659413
49	0xbc8dd825	-0.01731498
50	0xbb3a16e2	-0.0028394987
51	0xbc15589c	-0.009115364
52	0xbb350cc3	-0.0027626015
53	0xbc2d7427	-0.010586775
54	0xbb9de6c4	-0.004818769
55	0x3be21645	0.0068996274
56	0xbd076ac8	-0.03306082
57	0xba9e5e73	-0.0012082591
58	0xbbdb99de	-0.006701692
59	0xbcafe263	-0.021470254
60	0x3ad0c7e3	0.0015928712
61	0xba931cc5	-0.0011223784
62	0xbd006a06	-0.03135111
63	0xbb5cd84e	-0.0033698264
64	0xbb493e72	-0.0030707386
65	0xbacad53a	-0.0015474923
66	0xbc417f9c	-0.01181021
67	0xbc0018b2	-0.007818388
68	0xbad702f0	-0.0016404074
69	0xbdb18bba	-0.08669229
70	0xbae5b6e0	-0.0017525814
71	0xbb587b30	-0.003303241
72	0xbb9c0404	-0.004761221
73	0xbcbb60d8	-0.022873327
74	0x39e2336b	0.00043144388
75	0xbb946868	-0.0045290478
76	0xbb8e4232	-0.004341387
77	0xbb09c269	-0.0021020418
78	0xbcd9bec1	-0.026580216
79	0x3cfb5036	0.030677896
80	0x3be0ff7d	0.006866394
81	0xbc606b62	-0.013697477
82	0xbb5f6cb6	-0.0034091896
83	0xbce8c884	-0.028415926
84	0xbbfd76fc	-0.0077351313
85	0xbbf4a093	-0.007465431
86	0xbbc386a6	-0.005966979
87	0x3c548963	0.012972209
88	0xbd8cfe58	-0.0688445
89	0xbaf562c4	-0.0018721451
90	0xbc1fabc7	-0.009745545
91	0xbc938f0d	-0.018012548
92	0xbcc0362b	-0.02346333
93	0xba9d2090	-0.0011987854
94	0xbcf49541	-0.029856326
95	0xbb6b4aad	-0.0035902665
96	0x3d8d421a	0.068973735
97	0xbc0d0060	-0.008606046
98	0xbc408115	-0.011749526
99	0xbcbf2d9a	-0.023337174
100	0x3d7c4a7d	0.061594475
101	0x3cd1a4aa	0.025591213
102	0xbbdcbc33	-0.0067363023
103	0x3d9fbb9c	0.077994555
104	0xbd3a1db9	-0.045438502
105	0xbd851d54	-0.064997345
106	0xbcad2bba	-0.021139015
107	0xbc5d4100	-0.013504267
108	0xbd2ac951	-0.041695897
109	0xbc155719	-0.009115004
110	0xbd4d9956	-0.05019506
111	0xbd5c6dc9	-0.053815637
112	0x3dbd1f7a	0.09234519
113	0xbbceb23a	-0.0063078674
114	0xbb801f40	-0.0039099753
115	0xbcdbe92c	-0.026844583
116	0xbd3cab3b	-0.046061736
117	0xbc454710	-0.012040868
118	0xbd496f48	-0.04917839
119	0x3dbac52e	0.0911964
120	0xbc30502b	-0.010761301
121	0xbcbcb44f	-0.023035197
122	0xbd81bb95	-0.063346066
123	0xbcc9077a	-0.024539698
124	0x3df2f35e	0.11862825
125	0xbc649628	-0.013951816
126	0xbd9eb2aa	-0.07748921
127	0xbaf4aaf4	-0.0018666671
128	0x3d01c1b1	0.03167886
129	0xbca6d106	-0.020363342
130	0xbda2f29b	-0.079564296
131	0xbd726cf3	-0.059185933
132	0x3db8b2b6	0.090184614
133	0x3dc189ab	0.09450086
134	0x3da81b35	0.08208314
135	0x3d224af9	0.03962228
136	0x3d358ad2	0.044321842
137	0x3ca4e706	0.020129692
138	0xbd32b8c4	-0.043633237
139	0xbcd46702	-0.025928024
140	0x3dc677a2	0.09690787
141	0xbcb7566d	-0.022380078
142	0xbdd5a0fd	-0.10431097
143	0xbdc4aa3c	-0.09602782
144	0x3cc21487	0.023691429
145	0xbd570f83	-0.052505028
146	0xbcbb7330	-0.022882074
147	0xbc2bbd2f	-0.010482117
148	0x3cfc39c7	0.03078927
149	0xbd01d988	-0.031701595
150	0x3d598cd2	0.053112812
151	0x3dfc9460	0.12332988
152	0x3df86dc1	0.12130309
153	0xbc0d6f36	-0.008632472
154	0xbbc132ba	-0.0058959397
155	0xbe0e5cd0	-0.13902593
156	0x3decd7b4	0.115645796
157	0xbd1b636d	-0.037936617
158	0xbddcd8f7	-0.1078357
159	0xbcdcf2a4	-0.026971169
160	0x3be5373f	0.0069951112
161	0xbb606c80	-0.0034244359
162	0x3c142fb9	0.009044581
163	0x3c643854	0.013929445
164	0x3c333220	0.010937244
165	0x3d4c877c	0.049933895
166	0xbc08c078	-0.008346669
167	0x3bd35c75	0.0064502307
168	0xbc989e83	-0.018630272
169	0xbcad7d21	-0.02117783
170	0x3a8ff5b7	0.0010983263
171	0x3a878f00	0.00103423
172	0xbc3824d2	-0.011239247
173	0x3bcffa74	0.006346995
174	0xbb663691	-0.003512774
175	0xba6de6eb	-0.0009075242
176	0x3c5dc917	0.013536713
177	0xb9c0fd6d	-0.0003680991
178	0x3c0a2c62	0.008433433
179	0x3c663eff	0.014053105
180	0xbc93abdf	-0.01802629
181	0x3c13da60	0.009024233
182	0xbc9f077d	-0.01941275
183	0x3c82c89c	0.015964799
184	0x3c993c7b	0.018705597
185	0xbbe5bac8	-0.0070107915
186	0xb934f1c2	-0.000172562
187	0x3c10fba0	0.008849055
188	0xbc5321bd	-0.012886462
189	0x3b55943e	0.003258958
190	0x3ca649c6	0.02029885
191	0x3aae03e5	0.0013276307
192	0xbda7dfbe	-0.08196972
193	0xbbcab667	-0.006186295
194	0x3b580874	0.0032964023
195	0xba14f33f	-0.00056819984
196	0xbb75c778	-0.0037502926
197	0x3df65165	0.120272435
198	0x3b6eb782	0.0036425297
199	0xbd0eaf5b	-0.0348352
200	0x3c3134e5	0.010815834
201	0x3b9ff5ae	0.004881582
202	0xbc99647c	-0.018724672
203	0x3b604614	0.0034221457
204	0x3d91f426	0.07126646
205	0x3be094ed	0.006853691
206	0x3ccbfccb	0.024900815
207	0x3defd63c	0.11710784
208	0xbd8a6fba	-0.067595914
209	0xbc133b5d	-0.008986321
210	0xbc5b06db	-0.013368334
211	0x3decdeb9	0.115659185
212	0xbb009b19	-0.0019623695
213	0xbbb53888	-0.0055304207
214	0xba389b67	-0.00070422
215	0xbdb033e5	-0.08603648
216	0x3db3ed2b	0.087854706
217	0xbb4f7de0	-0.003166072
218	0x3d8132a0	0.06308484
219	0xba02d733	-0.00049911736
220	0xbd0526cf	-0.032507714
221	0x3b8309d8	0.003998976
222	0x3ca66b58	0.020314857
223	0x3b3fd7da	0.0029272945
224	0x3ce9302e	0.028465357
225	0xbc50c706	-0.012742763
226	0xbc8974e2	-0.016779367
227	0xbc8c0a16	-0.017094653
228	0xbcd8b7de	-0.026454862
229	0xbd4eb19a	-0.050462343
230	0x3ceee633	0.029162502
231	0xbd580265	-0.05273666
232	0xbce7b82b	-0.02828606
233	0xbb83b6a5	-0.0040195757
234	0xbc8c03d4	-0.01709167
235	0xbc6fabc1	-0.014628352
236	0xbcfb3390	-0.030664235
237	0xbbe801c3	-0.007080288
238	0xbd61b164	-0.055100814
239	0x3d0f90f8	0.035050362
240	0x3d1aefb7	0.037826266
241	0xbc46d36c	-0.012135368
242	0xbc11ba78	-0.008894555
243	0xbd41c4a5	-0.047306675
244	0xbb9cf2cf	-0.004789687
245	0xbc665624	-0.014058623
246	0xbc55c894	-0.01304831
247	0x3ce6a7f9	0.028156267
248	0xbd8172e2	-0.0632074
249	0xbc84d9d3	-0.016217148
250	0xbd82967c	-0.06376359
251	0xbd07d3af	-0.03316086
252	0x3c3c600c	0.011497509
253	0xbc1abb7a	-0.009444112
254	0xbd8a806f	-0.06762778
255	0xbc204377	-0.00978171

lstm.weight_hh_l0 f4 [256, 64]
0	0xbc56f981	-0.01312101
1	0x3c8487bf	0.01617801
2	0xbb991365	-0.0046715015
3	0xbb2ca015	-0.0026340534
4	0x3cb2a528	0.021807268
5	0xbbdf79ed	-0.0068199546
6	0xbc9cdc95	-0.01914815
7	0x3c962e20	0.018332541
8	0x3a127b79	0.0005587857
9	0xbbcbae71	-0.0062158634
10	0x3b5b1047	0.003342645
11	0x3bb1f0c1	0.0054303114
12	0x3abda313	0.0014468156
13	0xb9c91280	-0.0003835149
14	0xbcbdbe11	-0.02316192
15	0x3b6f2ce5	0.0036495265
16	0x3cab4c61	0.020910444
17	0xbaf7b24d	-0.0018897742
18	0xbc89f11b	-0.0168386
19	0xba97c8c4	-0.0011580219
20	0x3cad160f	0.021128682
21	0xbc42e80d	-0.0118961455
22	0x3b7ae15c	0.0038281297
23	0x3b05d41f	0.0020420623
24	0xbac2fb9b	-0.001487601
25	0xbbd97afd	-0.006636976
26	0x39a39803	0.0003120304
27	0xbc24a21f	-0.010048418
28	0x3c3708f6	0.01117157
29	0x3b02dd21	0.001996823
30	0x3b7e6c08	0.0038821716
31	0x3acd2a89	0.0015652935
32	0xbc11a5b2	-0.0088896025
33	0xbc1540d2	-0.009109693
34	0xbccc6c0c	-0.024953865
35	0xbc360000	-0.011108398
36	0x3b958b05	0.0045636916
37	0x3b84f729	0.004057784
38	0xbba332ab	-0.0049804053
39	0x3bc01d24	0.005862849
40	0xbbef3db4	-0.0073010568
41	0xb8667be7	-5.4951666e-05
42	0x3bb0bfe1	0.0053939675
43	0xbcd5ea48	-0.02611269
44	0xbb6c28f6	-0.0036035157
45	0xbc7097fe	-0.014684675
46	0xbb837adc	-0.0040124487
47	0x3ce81dee	0.028334584
48	0xbc950006	-0.018188488
49	0xbbc2062c	-0.005921146
50	0xbbe87d64	-0.007095026
51	0xbc35b6b4	-0.011090923
52	0x3c0dba41	0.008650363
53	0x3adb0780	0.0016710609
54	0x3c7145d6	0.014726123
55	0x3b2ae1a6	0.0026074438
56	0x3c154b24	0.009112153
57	0xbbd8fc83	-0.0066218986
58	0xbc82588e	-0.015911367
59	0xbccb2cf1	-0.024801703
60	0x397c7f15	0.00024079935
61	0x3ac78a2f	0.0015223677
62	0xbbe2abdc	-0.00691746
63	0xbbd97317	-0.006636034
64	0x3b403bdb	0.0029332552
65	0xbc61962f	-0.013768717
66	0x3b47cdbb	0.0030487615
67	0xbc3cebba	-0.011530811
68	0x3c03d97d	0.008047459
69	0xbcc563ef	-0.024095504
70	0xbd03e44b	-0.03220014
71	0x3b3b5664	0.0028585428
72	0xbca50c9e	-0.020147618
73	0x3d3f7b11	0.046748225
74	0xbb8b5af4	-0.004252786
75	0xba28f5a0	-0.00064452924
76	0xbc867a44	-0.016415723
77	0x3afabc15	0.0019129539
78	0x3bf9d599	0.00762434
79	0xbcea258f	-0.028582362
80	0x3b37f885	0.0028071713
81	0x3cb1fc6e	0.021726813
82	0xbd412cf1	-0.047162
83	0x3cc36e3c	0.023856275
84	0x3d7ca39c	0.061679468
85	0xbcaffc46	-0.021482598
86	0xbcba1f01	-0.022719862
87	0xba8ed0dd	-0.0010895986
88	0x3ce756d4	0.028239645
89	0x3c5a1e01	0.013312818
90	0xbc0c0b61	-0.008547635
91	0xbc803c0d	-0.015653634
92	0x39b53a16	0.00034566288
93	0xbc432cf3	-0.011912572
94	0xbc8919df	-0.01673597
95	0x3c8003e0	0.015626848
96	0xbbb49bd6	-0.005511741
97	0x3c02152d	0.007939619
98	0x3bfa526f	0.0076392214
99	0xbccb14ec	-0.02479025
100	0x3c7d17fc	0.015447613
101	0x3c3635cb	0.011121224
102	0x3a9076a2	0.0011021683
103	0xbc8e6278	-0.017380938
104	0x3bb77341	0.005598456
105	0x3b06fc09	0.0020597002
106	0xba8003d7	-0.0009766769
107	0x3a936d6e	0.0011247823
108	0xbc9087a3	-0.017642802
109	0x3cbed822	0.02329642
110	0xbbbe49a5	-0.005807119
111	0x3b808a00	0.003922701
112	0xba90fce9	-0.0011061701
113	0xbb346889	-0.0027528128
114	0x3d040ae0	0.032236934
115	0x3d126b6c	0.035746977
116	0x3c2e1ab7	0.0106264865
117	0x3be6b479	0.007040557
118	0xbc53ff8a	-0.012939343
119	0xbafd4ae6	-0.001932469
120	0xbbedcc48	-0.0072570182
121	0xbdba00a4	-0.090821534
122	0xba9b9387	-0.0011869528
123	0x3c5ef57a	0.013608331
124	0x3b204ad9	0.0024458675
125	0x3babc721	0.005242244
126	0x3bb2a026	0.00545122
127	0x3c07784e	0.008268429
128	0x3b8acf48	0.0042361356
129	0x3be0c5b5	0.006859506
130	0xbb908151	-0.004409947
131	0x3b483cd1	0.0030553828
132	0x3d23f69c	0.040030107
133	0xbc827129	-0.0159231
134	0xbcb5dda5	-0.022200415
135	0x3c638c98	0.013888501
136	0xbc2a7b27	-0.010405338
137	0x3d158c01	0.03651047
138	0xba4984e6	-0.0007687345
139	0x3bd13e46	0.0063855974
140	0xbc488a80	-0.012240052
141	0x3ae0ed68	0.0017160596
142	0xbcb5ed23	-0.022207802
143	0xbc4f9b9b	-0.012671377
144	0x3c2d9513	0.010594624
145	0x3c77df2c	0.015128892
146	0xbcedfd3b	-0.029051414
147	0x3c5b6730	0.013391301
148	0x3d334ad8	0.04377255
149	0xbba12be6	-0.004918563
150	0xbc81e7e5	-0.015857646
151	0xbb12f5f1	-0.0022424425
152	0x3c8b6460	0.017015636
153	0x3baeef97	0.00533862
154	0x3badee2f	0.0053079347
155	0xbb6eae55	-0.0036419828
156	0xbb184888	-0.0023236591
157	0xbc179cf5	-0.00925373
158	0xba900269	-0.0010987046
159	0x3be25d15	0.006908069
160	0xbb0242f7	-0.001987634
161	0x3bd7d1d8	0.0065862946
162	0xbc1f2a48	-0.0097146705
163	0xbbbf4191	-0.0058366735
164	0x3c268498	0.010163449
165	0x3c246756	0.010034403
166	0x3b2d5e25	0.002645382
167	0xbc22f7c2	-0.009946765
168	0xbb2cbe10	-0.0026358403
169	0xba652862	-0.0008741674
170	0x3a615e3b	0.000859711
171	0xbbbdcfd2	-0.0057925964
172	0xbbb24dee	-0.005441419
173	0x3c0c8680	0.008576989
174	0xbb8c4700	-0.004280925
175	0xbb61130b	-0.0034343626
176	0x3b9f5224	0.004862087
177	0x37b86938	2.1983506e-05
178	0x3c4b8252	0.0124212075
179	0x3cf7a576	0.030230265
180	0x3bd42d35	0.0064751157
181	0x3b61e3aa	0.0034467974
182	0x3b8271c8	0.003980849
183	0x3b152ba6	0.0022761612
184	0x3b183422	0.0023224433
185	0xbdb10ad7	-0.08644646
186	0xbbb40504	-0.005493762
187	0xbcd8fead	-0.026488626
188	0x392f608d	0.00016725269
189	0x3a11f3c3	0.00055676344
190	0x3b01b2fe	0.0019790526
191	0xb7fd7162	-3.0212748e-05
192	0xbc49f86c	-0.012327295
193	0xbbbf06eb	-0.005829682
194	0x3ab59cb8	0.001385591
195	0xbd1816b0	-0.03713101
196	0x3bb6cc97	0.005578588
197	0xbac088fc	-0.0014689262
198	0xbd230652	-0.03980095
199	0xbc09d90d	-0.008413565
200	0xbc86c56a	-0.016451556
201	0x3c642544	0.0139249
202	0xbb1339c6	-0.0022464856
203	0xbc0a9f74	-0.008460868
204	0xbce94c1f	-0.02847868
205	0xbd08f615	-0.033437807
206	0x3d2ce5d8	0.042211384
207	0xbd31ed34	-0.043439105
208	0xbd7761bb	-0.060395937
209	0x3c601b52	0.013678389
210	0xbd676932	-0.056496806
211	0x3d27e54a	0.04099015
212	0x3d9640b8	0.07336563
213	0xbd42de20	-0.047575116
214	0xbbf845d6	-0.0075766845
215	0x3d244e37	0.040113654
216	0x3d68e822	0.056862004
217	0x3c8ad84c	0.016948842
218	0xbcae61bf	-0.021286843
219	0xbd16fcef	-0.03686231
220	0x3b8563b8	0.0040707253
221	0xbcecaa21	-0.028889718
222	0xbced6ceb	-0.0289826
223	0x3d08cbbc	0.03339742
224	0xbb74ec3d	-0.0037372254
225	0x3d481435	0.048847396
226	0x3d3449b2	0.044015594
227	0xbcb84b83	-0.022496944
228	0x3cff7be1	0.031187
229	0x3c52ee4d	0.012874198
230	0xbb56648c	-0.003271374
231	0xbb8dbecc	-0.0043257233
232	0xbbb8e355	-0.0056423345
233	0xbae95131	-0.0017800686
234	0xbc02209d	-0.007942346
235	0x3c688778	0.0141924545
236	0xbcc9afca	-0.024619956
237	0x3d48ffff	0.049072262
238	0xbc503e7f	-0.012710213
239	0x3ccc8ca5	0.024969408
240	0xbb82ffe5	-0.00399779
241	0x3adab9f6	0.0016687501
242	0x3d425fbf	0.04745459
243	0xbb9e0061	-0.0048218225
244	0x3d2fed85	0.042951126
245	0x3ad950be	0.0016579849
246	0xbd46c059	-0.04852328
247	0xb9e46e52	-0.00043569744
248	0xbc57bc1c	-0.013167407
249	0xbd2e8708	-0.042609245
250	0xbc80819d	-0.015686804
251	0xbca82f1e	-0.02053028
252	0x39d7e817	0.00041180916
253	0xb9573d84	-0.00020526914
254	0x3d83bc51	0.06432403
255	0x3c93a52e	0.0180231

lstm.bias_ih_l0 f4 [256]
0	0xbdabbaba	-0.08385225
1	0xbba8ad2d	-0.0051475973
2	0xbce70036	-0.028198343
3	0x3dac763b	0.08420988
4	0xbcbebdc1	-0.023283841
5	0x3d1effbf	0.038818117
6	0x3e0d237c	0.13783067
7	0x3d237b53	0.039912533
8	0x3d56cf52	0.05244381
9	0x3dcb7a9e	0.09935497
10	0xbcaf737c	-0.021417372
11	0xbd62ca76	-0.055368863
12	0x3d152f80	0.036422253
13	0xbd090fc4	-0.0334623
14	0x3d3abbb9	0.045589183
15	0x3c4630d4	0.0120966025
16	0x3e0d096d	0.13773127
17	0x3d5d6d2d	0.054059196
18	0xbc96b4e3	-0.0183968
19	0xbd763a09	-0.06011394
20	0x3de36deb	0.111049496
21	0x3d77a915	0.060463984
22	0x3d3ef194	0.046617106
23	0x3d08aa40	0.033365488
24	0x3bdfde97	0.0068319547
25	0x3b48bdd4	0.0030630725
26	0x3d073da9	0.033017788
27	0x3d5cb29a	0.053881265
28	0x3ba8f1fe	0.005155801
29	0xbdff9713	-0.12479987
30	0xbd6b4266	-0.05743637
31	0xbd58faa9	-0.052973423
32	0x3c073bed	0.0082540335
33	0xbdeca4be	-0.115548596
34	0x3d114097	0.03546199
35	0xbd268c6f	-0.04066127
36	0xbd835f88	-0.064147055
37	0x3dd541b0	0.104129195
38	0x3b0e1b71	0.0021683837
39	0xbd1f7853	-0.03893311
40	0x3df12137	0.11773913
41	0xbdcd3c6a	-0.10021289
42	0xbb3a0528	-0.002838442
43	0xbca200d3	-0.019775784
44	0xbd38223b	-0.04495452
45	0x3dbd9312	0.09256567
46	0x3cc7dc35	0.024396995
47	0xbd974d23	-0.073877595
48	0x3d4004ec	0.046879694
49	0xbd0ecbdf	-0.034862395
50	0xbc70bdbd	-0.014693675
51	0x3d77ef0f	0.06053072
52	0x3c5c1c82	0.013434531
53	0xbc058b76	-0.008150926
54	0xbcec452e	-0.028841581
55	0xbd09206f	-0.033478197
56	0xbc96e5b9	-0.018420087
57	0x3e0f450f	0.13991188
58	0x3d5ab202	0.053392418
59	0x3d26d0ef	0.0407266
60	0xbcc6f41b	-0.02428632
61	0x3d80e07e	0.062928185
62	0x3c239a09	0.009985455
63	0x3cfd9f30	0.030959696
64	0xbc997925	-0.018734524
65	0x3d526789	0.05136827
66	0xbd48880a	-0.048957862
67	0x3d557b2b	0.052119415
68	0x3e13abad	0.14420958
69	0x3e0c1ab2	0.13682058
70	0x3e31488d	0.17312832
71	0x3d391946	0.04519012
72	0xbc027b04	-0.0079638995
73	0x3d3c574b	0.045981687
74	0xbcc10934	-0.023563959
75	0xbd70aaaa	-0.058756508
76	0xbcb4bb9f	-0.022062121
77	0xbc5f05f2	-0.013612257
78	0x3c879068	0.01654835
79	0x3d87a12c	0.06622538
80	0x3d9e6970	0.07734954
81	0x3e0bce06	0.1365281
82	0x3da9c53b	0.08289572
83	0xbdcfd416	-0.10147874
84	0x3e201c6b	0.1563584
85	0x3de8e82e	0.1137241
86	0x3d94cba1	0.07265402
87	0x3e243b8f	0.16038345
88	0x3daba2af	0.08380639
89	0x3d881586	0.0664473
90	0x3e28cdf3	0.16484813
91	0x3c41f823	0.011838946
92	0xbcd5dc1f	-0.026105938
93	0x3c50bda4	0.012740526
94	0x3e099e9c	0.13439411
95	0x3e038688	0.12844288
96	0xbcf2f8c2	-0.029659633
97	0x3d87eaf5	0.06636611
98	0x3d882f0d	0.06649599
99	0x3d2a3425	0.041553635
100	0xbdf95679	-0.121746965
101	0x3e0ee7a6	0.13955554
102	0xbcd9b3fe	-0.026575085
103	0xbc9fa418	-0.019487426
104	0x3cdb4b21	0.026769223
105	0xbd307736	-0.04308244
106	0x3c35dcf7	0.011100045
107	0x3dc6926f	0.09695899
108	0x3c21a88d	0.009866846
109	0x3cf9b160	0.030480087
110	0xbcf7720e	-0.030205753
111	0x3d3f9507	0.046772983
112	0x3da61335	0.08109132
113	0xbc39f51f	-0.011349945
114	0x3cf73ed8	0.030181333
115	0x3d094b00	0.03351879
116	0xbc5d143c	-0.013493594
117	0x3c880b60	0.016606987
118	0x3c01b3a2	0.007916363
119	0x3d1cb031	0.038253967
120	0xbc495f75	-0.012290825
121	0x3e1f10bb	0.15533726
122	0x3d9b54e2	0.075845495
123	0x3d2e9df1	0.042631093
124	0x3d14d03b	0.036331397
125	0xbd9a8039	-0.07543988
126	0x3e158f64	0.1460548
127	0xbd42a05a	-0.047516204
128	0x3de886fb	0.113538705
129	0x3d631646	0.055441163
130	0xbd894a4c	-0.06703624
131	0x3c118468	0.008881666
132	0x3c359964	0.011083934
133	0x3cf51df9	0.029921519
134	0x3d38f6f4	0.045157388
135	0x3d0654ff	0.032795902
136	0xbd676943	-0.05649687
137	0xbd36740e	-0.044544272
138	0xba38e56e	-0.00070532307
139	0x3d9b225c	0.07574913
140	0xbd3bc0c4	-0.045838133
141	0x3d4f2db2	0.050580688
142	0xbc82cf61	-0.015968027
143	0x3d367dd5	0.044553597
144	0xbd09a7a0	-0.033607125
145	0xbd03c366	-0.03216877
146	0x3d946680	0.07246113
147	0x3d4f00c5	0.050537843
148	0x3d21402a	0.039367832
149	0x3d2df665	0.04247131
150	0xbd095d1e	-0.03353607
151	0xbdaaf3fe	-0.08347319
152	0x3d69d362	0.057086356
153	0xbd82c68b	-0.06385525
154	0xbd135e73	-0.035978746
155	0x3c0d3540	0.008618653
156	0xbda529b9	-0.080645986
157	0x39b9a843	0.00035411314
158	0x3d882928	0.06648475
159	0xbd2e4ac9	-0.04255179
160	0x3d6d5c07	0.057949092
161	0x3c88ec8a	0.016714353
162	0xbdb2f819	-0.08738727
163	0x3d8c67f2	0.068557635
164	0x3dad943e	0.084755406
165	0x3de6d073	0.11270227
166	0x3dc7f32d	0.09763179
167	0x3dc4f728	0.09617454
168	0xbe0165a8	-0.12636435
169	0x39ac3f0a	0.00032853364
170	0xbd3da72b	-0.046302002
171	0xbd3519f5	-0.044214208
172	0xbd1c72f1	-0.038195554
173	0x3d388336	0.045047008
174	0xbd8f5799	-0.0699913
175	0xbd9865ab	-0.074412666
176	0x3bbb5065	0.005716371
177	0xbd395f31	-0.045256797
178	0xbcc29528	-0.023752764
179	0x3c3f8494	0.011689324
180	0x3ceb1b73	0.028699612
181	0xbe09696a	-0.13419119
182	0x3dcd4288	0.100224555
183	0x3da252f4	0.07925978
184	0x3d61f83a	0.055168368
185	0x3dceb832	0.10093726
186	0x3d33bae3	0.0438794
187	0x3cdaaaa8	0.026692703
188	0x3d86970a	0.06571777
189	0x3d0057e5	0.031333823
190	0x3da3d73f	0.08000039
191	0xbc70b0e6	-0.014690613
192	0xbd2cdd55	-0.042203266
193	0x3d0f1e92	0.034941263
194	0xbcfb775d	-0.030696565
195	0xbd561912	-0.052270003
196	0x3dc23754	0.09483209
197	0x3b313ff2	0.002704617
198	0x3e139a17	0.1441425
199	0xbd1f056c	-0.03882353
200	0xbc61d509	-0.013783702
201	0xbcd361ec	-0.025803529
202	0x3d04a23a	0.032381274
203	0x3d549b60	0.05190599
204	0x3d0dcd9a	0.034619905
205	0xbc5c6f4d	-0.013454271
206	0x3ceb3eff	0.028716562
207	0x3c826875	0.01591895
208	0x3ddff16f	0.10934722
209	0x3c712ceb	0.014720182
210	0xbd03d4f3	-0.032185506
211	0x3d857397	0.06516188
212	0x3c9a064f	0.018801836
213	0x3dff844a	0.12476404
214	0xbba1e2f3	-0.0049403845
215	0x3b8b59d6	0.0042526526
216	0xbd07b0ed	-0.033127714
217	0x3d0cf875	0.034416635
218	0xbd7813c3	-0.06056572
219	0xbb38d276	-0.0028201616
220	0xbd69131d	-0.056902993
221	0x3d2f0377	0.042727914
222	0xbc7109a9	-0.014711776
223	0xbce939ce	-0.028469946
224	0x3c805552	0.015665684
225	0xbbe7bd2f	-0.007072113
226	0xbc54039e	-0.0129403155
227	0x3d7af8a7	0.06127229
228	0xbdb81a18	-0.08989352
229	0x3e0014ad	0.12507887
230	0xbd9179d6	-0.071033165
231	0x3d14fa06	0.036371253
232	0xbd550d58	-0.05201468
233	0xbdb31e6e	-0.087460384
234	0x3c82a305	0.015946874
235	0xbbd8e8d6	-0.006619553
236	0x3dc93a5d	0.09825585
237	0x3ccb1dc6	0.02479447
238	0x3cbbd8e6	0.022930574
239	0x3daa7c7b	0.08324524
240	0xbc4ac354	-0.012375671
241	0xbd2af6e2	-0.041739352
242	0xbcc2f829	-0.023799973
243	0x3c521a63	0.012823674
244	0xbde8cd61	-0.11367298
245	0x3d9caae3	0.076497816
246	0xbd435342	-0.047686823
247	0x3cb094b6	0.021555286
248	0xbc548c92	-0.012972968
249	0x3bf8beea	0.007591118
250	0xbd6f3f28	-0.05840984
251	0x3c97cf94	0.018531598
252	0xbd2d6bbd	-0.042339075
253	0x3d01761f	0.03160679
254	0x3d2602ac	0.04052989
255	0x3d917875	0.071030535

lstm.bias_hh_l0 f4 [256]
0	0x3dbb5c68	0.091484845
1	0xbc23a653	-0.009988385
2	0x3c50d166	0.012745237
3	0xbcc7a110	-0.024368793
4	0x3de0d158	0.10977429
5	0x3da9c7b5	0.08290044
6	0x3e0dab04	0.13834769
7	0x3cb50340	0.022096276
8	0xbcbd0a9c	-0.023076348
9	0x3def9228	0.11697799
10	0xbd8769da	-0.066119865
11	0x3d76644c	0.060154244
12	0xbd9ce2f6	-0.07660477
13	0xbd21996e	-0.039452963
14	0x3de8efc8	0.1137386
15	0xbcbec05e	-0.023285087
16	0x3e01a914	0.12662154
17	0x3d89e18d	0.067324735
18	0x3c7e0dc4	0.015506212
19	0xbdc208ed	-0.09474359
20	0x3e05e2a1	0.13074733
21	0xbc2c92e1	-0.010533066
22	0x3ce4c43e	0.027925607
23	0x3d05412c	0.032532856
24	0xbda426c1	-0.08015204
25	0x3dca1f9d	0.09869311
26	0xbc019334	-0.007908631
27	0x3d4c8ba6	0.049937867
28	0xbdc73bcf	-0.097282045
29	0xbdc0c588	-0.09412676
30	0xbc74886c	-0.014925104
31	0x3dd22abc	0.10262057
32	0xbd80c5ff	-0.06287765
33	0x3ccb811c	0.024841838
34	0xbb956c3f	-0.004560023
35	0x3d5389cf	0.051645096
36	0xbd9fa7e8	-0.077956975
37	0x3d227f92	0.03967244
38	0xbd79e98b	-0.06101374
39	0xbd840163	-0.06445577
40	0xbc9171b6	-0.017754417
41	0xbd115623	-0.035482537
42	0x3c702ea0	0.014659554
43	0x3d35161c	0.04421054
44	0x3dfc7947	0.12327819
45	0x3dbe44e4	0.092904836
46	0xbd900511	-0.07032216
47	0xbd12c786	-0.03583481
48	0xbb4287b6	-0.002968294
49	0xbcc756f1	-0.02433345
50	0x3c9961ff	0.018723486
51	0xbca814ca	-0.020517725
52	0x3d76548a	0.060139216
53	0xbc81197d	-0.015759224
54	0xbc147c1e	-0.009062795
55	0xbccc115b	-0.02491062
56	0xbce6f618	-0.028193519
57	0x3e3e4546	0.18581113
58	0xbd925a7b	-0.07146164
59	0x3da066db	0.07832118
60	0xbd4c6560	-0.049901366
61	0x3d25846f	0.0404095
62	0x3d68b857	0.056816425
63	0x3cec855b	0.028872183
64	0x3e23aab8	0.15983093
65	0x3d5e9b6c	0.05434744
66	0xbd2a5562	-0.041585334
67	0x3e069d81	0.1314602
68	0x3e583614	0.21114379
69	0x3d86eda7	0.06588297
70	0x3e31a79c	0.17349094
71	0x3b2859fd	0.0025688403
72	0xbcdf8b55	-0.027288118
73	0x3dfd9479	0.123818345
74	0xbd95d699	-0.07316322
75	0xbd86dd44	-0.06585172
76	0x3c53fb5b	0.012938346
77	0xbc4a4ba6	-0.012347138
78	0x3e2982ee	0.16553852
79	0x3d9fdf0d	0.078062154
80	0x3cf28c9e	0.029608067
81	0x3df1d079	0.11807341
82	0x3cf70ecb	0.030158421
83	0xbb56d45c	-0.0032780385
84	0x3e07fc61	0.13279869
85	0x3b8fd8d9	0.004389864
86	0xbceffbcd	-0.029294873
87	0x3d8a3dc6	0.067500636
88	0x3d20f2f7	0.03929421
89	0x3dae9825	0.08525113
90	0x3d6ee6aa	0.058325447
91	0x3d454537	0.04816171
92	0x3d9fde9a	0.0780613
93	0x3cf84f3e	0.030311223
94	0xbd2820b6	-0.04104682
95	0x3daa6be3	0.08321359
96	0xbd206f01	-0.03916836
97	0x3d842904	0.064531356
98	0xbd4caa1a	-0.04996691
99	0x3d134886	0.035957836
100	0xbd50cd5a	-0.05097709
101	0x3e110003	0.1416016
102	0xbd2f5780	-0.042808056
103	0x3d1b25af	0.037877735
104	0xbd0597ec	-0.032615587
105	0xbd856d12	-0.06514944
106	0xbc9faef9	-0.019492613
107	0x3e0c77c9	0.1371757
108	0x3dfde768	0.12397653
109	0xbd533489	-0.051563773
110	0xbdae62a2	-0.085149065
111	0x3c4ea6ca	0.012613008
112	0x3e0eb87a	0.1393756
113	0x39256588	0.0001577345
114	0x3d17c40b	0.037052196
115	0x3d2f5179	0.042802308
116	0xbda23e5d	-0.07922051
117	0x3e0132ff	0.1261711
118	0x3d7aa185	0.061189193
119	0x3d5d7cae	0.054073982
120	0x3dc47844	0.09593251
121	0x3e70a314	0.2349971
122	0xbc12053c	-0.008912381
123	0x3dce2e47	0.100674205
124	0x3d4e3989	0.05034784
125	0xbd3eb111	-0.046555582
126	0x3d08633f	0.033297773
127	0xbd4662f3	-0.04843421
128	0xbdf7ac78	-0.12093443
129	0x3de0a4a5	0.109689035
130	0xbd9a416e	-0.07532011
131	0x3acabccf	0.0015467646
132	0x3d052fe8	0.03251639
133	0x3de34b08	0.110982955
134	0xbe034da0	-0.1282258
135	0x3df6addc	0.1204488
136	0x3e05f912	0.13083294
137	0xbd425f35	-0.047454078
138	0x3dd3f8f0	0.103502154
139	0x3df17172	0.11789216
140	0xbd04ef6f	-0.032454904
141	0xbd8dc8d4	-0.069230705
142	0xbd7345e3	-0.05939282
143	0x3dc049b9	0.093890615
144	0x3dd5716c	0.10422024
145	0xbd83aef1	-0.06429852
146	0xbd8a6013	-0.06756606
147	0xbd03f574	-0.032216504
148	0xbb82b649	-0.0039890152
149	0xbda31527	-0.07963019
150	0x3ddc975d	0.10771058
151	0x3dbe3dfe	0.09289168
152	0xbd7582d8	-0.059939235
153	0x3d458373	0.048221063
154	0xbd46f8e7	-0.048577216
155	0x3d67a87c	0.056557164
156	0xbdad2eca	-0.0845619
157	0xbd189551	-0.037251774
158	0x3c30ddff	0.0107951155
159	0xbdd9609d	-0.10614131
160	0xbbc429c5	-0.0059864246
161	0xbc2093ad	-0.009800834
162	0x3dda2454	0.1065146
163	0xbbeacdbf	-0.00716564
164	0x3d9c5997	0.076342754
165	0x3dcef771	0.101057895
166	0xbd933aa4	-0.07188919
167	0xbc5ee041	-0.013603271
168	0xbd2ab25b	-0.041674
169	0x3d186e36	0.03721448
170	0x3df4f32a	0.11960442
171	0xbd6c2f8e	-0.05766254
172	0x3dd44989	0.10365588
173	0xbdb29df9	-0.08721537
174	0xbb8a4bc1	-0.0042204564
175	0xbc84f23c	-0.016228788
176	0x3d2b80ba	0.04187081
177	0x3d5f15eb	0.054464262
178	0xbdb0d9d4	-0.086352974
179	0x3d86a845	0.065750636
180	0xbd67f392	-0.05662877
181	0xbd239bdc	-0.03994356
182	0x3dde39c7	0.10850864
183	0x3d05dbdf	0.03268039
184	0x3dda262f	0.10651814
185	0xbcbf2395	-0.023332397
186	0xbd95768a	-0.07298
187	0xbd403de3	-0.04693402
188	0xbdde1a1d	-0.108448245
189	0xbdeadd21	-0.11467958
190	0xbe0c005f	-0.13672017
191	0xbdc967c9	-0.098342486
192	0xbd6e5b2a	-0.05819241
193	0x3d6375cd	0.055532265
194	0x3ce632db	0.028100422
195	0x3d8aa133	0.067690276
196	0xbd33632d	-0.043795753
197	0xbc28d94f	-0.010305717
198	0x3e1238c3	0.14279465
199	0x3df80f30	0.12112272
200	0x3d1898b2	0.037254997
201	0x3de14cf0	0.11001003
202	0xbd552962	-0.05204142
203	0x3d7033ab	0.058643024
204	0xbd97f1d6	-0.074191734
205	0xbcdd0286	-0.026978742
206	0x3e0a37d0	0.13497853
207	0x3b50e203	0.0031872995
208	0x3e094642	0.13405707
209	0x3ddb83d8	0.107185066
210	0x3cd5cd12	0.026098762
211	0xbdcaa40c	-0.09894571
212	0x3d67f307	0.056628253
213	0x3de1334e	0.10996114
214	0xbcf94331	-0.030427547
215	0xbd2375f8	-0.039907426
216	0xbd82ad51	-0.06380714
217	0x3d9c7cf3	0.0764102
218	0x3cb31fb5	0.021865705
219	0x3cabc92c	0.02096995
220	0x3d4ee2bc	0.0505092
221	0xbd266aa1	-0.040629033
222	0x3d23ae97	0.039961424
223	0x3c0711e8	0.008244015
224	0x3bf9b7d3	0.0076207905
225	0xbd1981c5	-0.037477273
226	0xbcacc605	-0.021090517
227	0x3dad610c	0.08465776
228	0x3b9150f3	0.0044346987
229	0x3e02837d	0.12745471
230	0xbca5fd47	-0.020262374
231	0xbd1b742d	-0.03795259
232	0xbd76ace5	-0.06022348
233	0x3c29b00b	0.010356913
234	0x3ce90e50	0.028449208
235	0x3dcf159c	0.101115435
236	0xbd5866a0	-0.052832246
237	0xbd6e3841	-0.058159117
238	0xbddf352f	-0.10898816
239	0x3d0c5a2b	0.03426568
240	0x3d15805d	0.03649937
241	0xbc440319	-0.011963629
242	0xbc921ded	-0.017836535
243	0xbcbe4988	-0.023228422
244	0x3d809722	0.06278826
245	0x3d9a6456	0.07538669
246	0xbd48686a	-0.048927702
247	0xbc18a3f8	-0.009316437
248	0xbd88629a	-0.06659432
249	0x3de2759c	0.110575885
250	0x3e02aa60	0.12760305
251	0x3e12aec4	0.1432448
252	0xbccac26d	-0.024750913
253	0xbd15db49	-0.03658608
254	0xbce3bb9a	-0.027799416
255	0xbd980a9c	-0.074238986

head.0.weight f4 [32, 64]
0	0xbd81034b	-0.06299456
1	0x3d84c200	0.06482315
2	0xbd7549e4	-0.05988492
3	0xbc8ddc1c	-0.01731687
4	0x3e1d6f88	0.15374577
5	0x3d2d1b3c	0.0422623
6	0x3d29480e	0.041328482
7	0x3d88c98d	0.06679068
8	0x3cc23afa	0.023709763
9	0x3d12f85d	0.03588139
10	0xbd97c99e	-0.07411502
11	0x3da3d9dd	0.080005385
12	0xbc5802be	-0.013184248
13	0xbce3a76f	-0.0277898
14	0xbca2c95c	-0.019871406
15	0x3cb8eee2	0.022574846
16	0xbd0965a6	-0.033544205
17	0xbcf7cad0	-0.030248076
18	0xbdcc8721	-0.09986711
19	0x3ccc7756	0.024959248
20	0x3dad593b	0.08464285
21	0x3c1912ad	0.009342832
22	0x3cf9a898	0.0304759
23	0xbd995f25	-0.074888505
24	0x3c17a834	0.009256411
25	0xbc45c75b	-0.012071456
26	0xbd6a637e	-0.05722379
27	0xbd39f1ad	-0.045396496
28	0xbd6c6a65	-0.057718653
29	0x3d37bda5	0.044858593
30	0x3d3acc45	0.045604963
31	0xbd45d66d	-0.048300195
32	0xbb635b08	-0.003469171
33	0xbdcb9b02	-0.09941675
34	0xbe07fdb6	-0.13280377
35	0x3ccf03fb	0.025270453
36	0x3d300b7a	0.042979695
37	0xbdbe7749	-0.093000956
38	0xbcfb792b	-0.030697426
39	0x3c3a17bb	0.011358197
40	0xbaf11548	-0.0018393183
41	0x3d396352	0.045260735
42	0x3d90cfe6	0.070709035
43	0xbd6d0f91	-0.057876173
44	0xbd14fedb	-0.03637586
45	0xbd63a140	-0.0555737
46	0x3cc437c4	0.023952372
47	0xbc836ecc	-0.016044043
48	0xbbc8f54d	-0.0061327578
49	0x3ce07b71	0.027402611
50	0x3db9a0be	0.09063862
51	0xbdc60020	-0.096679926
52	0x3d86ae5c	0.06576225
53	0xbdabf14f	-0.08395635
54	0x3dd43440	0.103615284
55	0x3dbd509d	0.092438914
56	0x3dbaea70	0.09126747
57	0xbd44d490	-0.048054278
58	0xbd937e98	-0.0720188
59	0xbd4ca3a3	-0.049960744
60	0x3d819541	0.06327296
61	0xbd9a8bb1	-0.07546175
62	0xbb8771cc	-0.0041334387
63	0x3d94b909	0.07261855
64	0xbd948849	-0.07252557
65	0xbdf8452e	-0.1212257
66	0x3e0af2a2	0.1356912
67	0xbd9dc3f4	-0.07703391
68	0xbd7fd4b5	-0.062458713
69	0xbe039ebc	-0.12853521
70	0x3dae61a0	0.08514714
71	0xbdb707c6	-0.089370295
72	0xbd9be565	-0.07612113
73	0x3de63231	0.11240042
74	0xbbd8b16d	-0.0066129477
75	0xbdad1818	-0.08451861
76	0xbdae5777	-0.08512776
77	0xbd37b38b	-0.04484896
78	0x3d9fada9	0.07796795
79	0xbe227127	-0.15863477
80	0xbddc3473	-0.107521914
81	0x3d39e0b1	0.045380298
82	0xbdd6bc95	-0.10485188
83	0x3d306bf0	0.043071687
84	0x3da92bec	0.082603306
85	0xbde89594	-0.11356655
86	0xbdd51819	-0.10404987
87	0x3d9cd5f3	0.07657995
88	0x3d8b5bcc	0.06804618
89	0x3d2a7ddb	0.04162393
90	0x3db65ef3	0.08904829
91	0xbdbfe793	-0.09370341
92	0x3e1cae99	0.15300979
93	0xbd7f6f6e	-0.062362127
94	0xbdb2a774	-0.087233454
95	0x3db3125c	0.08743736
96	0xbd6cbc74	-0.05779691
97	0x3d625ee8	0.05526629
98	0x3d3a2052	0.04544098
99	0xbdab9890	-0.08378708
100	0x3d16930b	0.036761325
101	0xbdcee5a9	-0.10102398
102	0xbd2fd781	-0.04293013
103	0xbd9c37c7	-0.07627826
104	0x3dbf316f	0.093356006
105	0xbdcc0351	-0.0996157
106	0xbd3e7761	-0.046500567
107	0x3e0054ef	0.125324
108	0xbdab9c9f	-0.083794825
109	0x3d10032f	0.035159286
110	0xbd98aa51	-0.0745436
111	0x3ddb8c76	0.1072015
112	0xbd975eab	-0.07391103
113	0x3a4b6e97	0.00077603146
114	0x3e394361	0.1809211
115	0x3d919bb5	0.07109777
116	0x3d8646fa	0.065565065
117	0x3d5ee71c	0.05441962
118	0xbe164c2c	-0.14677495
119	0xbd718368	-0.05896321
120	0xbdf2f611	-0.1186334
121	0xbe0692ac	-0.13141888
122	0x3dc67b92	0.09691538
123	0x3d81d28e	0.06338988
124	0xbd097a16	-0.033563696
125	0x3cc489b4	0.023991443
126	0x3d88833a	0.066656545
127	0x3dac562b	0.08414873
128	0xa960379d	-4.978623e-14
129	0x325a7681	1.2716215e-08
130	0x29008c27	2.8543272e-14
131	0xaab00c1c	-3.1272283e-13
132	0xb0e453ff	-1.6613056e-09
133	0xa97c96de	-5.6086097e-14
134	0x0f27aad8	8.266639e-30
135	0xb1050f8c	-1.9362885e-09
136	0x13b4d4d3	4.564825e-27
137	0x924de203	-6.4965175e-28
138	0x801bbd8b	-2.547554e-39
139	0xa75389a9	-2.9356758e-15
140	0x2d590804	1.2336802e-11
141	0x873eca3b	-1.4353441e-34
142	0x331452a5	3.45341e-08
143	0x8efdf58d	-6.2605772e-30
144	0x32814a1c	1.5051278e-08
145	0x0000b84d	6.6115e-41
146	0x9a48c942	-4.1521605e-23
147	0x2b24f58f	5.8605285e-13
148	0x07d6e2da	3.2332473e-34
149	0xa93ebf34	-4.2354317e-14
150	0x8dcb5fab	-1.2533872e-30
151	0x2cf1175f	6.8522267e-12
152	0xa756c5cc	-2.9805692e-15
153	0xb18a82bc	-4.0311914e-09
154	0xacb0bc89	-5.0231525e-12
155	0x93055b29	-1.6831905e-27
156	0x2ee5ac50	1.0444323e-10
157	0xae838914	-5.98154e-11
158	0x2d25bf41	9.421631e-12
159	0x199bce21	1.6109879e-23
160	0x99be80d9	-1.969758e-23
161	0x28782c53	1.3776377e-14
162	0xac8bdc4f	-3.9750768e-12
163	0xaf47134f	-1.8105804e-10
164	0xae48b9a6	-4.5639624e-11
165	0x2d9fa305	1.8148602e-11
166	0x000a1980	9.27503e-40
167	0x000763bf	6.7863e-40
168	0x2ffb960d	4.5763252e-10
169	0xae0341dd	-2.984445e-11
170	0x82ec3af8	-3.471093e-37
171	0xaf132143	-1.3381389e-10
172	0xac756f28	-3.4878298e-12
173	0x2e9f7579	7.25135e-11
174	0x2c1e07b1	2.245742e-12
175	0x2aa180bc	2.8688673e-13
176	0xa7e77005	-6.423683e-15
177	0x001126be	1.575102e-39
178	0x2305c8ba	7.25245e-18
179	0x80933e21	-1.3522106e-38
180	0xa9f18d55	-1.0727067e-13
181	0xa03430cf	-1.5262742e-19
182	0xaf1a5cb7	-1.4039157e-10
183	0x9fe1f3bb	-9.5694425e-20
184	0x968b43cc	-2.2499447e-25
185	0x178528c1	8.605211e-25
186	0x299c78eb	6.9487676e-14
187	0xb1b841e9	-5.362598e-09
188	0x800749e3	-6.69354e-40
189	0x2421cfc4	3.5087294e-17
190	0x2df4eab6	2.7843821e-11
191	0x94054bdf	-6.729747e-27
192	0x3818d93a	3.6441932e-05
193	0xb5cbb30d	-1.5176789e-06
194	0xb630f878	-2.6370672e-06
195	0x3a418d33	0.0007383406
196	0x3b9bf2fc	0.0047591906
197	0xb9a0e637	-0.00030689102
198	0xb63f1840	-2.8475333e-06
199	0x3890b186	6.8995214e-05
200	0x36bd6260	5.6440913e-06
201	0xb879acbf	-5.952711e-05
202	0xb6d96002	-6.4782807e-06
203	0x36b3e836	5.3616486e-06
204	0xb6d41f78	-6.321756e-06
205	0x370e2cff	8.474336e-06
206	0xbabb1df1	-0.0014275891
207	0xb7106ca5	-8.608365e-06
208	0x3aceee40	0.0015787557
209	0x390853eb	0.00013001233
210	0xb6fe003c	-7.569817e-06
211	0xb69e990d	-4.7265844e-06
212	0xb639fa22	-2.7712745e-06
213	0x3a8c2e4b	0.0010694949
214	0xb761cd52	-1.345885e-05
215	0xba4b5804	-0.0007756951
216	0xb4cf8704	-3.865499e-07
217	0xbae23ff2	-0.0017261489
218	0xba422e32	-0.00074073963
219	0x360de1b0	2.1142005e-06
220	0x36479358	2.9739076e-06
221	0x380dcdad	3.380857e-05
222	0x371d2e4c	9.368709e-06
223	0xb612f1de	-2.189648e-06
224	0xb6c713bc	-5.9329595e-06
225	0xb6a8310b	-5.0124995e-06
226	0xbb467282	-0.0030280654
227	0xb431bc8c	-1.6553003e-07
228	0xba5872a0	-0.00082568265
229	0x36972850	4.5048437e-06
230	0x36ddd7eb	6.6114494e-06
231	0x3714ad06	8.861773e-06
232	0xb5be6f6a	-1.4188529e-06
233	0x3915dd2d	0.00014292142
234	0xb63dbe99	-2.8274137e-06
235	0xb98e7467	-0.00027171077
236	0xb7065b02	-8.008212e-06
237	0xbadbe6c5	-0.0016777149
238	0xb717c690	-9.046533e-06
239	0xb7d5ab27	-2.5471278e-05
240	0x39874263	0.00025798669
241	0xb638cd85	-2.7537765e-06
242	0xba071617	-0.0005153133
243	0xb7ec0afc	-2.8138507e-05
244	0xb63bca91	-2.798308e-06
245	0x350e7c3e	5.307992e-07
246	0x378adb81	1.6553096e-05
247	0xb687cf53	-4.0474492e-06
248	0xb5958b93	-1.1141987e-06
249	0x3a86c989	0.0010283451
250	0xb973917b	-0.00023228482
251	0xbbab17f8	-0.005221363
252	0x39d7e01b	0.00041174967
253	0x34fad8d2	4.6723886e-07
254	0xb9d82f9d	-0.00041234205
255	0xb5d3ebe6	-1.578938e-06

head.0.bias f4 [32]
0	0xbd5e759a	-0.054311372
1	0xbda5541c	-0.08072683
2	0xbaf8441f	-0.00189412
3	0xbd0dbcbc	-0.03460382
4	0xbb2d3690	-0.0026430227
5	0x3cd2d6c9	0.025737183
6	0x3da4bdec	0.08044037
7	0x3d375e5b	0.04476772
8	0xbd0d2cd5	-0.034466583
9	0xbdba8c86	-0.09108834
10	0x3df61aaa	0.120168045
11	0x3def0273	0.11670389
12	0xb69af375	-4.6179e-06
13	0xbd045207	-0.03230479
14	0xbd308c4b	-0.043102544
15	0xbce099b5	-0.027417043
16	0x3bd8d916	0.0066176755
17	0xbd3467ff	-0.04404449
18	0x3dadfbb4	0.08495274
19	0xbb263211	-0.0025359432
20	0xbdb66f16	-0.08907907
21	0x3d95740c	0.07297525
22	0xb688062e	-4.0538353e-06
23	0xbd6c33ed	-0.057666708
24	0x3d69b7f3	0.057060193
25	0xac871222	-3.838944e-12
26	0x3d39b1d4	0.045335606
27	0xb9b00ac2	-0.0003357735
28	0xbd1cf408	-0.038318664
29	0x3d415e0a	0.047208823
30	0x3be04a33	0.0068447827
31	0x3d377ebd	0.0447986

head.3.weight f4 [1, 32]
0	0xbdcfb997	-0.1014282
1	0x3dfb3c8e	0.12267409
2	0x3b076ffe	0.0020666118
3	0xbac15e86	-0.0014752902
4	0xbd57aaf3	-0.052653264
5	0xbd4a2a00	-0.04935646
6	0x3e1b5d94	0.15172416
7	0x3df81150	0.12112677
8	0x3d901194	0.07034603
9	0x3dfd5a5f	0.123707525
10	0x3dc80557	0.097666435
11	0x3dcff3ba	0.10153909
12	0xb5bf66e5	-1.4260555e-06
13	0xbd626baf	-0.055278476
14	0x3e0947e8	0.13406336
15	0xbd5ee5d8	-0.054418415
16	0xbe03a60c	-0.1285631
17	0x3dff3c0a	0.124626234
18	0x3e19e09c	0.15027088
19	0x3e072f1b	0.13201563
20	0x3e3b9699	0.18319167
21	0x3de0f3e6	0.1098402
22	0x385bafb5	5.237731e-05
23	0x3dfae3dd	0.12250493
24	0xbdb4b0a8	-0.08822757
25	0xb275278d	-1.426987e-08
26	0xbd31b59a	-0.04338608
27	0x0563f137	1.0717793e-35
28	0xbc35c800	-0.011095047
29	0x3e00945a	0.12556592
30	0xbd29a479	-0.04141662
31	0xbd2ec2fd	-0.042666424
