outputs/model_stgcn_faccoes.pth (torch, 112249 bytes, 28 tensors)

crime_encoder.0.weight f4 [32, 3]
000000 2c 8a 88 be 81 f5 96 be b0 70 a6 36 8f 9f 8a bd
       -0.26667917 -0.2948418 4.960304e-06 -0.06768715
000010 c9 05 ac be b3 e3 4d be cd 46 48 be 1c d4 48 b9
       -0.33598164 -0.20106392 -0.19558258 -0.00019152503
000020 72 1f 24 be 7d 24 17 3e af b2 a0 38 2d fd ff bd
       -0.1602762 0.14760013 7.662677e-05 -0.12499461
000030 d3 53 e3 3e 1e 9e a1 bd 68 32 99 be e1 66 e1 3e
       0.4439989 -0.078914866 -0.2992127 0.44023803
000040 2f 4f c2 be 1c 38 bf 3e 6a 9f 22 b8 71 8c e2 be
       -0.37951037 0.37347496 -3.8772276e-05 -0.44247773
000050 0b 15 4f 39 59 dc e4 3e e9 44 81 3b 56 6a f3 3d
       0.00019748897 0.44699362 0.0039449823 0.11885516
000060 0f 9a b8 3d 4f cb 96 3c f5 d9 ee 3e 8d 17 e3 be
       0.09013759 0.018407492 0.46650663 -0.44353905
000070 1b 2d 14 3e cc 49 e7 be 9f 40 36 be d0 df 5e 3e
       0.14470331 -0.4517349 -0.17798088 0.21765065
000080 41 7d d8 be 1c cb d5 bd ce 68 c8 be 6d ad c4 3e
       -0.4228306 -0.10439131 -0.3914246 0.38413563
000090 17 19 bd 3e 69 7c 8e bd 19 2a 77 3e a4 e6 b1 3e
       0.36933205 -0.06957323 0.24137153 0.34746277
0000a0 8d da c4 be dc a6 24 be fa fe 02 3d 2c 2d 13 bd
       -0.3844799 -0.16079277 0.031981446 -0.03593175
0000b0 49 e7 b3 3e 6a dc 93 bc 05 37 28 3d d0 ed f0 bc
       0.35137394 -0.018049438 0.041068096 -0.029410273
0000c0 c3 a6 d4 be cb 14 c7 3e fd 19 1e 3e c2 ba d4 be
       -0.4153348 0.3888305 0.15439601 -0.41548735
0000d0 d7 5a 9f be 9d 49 ce bd 1f ac 93 be 22 77 e7 3b
       -0.31123993 -0.10072634 -0.28842255 0.0070637623
0000e0 76 da b9 3c ca 2c 30 b9 97 45 a6 3e 5b 61 b0 3d
       0.022687178 -0.00016801353 0.32474968 0.08612319
0000f0 71 22 58 bc cd 8a 1f bd ee eb 88 3e 6e 11 59 bd
       -0.013191805 -0.03895073 0.267425 -0.052995138
000100 be 0c d7 bd 92 e3 a6 3e eb 8a 65 3e 2c ae 9f 3b
       -0.10500477 0.32595497 0.22416274 0.004873058
000110 3a 80 6e be 7d 2a de 3d 58 f9 be be a3 0e 0f 3e
       -0.23291102 0.10847948 -0.3729961 0.13970427
000120 d8 77 7d 37 90 32 d2 be 38 07 2c bd d0 d2 d1 be
       1.5107878e-05 -0.410542 -0.04199907 -0.4098115
000130 62 a1 41 be b7 fb a7 bd 9f c5 81 bc 9f 07 0b be
       -0.18909219 -0.08202308 -0.015841303 -0.13577126
000140 d4 5d d4 be 16 5d cd 3e 5f 68 3f be 81 b3 19 3e
       -0.41477835 0.4011008 -0.18692158 0.15009882
000150 d8 f4 cd b7 78 3b 53 be 1b 5f dc be e0 b4 88 b7
       -2.4551919e-05 -0.20628154 -0.4304131 -1.629669e-05
000160 c9 f0 a0 bb 74 09 99 38 74 f4 89 3d f8 a7 5b be
       -0.0049115163 7.297369e-05 0.06736079 -0.21450794
000170 6c 1f 63 bd 04 f8 b9 3e e8 8a 62 3a ad 68 cc be
       -0.055449888 0.36322033 0.00086419145 -0.3992361

crime_encoder.0.bias f4 [32]
000000 92 b3 99 be e3 1a 6a be ec 5a 31 39 13 19 53 3c
       -0.30019814 -0.22861819 0.00016913906 0.012884396
000010 dc e4 95 3e 33 78 09 bc 6a 3a a6 bc 85 08 50 bc
       0.29276168 -0.008390474 -0.020291526 -0.012697344
000020 d0 cd 3e 3e 7e 48 01 3d 0d 2d e2 be 31 48 63 bc
       0.18633199 0.031563275 -0.44174996 -0.013872192
000030 73 dd c0 be 33 5f 93 be ab 85 c4 be b8 ec aa 3d
       -0.37668952 -0.2878357 -0.3838323 0.08345932
000040 0f df 9b be 8f 37 07 be 4f a8 03 3f ba 83 44 bd
       -0.30443618 -0.13204788 0.51428694 -0.047977187
000050 c5 f9 63 bc 88 6e 2c 3d be 92 e7 bd 64 8a 59 bc
       -0.01391453 0.0420976 -0.11307286 -0.013277624
000060 1c 66 76 ba 03 d4 f4 3e 8c 0c a1 3d 86 33 a7 3e
       -0.0009399371 0.47818002 0.07863721 0.32656497
000070 16 4b 9a 3e 86 76 37 be 77 d9 5f bd 0a 9d 60 be
       0.3013541 -0.17916307 -0.05465075 -0.21934906

crime_encoder.3.weight f4 [32, 32]
000000 d3 62 48 3d a2 cf d8 3b ee b8 fd 3b d1 fe d9 bc
       0.04892237 0.0066165486 0.0077429926 -0.026610764
000010 71 38 13 3e ed 8f 9b 3c 58 61 a0 b9 0c 39 21 bc
       0.14377 0.018989528 -0.00030590105 -0.009840261
000020 eb 3d be 3d 65 7f f0 3a ff 40 0d bd dc 88 b8 bd
       0.09289154 0.0018348513 -0.034485813 -0.09010479
000030 fd 5c 8d 38 55 10 87 3b 49 be b8 38 d9 ef cc bd
       6.740724e-05 0.00412182 8.809247e-05 -0.10006685
000040 7c 13 8d 39 e4 f8 49 b8 3c 33 39 bc f2 99 99 ba
       0.00026908133 -4.8153932e-05 -0.011303719 -0.0011718853
000050 50 8e 86 bc 9e 9a 6e bd 8d bf 72 3d 76 80 df 3b
       -0.016425282 -0.058252923 0.05926471 0.0068207337
000060 01 69 80 bd a3 29 dc 3d f9 b5 da 3d ab 1a 92 3d
       -0.06270028 0.10750129 0.1067924 0.07133993
000070 3f ee 07 3e fc 7f 5a 3d 8d b5 fd ba dc 69 19 bd
       0.13274477 0.05334471 -0.0019356475 -0.03745447
000080 0a 25 ef 3c 38 c1 8d 3d b1 21 41 bd ff c0 94 3d
       0.029192466 0.06921619 -0.04715127 0.072633736
000090 6d 2f 19 3c 90 19 d4 ba 31 5e e3 37 a6 20 97 bc
       0.009349686 -0.0016181935 2.710437e-05 -0.018448185
0000a0 c6 98 74 bc 18 7e 88 bd 4e 26 87 bd 69 a4 29 bd
       -0.014929002 -0.066646755 -0.06599103 -0.04141656
0000b0 a2 82 7d bc 21 94 8c bd 95 c7 4a 3d d2 79 4c 3d
       -0.01547304 -0.06864191 0.049506743 0.049920864
0000c0 2c e2 f7 3c 49 07 ac b7 ba 73 0c 3e 8f 7d a9 bd
       0.030259214 -2.050739e-05 0.13716021 -0.082759015
0000d0 b8 88 ed 3c ed d6 13 3c 2b 4d 6b 3a 45 02 49 3d
       0.028995857 0.00902341 0.00089760375 0.04907443
0000e0 d9 e9 e6 b8 22 fb b0 3d b3 b7 c9 3b 42 85 bb 3c
       -0.00011010812 0.0864165 0.006155932 0.02289069
0000f0 08 ca cb 3d d6 b5 c5 ba 52 13 90 3c 96 c3 36 bc
       0.09950644 -0.0015084099 0.017587338 -0.01115503
000100 9c 87 83 3d 1b dd 42 b9 10 13 05 37 96 68 c4 3d
       0.0642235 -0.0001858365 7.931856e-06 0.09590261
000110 1a 8b f4 bd 86 87 ac bd 63 8f dc b4 82 1c a2 bd
       -0.11940594 -0.084242865 -4.108252e-07 -0.07915594
000120 c0 a9 90 3d 19 00 61 bd 98 4c d6 3a 2d dd c8 3d
       0.07063627 -0.054931734 0.0016349731 0.09807811
000130 21 71 47 39 4a d4 33 b8 92 76 5a bb 38 4f 8e bc
       0.00019020263 -4.2874635e-05 -0.0033334834 -0.017371759
000140 af 7a ca bc 3e 9a 23 3d 6d dc cf bd e9 90 b3 3b
       -0.024716703 0.03994202 -0.10149465 0.005479921
000150 f2 36 61 bb 89 a3 61 bb 03 b5 83 38 9c d1 7e bc
       -0.0034365025 -0.003442975 6.280283e-05 -0.015552904
000160 f6 ff 14 bd d5 74 89 bc 15 ab a9 bd 8d 26 0a be
       -0.036376916 -0.016779343 -0.082845844 -0.13491268
000170 d8 22 02 be be 53 da 3b c3 44 55 39 03 d9 67 3c
       -0.12708604 0.006662815 0.00020338879 0.014150861
000180 f2 b5 7b 3d 72 57 76 bd b4 fe a2 b8 b8 1c 61 3c
       0.061452813 -0.060141988 -7.772204e-05 0.013739757
000190 64 b0 be bb a5 30 a9 3c aa fd 35 b6 6d 14 2b 3c
       -0.0058193672 0.020653078 -2.7118754e-06 0.010441882
0001a0 61 4f 44 bc c9 db f2 bc 9f e2 c9 3c 8c 80 90 3c
       -0.011981816 -0.029645817 0.024644194 0.01763942
0001b0 97 e7 d1 b8 d7 3f c5 b9 a9 ff f5 38 bb 4d 10 bd
       -0.000100090336 -0.00037622332 0.00011730131 -0.03523038
0001c0 67 8c 16 39 01 57 2a 3d a5 43 fb bd 70 84 f6 bb
       0.00014357419 0.04158688 -0.122687615 -0.007523112
0001d0 3f f7 31 3d d4 15 2e 3c 25 6e 42 38 85 3a bb ba
       0.043448683 0.010625321 4.6355784e-05 -0.0014284408
0001e0 15 85 33 b9 07 4d 20 3d ac 24 31 bd c1 26 67 bd
       -0.00017120347 0.03913596 -0.043247864 -0.056433443
0001f0 f8 39 86 bd 16 73 53 38 7a 90 87 bc a1 d7 58 3d
       -0.065540254 5.0413502e-05 -0.016548384 0.052940015
000200 9f eb 55 3a da d4 83 38 2f fe 24 bc 1a c5 b0 bd
       0.00081604155 6.2862135e-05 -0.010070368 -0.08631344
000210 b1 5b e8 bd db f9 0f bd 9c 39 76 3b e6 05 06 bd
       -0.11345614 -0.03515039 0.003757096 -0.03272047
000220 e5 21 49 bd 5b b9 91 3d 52 be 2b 36 2f a6 87 bd
       -0.04910459 0.07115432 2.5591767e-06 -0.06623494
000230 d4 02 1b b8 76 8a 9e 35 59 45 3a 39 5d 62 f8 bc
       -3.6957514e-05 1.1812215e-06 0.00017764176 -0.03032034
000240 10 9a 99 38 92 5e 62 bd 35 e3 00 3e 66 a6 5d bb
       7.324305e-05 -0.05526597 0.12586673 -0.0033821105
000250 66 1d 1a bb 4a 39 db 3c 91 b3 1e bd d4 c6 80 3d
       -0.0023516058 0.026760716 -0.038745467 0.062879235
000260 07 d1 83 3d b0 fb df 3b 4e bd 4c 3c b0 c6 1e bd
       0.06436353 0.0068354234 0.012496306 -0.038763702
000270 9c 96 e9 3d f3 73 46 ba 37 38 50 bc 4e 0a 81 3b
       0.114056796 -0.00075703784 -0.012708715 0.003937996
000280 29 23 db b7 51 e4 44 3d d7 6b 05 b9 cf e5 83 bd
       -2.6123207e-05 0.048069302 -0.00012724042 -0.06440317
000290 6a d0 d6 bd 49 0c a1 3d 8e 75 46 bc f9 09 a2 bd
       -0.104889706 0.07863671 -0.012112988 -0.079120584
0002a0 10 27 0e 3e 55 52 8f bc 19 67 6f b6 47 59 b2 bd
       0.13882089 -0.017495314 -3.5673786e-06 -0.087084346
0002b0 90 bb f7 b8 17 99 64 3a e1 fc 99 bb 08 f4 37 bd
       -0.00011812814 0.0008720322 -0.004699335 -0.04491046
0002c0 6b 2d 37 bd b8 cd f1 3c a3 2f 10 3e b1 f8 a0 bb
       -0.04472105 0.02951704 0.14080672 -0.004912459
0002d0 0c 5f 32 bd 32 ce 07 3d 50 95 51 39 bf 6b cc bc
       -0.043547675 0.033155628 0.00019987416 -0.024953721
0002e0 27 4b 50 b8 60 bd 11 bc 33 59 ca 3d 87 e1 94 bc
       -4.9661056e-05 -0.008895248 0.09880295 -0.018173946
0002f0 78 8a 01 be f4 03 85 b9 51 0b b6 bc 48 0e 82 bb
       -0.12650478 -0.00025370682 -0.022222193 -0.0039689876
000300 d8 25 82 bb 92 0e a7 bb a1 c4 9f 3c 94 b8 20 bc
       -0.0039717965 -0.0050981725 0.01950294 -0.009809632
000310 b6 74 12 bd a4 7c 60 bc c4 18 0c b9 65 48 46 3c
       -0.035755835 -0.013701592 -0.00013360666 0.012102221
000320 8a c5 a8 bd 45 87 87 3c 10 7a 03 b4 ba a1 b3 bc
       -0.082408026 0.016543994 -1.2244732e-07 -0.021927703
000330 47 c0 fe 3c f0 3f cc 36 f3 56 7e b9 b3 4a 46 3d
       0.031097544 6.087117e-06 -0.00024255719 0.048411082
000340 06 19 86 bd 45 6d cf 3c 56 60 0e 3e a2 59 f6 3b
       -0.065477416 0.025320658 0.13903937 0.0075180093
000350 93 8a 95 bd 87 60 11 3d 30 53 04 bd 57 f4 7b 3c
       -0.073018216 0.035492446 -0.032305896 0.015378079
000360 0c f7 5e bb 18 53 e9 3b 23 77 a5 3d 8b cc ed 3d
       -0.0034021763 0.0071205013 0.08079364 0.11611279
000370 ee 30 85 bd 5a 28 8a bd 8d 7e 8b 39 f6 d8 64 37
       -0.06503473 -0.06745978 0.00026606434 1.3640374e-05
000380 f6 b9 8c bd 55 dc 4a 3c 99 82 78 bd 37 3d 55 bc
       -0.06871407 0.012381633 -0.060671423 -0.013015083
000390 0b ef 09 3d 74 01 89 bd 96 6e 16 37 87 b3 9e 3b
       0.033675235 -0.0668973 8.9664445e-06 0.0048431787
0003a0 ef 62 92 bc 15 83 44 bd e1 19 c9 bc 0e d7 13 bd
       -0.01786944 -0.047976572 -0.024548473 -0.036093764
0003b0 32 d3 b8 b8 89 7e 4b 38 30 99 05 b9 07 5b c0 bb
       -8.813142e-05 4.8516817e-05 -0.00012740935 -0.0058702263
0003c0 26 6a 4e 3d b3 2f 16 b8 6e 34 a5 3d e8 17 13 37
       0.0503942 -3.580721e-05 0.08066641 8.767449e-06
0003d0 a2 85 63 bd 3e c0 18 3d 54 6c 56 3d ba 99 2f ba
       -0.055547364 0.03729271 0.052349404 -0.0006698627
0003e0 76 60 ee b6 61 55 01 bd 60 f4 6d bd 2e 5c 21 bd
       -7.1041823e-06 -0.031575564 -0.058094382 -0.03939455
0003f0 8c e3 b5 bc f0 08 c9 b7 cc e9 56 3c d8 6b c8 3c
       -0.02220323 -2.3965229e-05 0.013117265 0.024465486

crime_encoder.3.bias f4 [32]
000000 53 24 32 3e ae 2a 24 be 98 5a 21 be 84 28 a6 3d
       0.17396669 -0.16031906 -0.15757215 0.081131965
000010 1a 37 a2 bd 0f 67 bb bd 7b 8a 8f 3c 2d 3a e3 bd
       -0.07920666 -0.09150516 0.017522087 -0.110950805
000020 a7 14 b1 bd c6 df ad bd fe 57 d0 3d 70 5a 23 3e
       -0.08646517 -0.08489947 0.10173033 0.15952468
000030 74 21 88 3d 10 d0 6c 3b 12 3a f9 3d 31 d3 80 bd
       0.06647006 0.0036134757 0.12169279 -0.062902816
000040 a1 64 d9 bb 30 7f 64 bc e5 1e 73 bd e0 87 83 bd
       -0.0066343104 -0.0139463395 -0.059355635 -0.064224005
000050 0a f2 25 bd 80 40 21 3e 6d f4 1a 3e 03 a6 05 3c
       -0.04051403 0.15747261 0.15132304 0.008157256
000060 50 a7 69 3b eb 6d 78 3d 02 da c4 3d e5 94 ad 3d
       0.0035652705 0.0606517 0.09611894 0.08475665
000070 48 47 0d 3e 1b 1b 94 3d 7f ad 24 be 48 12 44 3c
       0.13796723 0.072317325 -0.16081809 0.011967249

faction_encoder.0.weight f4 [16, 4]
000000 b0 b0 9a 3e 36 e9 8c bd 81 64 31 be c2 87 b5 be
       0.30212927 -0.06880419 -0.17323495 -0.35455137
000010 c1 fb a0 be 45 fd 43 bd 2b 51 82 be af 8c 60 3e
       -0.31442073 -0.04784896 -0.2545255 0.21928667
000020 3d d8 93 be ab e4 9b 3e a2 5d 63 be 86 59 c8 37
       -0.28875914 0.30447897 -0.22203687 2.3883546e-05
000030 0a ce 78 be ff e3 e5 3e c4 47 50 bc 1e 7b 82 3e
       -0.24297348 0.4490051 -0.012712423 0.25484556
000040 f0 ea 40 3d 3e b7 06 3e 15 7f 9c be 76 c8 bd 3d
       0.047099054 0.13155839 -0.30565706 0.092667505
000050 a1 70 a9 3e 81 62 8d 3e c6 59 ba 3e c1 b4 a2 3e
       0.33093742 0.27614215 0.36396617 0.3177853
000060 67 b6 8a be ba dd fe bd a5 42 f4 3d 43 c4 23 be
       -0.27092287 -0.12444635 0.11926774 -0.15992837
000070 d7 13 2c be 51 5d 2c 3d 54 b9 27 be 16 cd 48 3e
       -0.16804443 0.04208118 -0.16379291 0.19609484
000080 90 68 70 3e e0 0f 76 bc ba 7e c1 be 1e a2 4e be
       0.23477387 -0.015018433 -0.37791997 -0.2017903
000090 e9 1a 84 be 5a 70 4f be 20 d2 c0 ba c4 ad 80 be
       -0.2580178 -0.20257702 -0.001471106 -0.25132573
0000a0 2e 82 86 be bf 2b 00 3f 54 9d 13 bd c7 5c b2 3e
       -0.26271194 0.5006675 -0.03603871 0.34836408
0000b0 8a 79 93 bd c6 20 8b 3e 3a 65 1c 3e 31 2f a9 3e
       -0.07200916 0.27173442 0.1527299 0.33043817
0000c0 0a d5 8c 3e 15 d5 a7 ba 55 23 49 38 3a 15 27 3e
       0.27506286 -0.0012804592 4.795504e-05 0.16316691
0000d0 0b 8f d3 bb 84 05 e3 bd ad 12 89 be bb 2c a9 3e
       -0.006456261 -0.110850364 -0.2677206 0.3304194
0000e0 0f a6 6c b7 0f f4 18 bc 1c 5c 34 3e a9 7d 64 be
       -1.410536e-05 -0.009335532 0.17613262 -0.2231356
0000f0 b5 f7 37 3e 1f e4 1c bd a3 5e 52 be 6e 70 4c b8
       0.17965586 -0.03830349 -0.20543914 -4.87421e-05

faction_encoder.0.bias f4 [16]
000000 d9 24 9b be 02 35 9f bd 2b 1b a2 3d c9 a0 96 3c
       -0.3030155 -0.07773782 0.07915338 0.018387215
000010 63 33 4c be e8 d2 40 3e 78 ba 90 37 9a e5 6e 3e
       -0.19941477 0.18830454 1.7252969e-05 0.23329774
000020 f2 57 d1 bd 2a 0d 40 3d a8 26 b2 be b4 cf 1a 3b
       -0.10221852 0.046887554 -0.34795117 0.0023622336
000030 32 b6 36 b8 de 68 8a 3e 47 0a a5 3e 89 c0 e7 3d
       -4.3561864e-05 0.27033132 0.32234403 0.1131602

faction_encoder.3.weight f4 [16, 16]
000000 d1 64 94 38 9c 23 43 3b 08 7a 0b 3c c4 90 4f be
       7.0759685e-05 0.0029775864 0.008512981 -0.20270067
000010 0f 3a 41 3e f2 bd a5 3d a6 69 c0 3d 65 3f 4b bc
       0.18869804 0.0809287 0.09395151 -0.012405251
000020 33 70 05 b8 d9 b4 41 39 2c ad d7 3c d2 29 2d 3e
       -3.1814165e-05 0.00018473285 0.026327692 0.16910484
000030 35 10 c0 3d d4 2f 40 35 a2 23 d1 bc 3e cc f7 bd
       0.09378091 7.159517e-07 -0.025529686 -0.12099503
000040 6d 58 42 b9 b7 7f a4 bd 6a 96 77 3e e6 6c 50 be
       -0.00018534223 -0.08032172 0.24178472 -0.20354041
000050 fd 77 7a bd a5 3c 4d 3e de ce b8 bd 01 77 af 3b
       -0.061149586 0.20042665 -0.09023832 0.0053547625
000060 35 f9 c3 3d 6a 5b a9 3c 4e bc 52 3e 2a 89 11 be
       0.09569017 0.020673472 0.20579645 -0.1421248
000070 98 af a5 3c 02 26 89 b8 25 42 ac 3c 3e 20 e7 3d
       0.020225331 -6.5397486e-05 0.021027634 0.112854466
000080 e8 0c d1 3d f5 84 ae 3c aa ce 3e be a2 62 c3 bd
       0.1020754 0.021303633 -0.18633524 -0.09540297
000090 f0 5d d9 bd ab 04 ff bd cb c3 26 bd 82 b4 3b 3e
       -0.1061362 -0.12452062 -0.040714066 0.18330577
0000a0 76 2d d6 3d 2d 04 f6 b7 c9 1a 0f bd c6 4f b7 bc
       0.1045789 -2.932743e-05 -0.034937654 -0.022376906
0000b0 c2 5e 7e 3b 40 6f b9 3d 8f 3a 5c 3d 7a d9 04 bc
       0.0038813804 0.090544224 0.053766783 -0.008108491
0000c0 c7 6d 32 b9 62 ca 18 3d bc bc 0e be 2d 61 4f 3e
       -0.00017016298 0.037302382 -0.13939184 0.20251913
0000d0 0e 71 3e be 1f 6d 80 be 07 58 65 3d 5e bf 44 be
       -0.18597814 -0.25083253 0.055992153 -0.19213626
0000e0 53 b2 12 37 1c 5a 0e b9 87 86 fb 3d e6 75 ce 3d
       8.7437975e-06 -0.00013575744 0.122815184 0.10081081
0000f0 17 49 3e 3b f5 66 8f 36 97 fc ce bd 44 3a df bd
       0.0029035264 4.273718e-06 -0.101067714 -0.10899785
000100 29 47 a1 3d d9 fc ac 3d 36 4b 90 bc d8 09 2f 39
       0.07874901 0.08446664 -0.017613988 0.00016692968
000110 42 1a df bd 68 1c 14 3e c6 31 08 3b 5d 5f 22 3c
       -0.1089368 0.14463961 0.002078162 0.009910432
000120 4f 91 d6 3d d4 db b7 3d b9 b2 3b be aa 9a 2a be
       0.10476934 0.08977476 -0.18329896 -0.16660562
000130 40 d2 dd bd f8 45 d4 3d 04 80 81 3d ea f0 a7 3d
       -0.10831118 0.10364908 0.06323245 0.082002476
000140 74 50 ff 3b a9 01 85 38 02 1a 62 be 7d 86 7d 3c
       0.007791573 6.3422434e-05 -0.22080234 0.015473959
000150 94 eb 25 be 53 72 32 3b ce 63 d2 35 4f c2 c4 bc
       -0.16203147 0.0027228787 1.5675266e-06 -0.024018435
000160 86 45 69 3d ed 75 1f bd db 2b 11 be 4a 84 08 3e
       0.05695107 -0.038930822 -0.14176886 0.13331714
000170 d2 06 cf 3d 76 41 98 38 d7 2a b1 bc cc c4 94 3d
       0.10108723 7.260118e-05 -0.021626873 0.072640985
000180 fa 78 f4 3d 19 23 0f bd 4b 17 47 be 63 70 35 be
       0.11937137 -0.03494558 -0.1944248 -0.17718653
000190 18 0b 79 be c5 87 b2 bd 44 4f 64 bd 8c f6 f8 3d
       -0.24320638 -0.08717302 -0.055739656 0.121564
0001a0 4f d3 ba bd 25 fe f9 bd 5b 71 b1 bd 37 36 f4 3d
       -0.09122335 -0.12206677 -0.08664199 0.11924403
0001b0 ed 0f 95 3d d6 80 de 37 cc 7e a5 3d f6 48 35 b7
       0.07278428 2.6524456e-05 0.08080825 -1.0805428e-05
0001c0 43 63 db 37 4f 65 71 3c 72 f1 4d 3e 02 0c 96 3d
       2.6153057e-05 0.0147336265 0.20111635 0.07326509
0001d0 b8 9e 23 3b e7 50 74 3e 06 70 98 b8 9e 62 c8 3d
       0.002496643 0.23858987 -7.268791e-05 0.09784435
0001e0 98 5b 6f bd f8 f7 08 be ca ad 21 3e e6 7e a5 bc
       -0.05843696 -0.13375843 0.15788952 -0.020202111
0001f0 a4 19 6e 3d 2f 77 b5 bb b4 cb dc bb 59 3a aa 3b
       0.05812992 -0.0055378894 -0.0067381505 0.005194944
000200 c3 0b c2 3d ac 73 d4 3c f4 c6 54 3e 7c 9b cb bc
       0.094748996 0.025934063 0.2077902 -0.024854414
000210 3b f8 95 3d ca fd 69 3e c8 9f 15 3b ab 57 3e bc
       0.07322737 0.22850719 0.0022830833 -0.011617581
000220 cd e3 9c bd e9 75 89 3d c2 de 89 bd ab f3 b6 3d
       -0.07660637 0.06711943 -0.06731941 0.08933195
000230 b2 82 e6 3d a8 58 f9 3d b7 a0 02 bc e7 c7 0e 38
       0.11255397 0.12175113 -0.007972888 3.404161e-05
000240 cf ee ef 3d b2 7d ac bd b2 4e 02 3e c5 3f fa 3c
       0.11715471 -0.08422412 0.12725332 0.030547986
000250 5d f2 2e 3d 34 ee 01 be 9b f6 c2 3c c2 d7 47 3e
       0.042711604 -0.12688524 0.023799231 0.19515899
000260 30 cc a2 bc af 4d e9 bd e9 9d 0b 3e 31 02 38 3d
       -0.019872755 -0.1139177 0.13634457 0.044923965
000270 cc 40 02 b7 b0 a2 5a 3b e2 b8 36 3e 53 ea b9 bd
       -7.7636905e-06 0.003336113 0.17843965 -0.09077897
000280 20 6b 02 b9 89 4d 50 b9 d5 62 4c 3e d5 eb d9 bd
       -0.00012437673 -0.0001986531 0.19959576 -0.106406845
000290 7e 88 02 3d c7 a7 38 3e 4f 4a f3 b7 4a cc 19 3e
       0.03186845 0.18032752 -2.900246e-05 0.15019336
0002a0 7a 02 f5 37 f9 ea 30 b8 6d 40 a3 bc 42 93 34 be
       2.920743e-05 -4.2180505e-05 -0.019928182 -0.176343
0002b0 79 35 91 b8 dc 12 bd bd e2 90 af bc 82 d4 4b 36
       -6.924099e-05 -0.09232113 -0.02143139 3.0373053e-06
0002c0 dd d0 31 bd a2 e1 8d bd 9f 50 f5 3d 66 e2 90 3d
       -0.04341208 -0.06927802 0.11978268 0.07074432
0002d0 60 14 e0 3d ed 09 94 3c 83 56 fb 3d 1c 1f 6d bd
       0.10941386 0.01807114 0.1227236 -0.057890996
0002e0 71 57 30 bd 14 9c b5 bc 83 51 f3 3d bc 9a 54 3e
       -0.04305214 -0.02216915 0.118807815 0.20762151
0002f0 08 dd a8 3d a3 bd 09 3e 2c eb 07 be 9c fb 76 bc
       0.08245283 0.13451247 -0.13273305 -0.015074637
000300 52 b5 e8 38 f1 12 b2 37 03 48 3f 3c 81 b1 77 3e
       0.000110963956 2.1228074e-05 0.011674884 0.24188806
000310 a0 d6 21 be d0 f5 a0 3d 0c 3b c4 bb b4 ce 42 3d
       -0.15804529 0.07859385 -0.0059884842 0.04756041
000320 3e 09 dd 38 de 0f f7 bd 91 ac b2 3d 80 55 78 be
       0.00010539823 -0.12063573 0.08724321 -0.24251366
000330 eb 4a da bd be ee eb bd 31 43 32 3d 2c bb ab 3d
       -0.10658821 -0.11520146 0.04352111 0.083853096
000340 13 01 a3 3d 42 8d 03 be 68 ea 2d be 74 1c 2b 3e
       0.07959189 -0.12846854 -0.1698395 0.16710073
000350 34 f4 ef 3d 08 d4 2b be 2e 5d 16 b7 11 6a 40 3e
       0.117165 -0.16780102 -8.962392e-06 0.18790461
000360 81 b8 1d 3d e2 66 92 bb d5 a6 e1 bd 05 b6 f4 3d
       0.038506035 -0.004467831 -0.11018149 0.1194878
000370 b6 fe 69 3c 70 f2 b0 bd 5c bc 3d 3c e5 bf 37 3d
       0.014281919 -0.08639991 0.011580553 0.04486074
000380 86 bd 0a 3c 8b 67 a6 3d aa 14 0c 3e a5 ff e1 3a
       0.0084680375 0.08125218 0.13679758 0.0017242326
000390 6c 6d 39 3e 6b 2d d7 3c c4 51 fa bd 04 b3 a1 3d
       0.18108147 0.026266774 -0.12222627 0.07895473
0003a0 72 b7 26 38 0f 5f 51 39 13 df 0e be 1d 4e 5d 3e
       3.974833e-05 0.00019967205 -0.13952284 0.21611829
0003b0 18 67 73 bc 18 d6 0e bc d5 18 e2 3d f5 9b 81 bc
       -0.014856122 -0.008718036 0.110398926 -0.015821436
0003c0 89 2c 80 bd 04 20 d6 bc 03 e8 41 be 89 0f 6f be
       -0.062584944 -0.026138313 -0.18936162 -0.2334577
0003d0 7f b8 e2 bd 75 0c 24 3e 90 54 9a bd de a1 b6 3d
       -0.11070346 0.16020377 -0.0753566 0.089175925
0003e0 97 e5 16 b7 06 74 3a 3d 3f 26 58 be 78 a1 53 3e
       -8.994152e-06 0.045520805 -0.2110834 0.20667064
0003f0 a6 e0 6e bb f7 67 8c b8 44 b6 e2 bb fc be 21 bd
       -0.003644982 -6.695085e-05 -0.0069187004 -0.039488778

faction_encoder.3.bias f4 [16]
000000 54 c9 f5 bd 12 08 84 bc 15 6e 9a bd c5 a3 c7 bc
       -0.12001291 -0.01611713 -0.07540528 -0.024370084
000010 1e 2c 59 3d 85 71 0b 3e bb b5 bc bd 60 da b5 3b
       0.05302059 0.13617523 -0.0921435 0.005549714
000020 c2 39 c9 bd a0 b7 11 bd 32 b7 14 bc 5e 4f ac 3b
       -0.098254696 -0.03557551 -0.00907688 0.0052584847
000030 b1 c2 24 3d 54 d6 88 bd dc 3f 9c 3b 6b b0 c6 ba
       0.040224735 -0.06681505 0.004768355 -0.0015158778

attention_layer.in_proj_weight f4 [96, 32]
000000 26 bc 15 be 9a 95 d5 3d 65 aa 2a be 0e 94 e8 bd
       -0.14622554 0.10428925 -0.16666563 -0.11356364
000010 c8 00 a7 bd ff 24 6a bd c1 d1 83 bd ad 11 1e 3e
       -0.08154446 -0.05716419 -0.06436492 0.1543643
000020 5f 23 f8 bd 88 e6 18 bd 2e 4e ad 3d 80 43 19 3e
       -0.121161215 -0.037329227 0.08462177 0.14967155
000030 0b 63 5e 3d c1 83 b4 bd e9 23 2e 3d ea a9 df bd
       0.054293673 -0.088141926 0.042514715 -0.109210804
000040 5f ce 16 bd cc 6d 11 3d 0e 28 55 bc 7f 73 d6 3d
       -0.036817905 0.0355051 -0.013010038 0.10471248
000050 47 36 16 bd bf e6 82 3d d4 71 f0 bd 39 ef db 3d
       -0.036672857 0.063916676 -0.11740461 0.107389875
000060 1b 8e 17 3d 44 a6 42 3c 47 86 0f 3e 95 d2 52 bd
       0.037000757 0.011880461 0.14016066 -0.051470358
000070 c5 1c 12 3d 50 ef 34 bd 2e 56 bb bd 05 0d a9 bd
       0.035671968 -0.04417354 -0.09147297 -0.082544364
000080 87 ea dc ba 67 87 28 3e a0 41 3b be 6c 92 c0 3b
       -0.0016854563 0.16457902 -0.18286753 0.00587683
000090 70 e8 e7 bd 3f 5a ce 3d 79 70 ab bd 35 f6 76 3d
       -0.11323631 0.10075807 -0.08371062 0.060293395
0000a0 59 8b 97 bd 4d da 6d 3c 3a 7e 11 3e de 88 30 be
       -0.07399625 0.014517379 0.14208308 -0.1723971
0000b0 4f 5c e6 3d 24 2a b2 3d f9 93 3f bc 1c 47 fa 3d
       0.11248075 0.08699444 -0.011692994 0.12220594
0000c0 a5 ed 26 be 5e d9 27 bb be 93 6a bd 4f 20 5e 3d
       -0.16301592 -0.0025611739 -0.057269804 0.05423003
0000d0 82 24 dd bd 98 aa 0f bd fa 0d 05 be a2 bc f2 3d
       -0.10797979 -0.0350748 -0.12993613 0.11852385
0000e0 e5 26 b4 bc 0b 9b 25 3e 9f 9b f8 3d dc 55 1b be
       -0.021991203 0.16172425 0.12139057 -0.15169472
0000f0 90 b3 e9 3d 8b 55 cb 3b 63 f3 4c 3e 67 9c da bd
       0.11411202 0.006205266 0.2001472 -0.10674363
000100 3b 98 1b 3e 12 61 95 bc 19 25 21 3e 5b 1f a9 3c
       0.1519479 -0.018234763 0.15736808 0.020644834
000110 da ee b6 3c bd 17 61 3d 20 84 1b bd c3 5d 42 3d
       0.02233069 0.05495428 -0.0379678 0.0474527
000120 b5 2a 8c bc fa 12 d2 3d 13 75 0f be 5f ce d1 bd
       -0.017110208 0.10257526 -0.14009504 -0.1024444
000130 a7 c0 2d 3e d2 b1 c9 bc 9e c3 61 bc 7a 5e 3b bd
       0.16968022 -0.024620924 -0.013779549 -0.045744397
000140 87 65 76 bd a5 b7 91 3d d8 5f eb bd d7 81 ca 3d
       -0.060155418 0.071151055 -0.1149289 0.09888046
000150 11 59 13 bd 47 45 65 3c 19 08 1e 3e 61 eb bd bd
       -0.035973612 0.013993568 0.15432777 -0.092734106
000160 9c ae 54 bc a0 04 12 3e 14 a7 bc 3d 04 ee f0 3c
       -0.012981083 0.14259577 0.09211555 0.02941037
000170 1a a8 00 be 20 b6 8c bb 40 fb d8 3d c8 21 d7 bc
       -0.12564126 -0.004294172 0.10594797 -0.026261225
000180 86 25 68 3a 2d 75 39 bd f8 e4 1e be d2 79 b8 3d
       0.0008855689 -0.045277763 -0.15517032 0.090076104
000190 d2 75 ea bd 37 e2 bd bd 94 22 8e 3d e2 82 a8 3c
       -0.11448254 -0.09271663 0.06940189 0.020570222
0001a0 1b 1c d0 3d 26 4f a0 bd 47 83 91 3a cf 61 75 3d
       0.10161611 -0.07827596 0.0011101746 0.05990773
0001b0 82 e2 b1 3d 51 40 6e 3d 15 1c f6 3d a1 99 11 3d
       0.08685781 0.058166806 0.12017075 0.035546903
0001c0 f1 91 74 bd 87 fa b7 3d d6 91 65 3d e5 3a 0d be
       -0.059709493 0.08983331 0.056047283 -0.13791998
0001d0 93 55 05 be 7d 84 e4 bd ae 79 28 3e 13 f3 58 bd
       -0.13020925 -0.11158083 0.16452667 -0.05296619
0001e0 49 ef 91 3d ae 61 3c bc 71 b1 1d 3b 91 4e 17 3e
       0.07125718 -0.011497898 0.0024062062 0.14776064
0001f0 e8 d7 7b 3c e6 e2 cc bb 00 bd bb 3d be 8a c3 3d
       0.0153713 -0.0062526343 0.09166908 0.09547947
000200 48 35 f8 3d b9 68 1e bd 12 f1 d6 3c 49 e4 b8 bd
       0.121195376 -0.03867409 0.026237998 -0.09027917
000210 11 e8 b0 bd aa c9 fb 3c 7b 0c 14 be 55 28 c5 bd
       -0.08638013 0.03073581 -0.14457886 -0.09626833
000220 8f 45 c6 bc 15 21 d9 bd 8e 2a f6 3d a8 63 ff bd
       -0.02420309 -0.10602013 0.120198354 -0.1247018
000230 a7 78 17 be dc 3b ce bc 96 5f 1e 3d 7a 40 59 3d
       -0.14792119 -0.025175028 0.038665377 0.053040005
000240 44 55 9b bd fb aa ed bd 5b 91 6f 3d 0d 30 40 3c
       -0.075846225 -0.116048776 0.05848823 0.011730206
000250 29 73 7e 3b 51 a3 87 3d c9 1c 25 be 3f 6f e9 3d
       0.0038825965 0.06622947 -0.16124262 0.11398172
000260 28 49 1a 3e 61 9a 0b bd cf cf bb bd aa 88 f2 bd
       0.1506697 -0.034082774 -0.09170496 -0.11842473
000270 7b 96 4f bc e8 a9 72 bd 66 80 de bc 08 88 59 bd
       -0.012670155 -0.059244066 -0.027160835 -0.053108245
000280 54 4f c6 bc 5a 7d 23 3d 9d 44 1e 3c 50 a7 04 bc
       -0.024207748 0.039914466 0.009659913 -0.008096531
000290 6d 3c 9a 3b 0b c6 63 3d 4c 08 1b 3d a4 0c be 3c
       0.0047069103 0.05560879 0.03784971 0.023199387
0002a0 a3 df 8d 3c 6a 72 06 be a5 43 fc bd f9 dc 01 3e
       0.017318552 -0.13129583 -0.1231759 0.1268195
0002b0 68 73 47 bd b4 cc e0 bd 1e 94 3a bc 47 52 02 be
       -0.048694044 -0.10976544 -0.011387853 -0.12726699
0002c0 87 59 ec 3d 84 b4 b8 3d 41 d7 66 bd 48 15 66 3c
       0.115405135 0.090188056 -0.056357626 0.01404316
0002d0 52 56 0f 3d 4b c3 e0 3d 63 a4 19 be 07 98 a0 bd
       0.03499443 0.10974749 -0.15004115 -0.07841497
0002e0 1c b6 b4 bc ae 88 e4 bd 18 15 f2 3d 63 65 9a 3d
       -0.022059493 -0.11158882 0.118204296 0.07538869
0002f0 0f d8 f2 3c b2 b5 a1 bb 34 1f 1d bd 66 43 ab b8
       0.02964404 -0.00493499 -0.038359836 -8.166469e-05
000300 ee 7b 35 3e 44 1a 71 bd b8 44 7c 3d 74 42 fb 3d
       0.17723057 -0.05886294 0.061588973 0.12268534
000310 57 2f 1f 3e cf 24 c9 3d 07 b8 b3 3d 1b bf f2 bd
       0.15545402 0.09821474 0.08775335 -0.11852857
000320 a0 14 bb bb 35 49 ba 3d c3 1e b4 3c 70 bf e4 3d
       -0.005709246 0.090959944 0.021987325 0.11169326
000330 79 50 84 bd d4 b6 9d 3d 49 94 8f 3c 89 21 25 3e
       -0.064606614 0.07700887 0.017526763 0.16126074
000340 23 57 02 be 31 61 59 bd e7 d9 00 bd 72 37 13 bd
       -0.12728553 -0.053071205 -0.031457808 -0.03594155
000350 3e 04 0d bd d7 3c c9 3d 0e 86 f0 ba 9b 76 08 bd
       -0.034427874 0.098260574 -0.0018350498 -0.033316236
000360 04 33 16 bd 8e e0 71 ba 68 86 df 3d c1 86 13 be
       -0.036669746 -0.00092268817 0.10914308 -0.14406873
000370 38 39 15 3d e2 46 8a 3d c8 ef 0d be ca 90 12 bc
       0.03643152 0.06751801 -0.13861 -0.008945653
000380 67 b6 c4 3d 41 52 7c bd 17 4f 38 be 33 60 0b bd
       0.09605103 -0.06160188 -0.1799892 -0.03402729
000390 51 21 fa bd 93 f0 42 be a5 b1 81 3d e0 20 2f bd
       -0.12213386 -0.19037084 0.06332711 -0.04275596
0003a0 ea 58 01 be 8f 6e 1e 3e 01 15 b6 bd 5c 66 9a bd
       -0.12631574 0.15471862 -0.08890725 -0.07539055
0003b0 cc 49 01 be b3 d6 31 3e b6 3f a9 3c 93 61 36 be
       -0.12625808 0.17367058 0.020660263 -0.17810659
0003c0 f3 cc c2 bc c8 a5 af 3d 83 e4 db 3b 62 f7 04 3e
       -0.023779368 0.08576542 0.0067105903 0.12984994
0003d0 1a 17 4c bd 84 08 59 3d a7 ff ee bd 35 1d a0 3c
       -0.04982672 0.052986637 -0.116698556 0.019545177
0003e0 49 0a ef bc 4b b0 62 3c 19 e1 28 3e 9a e2 e7 3d
       -0.029179709 0.013835977 0.16492118 0.11322518
0003f0 1b 99 eb 3c 33 1f c1 3d b1 8a ce bd 78 3c d7 3d
       0.02875953 0.09429779 -0.10085047 0.105095804

attention_layer.in_proj_bias f4 [96]
000000 27 06 84 3c 20 c8 1c bc e4 37 1c bc d9 39 42 3c
       0.016116215 -0.009569198 -0.00953481 0.011854612
000010 90 68 48 3c 16 56 0d bc 5d e3 04 bc 4b ff 7e 3c
       0.012231961 -0.0086264815 -0.008110848 0.015563796
000020 c4 4d bc bc b5 f1 a3 3c f4 0a 27 bb 11 c6 af 3c
       -0.0229863 0.020012716 -0.0025488706 0.02145675
000030 1a 4b c7 3c b0 16 aa 3c 51 98 4e 3b 13 55 b6 bc
       0.024327803 0.020762771 0.0031523893 -0.022257363
000040 f6 fc 26 bc eb 71 30 bb 41 36 25 ba 7c bd 95 bc
       -0.0101921465 -0.002692337 -0.0006302335 -0.01827883
000050 85 74 af ba 2f ab 41 bc 0a 4f 5a bc 2f 74 a7 bc
       -0.0013386166 -0.0118205985 -0.013324508 -0.020441143
000060 20 9b 89 ba e1 26 33 3c 18 d3 37 bc 9e 3d 06 bb
       -0.0010498501 0.010934562 -0.011219762 -0.0020483504
000070 54 de ee 3b ae 98 16 bc 49 89 21 3b 2f 64 b0 3c
       0.007289687 -0.009191675 0.0024648479 0.021532146
000080 8e 73 13 ae 5f 11 0a 2e 8e d1 22 2e 90 a9 80 2b
       -3.3526563e-11 3.1392996e-11 3.7020657e-11 9.14201e-13
000090 db a5 a8 2d e8 d2 d1 ad a7 6a 56 2e 1c 08 dc 2d
       1.9173043e-11 -2.385421e-11 4.8752693e-11 2.5014706e-11
0000a0 74 6f 0a ae d4 23 a2 2e 58 f4 d0 ae a1 4f 12 2f
       -3.1476557e-11 7.3732714e-11 -9.502149e-11 1.3306913e-10
0000b0 6b fc 9d 2e 38 b2 f2 2d e9 38 42 ae 58 9a c5 ac
       7.184372e-11 2.759136e-11 -4.416104e-11 -5.6162124e-12
0000c0 e2 df 64 ac d2 ab d9 ad 46 c0 02 ae ca b2 d6 ad
       -3.2525029e-12 -2.4746347e-11 -2.972935e-11 -2.4408382e-11
0000d0 82 eb 37 af 08 90 c5 2e d5 5f a7 ae 44 fb 91 2d
       -1.6727422e-10 8.984108e-11 -7.611304e-11 1.6596176e-11
0000e0 e0 5a e6 ae 12 a1 25 af 44 a3 30 af 1d a8 8f 2e
       -1.0475332e-10 -1.5063886e-10 -1.606511e-10 6.53275e-11
0000f0 14 8e 24 ae d1 5e 5d 2f 01 9f eb 2c b0 f6 68 2e
       -3.7415473e-11 2.0133518e-10 6.6967547e-12 5.2969795e-11
000100 4e 8f 2f 39 ca cf 04 ba d9 6b d9 ba 3e 44 fb 39
       0.00016742686 -0.00050663634 -0.0016587927 0.00047925295
000110 ee 58 06 bb 0b b3 39 bb 28 d4 85 38 38 49 02 3b
       -0.0020499784 -0.0028335478 6.3814514e-05 0.0019880068
000120 5c b0 ea 3a 80 4f 56 bb 52 41 a4 b8 d0 78 77 3a
       0.0017905342 -0.0032701194 -7.832296e-05 0.0009440305
000130 0a 5c 95 38 1c 4c 48 bb 46 34 e5 3b 86 f1 74 ba
       7.122017e-05 -0.0030562943 0.006994757 -0.0009343851
000140 6c ad 1e bb 1a f2 92 ba 4a 04 22 bb 68 2d ce ba
       -0.0024212254 -0.0011211068 -0.0024721795 -0.0015730085
000150 0b f2 f1 bb 16 24 00 39 09 49 7a ba b1 c7 07 bc
       -0.00738359 0.00012220474 -0.0009547626 -0.008287356
000160 58 20 2a 3b 7f 28 80 b9 16 2d 99 bb be 1c 87 ba
       0.002595922 -0.00024444234 -0.004674564 -0.0010308248
000170 e5 99 c3 3a 56 56 c5 3a db 65 16 3a 7d ca 4c ba
       0.0014923183 0.0015055637 0.00057372235 -0.00078121555

attention_layer.out_proj.weight f4 [32, 32]
000000 04 b5 86 bd f4 8a 65 3d 69 ab 16 3e 94 82 de bd
       -0.06577495 0.05604072 0.14713825 -0.108647496
000010 ae 13 a9 bd b6 0b c0 bd 71 2f 9a 3d 7e 6a 2d bb
       -0.08255707 -0.09377234 0.0752858 -0.002646118
000020 3d f3 2a be 28 c1 13 3e 66 ec 8e 3a c2 3e b2 bd
       -0.1669435 0.14429152 0.0010904192 -0.08703376
000030 92 cb eb 3a 06 16 b4 3b 54 8f 09 3e eb 4c b1 3d
       0.0017989746 0.0054957895 0.13433582 0.08657249
000040 d3 6b 1b 3e 5a 73 57 3d 8b 94 0a bd fe 94 45 bd
       0.1517785 0.052600242 -0.033833068 -0.048237793
000050 8e 5d d2 3c 56 c2 93 3d 45 0c a4 3d 67 c2 2b 3e
       0.025679376 0.07214801 0.08010153 0.16773377
000060 47 f0 ec 3d 66 8d f3 bc d1 ae f6 3d 1d aa 41 3e
       0.11569267 -0.02973051 0.12045062 0.1891255
000070 a7 56 52 3c 1e ad e7 3c 38 97 b8 bd d9 3f 41 3c
       0.012838042 0.02828079 -0.09013218 0.011795008
000080 d1 cd 33 bd 88 0d 1a bd f5 f5 db 3d 84 96 bb bd
       -0.043897454 -0.03761056 0.10740272 -0.09159568
000090 25 4c 01 3e 0f 48 fc bd 98 99 c2 3c 08 36 21 be
       0.12626703 -0.123184316 0.02375488 -0.15743268
0000a0 f0 40 21 be 91 9c 23 3d 28 73 0c 3d f3 bb 90 3d
       -0.15747428 0.039944235 0.03428951 0.070670985
0000b0 1a 46 1f 3d 37 dd ed 3c 84 2e c9 3d 14 12 c6 3c
       0.038885213 0.029036148 0.09823325 0.024178542
0000c0 39 55 db bd 08 3c 06 be e0 a5 22 bd bf 70 80 3d
       -0.10709614 -0.13108838 -0.039708972 0.062715046
0000d0 f4 01 22 bd ff 1d 03 bd c5 de 80 bb 37 ad 2e 3e
       -0.039552644 -0.03201103 -0.003932806 0.17058264
0000e0 28 fb 4f 3b 2e 71 22 3e 4a 88 a8 bd 9e 4e a0 bd
       0.0031735394 0.15863487 -0.0822912 -0.07827495
0000f0 49 cc 5a bd 2e 35 a7 bd a0 03 0b bd eb 8b e7 bd
       -0.053417478 -0.0816444 -0.033939004 -0.11305984
000100 ae 1f 99 3c 97 ec a3 3d e4 fa 43 3d f7 85 0d be
       0.018691864 0.0800411 0.04784669 -0.13820635
000110 d8 50 a3 bd e7 78 72 bd 01 ce 15 be f8 ba 69 3d
       -0.07974404 -0.059197333 -0.14629366 0.057063073
000120 46 d2 1b 3e 35 b0 65 bd b1 fd 22 3d fb 6b cb 3d
       0.15216932 -0.056076247 0.03979272 0.09932705
000130 f5 6f 88 3d 08 1f 17 be 93 3f 3c bd e6 2b e7 3d
       0.06661979 -0.14757931 -0.045959067 0.1128767
000140 8d 96 99 3d 8e 46 0b 3d 02 a8 70 bd f2 10 96 bd
       0.074994184 0.034002833 -0.058753975 -0.07327451
000150 e9 36 b6 bd b2 a1 bb bc b1 c3 66 3d 21 44 ad 3d
       -0.08897192 -0.02290425 0.05633897 0.0846026
000160 2a c6 67 3d cd 6f e7 bd 40 8f d8 3d fc ab bb 3d
       0.05658547 -0.11300621 0.10574198 0.09163663
000170 11 a9 fa 3d 51 c7 09 be e7 f2 09 bd 08 11 81 bc
       0.12239278 -0.1345494 -0.033678915 -0.015755191
000180 48 5d 23 be c6 49 13 be 3b d5 90 3d 1c 19 0d be
       -0.15953553 -0.14383611 0.070719205 -0.1377911
000190 ff 32 e3 bc bd c8 67 3c 12 db 86 bd e4 c3 ff bd
       -0.027734278 0.014146981 -0.06584753 -0.12488535
0001a0 03 8b 52 3d 6c 88 06 3e 62 54 b0 bd e4 75 ef 3d
       0.051402103 0.13137978 -0.08609845 0.11692408
0001b0 83 89 f3 3c 56 2c f9 bc 5f f7 d6 bd 93 ae 0b 3d
       0.029728657 -0.030416649 -0.10496401 0.034102034
0001c0 40 5f 1b 3e 7f ad af 3d 8b 02 1f bd 69 42 0c 3d
       0.15173054 0.08578014 -0.038820785 0.03424302
0001d0 77 4b 4f bd dc 48 47 bc c5 ff 33 3c ce 71 92 3d
       -0.05060908 -0.012163367 0.010986273 0.07150613
0001e0 77 8b e0 bd 5b 65 e5 bd 02 1b 1a be 5a d6 fd 3c
       -0.10964101 -0.11200973 -0.15049365 0.030986
0001f0 a7 c0 12 be b9 e1 10 3e 5f f4 bb 3d 77 26 3c 3c
       -0.14331304 0.14148606 0.091774695 0.01148378
000200 f7 f3 99 bc 68 73 8a bd 3c 7a 82 3d 64 94 fb bd
       -0.01879309 -0.06760293 0.063709706 -0.12284163
000210 04 ad 2c 3e 2a 6c 71 3d 74 60 a0 bd b1 51 8a 3c
       0.16862875 0.058941044 -0.07830897 0.016884657
000220 e0 8d 2e be 2c cc 28 3e f4 20 bd bd 4f 83 5e bc
       -0.17046309 0.16484135 -0.09234801 -0.013581111
000230 c2 ff 41 3d 47 0e 14 3d 1e 5b a7 bd f9 8a c1 3d
       0.04736305 0.03614643 -0.08171676 0.09450335
000240 15 e5 9f 3d 2f 5a 00 bd 1c 4a f2 3d 0d 2c 59 bd
       0.07807366 -0.031336006 0.118305415 -0.053020526
000250 eb 74 68 bd 98 9b f3 bd dc 2b 5b bd ca f0 54 3d
       -0.056752127 -0.118949115 -0.053508624 0.051987447
000260 df 76 bc bd 2c 94 a1 3c e7 58 c6 3a bd 76 7f 3d
       -0.0920236 0.019723974 0.0015132696 0.062369097
000270 ec 60 ee bd 7e 43 be bd 1e cf eb 3d 5c 97 cf 3d
       -0.1163958 -0.09290217 0.11514114 0.101362914
000280 d9 83 25 be 7b 1a 8d 3a c4 bf fd 3d 57 18 43 bd
       -0.16163577 0.0010765338 0.12390092 -0.047630634
000290 ea e4 05 be da 34 8d 3c b6 3a 69 3d 8f e1 05 3e
       -0.13075605 0.017237116 0.056940757 0.13074325
0002a0 da 75 59 bd 59 9e de 3d cd a0 03 3d b2 1a 2c be
       -0.053090908 0.10870046 0.032135773 -0.16807058
0002b0 be 20 ad 3c eb 21 14 3e 68 26 cd 3d 0a 72 06 be
       0.021133777 0.14466064 0.10017091 -0.1312944
0002c0 9d ec 99 bc bb 90 d1 bd b1 d4 42 3c c0 6a 11 3e
       -0.018789584 -0.10232683 0.01189153 0.14200878
0002d0 39 61 b1 bd 44 62 b1 bd 4b d3 25 3e c6 a8 1b 3d
       -0.08661122 -0.08661321 0.16193883 0.03800275
0002e0 8e ea ef 3d d1 9d b0 bd ee a3 ff bd 1b dc 0b 3e
       0.1171466 -0.08623851 -0.12482439 0.13658182
0002f0 68 be 09 be 66 3a 3e 3d 1b b9 b7 3d b9 d7 17 3e
       -0.1345154 0.04644241 0.08970853 0.14828385
000300 e8 e0 1b 3e c5 15 fe bc fb 6c 40 be 74 8b 94 3d
       0.15222514 -0.03101624 -0.18791573 0.07253161
000310 e7 c5 b0 bd 82 02 02 bd 25 91 75 bc 5c eb 81 bd
       -0.08631497 -0.031740673 -0.014988218 -0.06343719
000320 80 bd 7e bd 81 17 f5 3d 24 d0 f4 3d 24 89 fd 3d
       -0.06219244 0.11967374 0.11953762 0.12379673
000330 74 01 ab 3d d8 d0 a0 3c dc cc 8f 3c 73 e3 08 be
       0.083498865 0.019630834 0.01755374 -0.13368015
000340 0f b0 b8 bd 3d 44 78 3d c4 61 21 be 6d 23 fa bd
       -0.090179555 0.060611952 -0.15759951 -0.12213788
000350 b2 30 00 be 4f 64 96 bc b6 c2 0d be 17 c8 ef bd
       -0.12518576 -0.018358378 -0.13843808 -0.11708086
000360 6d c6 bf 3d 5f 37 07 bd ef 2f 09 be 3a 88 9c 3d
       0.093640186 -0.03301179 -0.13397191 0.07643171
000370 69 de 39 bd 22 cd b6 3d 01 e9 a1 3d 3e 3f ca 3d
       -0.045378122 0.08925845 0.0790577 0.09875344
000380 dc c9 2b 3e a5 fd 2b be fd 3d c6 bd 6c 18 6e bd
       0.16776222 -0.16795976 -0.09679792 -0.05812876
000390 77 75 03 be ea 1a b8 bd 54 3b 77 bd e3 92 bd 3d
       -0.12837778 -0.089895085 -0.060359314 0.09256532
0003a0 91 60 aa 3d dc a3 97 3c 5c f0 a6 bd 0e 02 be 3b
       0.083192 0.018510751 -0.08151314 0.005798585
0003b0 f9 03 d3 bd 9f ac b6 bc 5a 9a 01 3e 50 cf 29 bd
       -0.10303492 -0.022299109 0.12656537 -0.041457474
0003c0 d6 7f 54 bd 5f 69 01 be 36 63 98 3c 9b 5f 07 3e
       -0.051879726 -0.12637852 0.018601995 0.13220064
0003d0 6c 1f 22 be f8 76 f8 3d a8 41 89 bd 75 1a 09 be
       -0.15832299 0.121320665 -0.06701976 -0.13388999
0003e0 31 75 2d 3e 56 72 01 3d 5c b6 8a bd 27 9d 06 bd
       0.16939236 0.03160318 -0.067730635 -0.032864716
0003f0 9c dc 5c 3c e9 52 d9 bd b3 76 a3 3c dc 08 56 3a
       0.013480332 -0.10611517 0.019954061 0.00081647723

attention_layer.out_proj.bias f4 [32]
000000 1c 9c eb bb 65 bb 06 bb 18 b4 de 3a 7e 69 95 bb
       -0.0071902405 -0.0020558473 0.0016990928 -0.004559695
000010 96 40 38 bc 86 f9 ae 3a 71 00 5f 3c 2a 09 0c 3c
       -0.011245867 0.001334951 0.013610945 0.008547107
000020 38 3d 0d 3b 9e 39 1f 3b 97 7f 13 3c a5 0d bf 3a
       0.0021551382 0.0024295817 0.009002588 0.001457621
000030 4c af 4b 3b c7 ab 49 38 a8 00 00 bc 29 4b 28 3b
       0.0031079827 4.8082115e-05 -0.007812656 0.0025679565
000040 dd f2 53 3b e7 a2 c2 3b c7 37 fd 38 5a 33 bd bb
       0.0032340803 0.0059398296 0.000120743694 -0.005773944
000050 72 57 4a 3b f5 6c 20 3b 62 c2 fc 3a 9d f3 0b 3b
       0.0030874875 0.0024479006 0.0019284005 0.0021354922
000060 0e d0 4b 3c 7a fa a1 bb a2 93 21 bc bc ab 16 bc
       0.012439741 -0.004943189 -0.009861859 -0.009196218
000070 6c 7a a7 bb b4 d8 d2 bb 23 7c a9 ba 45 49 20 bc
       -0.0051110294 -0.0064345244 -0.0012930672 -0.009783094

lstm.weight_ih_l0 f4 [128, 32]
000000 e9 0d d0 3c 39 f4 f4 3d 6b 2a b2 bd f7 29 58 3d
       0.025397258 0.11960644 -0.08699497 0.052774396
000010 ea ed 08 bd d4 01 87 bd ae 34 09 be f1 9a 05 3e
       -0.033430018 -0.065921456 -0.13399002 0.13047387
000020 9e 93 aa 3d 9e a7 9a 3d 37 4c d2 3d 81 84 c6 3d
       0.08328937 0.07551502 0.10268443 0.09693242
000030 a9 36 fc 3b 65 24 15 3b 8b 4d 82 bd 8e 22 9c bd
       0.0076969457 0.0022757289 -0.063624464 -0.07623778
000040 19 b5 ee bd 80 b7 3f 3d 20 6e 9a bc f4 ea 1b be
       -0.116556354 0.04680586 -0.01885134 -0.15226346
000050 e2 19 57 3c bf 69 2d bb 15 c2 4e bc 2b 19 9f bd
       0.01312873 -0.0026460735 -0.012619515 -0.07768472
000060 87 f6 ad 3d a5 71 c5 bd be 88 94 bb 92 4c 3b bd
       0.08494287 -0.096408166 -0.0045329025 -0.04572732
000070 ca 5b cb 3d ef ab 37 bd 6b 63 06 3e 1e 8e 2d bb
       0.09929617 -0.044841703 0.13123862 -0.0026482414
000080 42 4e 06 b8 63 4e 75 bb 34 87 ba ba f0 6f b9 3a
       -3.2020973e-05 -0.0037430755 -0.0014230967 0.001414774
000090 34 3c 89 3d 71 1b b6 3c 22 36 34 3c 2d 21 81 bb
       0.06700936 0.022229882 0.010999234 -0.0039407224
0000a0 73 98 4d ba ae b6 da ba b8 87 de b9 d5 66 18 3c
       -0.0007842846 -0.0016686523 -0.00042444258 0.009301861
0000b0 3e 64 8d bb 38 04 1d bb c0 3a 8b 3d 97 ba 2d 3d
       -0.0043149283 -0.0023958813 0.06798315 0.042414274
0000c0 a6 1b 97 bb f8 d4 1d bb a8 2f c4 3c 9d e6 69 3d
       -0.0046114502 -0.0024083238 0.023948506 0.057104696
0000d0 6c 64 95 3d bd 45 1a ba 34 ea b9 bb 6f 79 5a 3d
       0.072945446 -0.00058850256 -0.005673671 0.053338464
0000e0 cd 34 fb ba 94 fe 84 3c bf 4e 1b 3b 15 10 68 3d
       -0.0019165516 0.016234674 0.002369806 0.056655962
0000f0 18 a2 4d 3b 73 12 ac bc b0 56 8c 3c 7c 1a 0c 3d
       0.0031377133 -0.021004891 0.01713118 0.034204945
000100 d7 22 87 bb ec 98 ee bc 67 42 4b 3d 2e 2d 43 bd
       -0.0041240263 -0.029125653 0.049623873 -0.04765051
000110 6c a6 aa bd 10 7b 35 bc 03 53 3b 3d 84 37 84 bd
       -0.08332524 -0.011076704 0.045733463 -0.06455901
000120 17 67 e0 bb 8a 46 4e 3d 43 33 41 bd 11 2f 9d bd
       -0.0068482268 0.05036024 -0.047168028 -0.07674993
000130 3b 7e 71 bd 6f 4f 17 bd c8 02 c2 3c 69 3c fa bc
       -0.058958273 -0.03694099 0.023682967 -0.030546384
000140 3e 8c a7 bb 64 6d bf bd 21 14 93 bd b9 c1 e1 3c
       -0.0051131537 -0.093470365 -0.07181574 0.027558194
000150 46 c7 ba bd 13 b5 3c bc c0 6c 2f 3c 68 43 b2 bc
       -0.0912004 -0.011517781 0.01070708 -0.021760657
000160 f9 be e0 bc 43 b9 98 ba 07 bc a0 3d 75 6a 56 bd
       -0.027434813 -0.0011651892 0.07848363 -0.05234762
000170 23 8d e7 bd c0 8d dc bb e3 cd 3d 3c 5a f2 e1 bd
       -0.113062166 -0.006730765 0.011584732 -0.11032553
000180 d9 03 93 bc 6b c7 03 3d 4e a8 be bd 97 e0 bc 3d
       -0.01794617 0.0321726 -0.09309445 0.092225246
000190 c0 ea 28 be a7 04 d3 bd 9c bc eb bd ef a4 8e bd
       -0.164958 -0.10303622 -0.11510584 -0.06965052
0001a0 46 77 99 bd bd 4a a8 3d f2 26 00 3e eb dc 5c bc
       -0.07493453 0.0821738 0.12514856 -0.013480405
0001b0 8b 1b 8b bd 03 8a 3e bd de e4 46 39 d3 9e 85 bd
       -0.06792363 -0.046518337 0.00018968011 -0.06524434
0001c0 9e 3f 83 bd 3d 5c 5f bd 58 99 0c be df 91 90 3c
       -0.064086184 -0.054531325 -0.13730371 0.017647682
0001d0 aa 52 6c 3d 6d 58 15 3d c4 3a 82 bc 1c 55 10 bd
       0.057696022 0.036461283 -0.015897162 -0.035237417
0001e0 b0 0d 43 3d 2a 35 87 3d d9 6f b8 bd f7 b2 b5 ba
       0.047620475 0.06601937 -0.09005708 -0.001386254
0001f0 0f 09 82 bd d9 3b 9c bd 66 98 ee 3c 9b 75 1b be
       -0.06349384 -0.076286025 0.029125404 -0.15181582
000200 7f d6 7a 3d 17 17 59 3d 7c 3f 05 3e 97 f7 e1 bd
       0.061239716 0.053000536 0.13012499 -0.11033552
000210 25 82 d5 bd a5 38 aa 3d a1 1b 6d bd 3d 59 02 3e
       -0.10425214 0.08311585 -0.057887677 0.12729354
000220 09 2d 8b bc 25 c2 e0 3d 50 e3 96 3d bd 76 cc bd
       -0.016989248 0.1097453 0.07367575 -0.09983585
000230 69 c2 af bd 7d c5 a9 bd b5 2b c4 3d 50 ea 8a bc
       -0.08582003 -0.08289621 0.09578649 -0.016957432
000240 c3 3f fe 3d 4e 77 75 bd 09 a0 08 3e 76 2c e9 3c
       0.12414505 -0.05992823 0.13342299 0.028463583
000250 08 7d ff bd 3f ce 36 bd 0b 85 70 3d dc bd 59 bd
       -0.1247502 -0.044630285 0.05872063 -0.05315958
000260 27 2d c3 bd 1a f2 c4 3d 2c 01 cd 3d 52 02 b0 3d
       -0.095300965 0.0961649 0.10009989 0.085941926
000270 b0 14 88 bd 23 eb 01 be 07 df f1 bd 10 e0 bd bd
       -0.06644571 -0.12687354 -0.11810117 -0.09271252
000280 05 b5 7e 3c d2 2f 0a bc 73 c6 b3 bb ea 06 8c bb
       0.015546088 -0.008434253 -0.0054863035 -0.004273285
000290 0f 50 00 bd 8e a7 2c bd 0a 02 93 3a 0b e7 fc 3c
       -0.03132635 -0.04215198 0.0011215818 0.030871889
0002a0 8c ba 85 3d 17 58 4e 3d b9 fe ae 3c 5b 08 9f 3b
       0.065297216 0.050376978 0.021361696 0.004853291
0002b0 a6 b5 0a bd b4 c5 d3 ba ca 1c a0 3d 8a e5 99 b7
       -0.03386464 -0.0016156943 0.07817991 -1.8345909e-05
0002c0 ef 32 95 3b 20 c0 ee 3b be 82 5a bc 5d 2f b8 ba
       0.004553191 0.0072860867 -0.013336835 -0.0014052201
0002d0 a7 2c 2d bd 9b a4 1b 3c 5a 1a 4c 3d 8f dc 27 39
       -0.042278912 0.009499694 0.04982982 0.00016008526
0002e0 ea a7 02 38 ce 89 f8 bc 6f 4c 79 bc 81 30 00 bb
       3.1150797e-05 -0.030339148 -0.015215977 -0.001956016
0002f0 83 d8 42 3d d9 27 bc 3b 27 7c b5 3d 05 d9 a0 3d
       0.047569763 0.005742055 0.08861571 0.07853893
000300 00 4b 58 bc 05 71 53 bd 9c 33 15 bd e6 a0 bb 3d
       -0.013201475 -0.051621456 -0.03642617 0.09161548
000310 d2 c5 05 bd ff 4a ca 3d 3c b9 4c 3d f6 34 1f 3e
       -0.03265936 0.098775856 0.04998134 0.15547547
000320 e4 52 b2 bc c4 1f 73 bc c8 fc 59 bd 36 45 67 3c
       -0.021768041 -0.0148391165 -0.053219587 0.014115622
000330 4f 27 53 3c c5 ff cd bd ed 64 06 3e 4e 40 03 bd
       0.01288779 -0.1005855 0.13124438 -0.032043748
000340 0b 16 78 bc 33 d8 95 3d 9f c9 06 3e 86 42 f7 bd
       -0.015141974 0.07316627 0.1316285 -0.12073235
000350 cd b2 be bd d6 1c 53 bd e8 0c 36 3e bc 0c 84 bd
       -0.09311447 -0.051541172 0.17778361 -0.064477414
000360 6e 27 5c bc 74 bf 80 3d d6 b0 09 be a7 b7 ad 3d
       -0.013437135 0.06286517 -0.13446364 0.084822945
000370 9b be ec 3d bf dd 01 be cf 3d 9d bd 67 79 ca bc
       0.115597926 -0.12682246 -0.07677805 -0.024716092
000380 91 b2 08 be bd fb 3b 3d 67 dd 45 3d ec eb 31 bd
       -0.13349368 0.045894373 0.04830685 -0.043437883
000390 b8 20 b8 3d 9a e3 01 3e 1a 03 09 be 65 e0 0b 3e
       0.089906156 0.1268448 -0.1338009 0.13659818
0003a0 80 46 09 3e 1c a9 8c bd 72 d2 c6 bd 35 f2 12 3d
       0.134058 -0.068681926 -0.09708108 0.035875518
0003b0 a1 bb a9 3d ce e5 c3 3d 74 44 f0 3d 39 4c 54 bd
       0.082877405 0.09565316 0.117318064 -0.051830504
0003c0 9b ed 86 bc a1 e9 e6 bd e3 44 82 3c c3 c0 9f 3b
       -0.016470721 -0.1127503 0.015901988 0.004875274
0003d0 8e df 0c bc cf 8a aa ba 31 1e 81 bd 95 39 ed bc
       -0.0085982215 -0.0013011339 -0.06304587 -0.028958121
0003e0 b7 30 7e 3d ee 78 7c 3d 35 4e b9 bd b6 da 95 3d
       0.062058177 0.061638765 -0.0904812 0.073171064
0003f0 75 54 31 be 0e 82 c9 bd 38 49 e3 bd b3 10 8d bd
       -0.17317374 -0.09839259 -0.1109795 -0.06887951
